data/Fanuc_success/Behavior_cloning/BC_policy_GIC_CEV_itr_39.pkl (torch, 141827 bytes, 8 tensors)

fc0.weight f4 [128, 6]
000000 ef 88 d1 3f 35 25 cd bf 81 07 dc bd 70 9b f2 be
       1.6369914 -1.602698 -0.10743619 -0.47384214
000010 26 3d da bc 43 7d 0f 3e d4 76 ed ba 52 9d e3 bd
       -0.026640486 0.14012627 -0.0018117079 -0.11113991
000020 ac a5 bd bd 58 3f f2 bb ce a5 8c be 2c 7e 5a be
       -0.09260115 -0.007392805 -0.2747025 -0.21337193
000030 3d eb bc bf 16 74 ac bf b0 0d c1 be b1 75 d1 be
       -1.4759289 -1.3472927 -0.37705755 -0.40910104
000040 8a cd 28 3f 6e 00 19 3e 79 85 5c be 6d ae d8 be
       0.6593863 0.1494157 -0.21535291 -0.42320576
000050 b5 c4 b2 3e 55 2d 3f 3e 63 2f 1f be ac 3c 9f 3e
       0.349157 0.18669637 -0.1554542 0.31100976
000060 0f 1d fb 3f 37 73 06 3e 1c ac 21 3f b7 74 c2 3d
       1.9618243 0.13129888 0.63153243 0.09494918
000070 e2 4f 67 be 2f 7d 1b 3e ce 6e 27 39 cd 7d ae 3e
       -0.22589067 0.15184473 0.00015967639 0.34080353
000080 79 60 49 bd a9 d0 66 3e 21 fc a7 3e e2 58 e9 bd
       -0.04916427 0.22540535 0.32809547 -0.11393906
000090 f4 38 87 3f 15 2e 4a 3f 5e 7e b5 3e d6 6c f1 3e
       1.0564256 0.78976566 0.35447973 0.47153348
0000a0 03 76 99 bd 89 a6 c7 bd b7 da a5 3d bf 84 aa be
       -0.07493212 -0.09748561 0.08098357 -0.33304402
0000b0 53 6b ad 3e 6f 31 c0 3e 57 0a 3e be 9a fa 32 be
       0.33870944 0.37537715 -0.18558632 -0.1747841
0000c0 8b 2f 45 3c 46 d3 99 3d c7 1c 92 3e 87 c5 36 be
       0.012035261 0.07511 0.2853758 -0.17848788
0000d0 1c 01 0d 3d a9 fc d1 bd 28 38 f4 3e 24 84 cc bf
       0.034424886 -0.10253269 0.47699094 -1.5977826
0000e0 f6 6c 07 3f ff 97 8f bc be 0d 22 3f 86 bf ac be
       0.52900636 -0.017528532 0.6330222 -0.3373987
0000f0 89 db 03 bf 37 b3 95 bf 57 60 ec 3e 69 75 3e 3e
       -0.5150686 -1.1695317 0.4616725 0.18599476
000100 82 b6 82 3e 29 cf 5d bd a5 cd 0e 40 0d e9 7c be
       0.25529867 -0.05415264 2.2313015 -0.24698277
000110 d8 c1 9e be a0 e2 ed be c1 b3 07 bf 21 6e 68 3d
       -0.31007266 -0.46461964 -0.5300866 0.056745652
000120 64 1e dd 3f 76 20 28 3f 1e f4 53 be 9f 27 40 3c
       1.72749 0.6567453 -0.20698592 0.011728196
000130 b9 0f 39 3e be dc d7 be cc 5d bc bf 28 6d 24 bf
       0.18072404 -0.421606 -1.4716125 -0.6422906
000140 41 59 06 bf a0 08 8a bc bb d4 c5 be d1 bc db be
       -0.5247994 -0.016849816 -0.38638863 -0.42917493
000150 4f 32 1a 3e 7c 5b 37 be 33 8e 6d 3d 50 b8 fa bd
       0.15058254 -0.17905992 0.05799694 -0.12242186
000160 59 d1 3d 3e a9 c4 45 3d c9 8f 0e bf 92 00 41 3f
       0.18536891 0.048283253 -0.5568815 0.75391495
000170 95 cd fa 3e 51 3e cb 3e 47 f0 87 3f 85 27 c7 be
       0.48984972 0.3969598 1.0620202 -0.38897339
000180 ed 39 94 3f 2e d9 10 be 2c 31 01 3f 3c e1 cb be
       1.1580178 -0.14145347 0.50465655 -0.39820278
000190 48 e5 1a be 57 bb c0 be 16 d3 e3 bd 6e 3a 31 bd
       -0.15126526 -0.3764293 -0.11124246 -0.043268614
0001a0 06 22 56 3f 60 63 d7 3d 4f 1d d3 3d 78 28 a9 39
       0.83645666 0.10517001 0.103083245 0.00032264343
0001b0 11 22 66 3f 07 97 c2 3e 4d b2 c5 be f3 dd 00 3f
       0.8989573 0.3800585 -0.38612595 0.5033867
0001c0 18 cc 99 3e 49 ab b8 3e 54 f0 ce bf f8 36 4f 3d
       0.30038524 0.3606818 -1.6167092 0.05058953
0001d0 73 1a cf be d6 53 df bc 80 09 96 3e 7c 44 7e bb
       -0.40449867 -0.027261656 0.29304123 -0.0038798144
0001e0 6a 83 8b 3f 93 c4 5e 3e 3f 74 81 3e 94 53 00 3e
       1.0899479 0.21754675 0.25284 0.12531883
0001f0 07 bc 3f be 5e ab b5 be ed 02 be bb e1 bf 72 be
       -0.1872407 -0.35482305 -0.0057986886 -0.23706008
000200 e7 3e bf 3e 4b e4 d0 bc 66 98 01 be 01 5f 9a bd
       0.37352678 -0.025499484 -0.12655792 -0.07537652
000210 7e 55 f1 bd ac 22 0a be e1 92 c4 bd 72 09 91 be
       -0.117838845 -0.13489789 -0.095983274 -0.2832752
000220 c3 84 03 be 16 7d e1 3c 44 ba 07 c0 77 b7 0a 3f
       -0.12843613 0.027525466 -2.1207438 0.54186195
000230 4a f9 3e 3f fb 61 44 be f7 b4 90 3e 80 bb c0 bd
       0.74599135 -0.19178002 0.28263065 -0.09410763
000240 99 b8 c2 bc e4 38 be bd 76 01 03 3f 5c 49 b7 be
       -0.023769664 -0.09288195 0.51174104 -0.35798156
000250 01 7b 24 3e 33 1a 31 be e1 71 35 3f 12 2a a3 3d
       0.16062547 -0.1729515 0.7087689 0.07967009
000260 a9 f5 e2 3e 0a d2 59 3e e7 79 50 3e 16 09 98 bd
       0.4432805 0.2127153 0.20359002 -0.07423608
000270 72 d4 22 3f 25 8f 14 bf 95 f4 f3 3e 3b 39 77 3e
       0.63605416 -0.5803092 0.4764754 0.24142925
000280 dd a2 86 be 42 2f 9f 3d 27 2b 4f bd 11 44 b9 3b
       -0.2629613 0.077726856 -0.050578263 0.005653866
000290 21 34 86 3f 6f 10 86 bb d8 25 47 bc b5 d7 b9 bb
       1.0484658 -0.0040913145 -0.012155019 -0.0056714662
0002a0 a3 dd a6 bf 9f dd 55 3e 9c 49 17 bf b2 0c 6c be
       -1.3036388 0.20885323 -0.59096694 -0.23051718
0002b0 5d a6 6d be d6 f1 8a 3e e0 37 a8 3d 36 c9 b6 bd
       -0.23207994 0.2713763 0.08213782 -0.08925097
0002c0 eb 88 e2 3b 6d 20 c4 be 0b 2b b7 be 58 98 5c be
       0.0069132946 -0.3830599 -0.35775027 -0.2154249
0002d0 27 53 01 c1 73 fa 71 c0 a1 a7 ac 3e b6 14 c1 3d
       -8.082801 -3.7809112 0.3372164 0.094277784
0002e0 49 c8 fd 3e b6 29 07 be 1c 0c d6 3f c9 85 5e 3f
       0.49566868 -0.13199505 1.6722445 0.8692289
0002f0 73 a0 d4 3e 4f 2b c2 bd 22 4d bc 3e ad 00 4d 3c
       0.41528663 -0.09480917 0.36777598 0.012512368
000300 47 79 2e c0 9b be af 3e fa 30 08 3f 74 3e bb bd
       -2.7261522 0.34325108 0.5319973 -0.09142771
000310 b4 0e 3f 3e d3 4b 78 3e 9e 40 9f be 8c e4 fc bd
       0.18657953 0.24247675 -0.31103987 -0.12348279
000320 1a df 83 3e e7 c4 1e bf 72 2e 10 3f 7f 9d 44 be
       0.2575615 -0.620192 0.5632087 -0.19200705
000330 ba e7 f7 3d 6a 1c 54 3e 76 ec fb 3c 90 1e e6 3e
       0.12104745 0.20713964 0.030752402 0.44945192
000340 12 7f 27 bd 6d bb 55 be b4 57 3e 3d de 16 2b 3d
       -0.040892668 -0.20872279 0.04647036 0.041769855
000350 35 1f 16 3e 7f 64 15 bd 74 a6 c6 3e 40 91 df bc
       0.14660342 -0.036472794 0.3879887 -0.02729094
000360 5d 62 7a 3f 2c c6 ac 3b 5b 23 a0 be a7 23 4b bd
       0.9780634 0.0052726474 -0.31276974 -0.049594548
000370 8f 41 54 3e 24 27 2f bf ca 4e 05 c1 7d 81 51 40
       0.20728134 -0.684191 -8.331736 3.2735283
000380 04 f3 d0 3e a1 cb ba 3c d1 bd ef 3e 19 7f 15 3f
       0.40810406 0.022802176 0.46824506 0.5839706
000390 4c b4 6c be 18 0c 40 be e7 06 9d 3e ad 02 2e 3d
       -0.23115653 -0.18754613 0.3066933 0.04248302
0003a0 3d d4 ff 3d a3 3c 72 be 45 ae 94 bf 95 bf 11 40
       0.12491653 -0.23655944 -1.1615683 2.2773182
0003b0 3d 08 38 bf 85 f9 b3 3e 00 90 9e 3e 8a e9 3e 3c
       -0.7188757 0.35151306 0.30969238 0.01165236
0003c0 96 38 fe 3f a7 a3 5d 3e 15 42 1c 3f 47 fc 98 3e
       1.9861019 0.2164446 0.61038333 0.29879972
0003d0 c7 37 c8 3e 9e ad b0 be 3d 8d ac 3e bf 9a d0 3e
       0.39105055 -0.3450746 0.33701506 0.40743062
0003e0 d7 83 e8 3e c5 b3 83 3e 00 0e dd 3e 8d cf 5b 3e
       0.45413086 0.2572309 0.43174744 0.21465893
0003f0 0a cc e6 bf d0 85 ed 3f af 76 9b 3e 0d 98 78 bf
       -1.8031018 1.8556461 0.30363986 -0.9710701

fc0.bias f4 [128]
000000 05 90 f0 bc 7b 02 80 be 45 30 43 bd 72 5d 99 bb
       -0.029365549 -0.25001892 -0.047653455 -0.004680329
000010 50 ed 9f 3d 63 52 a5 be 69 a8 8f 3d 0f 2f ca be
       0.07808936 -0.3228942 0.070145436 -0.39489028
000020 85 71 e6 3b df 4a 33 bd 67 09 35 bd 1d c1 e2 3c
       0.0070325756 -0.043772575 -0.04419842 0.027679974
000030 ec cc e9 3b c6 aa 58 3d 98 0e c7 be 2a 7e df bd
       0.0071350243 0.052897237 -0.38878322 -0.10912736
000040 46 d1 b3 3d d3 7c a9 bd 02 ee 86 be 0e 91 3b 3d
       0.0878015 -0.082757615 -0.2635346 0.04579263
000050 d0 bd d4 3d ab 03 ae 3c 3a 43 a5 be 96 c5 94 bd
       0.10387766 0.021241983 -0.32277852 -0.07264249
000060 37 36 0f 3e 7a a5 54 3e c0 af 20 bc a5 8e cf bd
       0.13985525 0.2076625 -0.009807527 -0.10134629
000070 62 87 04 3e fd be 68 bd 9e 64 72 bc 07 c6 51 3d
       0.1294227 -0.056822766 -0.014794497 0.051214244
000080 88 e6 13 bd 1b df 48 bc da 7b ef bb b5 c4 7d be
       -0.036108524 -0.012260224 -0.0073084654 -0.24782069
000090 24 dc ad bc 22 35 93 bc 7a 2a 87 be 2a ed cc 3b
       -0.021223135 -0.017969672 -0.26399595 0.006253858
0000a0 07 f6 41 3d 42 0f b8 3d c3 fe b1 bc 68 b8 41 bc
       0.04735377 0.08987285 -0.021727925 -0.011823751
0000b0 98 d9 6e 3e 4c 1a 05 3e 3d dc f5 3c ca 49 73 be
       0.23325193 0.12998313 0.030012244 -0.23758617
0000c0 8d 8e 65 bc 55 98 c3 be c9 31 6b 3e b6 b6 12 bc
       -0.014011038 -0.38202158 0.2296821 -0.0089546945
0000d0 03 85 84 be 36 4b 59 be 61 2a ae be 5c 33 9e be
       -0.2588273 -0.21220097 -0.34016708 -0.3089856
0000e0 77 d2 d0 3c 15 38 43 bc d9 b5 8c 3d cf 1d 37 3e
       0.025490982 -0.0119152265 0.06870622 0.17882465
0000f0 75 91 26 be 7d 9d 0b bd a9 49 aa be 84 f0 6b be
       -0.16266425 -0.03408574 -0.33259323 -0.23040968
000100 e4 ff 9b 3d c1 db 81 bc f2 b8 b6 be b9 8e 21 3d
       0.07617167 -0.015851857 -0.35687977 0.03944275
000110 9d c1 a7 39 42 01 18 3b 0c 8f 0f bd d4 91 96 be
       0.00031996975 0.002319411 -0.03504853 -0.29408133
000120 89 ca 98 3e 7c 0f 95 3d b6 a6 b2 be 00 b8 a1 bc
       0.29842022 0.07278344 -0.34892815 -0.019741058
000130 c8 af 89 bb 61 48 dd bc 90 f7 ad bc 7f 87 b7 39
       -0.004201863 -0.027012052 -0.021236211 0.00035005432
000140 3a 94 52 3e 8e 25 23 3d 32 cf 3d bd 5c a8 53 be
       0.20564356 0.039830737 -0.046340175 -0.20669693
000150 fa 31 34 3e 7a a6 a3 3d f4 0b 96 bc 76 9c 46 3e
       0.1759719 0.07990737 -0.018316247 0.19395623
000160 e5 0c 31 39 fd cb 82 3d bc 64 58 3e 6c 4c 9b 3e
       0.00016884839 0.06386564 0.21132177 0.30331743
000170 99 3b 2e bd 36 4c ad bc cb e6 c3 be b6 ae a4 be
       -0.042537306 -0.021154504 -0.3826202 -0.32164544
000180 71 6f 77 3c 4b ea a8 bc 5d 77 3c bc a0 c5 a4 be
       0.015102253 -0.020619532 -0.011503068 -0.32182026
000190 d9 49 69 bd 95 83 1a 3d 61 26 91 3b ac 1c 08 3e
       -0.056955192 0.037723143 0.004429624 0.13292187
0001a0 05 7e b8 bc f1 a0 87 3d 4f 10 57 3e 68 7a 36 3b
       -0.022521028 0.06622494 0.21002315 0.0027843956
0001b0 9c 88 3a 3e 3a 0a b1 3d cf a1 16 bd 12 5e 9d be
       0.18216175 0.08644529 -0.036775406 -0.30735832
0001c0 65 f8 09 bd 91 54 aa bc e4 3b a9 bb ea 7e 0c bd
       -0.033684153 -0.020792278 -0.00516461 -0.034300722
0001d0 23 36 0d bd 8a f0 88 3c 85 85 c7 be 0e 9c 49 bd
       -0.034475457 0.01671626 -0.38969055 -0.04922109
0001e0 4f 01 b8 be e7 79 08 3e c0 e8 ad 3d 3a d5 43 ba
       -0.35938498 0.13327752 0.08491659 -0.0007470433
0001f0 1d 06 c3 bd 1c 54 b9 3d 64 ce ba 3c b8 03 f0 3a
       -0.095226504 0.09049246 0.022803493 0.0018311655

fc1.weight f4 [128, 128]
000000 10 c7 b6 be 2d a6 61 bd dd 99 5e be 36 bf 42 be
       -0.35698748 -0.05509012 -0.21738382 -0.19018254
000010 d8 b2 07 be 4a e8 a3 3c 41 21 8e bd c9 3c 05 3d
       -0.13251817 0.020008225 -0.069399364 0.032528672
000020 36 50 5e 3c 97 f7 e7 3e 9a 18 13 3f 41 cb 73 bc
       0.013568928 0.45306084 0.57459414 -0.0148800025
000030 bf fa ea bd 4b 9b fc 3d d1 4b 82 3b 29 4c c8 be
       -0.11473607 0.12334307 0.003976323 -0.39120606
000040 4b ae fa 3c 34 fd 1b be bb f8 40 bd 16 bb 0e 3e
       0.030600687 -0.15233308 -0.047112208 0.13938555
000050 54 9c e3 3c 81 9b fb bd 14 d2 93 3c 91 ca 02 3f
       0.027784504 -0.122855194 0.018044509 0.5109034
000060 7d b5 91 bd fb 9f f3 3c 14 dc 19 bd d3 d1 db be
       -0.07114694 0.02973937 -0.0375634 -0.4293352
000070 d9 2a 91 3d b9 27 67 be 75 80 e8 3f 47 e5 e9 bd
       0.07088251 -0.22573747 1.8164202 -0.11420684
000080 65 ce 8c 3f 99 dc c7 bd b8 ab cb bd 72 a3 19 bd
       1.1000487 -0.097588725 -0.09944862 -0.03750939
000090 3a 71 6e be bb 2c db 3f 29 60 9e bd bc 07 89 be
       -0.2328538 1.7123026 -0.07733185 -0.26763713
0000a0 40 d9 bb 3b fd b9 d6 bd 73 48 4b be 04 64 cd bc
       0.0057326853 -0.10484693 -0.19851856 -0.025072105
0000b0 ac 4e 6f bd 6b 0d bd 3d 2b 8b a0 bd 28 27 ca 3c
       -0.058424637 0.09231075 -0.07839044 0.024676874
0000c0 e1 a4 20 3e d6 cc 96 3d b1 1a 5f 3d fb 8f 39 3d
       0.15687896 0.07363288 0.054468814 0.045303326
0000d0 4c 68 59 bd 3d f1 38 3d 05 37 ad ba cb 16 f6 3b
       -0.05307798 0.045151938 -0.001321525 0.0075100414
0000e0 bf ef 91 bd 15 88 f9 3b 65 ea 33 3d 54 88 13 bd
       -0.07125806 0.007615099 0.043924708 -0.036018685
0000f0 dd dd b1 3d 66 e4 23 3f ce 84 eb 3c 72 0e 9f bd
       0.08684895 0.64020383 0.02874985 -0.07766427
000100 63 88 95 bd c4 23 14 bd c4 ec 66 3d 28 86 bc bd
       -0.07301404 -0.03616692 0.05637814 -0.09205276
000110 0d 99 a6 3d 26 56 79 bb 88 99 04 3f 03 b1 a8 3d
       0.08134661 -0.0038045733 0.5179677 0.08236887
000120 33 0d 4f bc 35 ba 63 3d f7 74 5c bd af 55 f0 3f
       -0.012637424 0.055597503 -0.053822484 1.8776149
000130 b6 5b 21 3e 15 95 14 3f 51 2c ef 3e cd 8d d1 3d
       0.15757641 0.5803998 0.46713498 0.102321245
000140 0c f5 8e bd 8b 50 20 3e b8 9a 42 3f 76 37 af bd
       -0.06980333 0.15655725 0.7601733 -0.085555
000150 4f 88 42 3d 61 56 ce 3d 95 eb 19 be 9a e1 a0 3c
       0.047493275 0.10075069 -0.15031274 0.019638825
000160 88 1e 23 be d5 d8 f4 bc cc 78 07 3d 92 07 9b 3d
       -0.15929615 -0.02988855 0.033074185 0.07569803
000170 6f 12 80 bd e0 b9 04 be 63 f6 b0 3c 18 68 93 3d
       -0.06253516 -0.1296153 0.021601861 0.07197589
000180 8c c3 30 be 51 c8 83 bc 11 77 5c bd a2 c0 22 bd
       -0.17262095 -0.01608673 -0.053824488 -0.03973449
000190 44 ec ca be b9 a1 cb bd ee c4 1e 3c 07 80 ea 3d
       -0.3963338 -0.099429555 0.009690506 0.114502005
0001a0 71 db fc 3e 5f 43 d1 bc 21 49 2d 3d 69 ca 14 bf
       0.4938617 -0.02554482 0.04230607 -0.58121353
0001b0 40 17 67 bb 37 b3 17 3d 8b 17 f3 3c b5 4c 9a bc
       -0.003526166 0.037036147 0.029674312 -0.018835405
0001c0 f3 56 ee 3e 65 22 9e bd ae 5b cd bd 59 a6 3c bd
       0.46550712 -0.07721404 -0.10027252 -0.04605708
0001d0 8d 43 ca 3e 24 28 51 3e d9 cd 84 3d bc f1 86 3f
       0.39504662 0.20425469 0.06484575 1.0542521
0001e0 79 fd e4 bc ec 2b 3f 3d 4c c1 26 3d 06 5d 43 3d
       -0.027952896 0.046672747 0.040711686 0.047696136
0001f0 c4 51 b3 be c9 e5 3d 3d 71 5e 0b 3e 8c 98 a7 be
       -0.3502332 0.04636172 0.13610245 -0.32733572
000200 a5 55 7e 3d f2 70 66 3c a2 97 a9 bd 46 cc b1 bd
       0.062093396 0.014065014 -0.08280875 -0.0868154
000210 f2 ba 33 bd b0 22 0a 3d 70 19 21 3c 13 f1 a5 3d
       -0.043879457 0.033724487 0.009832725 0.08102622
000220 39 cd e4 3c bb 0b 93 3d 21 98 b6 b9 ac 86 03 bd
       0.027929889 0.07179972 -0.0003482709 -0.032110855
000230 57 a3 b9 bc 78 28 9e bd e4 9c 13 3d 86 2a aa 3d
       -0.022660894 -0.077225626 0.036038294 0.08308892
000240 f1 97 b8 bd e7 e3 d4 ba 94 04 8d 3d 3d 2b d1 bc
       -0.090133555 -0.0016242237 0.06885639 -0.025533313
000250 51 40 ae bc 27 71 66 bd d2 53 9e bd 8a ff 99 bc
       -0.021270903 -0.056260254 -0.07730831 -0.018798608
000260 de f6 32 3d 6b 62 60 bd f4 70 21 bc a1 bf a5 bd
       0.043692462 -0.05478136 -0.00985359 -0.08093191
000270 13 2b f6 3c 09 94 8f bd e8 a3 0a bd 5f d4 99 bc
       0.030049836 -0.07010657 -0.03384772 -0.018778024
000280 89 e7 49 3d 7d 24 b2 bd 46 c5 5d bc 06 c7 75 bc
       0.049293075 -0.08698366 -0.013535803 -0.015001064
000290 e9 a4 d0 bc 06 aa 89 3d c8 e7 0a bc 9b 91 be bd
       -0.02546926 0.067218825 -0.0084781125 -0.09305116
0002a0 f8 45 5e 3d 0a 36 f7 bc 59 56 06 3d 25 e6 59 bc
       0.054265946 -0.030177135 0.03279719 -0.0132995
0002b0 89 dc 21 3d 63 a1 d5 bc 29 47 8a 3c c7 bd 7f bb
       0.03951696 -0.026077932 0.016879635 -0.0039023028
0002c0 7b a0 02 3d c8 9c aa bd 97 e4 c5 bd 21 5e 59 bc
       0.031891327 -0.08330685 -0.09662741 -0.013267071
0002d0 76 84 93 3d 72 2d d8 3c e0 46 70 bd ab a5 ef 3c
       0.07202999 0.026388858 -0.05866134 0.029253801
0002e0 b1 9e 30 bc 75 2a 04 bd fc 86 94 bb 76 ab 80 3d
       -0.0107800225 -0.032267053 -0.004532693 0.062827036
0002f0 2a f5 92 bd a6 29 5e bd eb b8 5d 3d 0f 8b e3 bc
       -0.071756676 -0.054238938 0.05413143 -0.02777627
000300 ef 29 22 bc 3b 7d 24 bd 10 c9 b5 bc 7f 9a 24 3c
       -0.009897693 -0.04015849 -0.0221906 0.0100466
000310 59 cd 5e bd 1c 9a c1 bd 02 3e bb bd f6 2f 8e 3d
       -0.054395054 -0.09453222 -0.091426864 0.069427416
000320 f6 13 1d bd a5 21 35 bd c5 03 9c 3d fd f6 5d 3d
       -0.038349114 -0.04422154 0.076179065 0.054190625
000330 40 13 23 3d 76 83 29 bd bc 1c 9a bd c8 05 60 bd
       0.03981328 -0.041385137 -0.07525012 -0.054693013
000340 2e 13 ae 3c 6b 39 4d 3d 17 57 c3 bd da 76 a4 3c
       0.02124938 0.050103586 -0.095380954 0.020076204
000350 33 01 48 3d 0e 81 cc bc 22 01 95 bd 43 91 af bd
       0.04882927 -0.024963882 -0.07275607 -0.08572628
000360 81 6b 88 bd 3a 3c 83 bd 8a b2 3a 3d 06 79 44 3d
       -0.0666113 -0.06407972 0.045580424 0.04796698
000370 e4 4c 0f bc f6 56 4c 3d a3 cb 7e 3d be 56 8b bd
       -0.0087463595 0.04988762 0.06220592 -0.06803654
000380 93 d9 a3 bc 1b cd a6 bd e4 65 8a 3c d2 1f 78 3d
       -0.020001208 -0.081445895 0.016894288 0.06057722
000390 63 31 45 bd 2d 8a 5e 3d de cc 05 3c 29 0b 45 bd
       -0.048142802 0.054330993 0.00816652 -0.048106346
0003a0 bb d6 a0 bd e1 ea 78 3d d9 8c 5f 3d fa 04 98 bd
       -0.078534566 0.060770873 0.054577682 -0.07422824
0003b0 08 60 45 3d 53 6e b8 3c de 95 78 3d d2 b3 1b bd
       0.048187286 0.022513544 0.0606898 -0.038013287
0003c0 aa dd 5b 3c f3 59 38 bd 78 f1 77 3d 59 86 93 bd
       0.013419548 -0.045007657 0.060533017 -0.07203359
0003d0 69 56 81 bc d9 ce 23 bc a9 89 a6 3d ae 7f a4 bc
       -0.015788274 -0.009998047 0.08131725 -0.020080414
0003e0 05 41 8c bd 4d d2 a5 3c 83 0a a4 bd a8 93 8f 3c
       -0.06848339 0.02024188 -0.080098175 0.017526463
0003f0 92 b0 29 bd 02 37 b1 3b d0 b4 23 3c 4d 94 07 3d
       -0.041428156 0.005408169 0.0099918395 0.033100415

fc1.bias f4 [128]
000000 b8 fa 4d bd cf b4 06 bc 48 ce a6 bd b5 48 b8 3d
       -0.050287932 -0.008221819 -0.08144814 0.08998243
000010 3b 9b dd 3d c8 b2 6f bc 4c 0a 97 3d d1 6e dd 3d
       0.108206235 -0.014630027 0.07375011 0.10812152
000020 86 59 25 bd 53 a7 8f bd 94 e7 12 3d d1 4c 60 bc
       -0.04036858 -0.070143364 0.03586538 -0.013690189
000030 5d 21 8f 3d a4 df f7 bb 78 9d c3 bc 33 d6 d0 bd
       0.069887854 -0.007564502 -0.023878798 -0.10197105
000040 cc 0c af bd 77 b2 9c bc d2 65 2f 3d f6 cd c0 bd
       -0.08547363 -0.019128067 0.042821713 -0.09414284
000050 3a 69 37 3c fe 5c e9 3d d6 e6 0c 3d 49 10 c5 bd
       0.011194522 0.1139469 0.03439983 -0.09622247
000060 02 ec 8c 3a 40 81 46 bd 3a 07 7a 3d 37 d6 c3 bc
       0.0010751488 -0.048463106 0.061042048 -0.023905857
000070 7b 17 c5 3d b6 70 36 bd 2c ec da bd d9 91 0e 3c
       0.09623619 -0.044541083 -0.106895775 0.008701765
000080 f3 a9 80 3d e9 b6 c0 bd d5 94 7f 3c 43 ff cd 3b
       0.06282415 -0.09409887 0.015599449 0.006286533
000090 02 fa 40 bd 1c 71 f1 3d 34 8b 2d 3d 2e d7 29 3d
       -0.047113426 0.11789152 0.042369083 0.041464977
0000a0 f3 2a a3 bc 46 62 ba 3c 41 ad 7e 3c ba 64 a0 3c
       -0.01991794 0.022751939 0.015544237 0.01957928
0000b0 08 64 07 3c 1a e0 31 3d 2d 78 bb bd 46 27 2b bd
       0.008263595 0.04342661 -0.09153781 -0.0417855
0000c0 6e 8d 19 bd 73 96 8d 3d cc ab 10 3d b7 31 f2 bc
       -0.037488393 0.069134615 0.03532009 -0.029564722
0000d0 f0 67 7c 3d e7 7e 91 bd 44 ac 93 bc 09 ab 23 bd
       0.06162256 -0.07104283 -0.018026479 -0.039958034
0000e0 49 f3 09 bc 15 ec d6 3d 5f d3 4f 3c 65 ed 86 3c
       -0.00841982 0.10494248 0.012684672 0.01647062
0000f0 cb 53 99 3d a1 6e f6 3c d2 77 0e bc d1 6e 6f bc
       0.07486685 0.030082049 -0.00869556 -0.014613823
000100 0c 26 29 bd 0b 9f c2 3c bd 0f 6d 3d 39 db 60 3c
       -0.04129605 0.023757478 0.057876337 0.013724142
000110 ab 1e c1 bc 65 63 59 bc 58 ff 17 3d 80 f5 59 3d
       -0.023574194 -0.013268326 0.03710875 0.053212643
000120 de 77 4c bc 30 45 16 bd d2 cb c8 3c e8 be d6 bb
       -0.01247975 -0.036687076 0.024511252 -0.0065535195
000130 6d 85 25 bd 3b 01 69 3d f9 eb 31 bc 5a 2f 37 bd
       -0.040410448 0.05688594 -0.010859483 -0.044722892
000140 79 3a 5f 3c 64 55 82 3c 06 ed 92 bd b2 af 33 3d
       0.013624781 0.015909858 -0.07174115 0.043868728
000150 e6 7c 82 bd c2 b2 e7 bb 93 cf 8d bd 21 08 b4 bd
       -0.06371479 -0.00707087 -0.06924357 -0.08790613
000160 d3 68 dc bc 29 79 92 bd c6 dc a2 3d 7f 0e 52 3d
       -0.026905453 -0.07152016 0.079522654 0.051283356
000170 ef 7a 91 bd d0 ae 56 bc 04 83 4e bd bd dd 12 3d
       -0.07103526 -0.013103202 -0.050417915 0.035855997
000180 25 88 8b bd a6 0c 58 bd a6 0b 8b 3d f9 5c 82 3d
       -0.06813077 -0.052746437 0.06789331 0.063653894
000190 08 78 76 bc ea b1 c5 bd db 33 a7 bd 8b 42 99 bd
       -0.015043266 -0.09653075 -0.081641875 -0.07483395
0001a0 a8 df 8d bd 28 9a 3b bd e9 13 a8 bc c9 51 ff 3c
       -0.06927425 -0.04580131 -0.020517306 0.031166928
0001b0 24 ca de bb b0 94 82 bc 35 20 d1 bd 07 8c 82 3d
       -0.0067989994 -0.01594004 -0.10211221 0.06374364
0001c0 4e d5 2a bd 2d 7e 39 bd 12 e8 b2 3c d1 57 09 bd
       -0.04170733 -0.045286346 0.021839175 -0.033531014
0001d0 2d c7 cf bd 61 1d 42 bd 14 db 3f bd 8e 15 92 3c
       -0.10145412 -0.0473913 -0.04683979 0.017832544
0001e0 c7 e3 1b bd 16 db 10 3c 88 f9 23 3d b0 59 eb 3b
       -0.038059022 0.008841297 0.040032893 0.0071823224
0001f0 fc cb f9 3a 9c 90 c2 3d f6 2c f5 3c ba 27 28 3d
       0.0019057984 0.09500238 0.029928666 0.04105351

fc2.weight f4 [128, 128]
000000 c1 76 78 3d 31 fe 96 3d 4d 00 a8 3c 0d fa 51 bc
       0.060660128 0.07372702 0.020507956 -0.012815964
000010 77 9c 9d 3c 4f f3 1e bd 59 71 9c bd 79 c7 72 3d
       0.019239647 -0.038806256 -0.07638807 0.059272263
000020 f6 13 87 3d 95 3e aa bd 49 f2 d7 bd e7 74 8c bd
       0.06595604 -0.08312718 -0.10544259 -0.06858235
000030 cc 77 8b bd b8 0e 66 bc 4b 6d 4b bd 55 4d 06 bd
       -0.06809959 -0.014041595 -0.049664777 -0.032788593
000040 e8 20 02 bc 26 51 01 3d f6 fd 5d bd d6 32 4e 3d
       -0.007942416 0.03157153 -0.054197274 0.05034145
000050 7c 33 33 3d 72 e0 39 3b 57 e6 f2 bc ed 88 39 bd
       0.04375027 0.002836254 -0.02965085 -0.0452966
000060 51 48 68 3d d0 1f 8c bd 16 29 1a 3d 5b 02 84 bd
       0.05670959 -0.06842005 0.03763684 -0.06445762
000070 01 30 e4 3c ea f5 53 bd 02 35 88 bd c2 6d 24 bc
       0.027854921 -0.051748194 -0.066507354 -0.010035934
000080 08 1d 9b bd fb 8e 7c bd fe db 43 bd f1 ea 29 bd
       -0.07573897 -0.061659794 -0.047817223 -0.041483823
000090 28 de 3e bd b9 dd 63 3a 7f 35 2d bc ed 67 56 bc
       -0.046598583 0.0008692402 -0.0105718365 -0.013086301
0000a0 5d 29 af bd 6b 7e be bd 11 77 a2 3c 86 67 9c 3d
       -0.08552811 -0.09301456 0.019832166 0.07636933
0000b0 d9 28 a2 bd 75 cf ea 3c 17 cb d3 3c 99 77 de bc
       -0.07917947 0.028663376 0.025853677 -0.027156638
0000c0 87 0c c5 bd 2e 68 37 bd 6d 7b 60 bd ef d2 80 3d
       -0.0962153 -0.044777088 -0.054805208 0.062902324
0000d0 99 86 98 bd 18 53 7c 3d 11 f0 7c bb e3 34 5f 3d
       -0.074475475 0.061602682 -0.003859524 0.054493796
0000e0 8b 61 c7 bc c3 30 1f bd 59 26 b3 bc b8 ba 93 bd
       -0.024338504 -0.038864862 -0.021868872 -0.07213348
0000f0 bd f0 15 bd 0f db 70 bd 34 c5 be bd 94 67 80 3d
       -0.03660654 -0.05880266 -0.09314957 0.06269756
000100 13 01 43 bc 2f 3b 8b bd 5b 7f d5 bd f5 c1 62 3d
       -0.011902112 -0.06798398 -0.10424682 0.055360753
000110 49 7e 00 3d aa f1 a5 3c 28 46 67 3b 87 59 01 bc
       0.031370435 0.020256836 0.003528962 -0.00789488
000120 cc d4 b2 bd e0 6d c8 3b 51 5b 91 3b 68 20 50 bd
       -0.08731994 0.0061166137 0.0044359346 -0.050812155
000130 86 c7 2f bd af 1f 43 bd 27 e8 67 3c e3 a2 2f bc
       -0.04291489 -0.047637638 0.0141544705 -0.010719988
000140 7d 8f 9b 3c 34 ec 18 bd 72 d7 5b bd a3 ae 99 3c
       0.018989319 -0.037334636 -0.05367226 0.018760031
000150 34 1f 2e bd b6 aa 9c 3d a6 4f 9b bd 06 00 41 bb
       -0.042510226 0.07649748 -0.07583551 -0.0029449477
000160 d4 41 5e 3d 00 19 9e 3c 35 27 9f 3b 44 f3 5c bd
       0.054261997 0.01929903 0.0048569688 -0.053942934
000170 d0 ff e4 bc b2 ee 67 3d 41 2b ee bc 95 d9 02 bd
       -0.027954012 0.056624122 -0.02907336 -0.031945784
000180 b8 24 20 bd 45 80 2f bd c7 c1 0b bc fd 1f 95 bc
       -0.039097518 -0.042846937 -0.008530087 -0.01820373
000190 d2 3a 00 bd 69 6c ea bb e2 9c b1 3d 7d 2c de ba
       -0.031306095 -0.007154037 0.08672501 -0.0016950514
0001a0 ef b1 05 bd 7d 66 2f 3d 8c dd a2 3d ae b2 99 bd
       -0.032640394 0.04282235 0.07952413 -0.075047836
0001b0 05 c9 18 3d fc e9 38 bd 90 4b 28 3d f7 46 91 3c
       0.037301082 -0.04514502 0.041087687 0.017734034
0001c0 0d e9 d4 bc 30 72 2c 3d 5c f1 3a bd c9 48 c8 bc
       -0.025990034 0.042101085 -0.045640334 -0.02444877
0001d0 85 7b 6e bd 72 0d ef 3c e7 cf 91 bb 7f 42 d0 3c
       -0.058223266 0.029181216 -0.0044498327 0.025422333
0001e0 7f f7 aa bd 52 ab 31 3a dd 0d 44 bd 72 64 5a 3b
       -0.083479874 0.0006777543 -0.047864784 0.003332403
0001f0 66 a7 13 3d 82 84 64 bd 75 cc d8 bc 17 4d b3 3c
       0.036048315 -0.05579043 -0.02646468 0.021887345
000200 1c 83 d6 bc de 63 be bc 5e 28 44 3d c5 0b 23 bd
       -0.026185565 -0.02324098 0.04789006 -0.039806146
000210 d2 f0 df bd e3 37 54 bd 2a 8b 08 bd 51 66 ad bb
       -0.10934605 -0.05181111 -0.033335842 -0.005291738
000220 fd 0a 7b 3b b2 b7 7b 3d 5f c7 aa bd b8 62 3e bd
       0.003830611 0.061454482 -0.08338808 -0.046480864
000230 42 93 c7 3c d7 ae 99 bd 3a 41 06 bd ff fe c2 bc
       0.02436221 -0.07504051 -0.03277705 -0.023803232
000240 3c b1 93 3d aa 79 39 3d 2d f4 14 3d 20 05 d1 3c
       0.07211539 0.045282044 0.036365677 0.02551514
000250 36 38 37 bd 80 4a c9 3b b3 37 7a 3c 37 30 b1 bc
       -0.04473134 0.0061429143 0.015272069 -0.021629436
000260 06 0c a5 bd 8e 4d 64 3b 31 ac 59 3d eb b0 1e bc
       -0.08058934 0.0034836265 0.05314273 -0.009685735
000270 0a b1 54 3d bf 97 73 bb dd b5 85 3d 54 2b 4b bd
       0.05192665 -0.0037169305 0.06528828 -0.049601868
000280 e4 03 df bd c1 5f cb bd 6b fd 84 3c b5 4c df bb
       -0.10889414 -0.09930373 0.01623412 -0.006814564
000290 23 b8 aa 3c 73 eb a1 bd 3f 86 cc 3c 90 d2 9b 3d
       0.020839756 -0.079062365 0.024966357 0.07608521
0002a0 2b 46 9d 3c 8d 89 8e bd 6e 49 65 bd e5 46 69 3d
       0.019198498 -0.069598295 -0.05597823 0.056952376
0002b0 93 b8 96 bd eb b6 f4 3b fd a9 4b bd 1f 0d ba bd
       -0.073594235 0.0074680946 -0.04972266 -0.09084534
0002c0 2d 93 41 3d c7 45 a6 3c ec 1a 87 bc a3 30 ad bd
       0.0472595 0.020296944 -0.01649233 -0.08456542
0002d0 c9 ae e6 bd 40 17 3f 3c 99 73 2a 3d 10 f6 bc bd
       -0.112638064 0.011663258 0.04161415 -0.0922662
0002e0 87 91 cf 3c c0 3a 42 3d eb 4a 90 3d ad 1a c0 bc
       0.025337948 0.04741931 0.070455395 -0.02345022
0002f0 d8 7c c0 3b d7 40 8f 3d 95 b1 03 3d 50 70 6b bd
       0.0058742575 0.06994789 0.032151777 -0.057480156
000300 9f bf e4 3c e4 19 57 3d 26 39 44 3d 95 45 03 bc
       0.027923403 0.052514926 0.047906063 -0.008012195
000310 a6 46 1f 3c 8b 06 5d 3d fb 86 cd bd 9e 6e 67 bd
       0.009721434 0.053961318 -0.10035511 -0.056501977
000320 d0 cb 0e 3d d9 49 1b 3c ec e9 7d 3d 0a d6 42 3d
       0.03486234 0.009478056 0.061990663 0.047567405
000330 ed 4c 7b 3b 41 0a 9f 3c ac 55 76 3d 77 de 04 bd
       0.0038345412 0.01941407 0.060140297 -0.03243872
000340 53 16 61 bd 7c 1e b8 bd d4 54 ae 3d ef 49 40 bd
       -0.05495293 -0.089901894 0.085122734 -0.04694551
000350 48 94 cd bc a2 95 b3 bd a3 52 0d 3c 57 04 8e bc
       -0.02509512 -0.087687746 0.008625659 -0.017336054
000360 9a f5 91 bd cd ac 25 3d 1a fd 9f bd 83 9c 8f bd
       -0.07126923 0.040448 -0.07811947 -0.07012274
000370 ae 6e 7b 3d b3 22 3c 3d b9 4b 53 bd f2 13 97 3d
       0.06138485 0.04593153 -0.051585887 0.07376851
000380 b3 c2 75 3d ff 11 24 3d 1c 8b ad bc 2b 9d 60 3d
       0.060000133 0.040056225 -0.021184497 0.054837387
000390 c5 85 e7 3c 82 1d e5 bd 6a df 04 3c 3d 49 c0 bb
       0.028262028 -0.11187269 0.008109907 -0.0058681057
0003a0 ce 34 cf bc 45 f6 28 bd be 58 61 3d bc 97 20 3c
       -0.025293734 -0.041250486 0.05501627 0.009801801
0003b0 7d 0a 50 bd 5f 60 2e bd d2 e9 bf bd 8e 16 44 3d
       -0.050791252 -0.042572375 -0.093707696 0.047873072
0003c0 5f 14 2f 3d 1f 79 98 3d 3b 4f a7 bd dd ef 70 bc
       0.042744037 0.07444977 -0.08169409 -0.014705625
0003d0 ef df a4 3d cf 71 49 3d 52 2d f0 3b f2 17 db bd
       0.080505244 0.049180802 0.0073296214 -0.106979266
0003e0 28 3c 4e bd f4 06 75 bd 35 3a 55 3b 0e ae d4 3c
       -0.05035034 -0.059821084 0.0032535915 0.025961902
0003f0 3f 83 91 3b 50 db 09 3c 46 74 86 3d 77 b0 a0 bc
       0.0044406946 0.008414105 0.06565146 -0.019615395

fc2.bias f4 [128]
000000 95 22 92 3a a6 92 14 3d fc ca d6 bd a5 4f 18 bd
       0.0011149222 0.036272667 -0.10487935 -0.03718533
000010 6b 6b 8c bc 63 a6 ac be 49 b6 47 3e 6b 90 00 bd
       -0.017141065 -0.33720693 0.1950313 -0.031387728
000020 92 85 23 3d f5 6a a4 bd f9 39 05 3e 40 65 80 bd
       0.039922304 -0.08028213 0.13010396 -0.06269312
000030 6a d8 40 3e 75 b6 82 3c 6c f9 40 bc 29 54 c8 bd
       0.18832555 0.015956143 -0.011778217 -0.09781677
000040 a3 91 b9 bd 6e 98 66 bd 33 0c 15 3e 60 8e 5a 3c
       -0.09060981 -0.056297712 0.14555435 0.013339609
000050 60 c9 ba bd fc 71 74 3c 34 9b 94 bc a2 ff 9d bd
       -0.091204405 0.014919754 -0.018140413 -0.07714774
000060 39 7c b8 3d 3e cc 05 3e ac 67 95 3d 88 24 38 3d
       0.090080686 0.13066193 0.072951645 0.044956714
000070 93 ed 2f 3d 98 eb 1f bd ae 14 26 3e 63 47 95 3c
       0.042951178 -0.03904304 0.16218826 0.018222516
000080 b7 fa 95 3c 6c 7d 6f bd 3d 38 be 3d 14 b7 69 3d
       0.018308027 -0.05846922 0.0928807 0.057059363
000090 05 4f 86 bd 64 89 60 bd bd cb 8c 3d eb e2 2f 3d
       -0.065580405 -0.054818526 0.068747975 0.042941015
0000a0 4c 47 f3 3c 46 f6 2f ba 04 79 9d bd c1 25 66 bc
       0.029697083 -0.0006712418 -0.076890975 -0.014047087
0000b0 f2 ee 4c 3d c4 f4 e5 3d b9 76 05 bb ce 8d 6e 3d
       0.050032564 0.11228326 -0.0020364954 0.058240704
0000c0 30 8e 45 bb f5 d8 55 bc 75 8e 27 3c 56 03 cf 3c
       -0.0030144565 -0.013052215 0.0102268355 0.025270145
0000d0 77 19 e9 3d d0 4c ac 3c 67 23 11 3c 81 ca d2 bd
       0.1138181 0.02103272 0.008858538 -0.10292531
0000e0 bf ff 58 3c 58 5d 74 bd 70 9e e0 bc 92 a9 81 bd
       0.013244568 -0.059659332 -0.027419299 -0.06331171
0000f0 95 30 5e 3c 94 cb 93 bc 65 aa 47 3d 67 89 ae 3d
       0.013561388 -0.01804141 0.048746485 0.08522301
000100 6e 14 15 bc 1b a3 94 3c d0 2d e6 3c e8 ac a0 3d
       -0.009099109 0.018144181 0.028098017 0.07845479
000110 d0 2a 32 3e d1 05 1d 3e 14 4e d3 bc bb 87 52 3e
       0.17399144 0.1533425 -0.025794066 0.2055959
000120 19 4e 5e 3d 3a d5 5d bd d1 61 ec 3c 32 5b d4 3c
       0.0542737 -0.054158427 0.028855236 0.025922392
000130 c5 f9 2a 3e 54 dd ed 3d 72 56 4b 3d c7 f3 8e bb
       0.16696842 0.116144806 0.049642988 -0.0043625566
000140 1f 13 83 bd 74 8f 0f bd b6 8b aa bd fa 7c 28 3d
       -0.064001314 -0.035048917 -0.08327429 0.041134812
000150 97 55 a9 3d 55 a1 0a 3e 17 26 87 3d 89 22 96 bc
       0.08268278 0.13538106 0.06599062 -0.018327015
000160 30 75 08 3d 81 6a e5 3d cb 0a 25 3d 15 5d 82 bd
       0.033314884 0.11201955 0.040293496 -0.0636541
000170 89 63 0f bd 77 38 dd 3d 4b 79 69 bd f9 b3 2b 3d
       -0.035007033 0.108017854 -0.05700044 0.041919682
000180 7d 26 21 3e f4 81 84 3d 66 12 04 3d d0 dd 29 3e
       0.15737338 0.06470099 0.03224411 0.16588521
000190 99 83 11 3e 4b 37 e4 3d 43 de 8b 3d 04 3f 29 3e
       0.14210357 0.11143359 0.068295024 0.16527945
0001a0 eb 56 62 3e fe fe 23 bd 38 dc 3b bd 28 4c 35 bd
       0.22103469 -0.0400381 -0.045864314 -0.04426208
0001b0 02 98 7e bd 22 9b 20 bc 37 06 9b bd d6 33 64 bd
       -0.062156685 -0.009802612 -0.07569545 -0.055713497
0001c0 fa ac 11 3d 07 2f f4 bc 79 55 fd 3d 37 0a 38 bd
       0.035565354 -0.02980758 0.12369818 -0.044931617
0001d0 2d d3 ba bc 96 45 21 3b ec 2f ac bd 7f 35 c1 bc
       -0.022805775 0.0024608127 -0.08407578 -0.02358508
0001e0 a0 8f c8 bd 4d c0 83 bd 01 a8 c7 3d 70 e2 e3 bc
       -0.09793019 -0.06433163 0.09748841 -0.027817935
0001f0 3d 60 31 3d b5 58 15 3e df 34 20 bd 42 3b 2a bd
       0.04330467 0.1458462 -0.03911292 -0.04156042

last_fc.weight f4 [6, 128]
000000 34 b3 a5 bd 23 90 07 bc c3 c0 e4 3c f3 c1 9d 3d
       -0.08090821 -0.008274111 0.027923947 0.077030085
000010 06 33 b4 bc 7a af 65 bd 44 ff 91 3d 8b f8 38 3d
       -0.021996986 -0.05607555 0.07128766 0.045158904
000020 63 03 ba 3d 82 f2 78 bb 64 82 60 3d f1 e1 7b 3c
       0.09082677 -0.0037986343 0.05481185 0.015373693
000030 b6 ee ae 3d f6 3e 5e 3d 29 af 7b bc 6e 4e 96 bd
       0.08541624 0.054259263 -0.015361586 -0.07339178
000040 12 d9 97 3d 6a 83 18 3c 31 a7 fa 3c 52 50 af 3d
       0.0741445 0.009308675 0.030597301 0.08560242
000050 be 42 e9 bc e5 28 ad bd 25 cd 22 3c 6f c3 25 3d
       -0.028474208 -0.08455066 0.009936606 0.040469583
000060 ff e3 25 bc d0 3e 79 3d 15 3f 10 3d 20 90 82 3c
       -0.010125159 0.06085092 0.03521641 0.015937865
000070 45 f7 64 bd a9 49 a2 bc c3 42 c2 3d e5 1f 38 3d
       -0.055899877 -0.019810515 0.0948539 0.044952292
000080 1b 5a 6e bd 12 ae a2 bc e8 ea 86 3d ef dc 3e bd
       -0.0581914 -0.019858394 0.065877736 -0.046597417
000090 34 94 52 3d a6 7b 1f 39 67 38 45 3d 12 f3 36 bb
       0.05141087 0.00015209484 0.048149493 -0.0027915877
0000a0 82 ac 8b bd 44 b5 5e bc 80 4b 07 bd 40 18 22 bd
       -0.06820013 -0.013593022 -0.033030987 -0.039573908
0000b0 cb cd 38 3c 33 f8 3e bc ef 7d 48 bd 0b a3 97 3d
       0.011279534 -0.011655855 -0.048948225 0.07404145
0000c0 31 1b 86 bc b3 0e b1 3d 12 dd 5b bb 96 b5 85 3c
       -0.016370388 0.08645382 -0.0033548516 0.016321938
0000d0 34 77 d3 bb 4e df 8f ba f5 02 de 3b 09 aa ac bc
       -0.006453419 -0.0010976584 0.006775255 -0.021077173
0000e0 e3 08 a0 ba 9c cc 39 3d e6 40 37 bd 44 3c 06 bd
       -0.001220968 0.045361146 -0.044739626 -0.032772318
0000f0 98 39 ae 3c 80 72 fc bc 15 8a 46 3d ad e7 89 3d
       0.021267697 -0.030816317 0.04847153 0.06733642
000100 f7 e9 75 3d 16 0d 0c bd 39 05 70 bd b8 0c 1b 3d
       0.06003758 -0.034192167 -0.05859873 0.037853926
000110 bd 5a 59 3c 08 36 4e 3d 3c 8a 2d 3d 88 f9 15 3e
       0.013266263 0.050344497 0.04236816 0.1464597
000120 e1 60 5b 3b 22 bf d2 bc db 11 44 3d d1 ee 94 bd
       0.0033474492 -0.025725905 0.04786859 -0.07272113
000130 ee 34 5e 3d 9c 95 9e 3c 4f 0e 9f 3c 16 df a0 bd
       0.054249696 0.019358449 0.019416003 -0.0785505
000140 a9 f4 4e bd c9 3f 95 3d c4 73 8e 3d 29 75 e3 bb
       -0.050526295 0.07287557 0.06955674 -0.006941457
000150 d2 af 8a 3d 44 e1 7d 3d ac d7 94 3d 7e be 9e bd
       0.06771816 0.06198241 0.07267699 -0.07751177
000160 ce db 91 bd 49 d0 39 bc cf d6 2d 3d 9c 66 9e bc
       -0.071220025 -0.011341163 0.042441186 -0.019336037
000170 49 83 84 bd d6 64 63 3d 32 16 09 3c 32 c4 39 bd
       -0.06470353 0.055516087 0.008367108 -0.045353122
000180 03 8c b9 3d 3e 1c 73 bd 7d d8 80 3b a1 4a 03 3d
       0.09059908 -0.059353106 0.0039320574 0.032053594
000190 c6 13 83 3d 0c 03 71 bc f4 1b 16 3c 81 bb b3 3d
       0.06400256 -0.014710199 0.009161938 0.08775998
0001a0 0a f2 00 bc 59 bb 6f 3d 6a 19 b9 bd 32 b5 4b bf
       -0.007870207 0.058528278 -0.090380505 -0.7957336
0001b0 9f 63 96 38 24 29 2c bc 20 46 ea bc 54 01 be 3c
       7.171113e-05 -0.010507856 -0.028597891 0.023193993
0001c0 6b 92 2c 3d 3c 66 72 bd 92 c3 a7 bd 00 33 27 bc
       0.042131823 -0.05917953 -0.08191599 -0.01020503
0001d0 77 d8 98 bc 8a f9 cd bc e9 c0 38 3a bb f5 11 3c
       -0.018657906 -0.025143404 0.0007047789 0.008908684
0001e0 1c 46 cf bc a6 39 d2 bc be 70 93 3d f3 01 80 bc
       -0.025301985 -0.025662255 0.07199238 -0.01562593
0001f0 bf 2f 24 bd bb fe ae 3b 14 e9 a5 3a 43 9e 90 bd
       -0.040084597 0.005340425 0.0012657964 -0.07061436
000200 0d 84 6b 39 61 5e 65 bd ec 7b cf 3b ee 86 0a bd
       0.00022460539 -0.05599821 0.0063319113 -0.033820085
000210 0a 21 8c bc dc 2c 56 bd c1 5f ce 3d 22 4c 2f bd
       -0.017105598 -0.052288875 0.10076857 -0.042797215
000220 57 1a 4b bc 5b 8b 8e bd b5 c1 1e 3d 27 eb be 3b
       -0.012396417 -0.06960174 0.038758952 0.005826372
000230 4c 32 9b 3d 9c 74 9d bc 26 a9 e7 bb e9 46 c8 bc
       0.07577953 -0.019220643 -0.0070697246 -0.024447875
000240 e1 ed 87 bc b5 24 29 3d 11 74 9f 3d 9c ab bd 3c
       -0.016592922 0.041294772 0.0778581 0.023153119
000250 c8 74 a6 bc 39 ae 96 bc 0f ff d2 3b 98 c0 02 3d
       -0.020319358 -0.018393623 0.0064390968 0.031921953
000260 95 84 fa 3c 1f 28 2e 3d a3 e2 1f 3d ac 57 11 bd
       0.030580798 0.04251873 0.039034497 -0.035484
000270 78 73 6e 3d 52 4d b1 3d 3f 23 af 3d ef 71 80 bd
       0.05821559 0.08657326 0.085516445 -0.06271731
000280 63 2c 4a bd 3a e6 18 bd 25 24 11 3d 33 6a 95 bb
       -0.049358737 -0.037328936 0.03543486 -0.004559779
000290 0e 80 57 3d 8a ab fb bc 05 d0 99 3b d5 3d 8b bc
       0.052612357 -0.030721445 0.0046939873 -0.016997257
0002a0 46 d6 02 3d 05 4b 8d bc 96 cd a3 3d df 71 35 bd
       0.03194263 -0.017247686 0.07998197 -0.04429805
0002b0 52 95 55 bd dc 9f 50 bd 75 f6 a8 3d 2c 6d 9f bc
       -0.052144356 -0.050933704 0.08250133 -0.019461237
0002c0 51 fc 03 3d e6 b7 a3 bc 4c b1 97 3d 48 de 3e bc
       0.03222305 -0.01998515 0.074068636 -0.011649676
0002d0 70 05 3f bd 07 6e 6b bd ee ea e5 3c 09 0d 79 3d
       -0.046636045 -0.057477977 0.028066125 0.060803447
0002e0 27 18 cd bb 1b 7e 77 bd cd ca 4b 3d 69 1b 91 3d
       -0.0062589827 -0.060422998 0.049753953 0.07085306
0002f0 19 e5 15 bd 8c 3b a1 3c f3 6f 64 3d ed e3 8e bc
       -0.036595438 0.019681714 0.055770826 -0.017442668
000300 18 0a 71 3d 3b 2b 8b 3d b9 00 05 3d d9 e2 1a 3d
       0.058847517 0.06795355 0.032471392 0.037813995
000310 1c c8 5b 3c b8 4f ea 3c 7e dd 7f 3d 69 6a 09 3e
       0.013414409 0.028602466 0.06246709 0.13419499
000320 bf 3a f4 bb ef d4 99 bc df 52 c5 3c 1c 31 20 bd
       -0.007453292 -0.018778292 0.024087368 -0.039109334
000330 17 62 7c 3d 43 75 bc 3c 90 98 b5 3c 02 32 b8 3d
       0.061616983 0.023005133 0.022167474 0.08993913
000340 38 8f b3 3d 54 3d 0e bd 64 11 e7 3c 37 a1 f7 ba
       0.08767551 -0.034726456 0.028206535 -0.001889265
000350 91 27 68 bd 0f 94 0d 3d 93 16 08 bc 4a 93 94 3d
       -0.05667836 0.034565028 -0.008306163 0.07254656
000360 e0 97 82 bd 67 56 df 3c e2 51 0c 3c 7d 3a b1 3d
       -0.06376624 0.02726288 0.008564444 0.08653734
000370 11 94 1a bd 02 8c d9 bc d9 08 97 3d 1b 1e 90 bd
       -0.037738863 -0.026556019 0.073747344 -0.07036992
000380 fc 24 ff 3c 02 67 82 3d 4a 3a 38 3d 81 90 af 3c
       0.031145565 0.063673034 0.044977464 0.02143121
000390 62 d0 8c 3d d7 68 7b 3d c2 ec 67 3c 92 f4 17 39
       0.06875683 0.06137928 0.014155569 0.00014491592
0003a0 f6 85 97 bc a3 66 f2 bc 2a e9 b5 bd 77 5b 4b bf
       -0.018496495 -0.029589957 -0.08882363 -0.7943644
0003b0 b7 77 7b 3d 7a 06 53 bc d7 ca 8a bd 60 6f bd bc
       0.061393466 -0.012879962 -0.0677697 -0.023124397
0003c0 64 c8 4e bd c1 06 23 bb ac 0b 09 3d 12 bf 69 3d
       -0.050484076 -0.0024875852 0.033458397 0.057066984
0003d0 29 43 a8 bd c5 4f db bc c8 7c d4 3b 17 96 b2 3d
       -0.08215935 -0.026771436 0.0064846016 0.087200336
0003e0 1f b1 88 3c 02 40 0c bd c4 a6 87 bd 7b ac d0 3c
       0.01668602 -0.03424073 -0.06623605 0.02547287
0003f0 6e 89 b9 3d 87 52 a1 3d d9 23 9f bd d6 6b a6 bd
       0.09059416 0.07877069 -0.07770509 -0.08126037

last_fc.bias f4 [6]
000000 3e d8 6c 3d 13 3e 20 3e 0a 9e c6 3b e4 0a 5f 3e
       0.057823412 0.1564868 0.00606132 0.21781498
000010 94 1d 25 3e a9 0b 7d 3e
       0.16124564 0.24711479
