data/Fanuc_success/Behavior_cloning/BC_policy_CIC_itr_39_noforce.pt (torch, 141713 bytes, 8 tensors)

fc0.weight f4 [128, 6]
000000 f0 8b ab 3f 47 76 01 3f 02 3e 02 bc 1a 7e ac 3c
       1.340208 0.505711 -0.007949354 0.021056224
000010 95 ad 1f be 5b e5 39 be 82 62 ba be 89 4f 4c be
       -0.1559356 -0.18153898 -0.3640328 -0.19952215
000020 37 b7 85 3e 98 97 7b bf 20 0c 1d 3f 9f 58 27 be
       0.26116344 -0.9827819 0.61346626 -0.163424
000030 11 59 c4 3f c8 83 31 3f 19 bd 06 3f 80 97 ad bc
       1.5339681 0.6934171 0.5263229 -0.021190405
000040 74 ee 46 be 76 b7 bd 3d b6 f4 be 3e 73 d8 ee 3d
       -0.194269 0.09263508 0.37296075 0.11662378
000050 4f ac 2e bf 2e 06 df 3e 91 69 e6 be 9e 3e ad 3e
       -0.6823167 0.43559402 -0.45002416 0.33836836
000060 f7 13 7c be e6 99 01 3e 2b 44 0a bf 6e ea c3 3e
       -0.24616991 0.12656364 -0.54010266 0.38264793
000070 f0 c2 83 3d f9 d4 54 be 51 c6 6f 3d ce ed 5d bf
       0.06433666 -0.20784368 0.05853874 -0.86690986
000080 0e 6d d8 3d 9a 82 06 3e 66 69 5d 3d ed 87 f3 3e
       0.105676755 0.13135758 0.054055594 0.4756464
000090 e2 dc 82 3d ea 96 7a 3d 2c db ab be ad 9f 20 be
       0.06389786 0.06117908 -0.33565652 -0.15685911
0000a0 f2 38 4a bd 9f 68 22 3c 3b 09 a6 be 44 09 25 be
       -0.049370714 0.009912639 -0.32428917 -0.16116816
0000b0 ad 40 a1 be 42 ea 0b 3d b9 9c f6 be 32 8d ae be
       -0.31494656 0.034158953 -0.48166445 -0.34092098
0000c0 95 a0 32 3f 2d f9 23 3e 4d e1 46 bf 1f 4c 35 3f
       0.6977628 0.16013022 -0.7768753 0.70819277
0000d0 9d 63 11 3f 6b d2 91 3e 23 fb e0 3d ad f2 45 3e
       0.5679262 0.2848085 0.109854005 0.19330855
0000e0 a4 64 a8 be 7a 02 b8 be 8e aa 3c be c9 ee 05 be
       -0.32889283 -0.3593939 -0.18424436 -0.1307937
0000f0 0b ca 8f 3e e8 66 4a 3d be c7 1f bf fc 00 ef bd
       0.28083834 0.049414545 -0.6241416 -0.1167011
000100 14 36 53 be a4 0f 9b 3e 15 79 52 3e ee a8 3e 3e
       -0.20626098 0.3028537 0.20554002 0.18619129
000110 d6 30 00 3c a5 36 ac be 8f 29 9d 3d fe 47 96 bc
       0.007824143 -0.3363544 0.07673942 -0.018344875
000120 6d 2b 44 bf 06 b6 5f be 80 7b 79 3e 42 e2 41 bf
       -0.7662876 -0.2184678 0.24363518 -0.7573587
000130 0b 08 83 3e 44 0d 33 3f 13 0f 3f 3e 05 4c 19 be
       0.25592074 0.69942117 0.18658094 -0.14970405
000140 5a d9 fb 3e 7c 58 8e bc bd fb 98 3e 54 d3 66 bc
       0.49189264 -0.017376177 0.2987956 -0.0140884705
000150 12 72 84 be 4a 69 bc bc 3b 71 0d bf ac 37 d6 bd
       -0.2586828 -0.022999424 -0.552509 -0.10459837
000160 55 38 87 3e 33 16 9a be 24 d5 fc be 7f 4c 42 3e
       0.26410165 -0.30095062 -0.49381363 0.18974493
000170 5e 02 2d bf b9 d4 47 3d 8a 50 06 3e 07 04 aa bd
       -0.6758174 0.048786853 0.1311666 -0.083015494
000180 26 49 c2 3f 8b 82 20 39 00 ee 55 3e 39 dd 7e 3c
       1.5178573 0.0001530742 0.20891571 0.015555673
000190 9c fd 12 3d dd c8 63 3d f0 77 92 bc c1 9c a3 3f
       0.035886392 0.05561148 -0.017879456 1.2782212
0001a0 14 21 79 3d 2d 04 cc be b8 86 b8 3e ea c3 d5 be
       0.06082256 -0.39846936 0.36040282 -0.41751033
0001b0 7f 97 35 bf bd 21 c3 be f6 ef 08 bd de 9e 31 3e
       -0.7093429 -0.38111678 -0.03343197 0.1734576
0001c0 9f 40 8f be 0b 9b 51 3e a7 af 12 be fb ca ae be
       -0.2797899 0.204693 -0.14324819 -0.34139237
0001d0 2d aa 60 3e d0 91 e2 be 26 50 a2 bf 66 fd 40 3f
       0.21939917 -0.4425187 -1.2680709 0.75386655
0001e0 1c 1f 4f be e5 8e 9a 3e 5d 1a 9e 3e d6 a4 46 3c
       -0.20226711 0.30187145 0.3087949 0.012124261
0001f0 ed 43 be be ef ef 33 be 4a ea af 3f a3 e1 17 3f
       -0.37161198 -0.17571996 1.3743374 0.5932867
000200 b1 5b d6 3e f3 c7 f8 3e 1c 0d 07 be 17 4f be bc
       0.4186683 0.4859005 -0.13188595 -0.023231072
000210 d9 98 ae 3e 2e a3 06 be 85 68 a6 3e cf 80 9e be
       0.34100989 -0.13148186 0.32501617 -0.30957648
000220 28 b5 aa be e9 f2 ff bd da 38 91 be a5 84 a8 bf
       -0.33341336 -0.12497503 -0.28363687 -1.316548
000230 aa ce bd bd ba c7 b8 bd 30 60 02 be 48 be a6 bc
       -0.09267934 -0.0902247 -0.12732005 -0.020354405
000240 6c 50 99 3f 8e c3 17 3f e3 55 7b 3e 7a b5 e9 3e
       1.1977668 0.5928277 0.24544482 0.45646268
000250 0a 16 f5 3e a3 30 9a 3d 00 c2 4a 3e 53 fb af bd
       0.47868377 0.07528808 0.19800568 -0.08592858
000260 48 dc c2 be 87 b3 c5 3e a3 5d 82 3c 56 bd 98 3e
       -0.38058686 0.3861353 0.01591379 0.29831952
000270 61 bc 7c be ed 96 36 be 7e a8 51 be 74 c8 da 3d
       -0.24681236 -0.17831011 -0.20474431 0.10682765
000280 4f 02 25 be bc 72 4c be 50 a1 2b 3f 3e 5b 57 bd
       -0.16114162 -0.19965643 0.6704302 -0.05257725
000290 8a 69 79 be 6e 1e 80 3d 0f f0 99 be 52 7d b0 3d
       -0.24356666 0.06255804 -0.30065963 0.08617653
0002a0 99 7b d0 3f ed 75 f9 be 22 2d 54 3e 39 30 c7 3d
       1.6287719 -0.48722783 0.20720342 0.097259946
0002b0 67 1f 39 be 98 fd af 3c e5 42 4c 3e 14 76 17 3d
       -0.18078385 0.021483228 0.19947393 0.036977842
0002c0 e2 64 19 bf 93 82 65 bc b8 43 d6 bd 37 83 48 be
       -0.5991956 -0.014008182 -0.10462135 -0.19581304
0002d0 69 ed 29 3f 97 f1 86 bf 05 29 1d be e8 1d 0b be
       0.66377884 -1.0542477 -0.15347679 -0.13585627
0002e0 de 36 9c 3e 94 e3 25 bd 84 c4 ba 3e cd 89 bc be
       0.3051061 -0.04050024 0.36478055 -0.36823884
0002f0 77 88 90 3e 9a 0d 2b bf 07 bb 32 be 24 5f 80 be
       0.28229114 -0.6681763 -0.17454158 -0.25072587
000300 ed f8 6f 3e c1 46 bb 3e 87 66 95 3e a0 ab 99 3c
       0.23434801 0.36577418 0.29179785 0.018758595
000310 20 ce 01 3e 36 1f ac 3e 07 32 c8 3f f5 b7 82 be
       0.12676287 0.33617562 1.5640267 -0.25530973
000320 5b b1 81 3e 9d 23 ce 3e bb 99 c4 be 69 ab 45 be
       0.25330624 0.40261546 -0.38398537 -0.19303669
000330 5b 40 c9 3f 1a 1b ce be 99 6e 35 bd 71 c7 26 bf
       1.5722765 -0.40255052 -0.044294927 -0.65148073
000340 55 de 19 bf 46 5b 05 bf 7a cb 70 3e 97 09 e5 3d
       -0.60104877 -0.520924 0.2351512 0.1118347
000350 1e 20 0d 3f 2a 33 10 3f f0 28 93 be de 11 c1 be
       0.5512713 0.5632807 -0.2874217 -0.37708944
000360 91 37 cd 3e 77 a5 18 be 50 ec 20 be a8 25 bc be
       0.40081456 -0.1490687 -0.15715146 -0.3674748
000370 85 f1 3a bc de 55 4f be 40 0f da 40 fe 7a ae 3d
       -0.011410122 -0.202476 6.8143616 0.08519553
000380 43 a7 df 3e 0f 41 11 3f c1 e3 8b bd 51 12 d0 3e
       0.43682298 0.56739897 -0.0683055 0.40638974
000390 fe 12 90 c0 1b 74 6f bf e9 7e 14 3e ff ed db be
       -4.5023184 -0.9353654 0.14501537 -0.42955014
0003a0 f2 28 bc bd e7 3b e8 3e de a4 b0 bf 3b 4d 06 c0
       -0.09187497 0.45358202 -1.3800313 -2.0984638
0003b0 03 79 03 bd b4 4e 65 3f 13 3f 7a be 3c b4 25 bf
       -0.032097828 0.89573216 -0.24438123 -0.6472814
0003c0 e3 1e a9 bd 89 f6 e2 bd 4e f9 b2 be 39 6a 64 ba
       -0.08257844 -0.11082179 -0.3495583 -0.0008713338
0003d0 ae 92 28 be 4a 40 88 3e 4f f9 8f 3e aa 04 4b 3d
       -0.16462204 0.2661155 0.28119895 0.049564995
0003e0 8f 25 56 be 7f 2f 49 3e 8c 6f c5 3e 4f 25 19 bd
       -0.20912765 0.19647025 0.38561666 -0.037389096
0003f0 00 9c d4 bd 09 4c a2 be a4 f1 5b bf f5 a5 47 3e
       -0.10381317 -0.31698635 -0.8591559 0.19496901

fc0.bias f4 [128]
000000 03 5c c5 39 a8 c5 02 bd d4 34 f5 3a d4 79 5d 3e
       0.00037643322 -0.03192678 0.0018707761 0.21628505
000010 12 71 8e 3e f9 57 81 be ba f3 9d be 30 d0 6f 3e
       0.2782064 -0.2526243 -0.3085001 0.23419261
000020 39 d6 50 3d 83 72 b0 be 5a d1 ac 3e 3e a5 b1 be
       0.05098555 -0.34462366 0.33753473 -0.34696382
000030 4f 24 3b bd cd bd 03 3d e1 f8 83 3e e8 60 a8 3e
       -0.045688923 0.03216343 0.25775817 0.32886434
000040 62 c6 26 bc 59 11 ca be ff 66 3c ba 50 19 81 bd
       -0.010179134 -0.3946636 -0.00071869785 -0.06303656
000050 28 ed c6 be 53 39 91 3e 5a 2e c8 be b6 58 03 bb
       -0.3885281 0.28364047 -0.39097863 -0.002004189
000060 33 83 23 bc 04 6e 32 3d aa 6a c8 be d3 fa f3 3c
       -0.009980011 0.04356195 -0.39143878 0.029782688
000070 63 33 25 bc 82 22 3c 3e 49 e5 1f bd 43 06 98 bc
       -0.010083052 0.18372539 -0.039037023 -0.018557673
000080 7a 7a 8f be ac e0 36 3e 01 26 1c 3b 59 d3 4d bc
       -0.2802313 0.17859143 0.0023826363 -0.012562596
000090 51 97 cf be 8d 5a 92 bc ff ab aa bc 78 61 1d bc
       -0.40545133 -0.017865444 -0.020833967 -0.009605758
0000a0 59 4b 3b be f8 4f 91 be 4c d6 da 3d 4b bd 15 bd
       -0.18290462 -0.28381324 0.10685405 -0.036557477
0000b0 2d 5a de bb ac d8 9d be 1f 8a e3 3d 49 6b bc bc
       -0.006785652 -0.3082937 0.11110329 -0.023000376
0000c0 1e 1b 21 bd ab 2e 9c 3d 68 29 15 3d bb a4 b1 be
       -0.0393325 0.07626089 0.03641644 -0.34695992
0000d0 22 2c 4b 3e 59 39 f8 bc 3b 97 63 3d e7 a7 28 bd
       0.19841054 -0.030300783 0.055564146 -0.04117575
0000e0 e8 3a b9 bc 47 7d 9b be 5c c0 16 bd 5b 72 88 3d
       -0.022611097 -0.30369017 -0.036804542 0.066624366
0000f0 c5 f0 be bb a6 2c b6 bc 1c 69 5b be 1a 7f 93 be
       -0.005827042 -0.022238087 -0.21426815 -0.28807908
000100 05 44 bb bc aa 2e 42 bc d0 d0 05 3e 7b 93 2e 3d
       -0.022859583 -0.011851946 0.13067937 0.042621117
000110 c5 69 d8 3d e2 4a 9f 3d 86 ff a9 bb ce 8a 64 bc
       0.10567049 0.07777955 -0.0051879315 -0.013949109
000120 23 6e b7 bc 11 71 a4 be f4 54 99 3e e4 ba 8a bc
       -0.022391384 -0.32117513 0.29947627 -0.01693482
000130 fa ac bf bc 59 39 7b be 1f db 17 3e c5 c1 42 bd
       -0.023397911 -0.24533595 0.14829682 -0.047548074
000140 46 a8 25 bd 45 0c 61 bd e8 97 d3 3d e6 3a 2b bc
       -0.04044368 -0.05494334 0.10331708 -0.010451054
000150 a4 8a 8d 3d 10 d1 12 3e 42 12 30 3e 94 c7 ba be
       0.06911209 0.14337564 0.17194465 -0.3648039
000160 0b a9 1e 3d 1c 7f 61 3c 88 49 bc bc c2 69 43 bb
       0.03873543 0.013763215 -0.022984281 -0.0029817675
000170 d5 a3 b4 3c 3e ac ef bc 88 44 66 bb 59 89 0a 3c
       0.022050777 -0.029256936 -0.0035136063 0.008455598
000180 8c 38 f5 bb fd 93 8b be 18 f1 2a bd 94 45 af bd
       -0.0074835476 -0.27261344 -0.04173383 -0.08558193
000190 37 a5 fc 3b 63 47 ed 3d 33 3c 11 bc 57 e2 5c be
       0.007710125 0.115858816 -0.00886445 -0.21570717
0001a0 51 3a 4e bd 58 15 2e be a1 d5 2f bc 84 03 1a 3e
       -0.050348584 -0.1700033 -0.010732085 0.15040404
0001b0 ed 7b b0 bc 53 1a c4 bc 8d a7 9b bc c6 b1 f6 3c
       -0.021543467 -0.023938334 -0.019000793 0.030114066
0001c0 71 d8 48 3e f4 3c 2a bd 4f 69 a5 bc a7 ec 6b bd
       0.19613816 -0.041562036 -0.020191817 -0.057598736
0001d0 ae 95 de bc 67 a2 06 3e 05 1e a0 be 8c ee ce 3d
       -0.027170982 0.13147889 -0.31272903 0.10104093
0001e0 5e 9c bf be c1 85 b1 bc 65 3f b2 bc f5 e5 82 3e
       -0.37423986 -0.021670224 -0.021758744 0.25566068
0001f0 c8 1b 88 3c a5 95 09 3e 9f 96 d3 bc 1d 5d b8 bb
       0.01661481 0.13435991 -0.025828658 -0.0056263343

fc1.weight f4 [128, 128]
000000 c1 79 18 3c 90 94 1f bc 7c 35 9a 3d aa 04 4e bd
       0.009306372 -0.00974001 0.075297326 -0.050297417
000010 11 16 00 3d 3f 95 a6 bd 5d a8 79 bd 57 72 1e 3c
       0.031271044 -0.08133935 -0.06095158 0.009670815
000020 b4 7d a2 3d 62 f8 3f bd d7 9f 80 3c f8 ab a1 bd
       0.07934132 -0.046867736 0.015701218 -0.078941286
000030 29 0a 68 bd 4e e8 7f 3d 00 c7 c7 bc c3 7b 86 bd
       -0.056650314 0.062477402 -0.024386883 -0.065665744
000040 c7 f4 59 bc 14 10 d0 3c 5f f9 a1 bd ae 45 80 3d
       -0.013302988 0.025398292 -0.07908892 0.0626329
000050 d1 2c 47 bd 91 05 0b 3b 10 22 5d 3d da d3 51 3c
       -0.048626725 0.0021213035 0.053987563 0.012806857
000060 4a ce 24 bd 8c 59 ff ba 17 47 fc 3c 43 47 a3 3d
       -0.040235795 -0.0019481643 0.030795617 0.079725765
000070 52 f9 07 bd b6 4c 98 bd f7 20 85 3d d3 48 00 3c
       -0.033196755 -0.074365065 0.06500428 0.007829863
000080 2b 26 49 bd 1b 86 1c bd f7 69 af 3c 57 f7 8e bc
       -0.049108665 -0.03821383 0.021412833 -0.017451925
000090 1a d6 b0 bc f2 65 a6 3d ca 1d 30 3d 1c 4d 0d 3b
       -0.021586467 0.08124913 0.04299716 0.0021560853
0000a0 8b eb 6e bd cb 35 09 bc 33 60 1a 3b 17 3b 06 bd
       -0.0583301 -0.008374642 0.0023555874 -0.032771196
0000b0 76 08 1c bd 68 14 af bd 59 3a 8a bd 15 53 4f 3c
       -0.038094006 -0.08548814 -0.0674941 0.012654086
0000c0 4c 3d 13 3c 98 b3 76 bd d5 bf a2 bd d5 4e 8f 3d
       0.008986782 -0.060229868 -0.07946745 0.06997458
0000d0 74 b8 b4 3d d7 79 7b bd 3a 0f a9 bd f8 d9 a7 3d
       0.08824244 -0.061395492 -0.08254857 0.08195871
0000e0 37 3e b4 bd 4d 33 fe 3b ae 13 54 3d b9 e7 c3 3c
       -0.08800929 0.0077575804 0.05177658 0.023914205
0000f0 77 67 82 3d 58 75 6a 3c 87 d2 9e bd fa d5 91 3d
       0.063673906 0.0143102035 -0.07754999 0.07120891
000100 dd ee ba 3a d4 97 72 3d e0 18 a6 3d 97 0b 78 bd
       0.0014261861 0.059226826 0.08110213 -0.060557928
000110 d3 27 8a bd 03 ee 73 bd 5f 0d ab 3d 99 c7 60 3c
       -0.06745877 -0.059553158 0.0835216 0.013719463
000120 53 2d 71 3d 53 1f 2a bc e9 1c aa bd 01 73 09 bd
       0.058881115 -0.010383445 -0.083062954 -0.033556942
000130 39 d5 2d bd 26 c6 02 3b 97 62 8e bd c7 c1 94 3d
       -0.042439673 0.0019954531 -0.06952398 0.072635226
000140 0f 2a 1c bd 8a 40 06 bd 5b dc 9b bd d8 cb 87 3b
       -0.038126048 -0.032776393 -0.07610389 0.004144173
000150 9e 85 ec bc 47 4d 3f bd 33 fe 75 bd b9 bc 65 bc
       -0.028872307 -0.046704557 -0.060056876 -0.014022046
000160 31 4f 18 bd 1c 99 48 bd 5c 29 1d 3c 65 7f e2 bc
       -0.037184898 -0.04897414 0.00959238 -0.027648637
000170 09 bb a7 bc 55 f1 55 3d 11 91 b4 bd 2e ce 94 3d
       -0.020474927 0.052232105 -0.08816732 0.07265888
000180 b7 31 e4 3b cd dc 2b 3d 0d 2c 00 bd 0e a1 b7 3c
       0.0069639343 0.04195862 -0.03129201 0.022415664
000190 a0 66 4f bd 05 ba ac 3d 9f af 3a 3c 83 d9 b3 bd
       -0.05063498 0.08433918 0.01139441 -0.087817214
0001a0 5b b8 1c 3c 65 ad a4 bc c2 58 75 3b 71 87 05 3c
       0.009565438 -0.020102212 0.0037436937 0.0081499675
0001b0 b6 f3 02 bc 19 e3 49 bd d4 5e 84 bd 28 f9 f6 3b
       -0.0079926755 -0.049288843 -0.064633995 0.007537026
0001c0 85 02 22 bd 4e 42 6d 3c 09 3d 13 3b 34 ab 9e bd
       -0.039553184 0.01448114 0.00224668 -0.07747498
0001d0 f4 97 28 bd 7f b4 4b bd c9 aa 96 3d c1 8a ab 3d
       -0.04116054 -0.04973268 0.073567934 0.083760746
0001e0 1a f2 01 bd 7e e1 65 bb 9a a6 92 bd fa fa 0d 3d
       -0.031725027 -0.003507703 -0.07160683 0.034663178
0001f0 90 75 0e bd bf df a5 3d 08 94 87 bd 0b 1e 15 3d
       -0.034780085 0.08099317 -0.066200316 0.036405604
000200 eb 7f 45 3d 7e 53 88 3e dc b0 23 3e be 2c 84 bc
       0.048217695 0.266262 0.15985435 -0.016134616
000210 eb 1f 54 3d bd 40 83 3e 64 6c b0 3d 43 18 c7 3c
       0.05178825 0.2563533 0.08614424 0.024303561
000220 86 fa 3e be ea 8f 40 bd 53 3a 77 3d c1 c2 2a 3a
       -0.18650255 -0.047012247 0.060358357 0.0006514006
000230 ca f4 87 3e 7e 43 02 3e ba bf 39 3d 89 6a cd bd
       0.26553947 0.12721059 0.04534886 -0.100300856
000240 db c0 3d 3c 64 fb 0d bf 7a 52 d1 3d 83 73 8d 3e
       0.011581625 -0.55461717 0.10220809 0.2762719
000250 73 db 8a bc 61 77 84 bd 30 d2 5f bd 2b a2 b9 3c
       -0.016950345 -0.06468082 -0.05464381 0.022660336
000260 4d aa 86 3e 98 9a 44 bd d0 ae 17 bd b4 09 bf 3c
       0.26301804 -0.047998995 -0.03703195 0.023320056
000270 3d aa 3f bd 19 31 ef 3c 0b 39 db bd 80 7b 5f 3e
       -0.04679321 0.029198216 -0.107042395 0.21824455
000280 93 d6 bb bc 10 33 d5 bb d2 c1 9f 3d ef 02 06 3d
       -0.022929465 -0.0065063313 0.0780064 0.03271764
000290 6b 22 6d bd 56 77 9d be ea 87 4d 3e f6 0c 93 3e
       -0.05789415 -0.3075511 0.20071378 0.28720826
0002a0 68 75 23 3d 19 13 82 3d 86 db b3 bd 8c 06 b8 be
       0.03990689 0.06351299 -0.08782105 -0.35942495
0002b0 71 ad ab 3d 10 23 f8 bd ae 3a 7f 3d 68 b0 c1 3e
       0.08382691 -0.12116063 0.06231182 0.378299
0002c0 e6 7b 57 3d f4 a9 c0 bc 39 0f cf bd a8 ae 00 3d
       0.052608393 -0.02351854 -0.10110325 0.031416565
0002d0 9f a4 b2 bd ca 2f ea 3e 1c 6b 82 3c 0f 04 34 3d
       -0.08722805 0.45739585 0.015920214 0.043949183
0002e0 cf 51 c5 bd 33 5c 2c bd 33 a0 ad bd b1 0e c0 bc
       -0.096347444 -0.042080116 -0.08477821 -0.023444505
0002f0 b4 db 8a 3c c7 a7 e0 3e 59 42 d0 3c 05 1b b4 3d
       0.016950466 0.43878004 0.025422262 0.08794216
000300 6f ef 35 bf 9d f8 a3 3a 40 80 c6 bd b9 b2 fb 3c
       -0.7106847 0.0012510006 -0.096924305 0.03072487
000310 4c fa d7 3c c4 f5 57 bd 42 7e 57 be 2a 63 7f bf
       0.026364468 -0.052724615 -0.21044257 -0.9976069
000320 ad d2 02 be 52 de b9 bc 84 69 38 bc 25 93 e5 3d
       -0.12775679 -0.022689018 -0.011255626 0.11209706
000330 86 32 12 3d c2 57 9f 3d bd 6e 1b 3d f2 cc 11 3d
       0.035692714 0.0778041 0.037947405 0.03559584
000340 d3 ce 72 be 73 e1 35 3f 1c b0 b0 3c 3a 17 26 bf
       -0.2371171 0.71047133 0.02156835 -0.6487919
000350 8e ee 25 bd 4f 13 ed 3b 97 73 ed 3c 2c 25 06 bb
       -0.040510707 0.007234968 0.028985782 -0.0020468934
000360 d7 c4 de bd cc 45 1e 3e d5 9e 03 bf 80 d8 19 bd
       -0.10877388 0.15456313 -0.51414233 -0.037559986
000370 e5 c3 d4 b9 dd 5e 80 be a5 eb a5 3d 38 9d f0 bd
       -0.00040581744 -0.25072375 0.08101586 -0.11748737
000380 65 59 14 3d 3c 6e b5 bd db 3f f7 be 9e d1 84 3e
       0.036218066 -0.08858916 -0.48290905 0.25941175
000390 20 dc e3 bc e9 49 12 be 35 35 b0 bc 3c fc c2 bd
       -0.027814925 -0.14286007 -0.021509746 -0.09520766
0003a0 01 3b 3d 3f 01 5f 94 3d 9a 0f 0f be d9 78 c5 3d
       0.7391816 0.07244683 -0.13970795 0.096421905
0003b0 c8 b3 a8 bd 62 ea f5 bd a5 d7 a8 bd a4 a8 93 be
       -0.082374156 -0.120075956 -0.08244256 -0.288396
0003c0 43 9b 0e bd 4b cf 93 3e 31 e3 31 3e 01 5f c3 3e
       -0.034816038 0.2886909 0.17371823 0.3815842
0003d0 9b 41 2a 3e 97 d7 d2 bb 79 6d 4b 3d 27 9b e2 bc
       0.16626589 -0.0064343917 0.049664948 -0.027661873
0003e0 14 59 b3 bd a4 e6 b9 ba e0 45 87 be a0 23 46 3d
       -0.08757225 -0.0014183116 -0.26420498 0.04837382
0003f0 b0 47 c2 bd d5 52 41 bd c8 4d 2a bf 92 78 9a 3d
       -0.094863296 -0.047198135 -0.66524935 0.07542528

fc1.bias f4 [128]
000000 0c 0b a2 bd 9c cb d5 3c ff b9 90 bd d3 23 92 bd
       -0.07912263 0.026098065 -0.07066726 -0.07135739
000010 69 6f ee bb 5a 96 8f bb 50 59 c2 bc e3 8c 5f 3d
       -0.0072764647 -0.004381937 -0.023724228 0.05457772
000020 9b e1 3d bc 7d 72 ba 3d 5a 5f 49 bd 2c e7 ca bd
       -0.011589433 0.09103868 -0.0491632 -0.09907374
000030 4b 90 ae 39 35 7a 67 3d 38 04 d2 bd e1 5d 44 bd
       0.00033295373 0.05651303 -0.10254711 -0.047941092
000040 7f b9 a3 bd 5a 58 32 3c 05 4a a0 bc eb 53 6c ba
       -0.07994365 0.0108853225 -0.019566545 -0.00090151903
000050 a0 16 e0 bd 3b 0a 99 bc cc 69 78 bd 27 a1 99 bd
       -0.109418154 -0.018681636 -0.06064777 -0.075014405
000060 aa 2c a0 bd 3b f5 b7 bd a7 f9 7c bd 59 b9 ce bd
       -0.07821019 -0.08982321 -0.061761525 -0.10093946
000070 e8 1d 67 3d 53 d1 03 bd 0b b5 55 3d 92 6d cd bc
       0.056425005 -0.03218205 0.05217461 -0.025076661
000080 8f 88 45 3d 8a 7a 79 bc d4 2d de bd 2a 4d b6 bd
       0.048225936 -0.0152269695 -0.10848585 -0.089014366
000090 20 24 ab bd 11 64 02 bd 9b 56 bf bd aa 71 c5 bd
       -0.083565 -0.031833712 -0.093426906 -0.0964082
0000a0 e6 54 6a bd df 1a 43 3d bc c6 26 bd 87 0f f3 38
       -0.05720987 0.04763305 -0.04071687 0.00011590035
0000b0 8b 46 84 bd 59 f3 85 bd 3c 70 ab bb 87 4a 89 3d
       -0.064587675 -0.065405555 -0.0052318852 0.06703668
0000c0 0a 4a 0f 3d 7f 34 80 bd a6 57 fb 3c 2a 9a 23 bd
       0.03498272 -0.06260013 0.030681442 -0.039941944
0000d0 ca 45 5c bd 20 2d c6 bd 54 f1 3d 3c a1 9e 4d 3d
       -0.053777494 -0.09676576 0.011593182 0.05020011
0000e0 86 50 8a bd 21 8f ab bd e3 73 7c bd 38 ab 24 bc
       -0.0675364 -0.08376909 -0.061633956 -0.010050587
0000f0 03 b9 87 bd fa 7d 80 3d a0 d3 57 bd 87 4d 0e 3d
       -0.06627085 0.06274028 -0.052692056 0.034741905
000100 82 d1 af 3c 28 a3 06 3d 10 df 9a bc bc 3f a9 3c
       0.021462206 0.03287044 -0.018905193 0.020660274
000110 15 d5 2c bc 56 32 d0 bc 99 a4 91 3d 62 45 68 bd
       -0.01054885 -0.025414627 0.07111473 -0.056706794
000120 2a 88 91 3c d2 1a 55 3c fc e9 0c 3d c8 e5 85 bc
       0.017765123 0.013006883 0.034402832 -0.01634492
000130 05 db 91 bc ed b4 be bd ed 85 1d bd 45 d2 82 bc
       -0.017804632 -0.093118526 -0.0384578 -0.015969405
000140 9e be 87 3c 75 d1 6e bd 04 b1 6b 3b 15 72 ee bb
       0.016570386 -0.058305223 0.0035963664 -0.007276783
000150 b4 8e 8a bc 51 8f 4a 3c 85 4e 05 3d 79 4a 20 be
       -0.01691375 0.012363271 0.032545585 -0.15653409
000160 3b c5 99 bd 23 14 83 bd ad be 08 bd d3 a0 d1 bb
       -0.07508322 -0.06400325 -0.033384968 -0.0063973456
000170 6a e1 57 3b 21 9d 56 bd 87 39 80 3c c0 52 84 3d
       0.0032940754 -0.052395944 0.015652431 0.06461096
000180 97 1f 7a bd b7 86 79 bd a7 24 d9 3d 07 fa 4b 3d
       -0.061065283 -0.06091949 0.10602694 0.04979899
000190 85 73 80 bd df 8f dc 3c 6e ea 29 bd 1d 4a 81 ba
       -0.062720336 0.026924072 -0.041483335 -0.0009864006
0001a0 b8 85 b0 bd 13 4a 73 3d 68 e4 86 bc fd 2a 85 bc
       -0.08619255 0.059396815 -0.016466334 -0.01625585
0001b0 25 15 9d 3d 31 48 b1 3b 00 3a a2 3b 88 e9 6c bd
       0.076700486 0.005410217 0.004950762 -0.0578399
0001c0 6a 73 7d 3d 64 44 06 bc 4e 5e e7 bb b7 46 b2 3c
       0.061877646 -0.0081950165 -0.0070608025 0.021762235
0001d0 d0 24 56 bd 45 ae ab bd ad b3 0f 3d 9b 14 83 bd
       -0.0522812 -0.08382849 0.03508346 -0.064004146
0001e0 04 e1 26 bc 65 22 4c bc c4 0e 5d 3c 4c 50 02 bd
       -0.010185484 -0.012459372 0.01349229 -0.03181486
0001f0 9d 94 ba 3a 85 ea 88 bd d7 01 03 3d ba 71 4d bd
       0.0014234964 -0.06685356 0.031984176 -0.050157286

fc2.weight f4 [128, 128]
000000 39 cf 91 3d 0a 53 af bd 69 5e c8 3b 11 64 8e bd
       0.07119603 -0.0856076 0.00611477 -0.0695268
000010 cc 69 79 bb b0 cd 4d bd c5 9f 7d 3d b2 97 6a bd
       -0.0038057445 -0.050244987 0.061919946 -0.057273574
000020 cc a7 50 bd aa ae 51 bd 7f 62 ea 3c db e1 52 bd
       -0.050941274 -0.051191963 0.02861142 -0.051484924
000030 2c 30 50 bd 57 5e 38 bd af ac 4f bd 4f 5a 94 3c
       -0.05082719 -0.045011844 -0.050701793 0.018109469
000040 7a 9f a5 3d 4b a3 3e 3d e3 7e b0 3d cf 71 51 bd
       0.08087058 0.046542447 0.08617952 -0.051133927
000050 ed 16 52 3d 1d 42 6e bd bc 2e a4 bc 44 9c b2 bd
       0.051291395 -0.05816852 -0.020041816 -0.087212116
000060 0d 04 12 3d 4a 7c 47 bd 33 40 16 bd 26 63 fd 38
       0.035648394 -0.048702516 -0.03668232 0.00012082448
000070 77 4a 14 bd c4 84 a6 bd 95 b0 c9 3c 71 e8 2c 3d
       -0.036203828 -0.08130792 0.024620334 0.04221386
000080 e9 33 1f 3d 50 8c 16 bd 83 a3 8d bd 9c bb 86 3d
       0.038867865 -0.036754906 -0.06915953 0.065787524
000090 5e 34 1c bd 1e be ae 3c 2b 05 fd 3c 5a a2 9f bd
       -0.03813588 0.02133089 0.030886253 -0.07794638
0000a0 36 36 77 bd 88 ec 98 bd a7 38 2d bc 84 7c b2 bd
       -0.060354434 -0.0746699 -0.010572589 -0.08715156
0000b0 80 a5 a2 bd c5 01 26 3d b7 a3 68 3b 3c d9 be 3c
       -0.07941723 0.04052903 0.0035497972 0.023296945
0000c0 52 da 35 3b 31 38 d3 bc 92 09 b0 3c ee c0 52 bd
       0.0027748537 -0.02578363 0.021488938 -0.051453523
0000d0 1a 78 af bd 8a 65 6d bd 77 a9 a4 3b d0 0e 16 bc
       -0.085678294 -0.057958163 0.0050250846 -0.009158805
0000e0 3d 31 23 bd 6d 12 87 bd f3 f1 5b 3d 3e fa 99 3c
       -0.03984188 -0.06595311 0.053697538 0.018796083
0000f0 91 ad cb 3c 5e da 2a bd f8 a6 86 bd 3f 3f 1f 3d
       0.024863036 -0.041712157 -0.065748155 0.038878676
000100 d7 b1 8a bd 44 81 ab 3d 6c 7d ec ba fc 0b 96 bc
       -0.067722015 0.08374265 -0.001804275 -0.018316261
000110 7d 36 a9 bc 31 5c 3b 3d 2c f4 9b bd 5a 3a 56 bd
       -0.020655865 0.045742217 -0.076149315 -0.052301742
000120 7b 0a d1 bc 63 23 22 3d 08 d8 ff bb 37 20 09 3d
       -0.025517693 0.03958453 -0.0078077354 0.033477988
000130 32 ce 2b 3d 6c d7 b3 bd f0 47 d4 bc bd 1d ad bd
       0.04194469 -0.08781323 -0.025913209 -0.08452938
000140 4b d7 80 3d 2c 8f 34 3c ea ec 0d 3d 31 24 e4 3a
       0.06291064 0.011020463 0.034649767 0.0017405805
000150 c9 02 97 bc 10 f2 65 3c b6 14 3c 3d 93 30 0c bd
       -0.018433945 0.014034763 0.04591819 -0.03422601
000160 85 76 4c bb 3d 36 80 bc 1e a7 07 3d ab 74 3e bd
       -0.0031198573 -0.015650863 0.03311836 -0.046497982
000170 03 58 31 bc 91 20 64 3c 08 49 a8 bd 37 2c 74 3d
       -0.010824206 0.01392378 -0.082170546 0.05961248
000180 66 8c 9a 3d 52 a7 00 bd c9 d5 36 bd e4 af 1c bd
       0.0754631 -0.03140957 -0.044637475 -0.03825368
000190 76 70 2f 3c 0e 53 b2 3c 82 be 14 bd ea 59 56 3c
       0.010707965 0.02176812 -0.036314495 0.013082961
0001a0 ab 5a 36 bd 23 ab dc bc 4b d7 f8 3c dd 87 a2 bc
       -0.04452006 -0.026937073 0.030376097 -0.019840175
0001b0 53 07 d9 3b 4c 6e 09 3d 4e 88 ad 3d 87 01 08 3d
       0.0066231876 0.033552453 0.08473264 0.03320458
0001c0 82 9e 1d bd 7b 97 8d bd f6 5a a2 3c 37 a7 91 3d
       -0.038481243 -0.06913658 0.019818764 0.07111972
0001d0 2b ba 28 bd 3c 34 18 bc fc 44 33 3d 5d 3b 3b bc
       -0.04119317 -0.009289797 0.04376696 -0.0114277275
0001e0 7d 9f 95 bc 32 82 42 3c c9 b0 2d bd 5e 5a cc 3c
       -0.018264527 0.011871861 -0.042404924 0.024945434
0001f0 92 32 e5 3b f4 45 9d ba 11 77 03 bd 55 e8 bd 3c
       0.006994554 -0.0011998997 -0.032095972 0.023182074
000200 f4 d7 5b 3d fe ee 2d 3d 67 6c 38 3d 80 94 f7 bc
       0.053672746 0.04246425 0.045025256 -0.030222178
000210 f2 20 7d bc 1b f0 13 bc 68 84 ce 3c fc 7f ce bd
       -0.015449749 -0.009029414 0.02520962 -0.10083005
000220 85 45 83 3b 0d e1 af bd 2b 25 81 39 e2 c2 d1 3c
       0.00400609 -0.08587847 0.0002463249 0.025605623
000230 62 8f 80 bd 67 d1 d9 bd c6 e8 20 bd b4 d2 12 3d
       -0.06277348 -0.106356435 -0.03928449 0.035845473
000240 01 1a 83 3d cf dc 9c 3d 3c 85 c7 3d 95 30 52 3d
       0.06401444 0.076593034 0.09742209 0.051315863
000250 26 9c 35 3d 8f 73 bc bd 9b d2 07 bc 06 34 a6 bd
       0.044338368 -0.092017286 -0.008289958 -0.081153914
000260 96 64 91 3d 11 e9 66 bc 7b a6 28 3c 6b 1a 00 bd
       0.07099263 -0.014093653 0.010293598 -0.031275194
000270 4b ea 60 3d af b8 66 bc af 74 98 bd 65 2b a9 bc
       0.05491094 -0.014082118 -0.07444131 -0.020650575
000280 d5 e1 7a bd 25 c9 8b 3d 28 5f 8e 3d 50 ce 65 3d
       -0.061250526 0.06825475 0.06951743 0.056104958
000290 c6 4c 3a 3d 01 a3 08 bc 19 5a 62 3c d1 bf c6 bc
       0.045483373 -0.008339644 0.013815426 -0.024261387
0002a0 ab 99 65 bd 46 2f e8 bc 09 f4 77 bd c8 ef 8a bd
       -0.056054752 -0.028342854 -0.060535464 -0.06784016
0002b0 30 c2 72 3d 78 75 60 bd c5 7b b2 bd 55 a1 88 bd
       0.059267223 -0.054799527 -0.087150134 -0.06671397
0002c0 86 90 04 3d d3 0c 88 bd 84 81 4f 3b bc 23 87 3d
       0.03236439 -0.06643071 0.003166289 0.06598613
0002d0 39 14 c9 3c b8 57 9c bb 4a 89 18 bd 39 79 53 bd
       0.024545776 -0.004771199 -0.037240304 -0.05162928
0002e0 fa 8b 9a 3d 08 ce 68 3d 10 cd 7c bd 6e 78 37 bd
       0.0754623 0.05683711 -0.061719 -0.044792585
0002f0 bc be 83 bc a6 92 90 bd 1e ca 9e bd ec 43 bd 3c
       -0.01608216 -0.07059221 -0.077533945 0.023103677
000300 5c 8d 84 3d 8e 49 49 3d 62 03 5e 3d 5c 9a 87 bd
       0.06472275 0.049142413 0.054202445 -0.066212386
000310 13 61 c0 bc 81 42 16 bd 5e f4 28 bd c1 97 50 bd
       -0.023483789 -0.036684517 -0.04124867 -0.050925974
000320 c9 77 c3 bd 17 bd 9d 3c c1 3d 2e bc 81 f7 47 bd
       -0.095443316 0.019255204 -0.0106348405 -0.048820022
000330 60 d9 71 3d e1 ef b6 3d fd 0b 7d bd 07 5d c9 3c
       0.059045196 0.08932472 -0.06177901 0.024580492
000340 a0 eb 6f bd b6 dd 44 3d dc d0 99 bd 10 6c 4a 3d
       -0.05857432 0.048063003 -0.0751054 0.049419463
000350 2c cb 33 bd e0 fd b4 ba 9e 08 2f bd 82 35 e0 3c
       -0.04389493 -0.0013808571 -0.042732827 0.027369265
000360 fe a9 13 3d af df f2 3c 1f 20 a0 bd 9c 36 39 3d
       0.03605079 0.029647676 -0.078186266 0.045218095
000370 a2 f2 8c 3d b3 5a 88 bd e1 e6 c5 bd 60 10 c4 bc
       0.06882216 -0.066579245 -0.09663177 -0.02393359
000380 66 b5 1f 3d c9 67 a1 3c f7 b5 11 bd cf 8f 69 bd
       0.038991354 0.019702809 -0.035573926 -0.057021912
000390 c8 37 18 bd ea a4 43 bd 17 cc df 3c da dd 0b bc
       -0.037162572 -0.047764696 0.027318997 -0.00853678
0003a0 9d 84 55 bd 4e 8c 88 bd aa 82 a8 3c 9c dd b2 bd
       -0.052128423 -0.06667386 0.020570118 -0.08733675
0003b0 27 4f 72 bc c1 94 fc 3c 2f bb 44 3d 8c 05 f9 3c
       -0.014789379 0.03083265 0.048030075 0.030398153
0003c0 49 a4 ae bc 92 46 e3 bd 19 57 ad 3d 26 e2 7f 3c
       -0.021318572 -0.110974446 0.08463878 0.015617883
0003d0 3d 65 f2 3c bb 2c 8c 3b 54 61 cf bd 08 36 4e 3d
       0.02958929 0.004277793 -0.10125986 0.050344497
0003e0 23 6c b4 bd 8e ee 8c 3d 8f 00 32 bb 4c 21 a6 3d
       -0.08809688 0.06881438 -0.0027160977 0.081118196
0003f0 fc 01 ce bc 26 b6 06 3d f2 d5 b8 3c 70 2e 22 bc
       -0.02514743 0.032888554 0.022562955 -0.009898767

fc2.bias f4 [128]
000000 05 22 b7 bc 7e b1 99 3c b1 1f c0 3c b6 b7 15 3e
       -0.022355089 0.018761393 0.023452612 0.14620861
000010 7a f4 31 3d d0 5b ac bd 8c 74 87 3d 7a f9 66 bc
       0.04344604 -0.08415949 0.066140264 -0.014097566
000020 41 96 56 3e 38 68 f1 bc bc 6c 80 bc 6b c3 e8 3b
       0.20955755 -0.02946864 -0.015676849 0.0071033738
000030 89 2b 21 3d 5a a7 d8 3d 5f 5c 7c 3d 87 1a 93 bd
       0.03934816 0.10578795 0.06161153 -0.07182794
000040 7e 50 0f 3e b5 fb 8b 3b b7 80 b4 3c 8f 5c ae bd
       0.13995549 0.004271949 0.022034032 -0.08513748
000050 20 98 31 3e 92 af c3 bd e6 cf 8c 3c 20 da 61 bd
       0.17343187 -0.09554972 0.017188977 -0.05513966
000060 e2 06 63 bd 01 db 09 3e 02 b5 e8 bb f5 e3 4b 3d
       -0.055426486 0.1346245 -0.007101656 0.049777944
000070 ef ab ff bc 84 b8 00 3a 1c e7 94 bc 65 6a 92 bc
       -0.031209914 0.00049103075 -0.018176608 -0.017872998
000080 f3 14 9a 3c 0a 1e 68 bd a3 2d 63 3d 2c 26 98 bd
       0.018808817 -0.056669272 0.055463444 -0.07429156
000090 bd 43 5f 3b 94 db cf 3c 36 68 a5 bd 93 7f 11 3e
       0.0034067475 0.025373258 -0.08076517 0.14208822
0000a0 7e e3 1f 3e c8 2d 11 3b 03 9c 8f bd 63 a2 aa 3d
       0.15614125 0.0022152532 -0.07012179 0.08331754
0000b0 2f 43 2f bd 1c 9e 81 ba 7e 0f d4 3d f0 36 d1 3d
       -0.04278868 -0.0009889039 0.103545174 0.102155566
0000c0 db c9 c0 bd c6 7b 98 3e 4e 77 6c bc ea 42 b1 bc
       -0.09413501 0.29781932 -0.014432741 -0.021638352
0000d0 5b 10 0c bb f4 ee c5 bc b2 c1 eb bc 17 c3 a1 bb
       -0.0021372053 -0.024161793 -0.028778885 -0.0049365866
0000e0 c4 4a 96 3d 89 93 77 bd b8 1a cc bd dd 90 7f 3d
       0.07338479 -0.060443435 -0.09966034 0.06239401
0000f0 17 9a 0b bc 41 3f 04 3e 5f d0 be 3d 57 91 e3 bb
       -0.008520625 0.12914754 0.093170874 -0.006944816
000100 af a7 7e 3d 98 a4 20 3d cf 76 67 bd b4 2f 5b 3d
       0.062171634 0.03921947 -0.05650979 0.05351229
000110 2f f5 00 bd 0a a6 0b bd 16 87 b1 bc 6b bf 9d bc
       -0.031483825 -0.034093894 -0.02167086 -0.019256314
000120 6c 5f ea b9 cb 23 f0 3d 50 7f a1 bd 4a 51 33 bb
       -0.00044703053 0.11725577 -0.07885611 -0.0027361684
000130 fa ff f4 3d 7a 63 42 3d 00 e8 a1 3d da 50 a0 3d
       0.11962886 0.04745815 0.079055786 0.07827921
000140 fc 8b ab bd 76 55 93 3c 76 f1 cd 3d f8 5b 14 3e
       -0.08376309 0.017985087 0.10055821 0.14488208
000150 c1 ba a6 3c 37 70 0b 3e 36 70 d8 bd c3 8f 0c 3d
       0.020352723 0.13617025 -0.105682775 0.03431679
000160 8f dd bc bc ac 82 69 3e af df 01 bd b5 6a 39 3e
       -0.023054866 0.22803754 -0.031707462 0.18107112
000170 e0 cd 81 bd da 99 86 bd 16 16 36 bc 63 02 88 bd
       -0.06338096 -0.065723136 -0.011113664 -0.0664108
000180 b7 f1 4e bd a8 5c 06 3e 5f 02 83 3d 05 14 24 3e
       -0.050523486 0.13121283 0.063969366 0.16023262
000190 54 da 51 bc 7c 83 f8 3d 72 c3 87 bd 2c c6 91 bd
       -0.012808401 0.12134454 -0.06629075 -0.071178764
0001a0 18 b5 df 3d 01 8a e8 bc 33 a3 41 3d fb 21 8d 3e
       0.10923213 -0.028386118 0.04727478 0.27564988
0001b0 86 d2 91 bd 70 38 02 3e 12 8d bc 3d af 5f 7a 3d
       -0.07120232 0.12716842 0.092065945 0.061126407
0001c0 58 df 85 bd 4c 50 74 bc b6 cd 98 3c b6 0e bd bd
       -0.0653674 -0.014911722 0.018652778 -0.092313215
0001d0 a9 63 be bd 6d b5 80 3d 23 d1 b1 3d f7 ad 6e bd
       -0.092963524 0.06284604 0.08682468 -0.058271375
0001e0 d3 51 42 3d 1c 92 0f bd b9 28 c9 bd fd e8 be 3c
       0.047441315 -0.03505145 -0.0982222 0.023304457
0001f0 b6 8a 01 3e 74 46 25 3e 62 b7 a7 bd b4 bd 0b 3c
       0.1265057 0.16140157 -0.08189274 0.0085291155

last_fc.weight f4 [6, 128]
000000 de 01 11 3b e5 43 01 bc 10 be 59 3d 35 7e 7f 3d
       0.0022126357 -0.0078897225 0.053159773 0.06237622
000010 c9 4f 76 3d dd 9b ca 3c 97 3d 5e bd 2b 2c 22 3c
       0.060134683 0.024732525 -0.054257955 0.009898226
000020 9c 75 aa 3d 02 f1 b7 3d e8 a9 fb bb 65 1f 61 bd
       0.083232135 0.089815155 -0.0076801665 -0.05496158
000030 bd eb 0f bd 24 97 44 bd b6 4a e7 3c 1a 1c a4 bd
       -0.035136927 -0.0479957 0.028233867 -0.080131724
000040 40 f9 e2 3e 88 c7 b3 bd 63 41 1f 3d 99 2c 8c bd
       0.44330788 -0.08778292 0.038880717 -0.06844444
000050 94 4a 1b 3e fb dc 85 bd 7c 4f fe bc cd 2b 14 bd
       0.15165168 -0.06536289 -0.03104376 -0.036174584
000060 d0 5e 9a bd f0 8d de 3c 01 96 6b bd 58 20 a0 3d
       -0.07537615 0.02716729 -0.0575161 0.07818669
000070 44 41 33 bd 9d a3 79 3d 30 48 e4 3c c5 1a 3f 3d
       -0.043763414 0.06094705 0.027866453 0.04665639
000080 e7 15 0f bc 7f 03 fb 3c 88 0f 24 3d f2 cb 6c bc
       -0.008733249 0.030641316 0.040053874 -0.014452921
000090 ab 10 8d bd 00 2c 23 bd 73 31 64 3d d2 2d f2 bc
       -0.06887945 -0.039836884 0.05571122 -0.029562864
0000a0 c4 aa b3 bb 65 91 ec bc 56 c4 e1 ba 88 c2 b6 3c
       -0.0054830033 -0.028877923 -0.001722465 0.022309557
0000b0 2e b7 dd bc 42 a7 76 3d 28 0d 8f bd 5e 10 5d bc
       -0.027064886 0.060218103 -0.06984931 -0.013492672
0000c0 e8 a2 64 bd 67 d2 7e 3d 7d 30 c8 bc 80 ab 5c 3d
       -0.055819422 0.062212374 -0.024437184 0.053874493
0000d0 af 8a dd bc 83 79 25 bd cd dd b6 3b 22 b7 00 bc
       -0.027043669 -0.040399086 0.00558064 -0.007856162
0000e0 e2 d0 af 3d aa 33 09 3a 33 ab 45 bd 50 eb 5f bd
       0.08584763 0.0005233834 -0.04825897 -0.05466777
0000f0 f3 44 25 bc 4d 15 b2 3d 3d 18 ec bc 2f 33 c7 bd
       -0.01008724 0.08695469 -0.028820151 -0.09726559
000100 02 50 a0 3d e2 43 a4 bd d8 9c b0 3c 18 f1 a8 3c
       0.0782776 -0.0802076 0.021559164 0.020622775
000110 02 05 a9 3d 34 55 00 3e 84 7a 95 3d 56 eb a9 bd
       0.08252908 0.12532502 0.072987586 -0.0829684
000120 6e 7e 00 bc 71 3f 2d 3d 05 0e 18 3d 53 fd 0d 3d
       -0.007842643 0.04229683 0.037122745 0.034665417
000130 78 93 5f 3e 89 16 1f bd 8b 1d 14 3d ef de a0 3b
       0.21833599 -0.03883985 0.036160987 0.0049093883
000140 95 3d 22 3d 09 19 8f 3d 4e b7 be bc bb f9 99 3d
       0.03960951 0.06987197 -0.023280766 0.075183354
000150 d4 d3 91 3d c4 da a6 ba 5d 44 1f be 99 0c 8a bc
       0.07120481 -0.0012729992 -0.15553422 -0.01685171
000160 26 cf 2c 3d 66 9d bf 3c d9 dd 19 bd 55 f2 3e 3e
       0.04218974 0.023390483 -0.037565086 0.1864713
000170 4e d3 5e 3d b2 21 8f be 80 6b 4c 3d e0 d7 87 bd
       0.054400735 -0.27955395 0.049907207 -0.06632972
000180 8f c9 cd bb 4e c8 4e bd 8d c4 47 bc 57 6a f8 bb
       -0.006280131 -0.050483994 -0.012192857 -0.007581036
000190 0c 06 c5 3c f5 85 f2 3d e7 6d 32 3c dd 82 25 bd
       0.024050735 0.118419565 0.010890461 -0.040408004
0001a0 da 7a 53 3b f1 7b 4f 3d f0 9d 8c bb 88 ab 28 3d
       0.003226927 0.05065531 -0.0042912886 0.04117921
0001b0 7f 26 68 bd e4 4c 90 3e 7f eb 6e 3d a5 11 e1 3c
       -0.056677338 0.28183663 0.058330055 0.027474234
0001c0 d2 e5 a3 3d 8a 05 79 bd 99 5b 3f bd 09 76 5a bb
       0.08002819 -0.060796298 -0.046718214 -0.0033334515
0001d0 13 19 14 bd 49 6f f6 3a e3 64 0a 3d db 6a c9 3c
       -0.036156725 0.0018801476 0.03378762 0.024587085
0001e0 c1 e4 37 bb 01 37 54 bd 84 a2 8a 3d 73 8d 5c 3d
       -0.0028059932 -0.05181027 0.06769279 0.053845834
0001f0 fa 6a 54 3c 7e 01 53 3d 54 43 a4 3d 9d 6e 0c bc
       0.012964958 0.051515095 0.08020654 -0.008571294
000200 bf 96 e3 3c ed b6 80 bd 81 9e 40 3d ac 55 61 3d
       0.027781842 -0.0628489 0.04702616 0.055013344
000210 34 5a 91 3d 72 0f 90 3d dd 28 9b 3d 1b 49 6e bd
       0.07097283 0.07034196 0.075761534 -0.058175188
000220 23 d1 a4 3d 43 c0 c6 3d ca 90 a1 bd 73 d2 19 3d
       0.08047702 0.0970464 -0.078889444 0.037554216
000230 ec af 54 bd 1c 2f 85 bd ac fa b2 3c da 84 a1 3d
       -0.051925585 -0.06503126 0.021848045 0.078866675
000240 36 59 ea 3e ca 95 b9 bc 05 08 e9 3c f0 6f 92 bd
       0.45771188 -0.022654433 0.028446207 -0.07150257
000250 ba eb 0f 3e 96 ab 9a 3d 78 13 30 3d 3e b9 7b 3d
       0.14054766 0.07552259 0.042987317 0.061455958
000260 1a c1 29 3d 4b 77 3f 3d 42 d7 34 bc ec f4 93 bd
       0.04144392 0.046744626 -0.01103765 -0.072244495
000270 38 20 68 3b bd cf 5b bd 4d d6 08 3d a7 c7 a3 bc
       0.0035419594 -0.05366491 0.0334075 -0.019992663
000280 28 78 a1 3c 09 9d 86 bd 33 07 f0 bb 4d e2 60 bd
       0.019710615 -0.06572921 -0.007325077 -0.054903317
000290 77 be c8 bc 7d 59 3f bd 06 37 5e 3d 8b 8b 9e 39
       -0.024504883 -0.046716202 0.054251693 0.00030240076
0002a0 24 eb 86 3d 61 ef 43 bd 8c e2 bb 3d 63 2a d6 bc
       0.06587818 -0.04783571 0.0917407 -0.026143258
0002b0 41 c4 74 3d 74 a7 63 bc 5f 1e c8 bd 84 f4 c1 bb
       0.059757475 -0.013894904 -0.09771418 -0.005919041
0002c0 58 34 6d bd f6 48 a7 3c fd 0d a8 3d 80 59 c5 3c
       -0.057911247 0.020420533 0.08205793 0.024090528
0002d0 e6 87 05 bd 14 c3 89 bd f0 02 84 bc d4 ff a6 bc
       -0.032600306 -0.06726661 -0.016114682 -0.02038566
0002e0 bc 3a 0d bd e7 84 f4 bc 00 bf 4d bc 24 b3 0e 3d
       -0.03447984 -0.029848529 -0.012557745 0.03483881
0002f0 17 ca 9a bb b9 6f bf 3c 0e 71 36 bb 17 47 da bc
       -0.004723798 0.023368703 -0.0027838382 -0.026645226
000300 8a 56 4a 3d 04 01 68 bd af fd 0c bd de b8 db 3c
       0.049398936 -0.056641594 -0.03442162 0.02682155
000310 7f bf 7b 3d a6 07 67 3e 06 df ec bc c9 27 08 bd
       0.06146192 0.22561511 -0.02891494 -0.033241067
000320 25 86 69 3d e6 30 02 3d 73 99 24 bd c5 2e 99 bd
       0.057012696 0.031784914 -0.040185403 -0.07479624
000330 28 f6 68 3e 93 72 94 3c 7e ba ab bb 69 36 28 3d
       0.22750151 0.01812104 -0.0052407375 0.041067515
000340 50 67 0d 3b 7a 9f 8c bd 41 cc 2c 3c 63 73 0e bd
       0.0021576472 -0.06866355 0.010546745 -0.03477801
000350 8e 2c d8 bc 95 c5 fb 3c ac d6 16 be 9f 99 5c 3c
       -0.026388433 0.030733863 -0.14730328 0.0134643605
000360 9d 33 0f 3d c7 d8 43 3d 46 77 d4 3b 55 b7 40 3e
       0.03496133 0.047814157 0.006483945 0.18819936
000370 cc 58 07 3d bf 52 5a be 3f ba 83 bd d7 7f 53 3c
       0.033043668 -0.21320628 -0.06432008 0.012908897
000380 68 57 7b 3d b3 0d 6e 3d ab c6 f3 bc 9e f5 e9 bb
       0.061362654 0.058118533 -0.029757818 -0.0071398756
000390 31 e6 22 bc 4a ff b3 3d 31 54 0d bd 33 fd 17 3d
       -0.009942577 0.08788927 -0.03450412 0.037106704
0003a0 5f 67 d4 bc 7c da ab bd 4c 3e 81 3c 54 01 d6 3c
       -0.025928197 -0.08391282 0.015776776 0.02612368
0003b0 8b 52 ef 3c 45 e0 96 3e 6d 69 6e bd 37 e7 f1 3b
       0.029214164 0.2946798 -0.05820601 0.0073822993
0003c0 ce eb 6b 3d 49 40 a0 3c 12 29 96 bd 0f 1e 84 bb
       0.057597928 0.019561904 -0.07332052 -0.0040319036
0003d0 a4 94 71 bd 41 f9 5c 3d 30 0d 55 bc aa da e3 bc
       -0.058979645 0.053948645 -0.013003632 -0.027814228
0003e0 a9 4b f0 ba 6a eb 86 bd 22 a9 c4 bc 27 e0 6c bc
       -0.0018333095 -0.065878704 -0.02400643 -0.014457739
0003f0 a9 cb 1f 3c d5 50 cb bc 76 32 0f bd 08 58 18 bd
       0.009753146 -0.024818817 -0.034960233 -0.03719333

last_fc.bias f4 [6]
000000 4f a2 7a 3d 3c 7f ef 3d 27 6a d4 bd 37 dc c1 3e
       0.061189946 0.1169419 -0.103718095 0.37863323
000010 fe 77 bd 3e f8 03 d7 3e
       0.3700561 0.41995215
