data/Fanuc_success/Behavior_cloning/BC_policy_GIC_CEV_300_aug_5angles_itr_39.pt (torch, 142041 bytes, 8 tensors)

fc0.weight f4 [128, 6]
-1.3785638 0.08421548 -0.10437162 -0.10352024 -0.018399509 -0.20157357 -0.9982722 -0.39416307
0.28277814 -0.68388987 -0.25304204 0.3178518 -0.14912924 -0.11842105 0.25515693 -0.33863539
0.16317536 -0.17248628 -1.6418419 -0.11977953 0.4991291 -0.76149106 0.046933852 -0.4362653
0.035592847 -0.0775318 -0.3810338 0.06649014 -0.09646935 0.2817859 0.12353969 0.36294684
0.07941523 -0.010537085 0.302845 0.35082886 -0.6671722 0.40220043 0.4700594 -0.8024437
-0.03966275 -0.6362252 -0.02115649 0.75966406 0.64108646 -0.24955542 0.26915202 -0.04667264
-0.030228965 -0.15431972 0.109452546 0.06864654 -0.13342153 -0.40517557 -0.29509938 0.4761339
0.40406924 -0.23978093 -0.06426835 -0.6163978 0.2994841 -0.1900194 -0.5524361 0.4458281
-0.37294316 0.5387162 -0.9616592 0.15313481 0.76389277 -0.19826971 -0.06648246 0.25113514
-0.2306281 0.27074945 0.2367175 -0.5224264 0.504863 -0.5541739 0.013377186 0.7055017
0.6265799 0.3123137 -0.033190664 -0.39507934 -0.25735682 0.35305557 0.107376985 0.094604336
-0.0022469806 -0.018492023 0.24910462 -0.29541108 -0.2623763 0.267248 -0.17889859 -0.1103472
-0.6578392 0.072035216 -0.4658546 -0.4405009 -0.3570441 -0.22892092 -0.024070896 0.42438808
0.3448663 -0.40074396 0.40196034 -0.18881951 0.31759286 0.5856375 0.5955218 0.008997873
0.17207584 0.0052598356 0.23438236 -0.38528976 -0.05344025 -0.16710156 -0.31072268 0.02738545
-6.886196 0.32335657 0.026025655 -0.40043232 0.36871615 -0.47142985 -0.20935898 0.239675
0.40275556 -0.032744806 0.17842501 0.37641144 -0.5860265 0.115179665 0.37125924 0.06812965
0.24361512 -0.4996137 -0.4393185 -0.38593096 -0.2650333 0.4006907 0.16660957 -0.3609822
-0.015302959 0.3349112 0.5322797 0.063702755 0.053352006 -0.064971685 -0.9262989 0.12590462
0.37574127 -0.3954356 -0.026654897 -0.1421206 0.53944397 0.32119423 0.55080783 0.10896814
-0.073891625 0.21286619 -0.95456827 0.41786984 0.55940187 0.033349253 0.015807044 -0.051664893
-0.22547421 -0.12020904 -0.45404276 -0.13723095 -0.28900784 -0.22634092 -0.3394072 0.2169139
0.14489195 -0.09919559 0.31237024 0.20367311 -0.11694546 0.0005318815 -0.27579188 0.26762772
-0.21999714 0.32192966 -4.099682 0.6464256 0.290091 -0.23347065 0.28089687 0.11694443
0.115507655 0.20148848 0.17100483 0.36958125 -0.041448034 0.26130494 -1.324665 -0.82676214
0.3650822 -0.22351813 0.56567484 -0.14018072 -0.32134154 0.008045216 0.5571442 -0.75125736
0.4548394 -0.70289063 -1.313377 0.44655526 -0.10176585 -0.5028068 -0.07147746 -0.38144058
-0.9278858 -0.20284237 -0.3453226 -0.4371452 -0.23444922 0.043023646 3.3699658 0.3617814
0.04224904 0.16700149 -0.03963991 -0.23736945 -0.48458523 0.9831802 -0.7995484 0.29721424
0.049067795 -0.016984968 -1.459246 0.6794204 0.61944133 -0.19522573 -0.17544265 -0.20002185
-0.024686327 0.25061646 0.66397834 0.050105702 0.4440195 0.09654218 -5.1575537 0.13368821
0.33445606 -0.41774678 0.10068365 -1.039115 6.0649877 -0.68611515 -0.48612386 -0.08453246
00000000: c774 b0bf 2a79 ac3d cac0 d5bd 6b02 d4bd
00000010: 91ba 96bc 4d69 4ebe c48e 7fbf becf c9be
00000020: 4cc8 903e 6813 2fbf ba8e 81be 79bd a23e
00000030: 56b5 18be bc86 f2bd eea3 823e 9e61 adbe
00000040: 7117 273e 3ea0 30be e027 d2bf f84e f5bd
00000050: d98d ff3e 14f1 42bf b63d 403d 2a5e dfbe
00000060: cec9 113d fec8 9ebd dd16 c3be fc2b 883d
00000070: b991 c5bd 3e46 903e 6102 fd3d 2bd4 b93e
00000080: 74a4 a23d bda3 2cbc 800e 9b3e d79f b33e
00000090: cccb 2abf 37ed cd3e a0ab f03e f36c 4dbf
000000a0: 6875 22bd a8df 22bf 6050 adbc 5879 423f
000000b0: 3e1e 243f 758b 7fbe 4bce 893e cf2b 3fbd
000000c0: bca2 f7bc fd05 1ebe a828 e03d 8f96 8c3d
000000d0: a79f 08be 2c73 cfbe 4417 97be d3c7 f33e
000000e0: 2ae2 ce3e 2289 75be 209f 83bd 3fcc 1dbf
000000f0: fb55 993e 7294 42be 746c 0dbf 9543 e43e
00000100: 68f2 bebe 4ee9 093f 4c2f 76bf 5fcf 1c3e
00000110: 7a8e 433f 3707 4bbe f527 88bd c994 803e
00000120: c629 6cbe ac9f 8a3e 1366 723e bdbd 05bf
00000130: b43e 013f 57de 0dbf fc2b 5b3c c29b 343f
00000140: 8a67 203f 95e7 9f3e eff2 07bd d747 cabe
00000150: 46c4 83be b3c3 b43e 77e8 db3d ebbf c13d
00000160: 1442 13bb 957c 97bc 4815 7f3e 1f40 97be
00000170: 3056 86be bbd4 883e 3131 37be b6fd e1bd
00000180: 2668 28bf 3387 933d 7e84 eebe 5589 e1be
00000190: 7cce b6be 3f6a 6abe 5430 c5bc 6549 d93e
000001a0: 5192 b03e 502e cdbe bfcd cd3e e759 41be
000001b0: 889b a23e 57ec 153f 1e74 183f d16b 133c
000001c0: a634 303e b35a ac3b ee01 703e b344 c5be
000001d0: 2ae4 5abd ac1c 2bbe 0b17 9fbe 7457 e03c
000001e0: b85b dcc0 fe8e a53e c133 d53c 7705 cdbe
000001f0: 5dc8 bc3e 415f f1be 3362 56be 5d6d 753e
00000200: fa35 ce3e 6b1f 06bd 0cb5 363e 00b9 c03e
00000210: d505 16bf 51e3 eb3d b115 be3e 8f87 8b3d
00000220: 3e76 793e 5ecd ffbe 5bee e0be be98 c5be
00000230: 72b2 87be 5527 cd3e b39b 2a3e a9d2 b8be
00000240: 43b9 7abc 7b79 ab3e 7b43 083f 9776 823d
00000250: a287 5a3d e00f 85bd ed21 6dbf 24ed 003e
00000260: 2961 c03e 8976 cabe 5f5b dabc 1088 11be
00000270: 0019 0a3f 9273 a43e be01 0d3f b02a df3d
00000280: 7e54 97bd 98f9 593e 965e 74bf 09f3 d53e
00000290: f634 0f3f 3a99 083d c67d 813c 919e 53bd
000002a0: b6e2 66be 2830 f6bd 4b78 e8be 4586 0cbe
000002b0: d6f8 93be eac5 67be c8c6 adbe ad1e 5e3e
000002c0: 8e5e 143e 0f27 cbbd feee 9f3e af8f 503e
000002d0: 1a81 efbd f76d 0b3a 9834 8dbe 8006 893e
000002e0: ee46 61be f7d3 a43e 9830 83c0 267c 253f
000002f0: cf86 943e ee12 6fbe b7d1 8f3e 9080 ef3d
00000300: 478f ec3d ff52 4e3e e41b 2f3e c139 bd3e
00000310: 6ac5 29bd c3c9 853e 9f8e a9bf afa6 53bf
00000320: 0eec ba3e f0e1 64be 11d0 103f 898b 0fbe
00000330: e186 a4be 15d0 033c 01a1 0e3f 6752 40bf
00000340: b6e0 e83e a4f0 33bf bd1c a8bf e4a2 e43e
00000350: 9d6a d0bd f2b7 00bf c662 92bd 2e4c c3be
00000360: ec89 6dbf e9b5 4fbe 20ce b0be 7fd1 dfbe
00000370: 7513 70be 9039 303d 85ad 5740 693b b93e
00000380: 540d 2d3d 7002 2b3e 755d 22bd fa10 73be
00000390: 8e1b f8be b3b1 7b3f 34af 4cbf 772c 983e
000003a0: 50fb 483d 0f24 8bbc 93c8 babf 7fee 2d3f
000003b0: b593 1e3f 41e9 47be 3da7 33be 87d2 4cbe
000003c0: fb3a cabc cd50 803e 7cfa 293f a33b 4d3d
000003d0: 8656 e33e e8b7 c53d ae0a a5c0 90e5 083e
000003e0: d33d ab3e e8e2 d5be 3b33 ce3d b801 85bf
000003f0: 6114 c240 3ea5 2fbf 3ae5 f8be 5b1f adbd

fc0.bias f4 [128]
0.021366302 0.21434185 -0.39154568 -0.027103245 0.2485273 -0.33338785 -0.024787467 -0.038473044
-0.2941796 0.2766 0.082768224 -0.030761829 0.099242486 -0.036970656 -0.013981939 -0.22223659
0.38191548 0.07072913 -0.010566776 -0.28032872 -0.008220696 -0.38323674 0.032586403 0.04817176
-0.00679768 0.17004633 0.056222398 -0.029086728 0.23828836 -0.37538135 -0.37308732 -0.024050029
-0.35991263 -0.049749296 -0.019410904 0.15230003 0.40218714 -0.0013963938 -0.023973977 -0.036730237
-0.028526345 -0.0149506135 0.03215421 0.00075120066 -0.014539926 0.030603005 -0.32519987 -0.21424572
0.17039728 0.025931818 0.07604736 -0.010898798 -0.15544581 -0.12433805 0.3545926 -0.091255315
0.039346628 -0.05895947 0.019498443 -0.1907022 -0.028430069 -0.038580097 -0.3199657 -0.20102894
-0.039912537 0.16637243 0.08620165 -0.2826355 0.049596366 0.17435427 0.04933296 0.289379
-0.008271316 -0.035858035 -0.17942916 0.26000056 0.33224446 -0.3659148 0.0035795409 -0.2860574
0.35863203 0.04673622 -0.030859064 -0.39960977 -0.3414236 -0.22528665 0.042433005 0.12933266
0.029576188 0.11576196 0.081782095 -0.18473831 0.05513175 -0.3526913 -0.022913938 -0.022271786
0.07634356 0.17184904 -0.0326845 -0.34244293 0.08512081 0.12247518 -0.36046633 -0.00023126618
-0.27249625 -0.27377316 0.12274266 -0.33820435 -0.013736595 0.3363566 -0.019329978 -0.018540261
-0.03216642 -0.008430709 0.064193875 0.078163624 0.08971468 0.09143893 0.12578471 -0.17111401
-0.30917203 -0.03157447 0.08190338 -0.28954777 0.26187575 -0.051668264 -0.020808794 0.23706567
00000000: 6208 af3c 6e7c 5b3e ad78 c8be a007 debc
00000010: f17d 7e3e d0b1 aabe 160f cbbc e995 1dbd
00000020: b59e 96be 849e 8d3e 6382 a93d 3b00 fcbc
00000030: a53f cb3d 8b6e 17bd 8114 65bc fd91 63be
00000040: 6d8a c33e 6fda 903d 4520 2dbc 3f87 8fbe
00000050: 19b0 06bc 9b37 c4be 5279 053d c04f 453d
00000060: 13bf debb a020 2e3e 7549 663d 4a47 eebc
00000070: dd01 743e fc31 c0be 4d05 bfbe 9104 c5bc
00000080: 7846 b8be ebc5 4bbd 9e03 9fbc 8af4 1b3e
00000090: 79eb cd3e 3307 b7ba 1365 c4bc 7272 16bd
000000a0: 15b0 e9bc 6bf3 74bc 22b4 033d 39ec 443a
000000b0: df38 6ebc 27b3 fa3c 9980 a6be 3b63 5bbe
000000c0: a07c 2e3e f76e d43c b8be 9b3d df90 32bc
000000d0: 302d 1fbe f3a4 febd 298d b53e 11e4 babd
000000e0: ee29 213d 7c7f 71bd 33bb 9f3c 7047 43be
000000f0: 2de6 e8bc 2a06 1ebd 8bd2 a3be 88da 4dbe
00000100: 547b 23bd 895d 2a3e 7e8a b03d 9ab5 90be
00000110: 8f25 4b3d ed89 323e 5c11 4a3d 7c29 943e
00000120: 6a84 07bc e0df 12bd 47bc 37be cb1e 853e
00000130: f21b aa3e 2f59 bbbe bb96 6a3b 1e76 92be
00000140: 9e9e b73e 7b6e 3f3d 26cc fcbc a799 ccbe
00000150: 13cf aebe 8bb1 66be 3bce 2d3d c86f 043e
00000160: c349 f23c 9b14 ed3d 5f7d a73d 0a2c 3dbe
00000170: d4d1 613d f493 b4be 03b6 bbbc 5273 b6bc
00000180: 035a 9c3d 32f9 2f3e 2fe0 05bd ae54 afbe
00000190: d253 ae3d 44d4 fa3d 0b8f b8be 0b80 72b9
000001a0: a184 8bbe ff2b 8cbe 8160 fb3d 1f29 adbe
000001b0: 750f 61bc ef36 ac3e e759 9ebc bfe1 97bc
000001c0: f0c0 03bd f520 0abc 1478 833d 4014 a03d
000001d0: 55bc b73d 5544 bb3d b5cd 003e 8338 2fbe
000001e0: cc4b 9ebe 3b54 01bd f6bc a73d 9b3f 94be
000001f0: 9414 863e 1aa2 53bd 3477 aabc 58c1 723e

fc1.weight f4 [128, 128]
0.098058976 0.022175342 -0.023726283 0.0022944887 -0.007903635 -0.04838164 0.42403394 0.63867396
0.066484176 -0.0322631 -0.040250994 0.5418028 -0.057346687 0.56393456 -0.026969349 -0.0883727
0.04861984 -0.05763887 0.31092533 -0.07528805 1.2380536 -0.009964452 0.06836859 0.07371805
0.14584585 0.101846226 -0.035580877 0.5757428 0.050400056 -0.0007635112 -0.08216828 1.0986516
0.017476944 0.03352474 0.7681602 0.066252455 0.05580479 0.28973237 0.38812646 0.53492385
0.32327008 1.1532955 0.8157695 0.032201894 -0.09515785 0.074369356 0.056496773 0.035514884
0.012887343 0.000494617 -0.035591293 0.2766996 0.54566073 -0.33648053 0.07000462 -0.56890893
-0.067610696 -0.44967157 -0.025893584 0.03724617 0.17006566 0.117360674 -0.03028702 -0.0034525485
0.32086515 -0.05896471 0.089365326 0.034771338 0.17217188 -0.06750646 0.030287433 -0.03308352
0.20169666 0.32646906 0.020049298 0.05108635 -0.044607863 -0.008637059 0.014075478 -0.25501165
0.037184853 0.00060240703 1.1781298 0.07997576 0.065298565 -0.038562343 0.032897826 -0.07685211
-0.0038227732 -0.0070743165 -0.06914742 0.033293433 0.08548255 -0.078998536 0.61833054 0.952429
0.025746679 0.03113209 0.42664906 -0.014189316 -0.055244584 0.05625889 -0.038936187 -0.2122425
-0.666762 0.120974295 0.058228083 -0.012627943 0.34447733 -0.04183873 0.2792112 1.3274055
0.24729443 0.2397881 -0.019076645 0.060302828 -0.024011472 0.023768472 0.04472742 0.2362794
-0.034615774 0.51372665 0.08098457 -0.061164327 0.04804406 -0.08651131 0.31004953 0.08104087
-0.043536384 -0.0028145313 0.056407064 -0.18003206 0.095988505 0.022764545 0.5650623 0.6535262
-0.06008305 -0.037362125 -0.009383657 0.67953867 0.071303144 0.6712724 -0.06744502 -0.04976367
-0.01798337 0.09269937 0.13060807 -0.042898536 0.5029671 0.07584147 0.034045685 0.025316818
0.13543265 -0.0029751654 0.13384585 0.57717276 0.10890094 0.08132641 0.0028944453 0.67409563
-0.067029275 0.022338793 0.61404026 0.023893656 0.02802088 -0.056836687 0.048197128 0.56476045
0.50555587 0.5148755 0.9061697 -0.11382795 0.085894 0.017794061 -0.044290975 0.05225893
0.07415496 0.0043382454 -0.044756703 0.21442628 -0.058483366 -0.32219812 0.06264775 -0.1932783
0.07959933 -0.031169731 -0.0793067 0.07708949 -0.14396977 -0.11927932 0.03466611 0.013960741
0.53587174 0.0954546 -0.1182993 -0.006904486 0.51135117 -0.025689073 0.014019211 0.07639849
0.20999923 0.5390958 0.021836692 -0.01566328 0.09052981 0.072493255 -0.06337502 -0.21738242
0.008821318 0.037194036 0.7422554 0.053937387 0.018329602 0.0684339 0.06334027 -0.082927875
-0.06181795 0.05283617 0.010290815 0.23469225 -0.026593538 0.04287998 0.6075245 0.7675423
0.05095897 0.02229151 0.67924446 0.022621298 0.06472352 -0.06775009 -0.00043726302 -0.15698831
-0.65362924 0.12588288 -0.051963482 0.06683449 0.035286486 -0.040110424 0.29380077 0.6954306
0.563477 0.0029733328 0.008586183 0.082424246 0.0095160585 0.08266779 0.0066001588 0.091330595
-0.021467391 0.5027164 0.009686677 0.07488249 -0.026140895 -0.04592934 0.080425814 0.10712249
00000000: 25d3 c83d 10a9 b53c 9f5d c2bc 225f 163b
00000010: 3f7e 01bc d42b 46bd fa1a d93e 2380 233f
00000020: db28 883d 5026 04bd 3ade 24bd 97b3 0a3f
00000030: 5ce4 6abd 045e 103f d3ee dcbc bffc b4bd
00000040: 9925 473d bc16 6cbd 9b31 9f3e 9f30 9abd
00000050: 8a78 9e3f f141 23bc d504 8c3d 7df9 963d
00000060: 9d58 153e c194 d03d 41bd 11bd e163 133f
00000070: 4a70 4e3d 5f26 48ba d847 a8bd 9ea0 8c3f
00000080: cf2b 8f3c 3d51 093d 26a6 443f 5eaf 873d
00000090: 9093 643d cd57 943e 83b8 c63e c5f0 083f
000000a0: a883 a53e 309f 933f 45d6 503f 22e6 033d
000000b0: 1ee2 c2bd f64e 983d 2969 673d 0e78 113d
000000c0: 6f25 533c 2fa9 013a 2dc8 11bd 92ab 8d3e
000000d0: 6cb0 0b3f 2d47 acbe 955e 8f3d 04a4 11bf
000000e0: 7a77 8abd 5a3b e6be c81e d4bc 718f 183d
000000f0: b125 2e3e cb5a f03d 7c1c f8bc 2744 62bb
00000100: 7048 a43e fb84 71bd 2b05 b73d 646c 0e3d
00000110: d34d 303e d440 8abd 5a1d f83c 9682 07bd
00000120: 9289 4e3e f426 a73e 6d3e a43c ec3f 513d
00000130: bcb6 36bd 7382 0dbc d59c 663c e390 82be
00000140: 254f 183d daea 1d3a f5cc 963f 55ca a33d
00000150: 41bb 853d 8cf3 1dbd dfbf 063d a464 9dbd
00000160: 7e87 7abb abcf e7bb 2a9d 8dbd b25e 083d
00000170: 7a11 af3d fcc9 a1bd e94a 1e3f 63d2 733f
00000180: b3ea d23c ba08 ff3c bf71 da3e 4e7a 68bc
00000190: 2548 62bd b96f 663d 8d7b 1fbd 1956 59be
000001a0: eab0 2abf 5fc1 f73d 9280 6e3d 6fe5 4ebc
000001b0: 555f b03e 175f 2bbd c5f4 8e3e 6ce8 a93f
000001c0: c03a 7d3e 038b 753e a046 9cbc 1900 773d
000001d0: b5b3 c4bc 19b6 c23c 1934 373d 3af3 713e
000001e0: 45c9 0dbd 9783 033f 3ddb a53d 7287 7abd
000001f0: d9c9 443d d72c b1bd d0be 9e3e c1f8 a53d
00000200: 3553 32bd 0074 38bb 180b 673d 535a 38be
00000210: 9f95 c43d b67c ba3c eca7 103f 7e4d 273f
00000220: a519 76bd 0709 19bd e9bd 19bc 3ff6 2d3f
00000230: 6207 923d 82d8 2b3f 9d20 8abd fdd4 4bbd
00000240: dc51 93bc 2bd9 bd3d 1fbe 053e 60b6 2fbd
00000250: 74c2 003f c652 9b3d 7d73 0b3d 3765 cf3c
00000260: dbae 0a3e fefa 42bb e30e 093e 98c1 133f
00000270: 7507 df3d 768e a63d bcb0 3d3b 8891 2c3f
00000280: a546 89bd d8ff b63c be31 1d3f a1bc c33c
00000290: 0b8c e53c 96cd 68bd 5a6a 453d 2494 103f
000002a0: 1c6c 013f e1ce 033f bdfa 673f a11e e9bd
000002b0: 32e9 af3d dac4 913c 746a 35bd 760d 563d
000002c0: 8ede 973d d727 8e3b ce52 37bd 9092 5b3e
000002d0: 418c 6fbd 27f7 a4be 774d 803d bfea 45be
000002e0: f904 a33d aa57 ffbc 8d6b a2bd 18e1 9d3d
000002f0: d06c 13be b748 f4bd 0dfe 0d3d 98bb 643c
00000300: e42e 093f b47d c33d e746 f2bd 073f e2bb
00000310: e9e7 023f e471 d2bc d5b0 653c d076 9c3d
00000320: 0a0a 573e 2f02 0a3f dde2 b23c 4750 80bc
00000330: b167 b93d 5877 943d c3ca 81bd 7f99 5ebe
00000340: 4a87 103c c658 183d 7304 3e3f 73ed 5c3d
00000350: f627 963c 1327 8c3d 8bb8 813d 17d6 a9bd
00000360: d234 7dbd bd6a 583d ce9a 283c 2a53 703e
00000370: b1da d9bc eba2 2f3d ba86 1b3f a77d 443f
00000380: 5aba 503d af9c b63c f7e2 2d3f 4d50 b93c
00000390: c48d 843d 8fc0 8abd 7340 e5b9 8bc1 20be
000003a0: 3f54 27bf 71e7 003e a9d7 54bd 85e0 883d
000003b0: 9088 103d d44a 24bd 0e6d 963e bd07 323f
000003c0: 0740 103f 3fdc 423b 10ad 0c3c 0bce a83d
000003d0: 3ee9 1b3c bb4d a93d 2546 d83b 890b bb3d
000003e0: 62dc afbc 06b2 003f deb4 1e3c fe5b 993d
000003f0: 6e25 d6bc 6720 3cbd 4ab6 a43d 0963 db3d

fc1.bias f4 [128]
0.079507634 -0.0076372204 -0.09294681 -0.025805753 0.012348899 -0.04322499 -0.035891376 0.038778573
-0.06302237 -0.009816407 -0.053645577 -0.026547158 0.0426705 -0.069058865 -0.022542333 -0.06252889
0.02895921 0.087639585 -0.052918237 -0.050531644 0.056745388 -0.022468686 -0.019223005 -0.09627973
0.003509499 -0.087226436 -0.02003932 0.0005306501 0.06003275 -0.042387176 -0.062517084 0.007576645
0.014025145 0.0461812 -0.0667641 0.10372703 0.070482515 0.0022267078 -0.041261416 -0.04459789
-0.038139965 0.025420401 0.02233818 -0.027026942 -0.034450483 -0.010429859 0.10184321 -0.0023496994
-0.02038987 0.03039502 0.10293961 0.045553144 0.06263844 -0.0023539413 0.042562198 0.031551685
0.0279446 0.011786613 0.04525289 0.06383339 0.024159651 -0.048949603 -0.050855838 0.049161784
-0.047660578 -0.008510396 -0.08543045 -0.01983989 0.031093437 -0.06310292 0.006892703 0.010247609
-0.037355557 0.0847281 0.009338647 0.03544876 0.002852104 0.007585546 -0.051875126 -0.0467435
-0.057706293 -0.022626597 0.026964694 -0.008614359 0.005071014 0.010826913 0.070625655 -0.070061125
-0.067389235 0.06699202 -0.07395207 -0.08310976 -0.030249087 -0.05653594 0.07726329 -0.06986638
0.012796591 0.042009573 0.03290306 0.031521518 0.100299686 0.005512719 -0.0035503234 -0.030304398
-0.092502736 -0.11203698 -0.15194905 0.03374089 0.06803187 0.0052527464 -0.010368025 -0.0038680013
0.038720608 -0.041295167 0.04779527 0.08380927 0.0769722 -0.09081875 0.036877416 -0.054079577
-0.05682028 -0.05350752 -0.014349117 -0.054720882 -0.09502235 -0.031981774 0.08281184 -0.05612045
00000000: e6d4 a23d a641 fabb e65a bebd 9666 d3bc
00000010: 0953 4a3c b00c 31bd d602 13bd 48d6 1e3d
00000020: df11 81bd ffd4 20bc 77bb 5bbd 6d79 d9bc
00000030: 43c7 2e3d bc6e 8dbd b3aa b8bc 260f 80bd
00000040: dd3b ed3c 627c b33d cbc0 58bd 45fa 4ebd
00000050: da6d 683d 4010 b8bc 9079 9dbc 4f2e c5bd
00000060: 9fff 653b c6a3 b2bd 8029 a4bc 531b 0b3a
00000070: e7e4 753d 2d9e 2dbd f508 80bd 8145 f83b
00000080: b9c9 653c 7f28 3d3d 9ebb 88bd d66e d43d
00000090: 2359 903d f5ed 113b bb01 29bd 47ac 36bd
000000a0: a738 1cbd 723e d03c 8ffe b63c 9b67 ddbc
000000b0: f31b 0dbd 00e2 2abc 2c93 d03d 6afd 19bb
000000c0: a808 a7bc fafe f83c 01d2 d23d ef95 3a3d
000000d0: 9548 803d 9544 1abb b355 2e3d 573c 013d
000000e0: 13ec e43c a31c 413c 185b 393d 15bb 823d
000000f0: 76ea c53c 617f 48bd 364e 50bd de5d 493d
00000100: bd37 43bd 306f 0bbc 29f6 aebd 4487 a2bc
00000110: aab7 fe3c 1b3c 81bd 2fdc e13b 96e5 273c
00000120: 2402 19bd ed85 ad3d 2001 193c b832 113d
00000130: 5dea 3a3b 2c90 f83b 037b 54bd 1d76 3fbd
00000140: 6f5d 6cbd 6a5b b9bc 10e5 dc3c 3e23 0dbc
00000150: c02a a63b 5d63 313c 2fa4 903d 357c 8fbd
00000160: 5e03 8abd 1d33 893d 2f74 97bd 7335 aabd
00000170: efcc f7bc 3b92 67bd 373c 9e3d 1b16 8fbd
00000180: cba8 513c 3b12 2c3d 5cc5 063d b51c 013d
00000190: ec69 cd3d 0aa4 b43b 8bac 68bb ee40 f8bc
000001a0: 1372 bdbd a573 e5bd 8898 1bbe e333 0a3d
000001b0: 4b54 8b3d 3b1f ac3b a6de 29bc 4b7e 7dbb
000001c0: 8099 1e3d 1f25 29bd f9c4 433d 32a4 ab3d
000001d0: 9aa3 9d3d 2eff b9bd c60c 173d 8c82 5dbd
000001e0: 62bc 68bd b42a 5bbd 8f18 6bbc 0123 60bd
000001f0: 149b c2bd 52ff 02bd 4199 a93d 8fde 65bd

fc2.weight f4 [128, 128]
0.0044472096 0.19993204 -0.031460997 0.01903795 0.039208114 -0.0029555983 0.04795442 0.10708326
-0.08345322 0.009408347 0.001533532 0.1070704 0.1069818 -0.035389554 0.04192239 0.4499073
-0.05401466 -0.05416756 0.040757235 -0.04933505 -0.07127266 0.017311715 0.046024453 0.044839628
0.087725565 0.59395385 0.048042167 -0.022415975 0.19475077 0.026598765 -0.05682504 -0.059739113
-0.032179806 -0.15445276 0.005393415 -0.070811845 0.028135894 0.06609542 0.081480704 0.5190729
-0.04235309 0.07653227 -0.0051093767 0.006658323 0.032324802 -0.07529235 0.05159233 -0.033413477
0.00928432 0.06002992 0.057530068 0.06925541 0.10461594 0.07865162 0.14124228 -0.07656861
-0.13773511 0.06459836 -0.0042813024 -0.0563943 -0.059334025 0.022643246 0.2888594 -0.011553954
0.059429277 0.6339205 -0.050927304 0.022110036 0.09140744 0.34240884 -0.025626784 0.09618947
0.048833314 0.10097514 0.035266414 -0.030663513 0.01556945 0.04595929 -0.037323684 -0.049382783
-0.146155 0.35180834 0.08097148 0.052312877 0.35491857 -0.0055535426 0.03877534 0.016371246
-0.05101924 -0.026628267 0.034627516 0.03754839 0.011326842 0.02907224 0.046808943 -0.0051556425
0.49947384 0.030440895 0.07627147 -0.027938573 0.106256545 0.09899884 0.0052273134 -0.06921689
0.009076166 -0.016690908 -0.065849096 -0.018677339 0.059435133 0.10133006 0.026585978 -0.07016741
-0.090205766 -0.042168077 -0.029145954 0.08746549 0.11692392 -0.069835715 0.07050181 0.05158756
-0.027019024 0.12240079 0.0998476 0.08986703 0.015393378 -0.0340213 0.0878987 0.047898263
0.033563025 0.06355552 -0.001184063 0.012928377 0.017733308 0.018412719 0.077482514 -0.09246161
-0.02834484 -0.07202902 -0.053929117 0.030312795 -0.062586136 -0.08347518 -0.037913144 -0.0573245
0.059841592 0.04237664 -0.017345505 -0.07582964 -0.009962768 -0.027371615 -0.013240049 -0.00062600715
0.0042876317 -0.06775632 -0.028202564 0.041445408 0.029362699 -0.10664994 0.0684076 -0.024590012
-0.0519712 -0.00554841 -0.08126015 -0.06620075 -0.10797475 9.592836e-05 0.038869277 -0.10973178
-0.08307969 -0.012892583 -0.060338248 -0.018926654 0.013944085 -0.014088647 -0.092254534 -0.055195395
0.014413706 0.01220613 -0.040765274 -0.06143523 -0.07812873 -0.01572895 -0.067164555 0.07713146
-0.113204524 -0.08125852 0.025031408 -0.06542864 0.046288725 -0.075785175 0.017090483 0.037143543
-0.03366853 -0.001209108 -0.07428796 0.042377476 0.056330454 0.020029105 -0.017636143 0.02624776
0.08777094 -0.11242588 -0.06637596 -0.060244903 -0.07586214 -0.013138894 -0.08329919 -0.04320574
-0.08942274 -0.020202843 -0.10998555 -0.053960536 0.038907368 -0.08082734 -0.056870386 0.0053059086
-0.021887273 -0.013642266 0.013382636 0.086368956 0.014260017 0.082154 -0.09269753 0.0226001
-0.06530388 -0.08756297 -0.018011328 0.03030098 0.036372986 0.05752203 0.014942996 0.05464353
0.033177324 0.079182565 0.10355822 -0.047070496 -0.0745645 0.036922093 0.06982543 -0.072316855
0.082636125 -0.050363366 0.03741745 -0.059365157 0.05268893 0.063889615 0.055336304 0.08690435
0.0076881507 -0.037591744 -0.06831646 -0.04978575 -0.06028995 0.00418645 0.03722867 -0.032775402
00000000: e6b9 913b fcba 4c3e 3fdd 00bd 7af5 9b3c
00000010: b098 203d b6b2 41bb db6b 443d 784e db3d
00000020: 86e9 aabd 7825 1a3c cc00 c93a ba47 db3d
00000030: 4619 db3d a3f4 10bd d0b6 2b3d 405a e63e
00000040: 7a3e 5dbd cede 5dbd 0ff1 263d 8d13 4abd
00000050: 66f7 91bd 4cd1 8d3c 2384 3c3d c2a9 373d
00000060: 76a9 b33d 5c0d 183f ddc7 443d b5a1 b7bc
00000070: bf6c 473e a7e5 d93c 60c1 68bd 00b1 74bd
00000080: f9ce 03bd dd28 1ebe 3fbb b03b cd05 91bd
00000090: 3f7d e63c 095d 873d 5bdf a63d f6e1 043f
000000a0: 6f7a 2dbd f3bc 9c3d 8f6c a7bb 102e da3b
000000b0: 0367 043d e032 9abd 7b52 533d 92dc 08bd
000000c0: 431d 183c efe1 753d a6a4 6b3d c8d5 8d3d
000000d0: e240 d63d 1a14 a13d d1a1 103e 01d0 9cbd
000000e0: 6f0a 0dbe 254c 843d 2b4a 8cbb b6fd 66bd
000000f0: 3c08 73bd 547e b93c 61e5 933e cc4c 3dbc
00000100: 1d6c 733d 9d48 223f 2699 50bd 1b20 b53c
00000110: d333 bb3d 3650 af3e 43ef d1bc fcfe c43d
00000120: 7105 483d 0ecc ce3d 8473 103d 0c32 fbbc
00000130: 0217 7f3c cf3f 3c3d b8e0 18bd 9a45 4abd
00000140: a8a9 15be 3920 b43e 60d4 a53d 0746 563d
00000150: e3b7 b53e 7efa b5bb e4d2 1e3d fe1c 863c
00000160: 8df9 50bd 8623 dabc 95d5 0d3d 57cc 193d
00000170: 3894 393c e828 ee3c bcba 3f3d aaf0 a8bb
00000180: 09bb ff3e 2f5f f93c 3734 9c3d 6fdf e4bc
00000190: 089d d93d e7bf ca3d e249 ab3b 96c1 8dbd
000001a0: 33b4 143c 5fbb 88bc e4db 86bd 3801 99bc
000001b0: 4172 733d 2286 cf3d d6ca d93c eeb3 8fbd
000001c0: cdbd b8bd 6fb8 2cbd 7fc3 eebc 1b21 b33d
000001d0: cf75 ef3d 0706 8fbd 4163 903d 7a4d 533d
000001e0: 0057 ddbc 44ad fa3d e67c cc3d 350c b83d
000001f0: 8234 7c3c eb59 0bbd 3c04 b43d f830 443d
00000200: 6279 093d 6529 823d 9032 9bba 8bd1 533c
00000210: 7145 913c 45d6 963c 27af 9e3d 835c bdbd
00000220: 7033 e8bc f383 93bd c7e4 5cbd 8a52 f83c
00000230: 292d 80bd 09f5 aabd d04a 1bbd 18cd 6abd
00000240: 751c 753d 2193 2d3d 2918 8ebc 924c 9bbd
00000250: e13a 23bc 703a e0bc caec 58bc a11a 24ba
00000260: 437f 8c3b d3c3 8abd 1009 e7bc a9c2 293d
00000270: 0b8a f03c 496b dabd 4919 8c3d fe70 c9bc
00000280: c1df 54bd 70cf b5bb b96b a6bd 4294 87bd
00000290: de21 ddbd 252d c938 6435 1f3d 0ebb e0bd
000002a0: af25 aabd 6a3b 53bc 3d25 77bd 120c 9bbc
000002b0: bb75 643c 12d4 66bc f2ef bcbd 9114 62bd
000002c0: 7727 6c3c 38fc 473c 7df9 26bd 82a3 7bbd
000002d0: f501 a0bd 00da 80bc 928d 89bd 19f7 9d3d
000002e0: c6d7 e7bd de6a a6bd ab0e cd3c 73ff 85bd
000002f0: 3f99 3d3d 4235 9bbd 5701 8c3c d423 183d
00000300: 03e8 09bd ef7a 9eba 4924 98bd 0194 2d3d
00000310: c3ba 663d 1414 a43c ac79 90bc 8b05 d73c
00000320: 40c1 b33d 8a3f e6bd 1ff0 87bd 5cc3 76bd
00000330: 9c5d 9bbd 8444 57bc c498 aabd 81f8 30bd
00000340: 4523 b7bd 6f80 a5bc 1b40 e1bd b905 5dbd
00000350: 555d 1f3d ce88 a5bd ecf0 68bd 30dd ad3b
00000360: f04c b3bc d083 5fbc d842 5b3c 35e2 b03d
00000370: d9a2 693c 5b40 a83d 34d8 bdbd d823 b93c
00000380: 0abe 85bd 3754 b3bd 7e8c 93bc c339 f83c
00000390: d7fb 143d 389c 6b3d 78d3 743c e5d1 5f3d
000003a0: f2e4 073d 782a a23d 5516 d43d fecc 40bd
000003b0: 46b5 98bd 9f3b 173d a300 8f3d dc1a 94bd
000003c0: 213d a93d d149 4ebd 0a43 193d e128 73bd
000003d0: 59d0 573d 8fd8 823d 52a8 623d e8fa b13d
000003e0: e2ec fb3b cdf9 19bd 80e9 8bbd 25ec 4bbd
000003f0: 98f2 76bd 7d2e 893b 177d 183d 803f 06bd

fc2.bias f4 [128]
-0.0034574645 -0.037499912 0.07357535 -0.036790207 0.13365842 0.009759274 -0.033762924 0.06391968
-0.016194666 0.0924993 0.124718614 0.12980984 0.098665565 -0.030264894 0.0343322 0.12662445
0.0008731423 0.07085703 -0.079967365 0.10165323 0.055636417 0.048748277 -0.020071762 -0.0873746
0.13254033 0.121468365 -0.024940282 0.09767773 -0.039243877 0.09685239 -0.013633794 -0.11380824
0.03655306 0.11167971 0.0051529314 -0.16795656 0.0023443883 -0.08985609 0.041430466 -0.007049405
0.1292147 -0.0642652 -0.016685147 0.044806883 -0.017906994 0.033715464 0.055445045 0.09968999
0.06114731 0.0051315 0.015000042 0.060777534 0.06153191 0.02654307 0.11319006 -0.010666495
0.010799832 -0.04881504 -0.015564538 0.058486328 -0.03717876 0.0012900854 0.06609901 -0.036981992
-0.016863434 0.122871526 -0.08000126 0.049006093 -0.0515454 -0.05809746 0.060587354 0.019416792
-0.076412395 -0.081339195 0.014971801 -0.014618607 0.032630693 0.018808844 -0.042821687 0.050623156
0.05488996 -0.08334302 -0.060600944 0.1119647 0.02802843 0.08355923 -0.016172836 -0.09343056
-0.016915374 0.019159552 0.11563402 0.055253297 -0.04087214 0.1350852 0.038753495 0.0486668
0.10824891 0.02900466 0.09482288 -0.019936617 0.056161687 -0.049462263 -0.024785496 0.07606802
0.049004983 0.04992732 -0.07068122 0.024885466 0.07028962 0.06948558 -0.11016434 0.12565236
-0.065774955 0.0051825196 0.038487345 -0.009043451 0.054665 0.16567317 0.011402285 0.023077508
-0.0052131303 -0.07269912 -0.07060348 -0.049883645 -0.069887176 0.08242057 -0.067700565 -0.032834765
00000000: a196 62bb 8299 19bd acae 963d 54b1 16bd
00000010: c1dd 083e 5de5 1f3c fe4a 0abd 52e8 823d
00000020: adaa 84bc 4670 bd3d 796c ff3d dfec 043e
00000030: 2c11 ca3d 15ee f7bc ec9f 0c3d d7a9 013e
00000040: 96e3 643a 7e1d 913d eec5 a3bd 922f d03d
00000050: 03e3 633d 46ac 473d 896d a4bc 74f1 b2bd
00000060: a7b8 073e 68c4 f83d 904f ccbc 430b c83d
00000070: 30be 20bd 8c5a c63d 4760 5fbc 4b14 e9bd
00000080: a9b8 153d 55b8 e43d ecd9 a83b cefc 2bbe
00000090: 4fa4 193b 7806 b8bd feb2 293d b2fe e6bb
000000a0: dc50 043e 799d 83bd 4aaf 88bc 6c87 373d
000000b0: b0b1 92bc 3a19 0a3d 581a 633d 442a cc3d
000000c0: 9a75 7a3d 2426 a83b bcc2 753c ddf1 783d
000000d0: e208 7c3d da70 d93c 31d0 e73d 86c2 2ebc
000000e0: c7f1 303c 48f2 47bd 6702 7fbc 5c8f 6f3d
000000f0: c148 18bd 1518 a93a eb5e 873d 6e7a 17bd
00000100: 2f25 8abc 11a4 fb3d b3d7 a3bd 9dba 483d
00000110: 4521 53bd 9af7 6dbd 722a 783d f70f 9f3c
00000120: 1a7e 9cbd 2a95 a6bd 494c 753c e282 6fbc
00000130: c3a7 053d 0115 9a3c cb65 2fbd 3a5a 4f3d
00000140: 4bd4 603d bfaf aabd b238 78bd c04d e53d
00000150: e19b e53c 1a21 ab3d e57c 84bc 8558 bfbd
00000160: 1c92 8abc 7ef4 9c3c 87d1 ec3d 4851 623d
00000170: 8c69 27bd c653 0a3e fcbb 1e3d d756 473d
00000180: 9bb1 dd3d 2e9b ed3c 8032 c23d 1e52 a3bc
00000190: cc09 663d f198 4abd f40a cbbc 8dc9 9b3d
000001a0: 73b9 483d 9780 4c3d 51c1 90bd 9bdc cb3c
000001b0: 01f4 8f3d 754e 8e3d d79d e1bd 03ab 003e
000001c0: 05b5 86bd 20d2 a93b e8a4 1d3d fc2a 14bc
000001d0: 68e8 5f3d 3aa6 293e a6d0 3a3c 0b0d bd3c
000001e0: e8d2 aabb 47e3 94bd 8f98 90bd cb52 4cbd
000001f0: 0221 8fbd 1ecc a83d 98a6 8abd bf7d 06bd

last_fc.weight f4 [6, 128]
-0.027198354 -0.033461083 0.10291515 0.029229863 0.06978039 -0.4683858 -0.06927516 0.006535881
-0.043570433 0.027190074 0.10059988 0.05881268 0.046727277 -0.029124536 -0.06062714 0.018434716
-0.030366378 0.005525755 0.009834824 0.03845069 0.081283994 0.08017863 0.011994286 0.053179227
0.08084519 0.09019026 -0.05003991 0.094767965 -0.06339278 0.07086365 0.029462945 -0.08189401
-0.027922917 0.072083265 -0.043625113 0.20165063 -0.0017127836 -0.024392372 0.07042015 -0.03151913
0.0053119697 -0.070691235 -0.08767638 -0.056442033 -0.040922757 -0.051637568 -0.031290207 -0.048777748
0.011513318 -0.027132884 -0.07103657 0.114486896 -0.06608192 0.12337437 -0.0012709356 0.10453463
0.041099217 -0.70961744 0.080952875 0.051692404 -0.02533254 0.0714793 0.084758684 0.087704584
-0.017462611 0.055043872 -0.07627476 0.017586308 0.04318679 0.014299066 0.013109015 0.04761388
-0.06867954 0.107525215 -0.078248695 0.03787271 -0.06865928 0.012751103 0.04562608 0.031509075
0.009360974 -0.05346333 -0.05106279 0.09453339 0.09829137 0.093610525 0.014148705 -0.054283325
-0.081082955 -0.055400457 0.0024080565 -0.04779344 0.016662166 0.07993573 0.08759349 0.008696574
-0.03743093 0.03635245 -0.008899668 0.0447717 -0.057718907 -0.05806881 -0.059460286 0.009239614
-0.0711344 -0.06832339 -0.051899914 0.07072955 -0.029294299 -0.06807956 0.04594443 0.09463229
0.06874382 0.057242215 0.05230759 -0.022210633 0.079616494 0.029687848 -0.002511905 -0.0060188007
0.03685284 -0.057455707 -0.009147921 0.050655473 0.0510561 0.020468464 0.0090863155 0.046520635
0.0729792 -0.027328277 0.057185996 0.045436542 0.07686586 -0.44627675 0.042021617 -0.0074122115
0.04455688 -0.039272867 0.086546585 -0.007417181 0.057097767 -0.024996933 0.094402365 0.04342044
-0.0600283 0.01818305 0.094382495 -0.039122123 0.052374493 -0.081400305 -0.06608264 -0.013916057
-0.016054466 0.083657786 0.048549872 0.07195364 0.03602348 0.12224014 0.041503288 -0.09800022
0.051048886 -0.06126193 -0.010468172 0.21951191 -0.027385416 -0.066830315 0.06646139 0.031484
0.020237273 0.033737086 -0.037598263 0.085821114 0.05326897 -0.050883487 -0.056726586 0.093850546
-0.026276737 -0.06577739 -0.09481535 0.09547075 -0.007651089 0.021054622 0.12481758 0.003751348
0.056099012 -0.70381135 0.037522845 0.0064521334 0.053539425 0.0802131 0.09897277 0.028801752
0.013733893 0.05072082 -0.008133892 -0.044182103 0.00018699242 0.0061189006 -0.049250856 -0.078790046
-0.06546289 0.11317193 0.05166221 -0.022507604 0.003102606 0.0021503232 -0.078455046 -0.05952045
0.022476114 -0.013190941 -0.060244057 0.142222 0.015387855 0.07822658 0.08177886 -0.055657875
0.041224312 0.068113714 0.027229853 0.06529401 0.011879908 0.025591025 0.060388587 0.023685494
0.0640055 -0.055776633 -0.045471523 0.050732035 -0.024090897 0.087963685 -0.036723044 -0.005824194
0.071155496 -0.035501134 -0.030360715 0.053927533 -0.013802188 0.084963724 0.0033369868 0.025609542
-0.054659486 0.0356041 0.020408496 0.020176135 -0.0045703202 0.04417976 0.06822115 0.09435658
0.0105366055 -0.071581446 -0.01122086 -0.036471765 -0.06308509 0.029864626 0.07262562 -0.08276976
00000000: 15cf debc 7d0e 09bd 2ec5 d23d 7773 ef3c
00000010: 05e9 8e3d 43d0 efbe 23e0 8dbd f22a d63b
00000020: e976 32bd b8bd de3c 4f07 ce3d 91e5 703d
00000030: 1a65 3f3d 9496 eebc 2a54 78bd 6704 973c
00000040: e9c2 f8bc 6511 b53b 3e22 213c 797e 1d3d
00000050: 3978 a63d b234 a43d af83 443c 76d2 593d
00000060: 2a92 a53d acb5 b83d a6f6 4cbd b515 c23d
00000070: 13d4 81bd f620 913d 465c f13c 0cb8 a7bd
00000080: 9abe e4bc 64a0 933d 3fb0 32bd 817d 4e3e
00000090: 7b7f e0ba 83d2 c7bc 7138 903d 341a 01bd
000000a0: 0810 ae3b 91c6 90bd ad8f b3bd c32f 67bd
000000b0: 9f9e 27bd ea81 53bd 292a 00bd 2dcb 47bd
000000c0: 5ba2 3c3c c845 debc 9f7b 91bd 1b78 ea3d
000000d0: f555 87bd b4ab fc3d 8695 a6ba 4116 d63d
000000e0: a757 283d 7da9 35bf 9fca a53d 6abb 533d
000000f0: 3086 cfbc bd63 923d f695 ad3d 769e b33d
00000100: c00d 8fbc af75 613d f135 9cbd 2911 903c
00000110: a2e4 303d a146 6a3c 32c7 563c c606 433d
00000120: dca7 8cbd 2e36 dc3d da40 a0bd 6a20 1b3d
00000130: 3d9d 8cbd 01ea 503c 6ae2 3a3d a90f 013d
00000140: c55e 193c 5dfc 5abd 3727 51bd b99a c13d
00000150: fc4c c93d e0b6 bf3d f8cf 673c 3158 5ebd
00000160: d20e a6bd 97eb 62bd 7cd0 1d3b 0ec3 43bd
00000170: 187f 883c 58b5 a33d 3764 b33d 137c 0e3c
00000180: 2d51 19bd 4ee6 143d eacf 11bc 8862 373d
00000190: a96a 6cbd 8fd9 6dbd a18c 73bd c061 173c
000001a0: eaae 91bd 22ed 8bbd 0195 54bd a8da 903d
000001b0: 99fa efbc 4c6d 8bbd 3a30 3c3d 93ce c13d
000001c0: 8fc9 8c3d d076 6a3d 7c40 563d 13f3 b5bc
000001d0: f90d a33d ee33 f33c c69e 24bb 5c39 c5bb
000001e0: 01f3 163d ad56 6bbd 29e1 15bc 1d7c 4f3d
000001f0: 3320 513d 7bad a73c c5de 143c 6c8c 3e3d
00000200: 1e76 953d 8ddf dfbc dd3b 6a3d ab1b 3a3d
00000210: d96b 9d3d 637e e4be dc1e 2c3d 23e2 f2bb
00000220: 4681 363d 96dc 20bd 563f b13d d30b f3bb
00000230: 59df 693d 5ec6 ccbc 0756 c13d a2d9 313d
00000240: 3ce0 75bd 9ff4 943c 9c4b c13d 853e 20bd
00000250: a386 563d 34b5 a6bd 5656 87bd 2c00 64bc
00000260: a884 83bc c654 ab3d 3bdc 463d 6e5c 933d
00000270: 5b8d 133d 0a59 fa3d 5aff 293d 57b4 c8bd
00000280: a318 513d caed 7abd b282 2bbc bbc7 603e
00000290: 6157 e0bc 55de 88bd e91c 883d 5ef5 003d
000002a0: a3c8 a53c e62f 0a3d a300 1abd fbc2 af3d
000002b0: 9030 5a3d 346b 50bd 235a 68bd b734 c03d
000002c0: 5042 d7bc 4cb6 86bd 8d2e c2bd 2b86 c33d
000002d0: fdb5 fabb be7a ac3c 5ca0 ff3d 2dd9 753b
000002e0: 14c8 653d fb2c 34bf 8eb1 193d 6b6c d33b
000002f0: 284c 5b3d c446 a43d 3cb2 ca3d a7f1 eb3c
00000300: 1f04 613c a2c0 4f3d 0444 05bc 4bf8 34bd
00000310: 6513 4439 0f81 c83b 44bb 49bd ad5c a1bd
00000320: 6811 86bd afc6 e73d c19b 533d de61 b8bc
00000330: 1755 4b3b 70ec 0c3b 0aad a0bd b7cb 73bd
00000340: d41f b83c d11e 58bc 79c2 76bd a5a2 113e
00000350: 571d 7c3c 4235 a03d ad7b a73d 83f9 63bd
00000360: d3da 283d 347f 8b3d 2411 df3c deb8 853d
00000370: f2a3 423c 45a4 d13c 065a 773d 1508 c23c
00000380: 5115 833d 0a76 64bd 5940 3abd 65cc 4f3d
00000390: 465a c5bc 4e26 b43d e76a 16bd e1d8 bebb
000003a0: f9b9 913d a369 11bd 09b7 f8bc 1ee3 5c3d
000003b0: 9322 62bc 7601 ae3d 59b1 5a3b 1acb d13c
000003c0: a0e2 5fbd 9bd5 113d b82f a73c 6c48 a53c
000003d0: a0c2 95bb d6f5 343d 88b7 8b3d 063e c13d
000003e0: baa1 2c3c 4b99 92bd b3d7 37bc 6b63 15bd
000003f0: c132 81bd a9a6 f43c bebc 943d 3183 a9bd

last_fc.bias f4 [6]
0.12272911 0.1232401 -0.04430838 0.087452814 0.07154638 0.11584262
00000000: 6659 fb3d 4e65 fc3d b47c 35bd 761a b33d
00000010: e986 923d e53e ed3d
