data/Fanuc_success/Behavior_cloning/BC_policy_GIC_CEV_300_aug_7angles_itr_39.pt (torch, 275343 bytes, 12 tensors)

fc0.weight f4 [128, 6]
00000000: ceba 113f 7622 083f 4d97 f53d 8b19 563e
00000010: ef19 91be a111 923e 460a 7ebe 3eba 8ebe
00000020: 225d a9be f2d9 c23e 4b8f 813d 3266 8e3e
00000030: 32e4 d0bf 028d 443b 4d39 bcbe 2f92 853b
00000040: a1ed 863e 652d 09bf ad76 2f3e 5cf2 203f
00000050: a53c e13e afea 3ebe 59a2 a3be ec8a 2d3e
00000060: c3af bcbd 836c a2be c482 ee3d 5a6c e8bc
00000070: 9510 c0bd b88a 43be 3913 1c3e 9fa0 abbe
00000080: fb44 2ebe 2210 54be cf69 a4be 5fe9 2b3c
00000090: 5981 053e f023 a3be 837e a63e 027b 293e
000000a0: 903a b13e ea24 a63d b4b8 813c f35d a2bd
000000b0: 95a2 95be d09e 153e 780e 6c3e 3532 273d
000000c0: a8ac 94bd 75bd acbd 439f 383e e371 52be
000000d0: c668 99bd 87bc 97be 50e3 453f 5578 e13e
000000e0: 5746 ff3e 0f07 8a3c 6296 ad3e 9e63 053f
000000f0: df3c 3abe 91fa 15be fb97 653e 3d87 3d3d
00000100: 6be6 363e 602e 3f3e e89e 18be e5b5 32be
00000110: b8b7 e6be ac6b 563e 908d 033d 3cca aebe
00000120: 2239 3a3e 2ce0 143d c322 b53e 4270 9f3b
00000130: c8b5 6abd e045 cbbe a800 4a3e 72e6 b73e
00000140: 6cd3 9e3e 5e05 cdbe 8412 293e 578e 18be
00000150: 7f7f 86be 21e0 b93e 8472 dabd b48a 893c
00000160: b056 a53e 625a 1dbe dcad df3e bce8 0cbf
00000170: 72df d8bd cdcd 1ebe 9e51 cebd fb4a 0b3e
00000180: 65a3 2c3e 270f 1bbe 0c2a f93e 90bf 51be
00000190: db76 823e c002 e1bd 83b1 38bf af42 cbbe
000001a0: 33e3 99be 24f1 b7be fdc5 273e 61c7 8bbd
000001b0: 5e75 a6bd 7069 cc3d 1cd9 1e3f 0642 63bd
000001c0: 96e9 89be 8d5c 1bbb d2f4 1d3f b41c 68bc
000001d0: 63d8 80be dfb0 9cbc c2f8 e23d 33c8 b23e
000001e0: 9727 cebe 682b b53d d6c2 e6be c688 a23e
000001f0: 7f97 333e e4b5 1a3e b7b9 c7be 500b 65be
00000200: a792 68be 5c94 3b3e 179a b43e 47dd 3d3d
00000210: a414 ca3f 5e3e 8abe e2db a53e 6fa7 1bbe
00000220: edbc 8bbe 2b04 833e 0086 cbbe 7844 643e
00000230: 2c60 01bf e38b 69be a649 10be 83af 64bd
00000240: bb9b 19be 963a 0d3e ece3 ec3e 4c4d 933e
00000250: 8ccb 253f 110c 483c d4ea c93f 5e8a a33e
00000260: 0116 d0be e15e 9d3e 6891 2c3e b929 f13d
00000270: 1a68 1dbe e844 bd3e 0421 b03e b8e2 8c3d
00000280: 40ee 923a d973 a7bd 76ed c53d 98e3 453d
00000290: cf8b 603e 876c 253e 8eeb 683e de52 8a3d
000002a0: 7d83 99be 0d6b 52be 6922 83be 2043 873e
000002b0: a75d 893e 69ca cc3e 3deb 1bbf c3f4 263f
000002c0: 8e09 3dbf b31c 103f e7f7 073f 5b4a c2bd
000002d0: c9c9 e0bf 09e6 3b3e 055c 693e 9bcc 56bd
000002e0: f41f 623e 8e18 dbbe fbd6 7ebe 5cec 8dbd
000002f0: b154 f0be 9f66 b33d f54c 8e3e e481 79bd
00000300: 1310 a7be f3ef 6dbe 328f 5fbe 6597 66be
00000310: 8a7a 863c dd33 b23e 16ff 193f bb71 853e
00000320: b3d1 123f 476d 3cbe 1dca 20bc 405d 05bd
00000330: 5065 73bf e01b 703d f5d1 0c3e 51af 03bf
00000340: 99dd 2f3f fe8a 0bbf c942 e23d 72d5 13bf
00000350: c51a 0ebf 51ea a93e c1b0 07bf c6ed 72bd
00000360: 404d cd3b 60d4 ecbe abbe 453e bce4 09be
00000370: 70b7 f43d 92d4 b7be 7ccd 453f e2ed 46bd
00000380: da60 a53e 6b2a ecbd 64cb 113e f078 403e
00000390: 7a39 a4bf 5756 36bf 30e1 fd3e f277 81be
000003a0: 61c2 e63d c6b2 fbbd 2e01 80be 16db 0dbe
000003b0: 33a8 c53e 90ad 243e 27ee 973d b3c3 16be
000003c0: e9c9 13c0 953b 623f fa92 0a3f 9381 23be
000003d0: a7f7 323d d689 c1be cf8e 88bf d229 fbbd
000003e0: d66d 313e b279 893e 18ce eb3d 6c37 57be
000003f0: 3661 8cc0 b2dd 093f 599f a83d c0e7 a13e
0.56925666 0.53177583 0.11991749 0.20908181 -0.28340098 0.28529075 -0.24808607 -0.27876467
-0.33078867 0.38056904 0.06326159 0.27812344 -1.631964 0.0029991274 -0.36762467 0.0040762643
0.2635317 -0.5358489 0.17135115 0.6286981 0.4399158 -0.18644212 -0.319598 0.16947526
-0.092132114 -0.31723413 0.11646035 -0.028371979 -0.09378163 -0.19095886 0.15241708 -0.33520982
-0.17018501 -0.20709279 -0.32111976 0.010492652 0.13037623 -0.31863356 0.32518396 0.1655083
0.34614992 0.081125095 0.015835144 -0.07928076 -0.29225603 0.14611363 0.23052394 0.040819366
-0.07259494 -0.084345736 0.18029504 -0.20551257 -0.07490687 -0.29636022 0.77299976 0.4403712
0.49858353 0.016849069 0.33903795 0.5210513 -0.18187283 -0.14646365 0.22421257 0.04627155
0.17861335 0.18670034 -0.14904368 -0.174522 -0.4506204 0.20939511 0.032117426 -0.34138668
0.18185857 0.0363466 0.35378084 0.004865677 -0.057302266 -0.39701748 0.19726813 0.35918003
0.31020677 -0.40043157 0.1651097 -0.14898048 -0.26269147 0.3630381 -0.10666373 0.016789772
0.322927 -0.1536651 0.43687332 -0.55042624 -0.10589494 -0.15508194 -0.10074161 0.13602822
0.16859205 -0.15142499 0.48664892 -0.20483232 0.25481305 -0.10986853 -0.7214586 -0.39699313
-0.30056152 -0.35926163 0.1638412 -0.06825138 -0.08127855 0.09981048 0.6205003 -0.055482887
-0.26936024 -0.0023706288 0.6170169 -0.014167 -0.2516509 -0.019127307 0.11082603 0.34918365
-0.4026458 0.0884617 -0.45070523 0.31744975 0.1753826 0.15108448 -0.39008877 -0.22367597
-0.22712193 0.18318313 0.3527381 0.046353605 1.5787549 -0.27000707 0.3239432 -0.1520059
-0.27292576 0.25589117 -0.3975067 0.22291744 -0.5053737 -0.22807269 -0.14090595 -0.055831444
-0.15000813 0.1379188 0.4626764 0.2876991 0.6476371 0.012209908 1.5774789 0.31941503
-0.40641788 0.3073645 0.16852343 0.11775536 -0.15371743 0.36966634 0.3440019 0.06879181
0.001120992 -0.08176393 0.09664433 0.048312753 0.21928333 0.16154681 0.22746107 0.06754087
-0.2998313 -0.20548649 -0.2561219 0.264184 0.26829264 0.39998177 -0.6090582 0.65217227
-0.73842704 0.5629379 0.53112644 -0.094868384 -1.756158 0.1834947 0.22789009 -0.05244122
0.22082502 -0.4279217 -0.24886696 -0.069298476 -0.46939614 0.08759808 0.2779309 -0.06091489
-0.3262945 -0.23236065 -0.21831968 -0.2251869 0.016415853 0.34805194 0.60154855 0.26063332
0.57351226 -0.18401061 -0.009813813 -0.032559633 -0.95076466 0.058620334 0.13751967 -0.51439387
0.68697506 -0.5450896 0.110478945 -0.57747567 -0.555096 0.33186582 -0.5300408 -0.05930879
0.0062653124 -0.4625578 0.19311015 -0.13466161 0.119490504 -0.35904366 0.7726667 -0.048566706
0.32300454 -0.11531528 0.14237744 0.18796134 -1.283004 -0.71225494 0.49585867 -0.25286824
0.112675436 -0.12289958 -0.250009 -0.13853106 0.38604888 0.16081834 0.07418471 -0.14723091
-2.3091986 0.88372165 0.5413052 -0.15967397 0.04369321 -0.37800473 -1.0668582 -0.12263836
0.17327055 0.2685066 0.11513919 -0.21017236 -4.3868666 0.53853905 0.08233518 0.31622124

fc0.bias f4 [128]
00000000: f341 03bd 8c6c b7be 2822 8abd 0a67 c6bc
00000010: 7363 04be ff07 a3be ad20 b3be 97b3 293d
00000020: 21b3 acbe 38a7 443e 050f 83be a646 b03e
00000030: 1da5 c6be a826 7a3e 2a65 8bbe 1ff1 a23c
00000040: aabb 7d3e d9c9 7e3e 2164 3d3c 9952 513d
00000050: 5a09 8d3e 7a38 bebe be02 5abc f63b 153e
00000060: a958 9e3b fc95 543b 8acb 893e 1404 9f3c
00000070: d6a7 aabe ebe8 f9bd f72b 7fbd 6ea9 bb3e
00000080: 54cb aabe c5d0 993d c540 0e3e 3e81 0c3d
00000090: 3fa0 0b3e 3f5f 993e a022 55bc a563 40be
000000a0: fd86 3abd 7eaa 8fbb 6771 95bc ea27 23bc
000000b0: d20b a9be aa28 65bc dc98 483e 1fa2 dabc
000000c0: bca9 833e 2ec7 043e 4d42 04bd c4ef fc3b
000000d0: 5dd7 b1bc f77d b6be 5c50 843e a7a0 03be
000000e0: aa06 2c3e b759 2d3b 70ac 0d3e 9512 b7bc
000000f0: 2965 7b3e 27b5 803d cba7 8d3d 303d aabe
00000100: 4ca7 833e 66bd 333d fc68 e1bb 0062 c23d
00000110: 4f93 98be 13b7 63bd 2511 d73d 9060 3a3b
00000120: d2bf 95bc 6e4f b0be 9fea ac3e 2084 a73d
00000130: ec77 71bc 7985 1abb b443 e2bd 3c18 353e
00000140: 7eb1 7c3e a33f bbbd 98c4 583e 8876 193e
00000150: a438 b13e 775c f03d 17e1 a9be 665a 573e
00000160: 45be 643e cf62 c53d 0201 1bbe c7f9 353d
00000170: 3fe2 f53a 90e3 0abd 4528 bd3b dfd6 b0be
00000180: aee3 af3e 6b86 17bc 1e71 4a3c 22c9 093d
00000190: cdfd 76bc 323d 3e3e f940 263e 09aa 11bd
000001a0: 745d dcbc 079d 8b3e cfd9 ef3d b8f8 283d
000001b0: 8263 ebbc 3506 483d 111a 583d 500b 8cbc
000001c0: 3397 afbe 7f30 553e 5376 32be 328a 7abe
000001d0: 481e 8a3e 4d9c 0dbd b459 013c cd6c 033e
000001e0: 7d78 973e 6da4 c6bc 7a80 c4bc 5a60 193e
000001f0: 9a83 65bd 07cc 213e 2e83 a23e 7d32 763e
-0.032045316 -0.35825002 -0.06744796 -0.024219055 -0.12928562 -0.31842038 -0.34985867 0.041431036
-0.33730415 0.19204414 -0.25597396 0.344289 -0.38797846 0.24428809 -0.2722562 0.019890366
0.2477862 0.24881686 0.011559517 0.051104162 0.27546197 -0.37152463 -0.013306318 0.14573655
0.0048323465 0.003243803 0.269131 0.019411124 -0.33331174 -0.12202629 -0.062297788 0.36652702
-0.33358252 0.07510523 0.13891895 0.034302942 0.13635348 0.2995548 -0.0130087435 -0.18788011
-0.04553889 -0.004384338 -0.018242551 -0.009958247 -0.3301683 -0.013986746 0.19589561 -0.026688633
0.25715435 0.12966606 -0.03228979 0.007719012 -0.021709139 -0.3564298 0.2584256 -0.12854253
0.16799417 0.002645118 0.13835311 -0.022347728 0.24550308 0.06284552 0.069167696 -0.33249807
0.25713575 0.043881796 -0.00687897 0.09491348 -0.29799888 -0.055594515 0.10501317 0.0028438903
-0.018279944 -0.344356 0.33772752 0.08179498 -0.014738064 -0.002357809 -0.110480696 0.17685026
0.24677083 -0.09142997 0.21168745 0.14986622 0.34613526 0.11736386 -0.33179542 0.21030578
0.22338207 0.09637987 -0.15137103 0.04442766 0.0018759443 -0.033908427 0.005772623 -0.34538934
0.34353393 -0.009248356 0.012356071 0.03363908 -0.015075159 0.18578032 0.16235723 -0.03556255
-0.02690003 0.2726824 0.117114656 0.04125282 -0.028733972 0.048834044 0.052759234 -0.017095238
-0.34295043 0.20819281 -0.1742795 -0.2446678 0.26976228 -0.03457289 0.007894922 0.12834473
0.29584113 -0.024248326 -0.023987044 0.14978161 -0.05603371 0.15800487 0.31740707 0.24042697

fc1.weight f4 [128, 128]
00000000: af54 953d 9f06 a9bd 7de8 35bd 4b48 e43e
00000010: 2bb5 0abd adbe df3c 15cf 3b3d 8977 c3ba
00000020: edbd 783c 0a9d 713d 0051 34bd 5370 e83c
00000030: ecaa 2c3c e9ba ab3d 7626 5f3d 05f5 56be
00000040: f075 ad3d b8ad e53c 5b72 8b3d 8424 743d
00000050: 8f10 403d 832c 92bc 8193 0b3c ce1c 173d
00000060: 0542 ce3c b100 ed3c 4496 51bd 33ed 903c
00000070: bd56 fbbb 1975 993e a78d e23d edba 973d
00000080: 73e0 7d3c f1cc b73b 56df 97bd f03e a9be
00000090: 9e20 9c3d 570c f03c ee28 833e ef88 9cbd
000000a0: b6b2 c8be 148e 3f3d 1425 c73e c1cc 5d3e
000000b0: c3ea 9bba 6aa9 33be cf3f 8bbd 81d0 e03e
000000c0: 5bdd 483d 90b6 8dbd 6fd8 30be 732e 4d3e
000000d0: ecd9 7b3e 3395 65bd a728 f8bb def5 15bd
000000e0: a76a e33c 8472 89be 1c44 5b3d 5c56 1a3e
000000f0: b304 07bd c3ca d7bc aeae 573d ea17 803d
00000100: f123 83bd 6fbf 41bd 6839 d53d 84ff cfbc
00000110: b2de f83c 92b9 e7be b80a 9b3d b16c 253d
00000120: c4e2 6b3e e2cc a0bc 71d7 993d 7acc 98bc
00000130: e228 d9bc 1c52 87bb f903 dcbe 9d89 2bbd
00000140: 1f51 98bd f0bc dcbd 2d6b 493c 57f7 02bd
00000150: 58c8 2abd ec2f 853d 4a6d 183c 31cf 09bd
00000160: 12ea af3d dce2 c0bd b604 a23e c0ef a73d
00000170: 83e9 6b3e 9d11 01be 1531 83bd 4cf4 a83d
00000180: 56b7 40bd 62bb 283e 55a7 bd3c 0ebc 4fbd
00000190: 5340 503d 982a 8b3d 4747 02bc 901c dabd
000001a0: 6cbc 183e 6f4b b73d 4c75 89bd e4ea 753d
000001b0: 9c4a 46bf ba5e 51bd 780b 69bc f75e b73e
000001c0: e6e9 80bd 3dbe cd3b b253 a8be d9be 3ebc
000001d0: 2d57 11bd 4492 48be dc39 f93c 1a2b 79bd
000001e0: c5f9 acbd 17c7 cb3e 5e05 0a3f ebe4 163d
000001f0: c063 23bf d875 483d 2a07 403d 2b6a a23d
00000200: e03d 2b3e c0b6 40bd d69d c3be 4918 b03e
00000210: 10d2 593d 5a05 843d 1ce2 a6bd e6b0 f6bc
00000220: 182a dfbc 581a a43d 638f 9c3d 0a68 ccbd
00000230: efe8 9dbd 3b3f 5fbd 1919 cfbc 737d 39bf
00000240: 2d9f f7bc d509 633c bd9d de3d 8cad 9f3d
00000250: e868 7a3d 4848 4cbd 1220 c0bd dcf8 acbd
00000260: 6793 9c3e 949e ec3c 01d7 c83d a96f bf3d
00000270: 0b6d 873d 5694 b3be 3060 05bf 3dfe 91bc
00000280: 90ca 813d 2983 f93d 3da5 9d3d 040e 13bf
00000290: f49d 30bd 4dcb 973c 3200 17bf 6c71 153c
000002a0: 4a46 22be 5edf 7e3d 5e92 4c3f 6902 d4be
000002b0: 2db4 253c 4505 033e 341f bbbd 6113 123f
000002c0: 404d 26bd 2406 573d b57b 0ebe 535a 09bd
000002d0: dc63 db3e 8a13 343d 2a95 81bd 7d54 68be
000002e0: ad3d 833d 120f e8bd 97b9 033d ecf7 2a3d
000002f0: 3ff3 d7bc a2f5 0ebe dd6f 083d 46e1 9a3c
00000300: d9c1 eabd 9f09 45be 9def 8fbe 9173 2e3c
00000310: dddf 463b 13fd 69bc 5df3 ca3d b12d bf3c
00000320: f8f3 d43e deb6 5cbd 3f84 5f3d 2e1f e83c
00000330: 5eb1 bf3e 7c7d 343e 6049 913e d07f f0bc
00000340: 159b 98bd 82a6 85be 0789 7f3d 16b7 8e3d
00000350: 1fb7 d6bc 0ba6 a23d 2a98 34bd 4ee0 cfbd
00000360: 688f b23c 18a5 293d f486 b4be 0885 1d3d
00000370: 8776 20bd 79a1 1e3e cf0c 4d3d a80c 6f3d
00000380: 862a adbd a19c 7e3e 8908 503d e301 7e3c
00000390: 012c 2c3e 498f b0bd c82c 063d 9bde 50be
000003a0: 48ec 083f 90f5 913d 38c3 bf3d 21c1 31be
000003b0: 6834 8fbe 539b 373e 93b2 31be fcbc ec3e
000003c0: 0528 97bc a371 08be 9bb7 bdbe fe49 61bd
000003d0: e99a 15bd b160 2bbe 9279 18ba ada3 543d
000003e0: ef0d 01bd 9e50 293f c7c5 eb3e 33a7 d03d
000003f0: 4c28 0f3d f759 b5bd e726 863d bf85 983d
0.07291543 -0.08253216 -0.04441117 0.44586405 -0.03386418 0.027312601 0.045851786 -0.0014912944
0.015182001 0.058987655 -0.04402256 0.028373873 0.010538798 0.0838526 0.05448004 -0.20991905
0.084697604 0.028036937 0.06808921 0.059605137 0.04689079 -0.01784349 0.008519054 0.036892705
0.025177965 0.028930994 -0.051168695 0.01769123 -0.007670252 0.2997215 0.11062174 0.074087
0.015495407 0.0056091477 -0.07415645 -0.3305583 0.07623409 0.02930276 0.25617164 -0.076433055
-0.39198846 0.046766356 0.38895476 0.21660139 -0.0011895526 -0.17545095 -0.0679928 0.43909076
0.049039226 -0.06919587 -0.17270063 0.2003725 0.2459485 -0.05605049 -0.0075732055 -0.03661143
0.027760817 -0.2684518 0.05353175 0.15072006 -0.032963466 -0.026341802 0.052656822 0.06254561
-0.0640334 -0.047301706 0.1041134 -0.025390394 0.030379627 -0.45258766 0.07570404 0.04038686
0.23035723 -0.019628946 0.07511795 -0.01865219 -0.026508752 -0.0041296612 -0.4297178 -0.041879285
-0.074373476 -0.107782245 0.012293619 -0.031974163 -0.04169497 0.06503281 0.0093034 -0.03364486
0.08589567 -0.0941827 0.3164422 0.082000256 0.23038296 -0.12604375 -0.06405846 0.08249721
-0.047049843 0.16477731 0.02315108 -0.050716452 0.050842594 0.067952335 -0.007951564 -0.10649979
0.14915627 0.08949935 -0.06711826 0.060038462 -0.77457595 -0.05111573 -0.014223926 0.3581464
-0.062946126 0.0062787817 -0.32876354 -0.011642181 -0.035483528 -0.19587046 0.030423097 -0.06083212
-0.08446077 0.3980033 0.5391444 0.036839407 -0.6382408 0.04894051 0.046881832 0.07930406
0.16722822 -0.047049284 -0.38206357 0.34393528 0.053178847 0.06446333 -0.08148596 -0.030113649
-0.027241752 0.08012837 0.07644536 -0.099807814 -0.07710444 -0.05450366 -0.025280522 -0.72457045
-0.030227268 0.013857325 0.1086993 0.07796773 0.061135203 -0.04987362 -0.09381117 -0.08445904
0.3058121 0.02888421 0.09806634 0.09347469 0.06612595 -0.3507411 -0.52099895 -0.017821426
0.06337464 0.1218322 0.07697532 -0.5744326 -0.043119386 0.018529559 -0.58984673 0.00912128
-0.15847126 0.06222474 0.7991084 -0.4140809 0.010113758 0.12794979 -0.09136811 0.5706082
-0.040601015 0.05249609 -0.13914378 -0.033533406 0.42849624 0.043963946 -0.06327279 -0.2268848
0.06408248 -0.113309994 0.032159414 0.041740343 -0.026361106 -0.13960889 0.033309806 0.018906247
-0.11462755 -0.19241951 -0.28112498 0.01064767 0.0030345835 -0.014281529 0.09909699 0.023337217
0.41592383 -0.053885333 0.05456948 0.02833518 0.37440008 0.17625993 0.28376293 -0.02935782
-0.074514546 -0.26103598 0.06238654 0.069685146 -0.026210366 0.079418264 -0.044090427 -0.101502046
0.021796897 0.04141721 -0.3525921 0.038456947 -0.039175536 0.15491284 0.050061043 0.05836168
-0.08455376 0.24864437 0.05078939 0.0155033795 0.16813661 -0.086210795 0.03275755 -0.20397417
0.53485537 0.071269155 0.09363407 -0.17358829 -0.2796967 0.17930345 -0.17353277 0.46237934
-0.0184517 -0.13324599 -0.37054142 -0.055002205 -0.036524687 -0.16736104 -0.0005816455 0.051913906
-0.03150743 0.6613864 0.4604933 0.10188141 0.03495054 -0.0885505 0.06550389 0.07447385

fc1.bias f4 [128]
00000000: 1ca0 b7bd cd49 d4bd 76cc c2bc 52d2 e93c
00000010: cd35 c9bd 503f 5ebd 9360 55bd 120a c43a
00000020: 8970 4e3d bfbf a53b f04c 1cbd 8f2a 773c
00000030: 170e 50bd 3ca2 0b3d 7ede afbb ec49 d6bc
00000040: eebb 443d e329 6a3d d958 77bc fc26 b1bd
00000050: 10cf a83c ba2c 993d 718c aabd a734 c73c
00000060: 6f2a 64bd 7b17 483d 166b 96bc 5538 8ebc
00000070: 1d15 f63c 3cbc 5d3d fc6a 893d 5d79 b73c
00000080: 5d9e 5d3d 907d 86bd 5ac4 573b fe72 fe3c
00000090: 7beb aabd 7edd 2dbc 1ffd 44bd 862a 5d3d
000000a0: c5c9 163d b365 573d c074 b03c 9834 833d
000000b0: 1239 393d 282a d1b9 dd6b a53d 9a64 a2bd
000000c0: 3f8f 5c3d e9c9 35bd 91b7 adbd c829 b6bd
000000d0: 088b 01bd 156c adbc 3583 f13c 1422 a3bc
000000e0: e407 bdba 170a 0f3d c961 a53c f53a 823d
000000f0: eea8 833d f3d6 9c3c 5d72 efbc ccbe 67bd
00000100: e428 8e3d 9872 ab3d df47 50bd 1565 d8bc
00000110: 2213 903c eca0 90bd 87bd 4c3d 398c 6dbd
00000120: c823 aabd d588 373d 93f9 4a3c f61b 62bb
00000130: f86e 3cbc 61c5 77bd 318f 3f3c 0f26 d33b
00000140: 0040 c9bc 86dd 523c 0b65 ecbb d6f5 c2bd
00000150: 0995 a53c 3114 3a3d 0cf7 a7bc 1cd5 0e3c
00000160: b2b1 393d 031a 7c3a d641 803d 4e5d 6a3d
00000170: 070e 37bd 02ed b23c 4525 13bc c1e5 943c
00000180: 9dd8 293c 8b5f 3abd 3b01 b8bd 2cdd aabd
00000190: be85 123d 2f43 923c 9c4e ab3b c9fa 8bbd
000001a0: 9731 93bd 16e6 4f3d de30 33bd 611c a53d
000001b0: 2d37 6a3d 7d7c 063d bda1 61bd 850e 953d
000001c0: b0c3 b8bd 20f9 4c3d e3d9 bd3d 7b31 e03c
000001d0: d4ee 9fbd e50a a1bd 1939 febc 5ce4 cebc
000001e0: 7113 a3bd 6d4c 4abb a985 803d 9423 48bd
000001f0: 73af fbbc 5320 43bd ce67 8c3c 8068 1cbc
-0.08966085 -0.10365639 -0.023779135 0.028542671 -0.09824715 -0.0542596 -0.052094053 0.0014956614
0.05040029 0.0050582583 -0.03815931 0.01508583 -0.050794687 0.034090266 -0.0053670993 -0.026158296
0.048030786 0.057168853 -0.0150968665 -0.08650014 0.020606548 0.07479234 -0.08327568 0.024317099
-0.05570453 0.048850518 -0.01836161 -0.017360846 0.030039364 0.054134592 0.06709859 0.022396738
0.054106105 -0.06566918 0.003292343 0.031060692 -0.083456956 -0.01061189 -0.048092958 0.05399563
0.036813516 0.052587222 0.021540046 0.06406516 0.045220442 -0.00039894995 0.08077214 -0.079293445
0.053847548 -0.04438201 -0.08482278 -0.08894688 -0.03162673 -0.021169702 0.02948151 -0.01991371
-0.0014421907 0.03492173 0.02018823 0.063589014 0.06428705 0.019145465 -0.029229337 -0.056578442
0.06941393 0.083714664 -0.05084979 -0.026415387 0.017587248 -0.070619434 0.049985435 -0.057995055
-0.08307606 0.044808228 0.012388605 -0.003450153 -0.011501066 -0.06049097 0.011691854 0.006443746
-0.02456665 0.012870198 -0.0072141937 -0.09519546 0.020212667 0.045429412 -0.020503543 0.008717801
0.04533548 0.0009616913 0.06262557 0.05721789 -0.044691112 0.02184153 -0.008981054 0.018175961
0.010366586 -0.045501273 -0.0898461 -0.083429664 0.035772078 0.017854301 0.005227877 -0.06834943
-0.07187193 0.050756536 -0.043747775 0.080620535 0.057181526 0.032833565 -0.055085886 0.0727816
-0.090216994 0.05004227 0.09270074 0.027367344 -0.07809225 -0.07863406 -0.031033086 -0.025255375
-0.079626925 -0.0030868307 0.06275494 -0.048862055 -0.03072331 -0.04763825 0.017139342 -0.009546399

fc2.weight f4 [128, 128]
00000000: 872c 913d 77ff 19be 1d94 963d ebfb 9f3d
00000010: f990 73be 268a 033d 89c6 e6be b921 98bc
00000020: 8b7d 7c3d d0e4 633c a633 533d b9a3 88bd
00000030: 76ea a4bd 2d2c 3d3d 8b58 e5bd 283f 16bd
00000040: 99f5 0d3d 8c2c 013d abb7 f33d f532 b9bd
00000050: e04f 6b3d bdd2 06bd c650 88bd 9787 d03d
00000060: f79b 103d 990a ccbb 976e a1bd 1574 5bbd
00000070: c5e0 2bbd eb5d fcbc 6a08 63bd 33ae 303d
00000080: 74ed a8bd 7a80 593e 9fda 813d 4451 93bc
00000090: 1ca7 8cbd 5027 b9bc 4a23 ad3d 276d b5bc
000000a0: 698d a03d f68f 34bd 26b5 9c3d a3f2 323b
000000b0: 9907 f93c b9b1 213d 99df fc3c f6a8 5f3d
000000c0: c822 ceba e626 7fbd 6159 043e f19c 813d
000000d0: 2aa9 e1bc eb8a 9dbd f221 02be c440 15bd
000000e0: 19b0 2bbd eb6e 50bc 41d8 83bc 1cdd 5e3d
000000f0: d335 5f3d 19dd 03bd 0ed2 05bc 5517 5c3c
00000100: 5b7b b63c 8c14 babd a9be 92bd 6c9c 983d
00000110: 3d6b a73c c4a1 893d fed1 3dbd 4c75 b33c
00000120: c701 9f3d 91d1 cf3c db9a cebc 42b4 fd3c
00000130: f4d7 4c3d d6b5 b3bd e182 8e3b 40a7 163c
00000140: 42b1 233d b37b 95bd 073e 42bc f308 0abe
00000150: 4f4e ba3d 210b cf3a 11f5 473d e5c1 e0bd
00000160: afb6 1a3d 62b3 8a3d 93c4 c93c 8f5d 0d3d
00000170: f44f 373c 0318 1fbd 234c 9d3d 5b5a 80bd
00000180: c30a 1b3d b7e1 d1bc a013 4a3e 136d aabd
00000190: 2fdc 693b d5fd 953c a0a2 553d 1998 ac3c
000001a0: 2d79 7e3d 8956 3d3d 5a7c 8d3d bbe0 223d
000001b0: 48a7 9d3b b255 d63c 7f93 90bc 6dd8 773d
000001c0: a94c b33c 5ce6 9b3d 5673 343c ee57 e13c
000001d0: 9865 8b3d cae8 023d 8d80 2dbd 85a0 103d
000001e0: eac8 253d a737 9b3d 9363 743d 6af3 1c3d
000001f0: 3087 683d dcc4 0cbd 2065 77bd 1c95 11bd
00000200: 28cd 0b3d 968e 673d 9829 4fbd ab36 a0bb
00000210: bf63 c23c 8cdd a1bd 865a 93bc 185c e13a
00000220: 0cd9 2c3d 56f3 2b3d 3a04 943d 832d 943d
00000230: 99f3 50bd 8a61 5f3d d705 30bd c986 3f39
00000240: b9ad abbd e2d9 6e3d 5c4f 4a3d 8e15 f63b
00000250: 8d68 843d 4954 393d 5262 4e3d c113 3c3d
00000260: 6b10 183d de5f 9abc e8f0 bc3c 3378 d4bc
00000270: bc35 6f3d de76 96bd 625c 21bc 4bc4 4b3d
00000280: e145 d9bc d898 7b3d b31e a93d 33ea 8b3d
00000290: f2d4 0cbd c8f8 a83d 06d4 fe3c 1bb2 a83c
000002a0: 815b ca3c 689f 4abd 5df9 8bbd b95c 5cbd
000002b0: f069 a8bc 3f65 1ebd 8f25 80bd 762e d4bc
000002c0: 3426 babd 9de3 24bd 0c70 783c 86af 4bbd
000002d0: 7f02 223d bbbb b2bb a8fb 0ebd 19d7 8dbd
000002e0: 371c 57bd e68d 923d 90ab 6abd e8cb 5d3d
000002f0: b6f6 293c 5441 883d aaf8 23bd a3dc 243d
00000300: c15c 8fbd 7873 89bd d414 8c3b 5d5b 55bb
00000310: 217e 40bd 68e6 93bd 5308 07bd 559f a8bd
00000320: 5fc7 483c 50af e63c a563 8c3d 92cb a83d
00000330: 4d3d deba 3e0a 263d deb6 debb ce13 843d
00000340: 09a9 95bc 3808 0d3d b922 9e3c 4aca 5dbc
00000350: 7c10 4fbd ed3c a6bd a0d2 9c3d 3007 fbbb
00000360: c42b 81bd 5378 5cbd 1e9e 3d3c baf9 883d
00000370: 5f44 efbc df4b aabb 6816 64bd 11c7 d8bc
00000380: 592e b9bd f793 26bd 7904 edbc c227 9e3d
00000390: 3e6a 4abd c6a2 8ebc fe76 b0bd 16dd 563d
000003a0: d307 923d 9f6a f83c cc93 093d f4b4 a4bb
000003b0: 7234 6fbd 361f 1fbd e251 3b3d 7c32 453d
000003c0: b7fd 60bd 2348 fcbb 5c1d c2bd b461 8d3b
000003d0: c30a 3dbd 412c b3bd b618 10bd 4abb 09bd
000003e0: af3e 863d 156c 5dbd 5f31 acbd 6d40 c2bd
000003f0: 04d6 a93c 4c33 83bd 6d54 7d3b ff95 843a
0.07088571 -0.15038858 0.07352469 0.078117214 -0.23785771 0.03211417 -0.45073345 -0.018570768
0.061643165 0.013909534 0.051562928 -0.066718526 -0.080525324 0.046184707 -0.11198529 -0.036681324
0.03465805 0.031536624 0.11900266 -0.090429224 0.05744922 -0.03291582 -0.06656031 0.10182112
0.03530499 -0.0062268493 -0.078824215 -0.0535775 -0.041962404 -0.030806502 -0.055427946 0.04313488
-0.082484156 0.21240416 0.06340527 -0.017983086 -0.06867811 -0.022601753 0.084539965 -0.022146774
0.07839472 -0.044082604 0.07651739 0.0027305267 0.03039913 0.03947613 0.030868338 0.054604493
-0.0015726918 -0.062292956 0.1292472 0.06328762 -0.027546484 -0.07692512 -0.12708262 -0.03643872
-0.041915987 -0.012721757 -0.016094329 0.054410085 0.05449469 -0.032193277 -0.008167757 0.013433297
0.022275617 -0.0908595 -0.07165272 0.0745171 0.020436877 0.067203075 -0.046342842 0.021906517
0.07764011 0.025368484 -0.025220325 0.030969743 0.050010636 -0.08774917 0.004349098 0.009195149
0.039963968 -0.072989844 -0.011855609 -0.13479976 0.090969674 0.0015796163 0.048817698 -0.109744824
0.037771877 0.06772496 0.024629867 0.034513053 0.011188496 -0.03884126 0.076805376 -0.06267234
0.03785206 -0.025620325 0.19734049 -0.083215855 0.0035684218 0.018309513 0.052157044 0.02106862
0.06212728 0.046225104 0.06908484 0.0397651 0.0048112012 0.02616391 -0.017648457 0.060509134
0.02188714 0.07612297 0.011013826 0.027507748 0.06806487 0.031960286 -0.042358924 0.035309333
0.04047481 0.07578974 0.059665274 0.038318075 0.05676955 -0.034367427 -0.060399175 -0.035542592
0.0341312 0.056532465 -0.050576776 -0.0048893294 0.023729203 -0.07903585 -0.0179875 0.0017193584
0.04219918 0.04198011 0.07227369 0.07235243 -0.051013563 0.05453638 -0.04297432 0.00018265391
-0.08382744 0.058313258 0.04939209 0.0075098937 0.06465254 0.045246396 0.050386734 0.045917276
0.037125032 -0.018844541 0.023064092 -0.025936222 0.058400854 -0.07346891 -0.009848686 0.049747746
-0.026522579 0.06142506 0.082578085 0.06831779 -0.034382768 0.08250576 0.03110696 0.02059274
0.024701836 -0.049468428 -0.06834672 -0.053799365 -0.020558327 -0.038670775 -0.06257164 -0.02590106
-0.09089318 -0.04025613 0.015163433 -0.04972794 0.03955316 -0.005454508 -0.034907967 -0.06925792
-0.052517142 0.07155971 -0.05729252 0.05414954 0.010373762 0.06653085 -0.040032066 0.040249478
-0.07000113 -0.06711477 0.004274944 -0.0032555677 -0.046995286 -0.07221681 -0.032966923 -0.08233515
0.012254565 0.028159767 0.06854943 0.08241953 -0.0016955525 0.04053711 -0.006796702 0.0644909
-0.018269079 0.034431666 0.019303666 -0.013536999 -0.05055283 -0.081170894 0.07657361 -0.007660769
-0.06307176 -0.053825688 0.011573343 0.066882566 -0.029207407 -0.005197033 -0.05568543 -0.02646211
-0.09042043 -0.040668454 -0.028932797 0.07722427 -0.049417727 -0.0174116 -0.08616446 0.052456938
0.071303986 0.030324278 0.033588216 -0.005026454 -0.058399625 -0.038848124 0.045732386 0.04814385
-0.05492946 -0.007699029 -0.09478256 0.0043146256 -0.04615284 -0.08748675 -0.035179816 -0.03362588
0.06554925 -0.054058153 -0.08407854 -0.094849445 0.020731933 -0.064062685 0.0038655058 0.0010115503

fc2.bias f4 [128]
00000000: bf7c 833d 2554 a1bd e5f9 71bb 5f04 94bd
00000010: e173 8ebc f785 343d dc2d a7bd a400 30bd
00000020: 636f 1d3d 1fc4 203c b140 41bd 0a66 01bd
00000030: c81b cc3d cb46 943c 3f80 a4bd 6ad0 3b3d
00000040: 9db6 0ebd fe21 96bc b662 e73d d9bc 9abd
00000050: 1eb5 53bc 9fc2 9dbc 4d81 b33d 7649 41bd
00000060: f447 353d 5571 5039 26c5 83bd 8521 bfbc
00000070: 6ab6 403d 2812 5a3d 8387 843d 0568 d1bc
00000080: 9f8b 773d 5605 5abd 4985 973d 1c67 d73c
00000090: 2ce5 53bd 8a50 923d a8b5 3a3c f69f 263d
000000a0: b64a 53bd 2c00 113d 1895 093d 4d6f 163d
000000b0: 0378 a63d acf8 7bbb 71d0 8cbc d701 c43d
000000c0: 3de0 0b3e 0937 583d fae5 da3a 29c5 9bbd
000000d0: 6706 babb 87ce 11bd f5b6 af3c 3371 42bd
000000e0: f675 813c c424 883d 5185 783d 11d5 e73c
000000f0: 4ae8 83b9 8f50 a13d 481a 87bd a2da 18bb
00000100: cfd6 17bc 53d1 a1bd 12b1 013d 0392 96bb
00000110: 7f7d c6bc 9514 9d3c a2e4 02be 064f 8dbd
00000120: 421d f23c 97f7 253c 7090 bf3d 2a73 723d
00000130: 65d2 b9bc 67cc 71bc 362b 08bd 7ae0 b33d
00000140: bf63 87bc 3ef5 aebd 01cb 57bd c083 93bd
00000150: 237b 6c3c e80e b8bd 06b7 f3bc 0b90 40bd
00000160: 347b 4dbd c117 ad3c 9769 0cbd 2c56 b0bc
00000170: be4e 62bd b6c3 21bd 8eab a43b dc6d 863d
00000180: 9e21 90bd f988 d73d ccc0 81bd 95dd 1abe
00000190: 8f4f 45bd 390d 6cbc ca38 853d 25cf 19be
000001a0: e966 d53d 5728 1d3d 8e0a 1fbd 0461 a63d
000001b0: b7f8 babd 7b43 fabd 76f3 0dbd 4058 f6bd
000001c0: 2e5a b53d 7790 293d e591 d2bc e65d 183d
000001d0: 9e18 2a3d 7470 9d3d cb12 2d3d b4ad 7ebd
000001e0: b35e 81bd 8038 bc3d 711d 913c 26c2 533d
000001f0: 98be cd3d 869e 3dba 4cef a63b 0367 24bd
0.06420278 -0.078773774 -0.003692263 -0.07227396 -0.01738924 0.04407307 -0.08163044 -0.04296936
0.038436305 0.009812384 -0.047180835 -0.031591453 0.09966236 0.018100163 -0.080322735 0.045853056
-0.034842122 -0.018326756 0.112981245 -0.07555551 -0.0129216 -0.019257842 0.087648965 -0.0471892
0.044258073 0.00019878645 -0.064340875 -0.023331413 0.047048964 0.05323997 0.06471159 -0.025562296
0.060435887 -0.053227745 0.07398469 0.026294284 -0.051732227 0.07144268 0.011395849 0.040679894
-0.05158492 0.035400555 0.033589453 0.03672724 0.08128359 -0.003844778 -0.017189236 0.095706634
0.13659759 0.05278686 0.0016700618 -0.07605965 -0.0056770328 -0.03559735 0.021449545 -0.047471236
0.015803318 0.066476375 0.060674015 0.02829984 -0.00025159336 0.078766935 -0.065968096 -0.0023323675
-0.009267523 -0.079012536 0.031663008 -0.0045950427 -0.024229763 0.019174853 -0.12782529 -0.06899838
0.029554967 0.010129831 0.09353721 0.05919186 -0.022683332 -0.014758206 -0.033244334 0.0878305
-0.016527055 -0.0854287 -0.052683834 -0.07202864 0.014433655 -0.08987218 -0.029750358 -0.04701237
-0.050166324 0.02112949 -0.034280386 -0.021525465 -0.055250876 -0.039493285 0.0050253337 0.06563923
-0.07037662 0.10524172 -0.06335601 -0.1512359 -0.048171576 -0.014407449 0.06504972 -0.15020426
0.10420019 0.03836855 -0.038828425 0.08123973 -0.0912947 -0.12219902 -0.03465601 -0.12028551
0.08855091 0.041397538 -0.025704334 0.037198924 0.041527383 0.07687464 0.04225425 -0.062177375
-0.063168906 0.09190464 0.017714234 0.051698826 0.100461185 -0.00072333997 0.0050944444 -0.040137302

fc3.weight f4 [128, 128]
00000000: 2574 a63d 5f39 55bc 884a 52bc 386e 4fbd
00000010: 06b3 b4bd 2a5d 13bd ce6d b43c 49c9 853d
00000020: 31f3 363d 5e76 60bc 9afe 8abd e9f4 bcbc
00000030: 02d1 cfbc 55b3 c73c 8521 073d a65c 223d
00000040: 74ac 923c 00a7 0c3d bee2 e5bc 07e7 88bd
00000050: 37ac 61bb bf98 debc e00e 6bbd 59a0 083c
00000060: 7ebe 2b3c 5040 b43c 9f02 aabc 6183 b73b
00000070: e45f 053d b4ae c23c b5ea 813d 6839 8a3d
00000080: d9eb b3bc 59ca 8fbd 7721 033d 7af1 1abd
00000090: f73d 0e3c 40ce e63c c0d9 633d f185 22bc
000000a0: 0b91 333d 091f 88bb e96f 463d e46e 7a3d
000000b0: 56f6 9a3d c59d 363d a4a0 9dbb 1ffc 993c
000000c0: d102 8cbd ac67 553d 46cd 3c3d b496 a03d
000000d0: f833 fcbc 8a42 063d d6e6 6cbd a7f3 b03d
000000e0: 53b6 bd3c e7dd 8bbd 4c62 68bd 7244 0dbc
000000f0: 0d99 59bd 6a65 92bd 8636 d93b b6b7 94bd
00000100: d300 27bc 37c6 32bd d803 05bd a820 443d
00000110: 7ce7 27ba 1d67 6abd 41f6 1f3d b013 4e3c
00000120: 5f12 01bd d5d0 3dbd 6eae 703d 7166 40bd
00000130: 0da8 46bc 979f 7f3d 1ece 98bd 8334 93bd
00000140: 77b4 a0bd 3cda a8bd 5f3e 4cbd e46d 1bbd
00000150: 62ac 973b 1675 873d 50d9 f9bc ee43 20bc
00000160: c161 c43c ce23 053d 4606 9f3d 3710 aabd
00000170: 8b66 a13d f8c4 933c 840d 71bd 7bd7 8b3d
00000180: 12ba d43c ee70 e83c 6828 2f3d 102c 933d
00000190: 0d94 203c 51b0 b1bd 01d6 333c a64b e7bc
000001a0: 995c fa3c 3c57 9fbd 57de 5c3d fa32 bdbd
000001b0: 2177 803d e23e 88bd 3b4b 943d 62ea 98bd
000001c0: cc68 863d 8dea 93bc c422 7cbd 05b1 cabd
000001d0: 1412 5b3d 600d 8cbd 0fcf 233d d1fb 87bd
000001e0: 7ac1 173d cf50 1d3b 926b 90bd 6745 3ebd
000001f0: 4372 983d 1c76 50bd db72 1fbd f460 bf3b
00000200: 1acf 96bc 4b43 c4bb 496d 853c 3587 53bd
00000210: 1b0d 973c e493 3cbd 8359 143c d1a7 3b3d
00000220: 0d22 9bbc 6c0b 3e3d 7506 253d 75ee e6bc
00000230: 39f2 0abd 2825 b7bc 7d42 d7bc 1dbc 3cbd
00000240: 0f3d 5e3c fcc5 a33d 9e5f 1ebd a0cd 2a3c
00000250: c9b0 b03d b6af 1fbd de1c abbd b66c a93b
00000260: c767 60bd ff51 6f3d cf27 26bd e216 a73d
00000270: 4de2 f2bc 7c3c 43bd 5f1d a33d d424 9f3d
00000280: a4e4 b0bd 79f6 20bd 11c2 af3c 0545 463d
00000290: 4783 0fbc 5ba8 bfbd 35c6 c13c 563e 9cbd
000002a0: b1f0 8bbd 2edb 5abd 7082 8fbc 1e0d 7abd
000002b0: 7a82 babd 6e1a 183d 43fb 1abd 9aa0 6cbd
000002c0: 3ab2 39bd 421f 61bd 6f09 1ebd 9cef 93bd
000002d0: 86af 4fbc 59da 303c d65a 4fbd 81ca a7bd
000002e0: 0223 863d 9e1d 0ebc 737e 96bb c906 9abd
000002f0: e933 4b3d b6d7 2abd dab1 7abd 39da 663d
00000300: bd61 023b 90bc a7bd 483d 47bd e7fb acbd
00000310: 0447 96bd e2ae 813d 7711 5fbd fe2c 97bc
00000320: 4f8f 963d 3b7d a53d eb71 79bd 541d 6abd
00000330: 6266 f3bc f49a 78bd f621 be3b c9d6 883d
00000340: eae9 0cbd 4b20 af3c 3db2 bd3c ca0d 02bd
00000350: e2d5 25bd 0726 cabc 1365 4ebd 3739 94bd
00000360: 1f0f 96bd 9972 37bc 33bd 84bc 1b31 933d
00000370: 266b 85bd 0847 ccbc bd80 82ba 274b 63bd
00000380: 6af3 9539 4a95 413d 0e1b 163d 67b7 983d
00000390: 7c71 a3bd fc85 3b3d 4f7a 413c 7514 03bc
000003a0: 9889 fdbb c3cc e0bc c65e a5bd 7e27 203d
000003b0: f89b ff3c a529 303d 4447 823c 3b40 0c3b
000003c0: 2284 cf3c 3e75 0c3d 76d8 18b9 ab81 a83b
000003d0: fccb b5bd ab89 2ebd 927a 1a3d 89db 63bb
000003e0: f132 3b3d 9672 85bd 8c38 3b3d babb 223c
000003f0: f176 67bd 790d a3bd fd79 f53b d46c 11bd
0.081276216 -0.013014167 -0.012835152 -0.050642222 -0.088232085 -0.03597752 0.022025015 0.06532533
0.04466552 -0.013700096 -0.06786843 -0.023066001 -0.025368217 0.024377504 0.03299095 0.039639138
0.017904498 0.03433895 -0.02806222 -0.0668469 -0.0034434923 -0.027172444 -0.057387233 0.008339011
0.010482429 0.022003323 -0.020753203 0.0056003784 0.03256215 0.023764946 0.06343595 0.067492306
-0.021963047 -0.07021017 0.032014336 -0.037827946 0.008681766 0.02817452 0.055627584 -0.009919629
0.043839496 -0.0041540903 0.04844657 0.06114091 0.07566516 0.044584054 -0.0048104096 0.018796979
-0.06836475 0.052100822 0.0460942 0.07841244 -0.0307865 0.0327783 -0.05783733 0.08640223
0.023158228 -0.06829434 -0.05673437 -0.008622276 -0.053124476 -0.071482494 0.006628814 -0.072616026
-0.010193068 -0.043646064 -0.03247437 0.047882706 -0.00064050383 -0.057227243 0.039053205 0.012577936
-0.03151166 -0.046341736 0.0587601 -0.046972696 -0.012125027 0.062408056 -0.07461189 -0.0718775
-0.07846921 -0.0824475 -0.04986417 -0.037946597 0.004628704 0.06614129 -0.03049913 -0.009781821
0.023972394 0.03250485 0.077648684 -0.08303874 0.07880887 0.018038258 -0.05885078 0.06828209
0.025967631 0.028374162 0.042763144 0.07186139 0.009800923 -0.08676208 0.0109763155 -0.028234314
0.030561732 -0.077803105 0.053922977 -0.09238239 0.06272722 -0.06652619 0.072409116 -0.0746658
0.06562957 -0.018056178 -0.061556593 -0.09897045 0.053484038 -0.068384886 0.03999239 -0.06639827
0.037049748 0.0024004465 -0.070517674 -0.046452906 0.07443669 -0.050893888 -0.038927894 0.005840415
-0.0184093 -0.0059894673 0.016287463 -0.051642615 0.018438866 -0.046039477 0.009054544 0.04581434
-0.018937135 0.04639761 0.04028936 -0.028189877 -0.033922408 -0.022356585 -0.026276821 -0.046077836
0.013564362 0.07996747 -0.038665406 0.010425001 0.08627469 -0.03898593 -0.08355115 0.00517043
-0.05478647 0.058427807 -0.04056531 0.081586614 -0.029648924 -0.047665104 0.079645865 0.07770696
-0.0863736 -0.039297555 0.021454843 0.048405666 -0.008759326 -0.09358283 0.023654083 -0.07629077
-0.068330176 -0.053431682 -0.017518252 -0.061047666 -0.09106918 0.03713458 -0.037837278 -0.05777035
-0.045335986 -0.05496145 -0.038583215 -0.07223436 -0.012676125 0.010794246 -0.050623737 -0.081929214
0.06549646 -0.0086740535 -0.0045927106 -0.075208254 0.049610052 -0.041709624 -0.06120477 0.056360457
0.0019894682 -0.08190262 -0.048642427 -0.08446484 -0.07337764 0.063321844 -0.054460015 -0.018454071
0.07351553 0.080805264 -0.060899656 -0.057156876 -0.029711906 -0.06069465 0.0058023883 0.06681592
-0.034402765 0.021377703 0.02315628 -0.03175143 -0.040487178 -0.024676336 -0.05038936 -0.07237475
-0.07327103 -0.011196756 -0.016203498 0.071871005 -0.065145776 -0.024936214 -0.000995658 -0.055491593
0.00028600852 0.047261514 0.036646895 0.07456856 -0.0798063 0.045782074 0.011808946 -0.008000483
-0.0077373497 -0.027441388 -0.08074717 0.039100163 0.031202301 0.043008465 0.015903123 0.002140059
0.02533156 0.0342915 -0.00014576488 0.0051424108 -0.088767976 -0.04261176 0.03771455 -0.0034768304
0.04570288 -0.06515996 0.045708224 0.009932453 -0.056509916 -0.07961554 0.007491349 -0.035504177

fc3.bias f4 [128]
00000000: a500 11bd 9a9f 94bd 634c 233d 1888 5e3d
00000010: d6e4 123d 29a6 0dbc 502e 9ebc eb8d 853d
00000020: 227b a33b 1ea4 9bbd e81c 013e 7053 91bd
00000030: 57de d53d 552a c1bd 4bc2 a83c b695 233e
00000040: f875 553d 3a78 89bd f29d 1d3e 5429 e73c
00000050: 004f 383e 6830 2a3d 9107 793d a489 9dbd
00000060: 918c 863d a8e2 c1bc 8d33 23bd b29a 02bd
00000070: dbf2 f4bc 9420 ff3d 02fd 443d cfe6 87ba
00000080: f06b fb3d b7e4 2d3e 4bbe fc3d 594c 323c
00000090: dcf9 263d 11be 2fbc 7d31 203d 940a 41bd
000000a0: f1e5 d73d 0f93 b2bd f688 12bc 8de0 edbd
000000b0: b9da cabd 21e2 a6bc 8631 823d fd03 af3c
000000c0: ea30 30bd 354a babc c079 aa3d 3970 413d
000000d0: 243c c03d 04d5 c9bc 8fea 0bbd c4da 413b
000000e0: a72c 9ebd bb02 f03b dec4 0abd 5585 1a3e
000000f0: 24e9 513d 7d90 ccbb cba7 8fbd 624a bebc
00000100: 30fc 3fbd ebf1 05bd 87f3 0d3e d7f7 84bc
00000110: 0155 a4bd e8dc f53d ffa4 45bd 0e04 873b
00000120: 047d d33d 6a11 393c 931d d5bc 8f4c 40bd
00000130: 259d 53bd 4c07 b3bd 3170 9e3d 8cba 63bd
00000140: 03ff 87bd 1006 7c3b b4b5 b2bd c7b5 e4bc
00000150: 9e80 9c3d 2e84 d13d 2688 f43d f6c3 30bd
00000160: 27bf d83c 421b a13d 85e0 7b3c a24d 763d
00000170: 9341 96bd bb36 8cbd 6997 833d a9e5 f53d
00000180: 9693 9cbd 628e aa3d 640a a93d 3a71 243e
00000190: 9d1d 713c 61a6 61bc 8348 0e3e 7605 063e
000001a0: b78c 143d 268c 173e d9b4 35be d059 c0bb
000001b0: 40f8 7c3d 1d22 193e 57af 8dbd 009f 09bc
000001c0: be3b 19bc 0afd 0f3d ddfa 8dbc 0d97 ab3d
000001d0: 686b 6c3d fcf2 89bc 6e19 7f3d 405f 8d3d
000001e0: cae5 e13c 6670 a5bd a85d 3f3d 9724 f83d
000001f0: 7cb3 d8bd 5d39 8d3d 6d6f ea3d cfd2 12bc
-0.035401005 -0.07257004 0.03986777 0.054329008 0.035862766 -0.008645573 -0.019309193 0.06521209
0.004989044 -0.07599662 0.12608683 -0.070959926 0.104427986 -0.09431902 0.020600459 0.15975079
0.052114457 -0.067123845 0.15392283 0.028217949 0.17998886 0.04155007 0.06079823 -0.076922685
0.0656978 -0.023667648 -0.039844085 -0.03188581 -0.029900959 0.12457386 0.04809285 -0.0010368469
0.12276447 0.16981779 0.12340983 0.0108824605 0.04076563 -0.010726468 0.039109696 -0.04712923
0.10541905 -0.087194555 -0.008943787 -0.11615095 -0.09904999 -0.020371499 0.06357102 0.021364206
-0.043015398 -0.022740463 0.08324003 0.047226164 0.09386471 -0.024637707 -0.03415924 0.0029579857
-0.077233605 0.0073245442 -0.033879153 0.15089925 0.05124773 -0.0062428103 -0.07014426 -0.023228828
-0.046871364 -0.032701414 0.1386243 -0.01623146 -0.08024026 0.12005025 -0.048253056 0.0041203564
0.10326579 0.011295656 -0.026015079 -0.046948012 -0.051663537 -0.08741626 0.077362426 -0.055597827
-0.066404365 0.0038455762 -0.08726063 -0.02791871 0.07641719 0.102302894 0.11940031 -0.043155633
0.026458336 0.07866527 0.015373354 0.06013263 -0.07336726 -0.068463765 0.064253636 0.12006695
-0.07645337 0.083279386 0.08253935 0.16058818 0.014716533 -0.013772578 0.13894849 0.1308802
0.03626701 0.14799556 -0.17744769 -0.0058700815 0.061760187 0.1495442 -0.06918209 -0.008399725
-0.009352623 0.035153426 -0.017331535 0.0837842 0.057719618 -0.016839497 0.06228011 0.06902933
0.027575392 -0.08078079 0.046720177 0.12116354 -0.10581109 0.06895707 0.11447034 -0.0089613935

fc4.weight f4 [128, 128]
00000000: 468b 273d e9de 10bc fe2a 95bc 1627 64bd
00000010: 4e8a f43c 39de fe3c 5f62 90bc 9325 b33c
00000020: f0cf 43bd 6f0b ae3d c36c 90bd 35f7 a3bd
00000030: 9a19 a6bd 1272 733d 44bf 413d 3eda b7bc
00000040: e36f 9dbd 8641 db3c bb11 b3b9 508f a7bd
00000050: 2bd8 843d 120e 66bd 309f cabc 5078 cb39
00000060: 4022 773d 0ffd f7bc 5df4 a1bc 6617 d3bb
00000070: 340f f0bc deda 473c e610 a1bd 7af7 cfbd
00000080: dff7 a8bd fc11 25bd b6e6 cfbc 9b5f a6bc
00000090: 7636 99bd ad65 42bd d8a5 dabd 8494 853d
000000a0: f6e2 783d 698a 71bd 3522 70bd 91a6 c0bc
000000b0: 38d4 a03d b612 3ebd 4a69 fdbc 1596 e83c
000000c0: 7a76 bfbc 985c 163d 5d1e 383d 5d8d 963c
000000d0: b17c 9cbc a437 d2bd cec8 573d 3ab5 8a3d
000000e0: 1d04 06ba 3d08 773d 0ef9 553c b334 88bd
000000f0: 01e5 94bd 093a c0bb 3b8c 9cbd 7424 303d
00000100: 1bc0 493d 82d8 17bd d471 213c 3c0f b1bc
00000110: ab04 71bd ada1 a4bd f3f9 0dbd 4c30 8fbd
00000120: 20b5 8c3c bcd9 0f3d d355 5dbd 512d 753c
00000130: 6df0 703d 0280 31bd 0f17 093d 0887 60bd
00000140: d25b 963d 0127 023d 0ca3 173d 8c62 8d3d
00000150: e885 593d 6dae 003d d20f 8abd e6e7 11bc
00000160: 3f96 9abd e436 17bd e228 803d d467 bcbd
00000170: 63a7 a9bd bf6d 13bd f492 403c 130a 003d
00000180: 6495 19bd 4bdd 813d 02fd 373c e177 50bd
00000190: 4075 b2bd 71d1 92bd ea2f 0fbd fffb 8fbc
000001a0: 7ffd a23d 91d2 ac3c 1a94 853c de31 50bc
000001b0: 6d15 6c3c aefa b6bc 6567 b0bc 3674 7abd
000001c0: 264b 93bd a580 52bd e486 5cbc 61cb 36bd
000001d0: 6201 503b 2e31 063d 1f5d 94bd 233d 3e3d
000001e0: 4fed 8fbc 9fb1 6f3d 603a a4bd 2688 893c
000001f0: 8d78 15bd 05dc 313d b1c9 96bd 3fd5 893c
00000200: 3961 913d d9ab a1bd ec45 03bc dac1 463d
00000210: 07c4 48bd 9d05 8fbc a31b 0cbc ca40 17bd
00000220: 3fa8 13bf 2acc 85bc 927a 983d 5c39 6c3d
00000230: 710e f33d f2a5 b4bd 85b4 2fbd 4ace 07bd
00000240: e51d 823d f77f 58bd d598 bfbc 2051 a7bd
00000250: 860d 8d3c bd31 67bd 19d7 323d 5bff ae3d
00000260: 599e b5bd 3875 1b3b bf79 afbd c71c 333d
00000270: c746 7fbd e8f8 1abd ad6f 95bd 09ab 183c
00000280: ed3a ab3c 1dab a23d 5056 9c3d 9877 26bf
00000290: 6275 883d ecb8 563d 3a75 633d 8ad3 ebbc
000002a0: d4d4 36bd a731 74bd 5dc0 023d b09c 11be
000002b0: 4c9d 90bd f223 603d 60ab b03d 8933 dbbc
000002c0: 4d3e 8bbd a6c7 0dbd 7427 d0bc 845e 09bc
000002d0: 7526 76bc 3105 5b3d 4a8a 12bd a6f2 9a3c
000002e0: 77c6 a5bd f347 0cbd e972 d43d aef3 b03d
000002f0: 2da2 21bc 5157 af3c 798b 723d 270a 0b3d
00000300: fea9 a9bd e00c 1fbd 8215 c2bd 7ca6 fd3d
00000310: 6ded 5d3c 0b8f de3d adc4 7dbd e54d 6abc
00000320: de36 42bd 4c19 c83d 601c 403b cc1e 20bd
00000330: 4948 febc c9d9 733d 8f70 773d a67e 60bd
00000340: 1038 79bd d4c5 96bd ee7e 8dbd b069 813d
00000350: e767 7e3d 591d 103d 687b 783a 0f03 863d
00000360: 0833 9bbd 6f4d 353d 8b64 8a3d 2742 b3bd
00000370: 3e1d 35bd c0a9 a03d 0366 9d3c 8a73 793d
00000380: 4434 27bc e962 ae3c 83c7 553d dacf 0c3b
00000390: 5990 493e 73e4 35bc c717 3bbd 04ba 113d
000003a0: 29ca 7c3d 5065 743d 27f4 26bd a0a8 2eba
000003b0: 0ba7 183c 164e 443d c7fd 4cbd fae3 663d
000003c0: 0ee1 bdbc 2923 b03d f984 bebc 71a5 143c
000003d0: 198f ee3d d6dd bdbc 005f c4bd 0dc5 cebd
000003e0: 09fa adbd 5c15 5dbd 5626 0bbc f2e1 fa3c
000003f0: e6f1 e73c 9ef8 9abd ce85 0ebd 020b 9abd
0.040904306 -0.008842208 -0.018208977 -0.055701338 0.029851105 0.031111823 -0.017625032 0.021868503
-0.047805727 0.084982745 -0.07051995 -0.080061354 -0.08110352 0.059434958 0.047301546 -0.022442933
-0.07687356 0.026764642 -0.0003415475 -0.081816316 0.06486543 -0.056165762 -0.02473411 0.00038808817
0.060335398 -0.030272035 -0.019769842 -0.0064419983 -0.029304124 0.012198178 -0.07864551 -0.10154624
-0.08250403 -0.040300354 -0.025378566 -0.02030926 -0.07481091 -0.047460247 -0.106761634 0.06522468
0.06076332 -0.05896989 -0.058626372 -0.023516925 0.078529775 -0.046404563 -0.030933995 0.028391877
-0.023371924 0.036709398 0.04495083 0.018377954 -0.019102426 -0.10264519 0.052681737 0.067728475
-0.0005112307 0.06031059 0.013059868 -0.066506766 -0.072702415 -0.0058662933 -0.07643934 0.043003514
0.04925547 -0.037071712 0.009853799 -0.02161371 -0.058842342 -0.0803865 -0.0346622 -0.06991634
0.01717621 0.035119757 -0.054036926 0.014964418 0.058823038 -0.04333497 0.033469256 -0.054816276
0.07341732 0.03177548 0.037020728 0.06903562 0.05310622 0.031416345 -0.06741299 -0.008905387
-0.075481884 -0.036917582 0.06257798 -0.09199491 -0.082838796 -0.035993334 0.011753786 0.031259608
-0.037495986 0.063410364 0.011229755 -0.050895575 -0.0871377 -0.07168854 -0.034957804 -0.017576216
0.07958507 0.0210965 0.016305972 -0.012707202 0.014409405 -0.02233633 -0.021533677 -0.061145984
-0.07192068 -0.051392216 -0.013459895 -0.04462755 0.0031739105 0.032761745 -0.07244324 0.046445023
-0.017569212 0.058519002 -0.08018947 0.016788553 -0.03649192 0.043422718 -0.07362688 0.016825316
0.07098622 -0.078941055 -0.008012276 0.048524715 -0.04901507 -0.017458731 -0.008551511 -0.036927022
-0.576786 -0.016332705 0.074452534 0.05767189 0.11867989 -0.08820714 -0.042896766 -0.033155717
0.06353358 -0.05285641 -0.023388306 -0.0816977 0.017218363 -0.05644392 0.043662164 0.08544799
-0.08868093 0.002372099 -0.08568143 0.043728616 -0.062323358 -0.03783503 -0.07296691 0.009318122
0.020902121 0.079427935 0.0763365 -0.65026236 0.06663014 0.05242245 0.055531718 -0.028787393
-0.044636562 -0.059617665 0.031921733 -0.14219928 -0.07061252 0.05472178 0.08626437 -0.026757972
-0.06798992 -0.034614228 -0.025409438 -0.008384351 -0.015023817 0.053471748 -0.035776414 0.018914532
-0.08094495 -0.034248304 0.1037348 0.08640228 -0.009865326 0.02140394 0.059215043 0.03394523
-0.082843766 -0.038830638 -0.094767585 0.1238527 0.013545376 0.10867127 -0.061955143 -0.014300798
-0.047415607 0.0977045 0.0029313788 -0.03909187 -0.031040328 0.059533868 0.06041008 -0.05480828
-0.06084448 -0.073619515 -0.069089755 0.063189864 0.062110808 0.035184238 0.0009478838 0.06543552
-0.07578093 0.0442633 0.06757458 -0.08752852 -0.04421734 0.07844877 0.019213682 0.060901202
-0.010205332 0.021287398 0.052192222 0.0021486194 0.1968397 -0.01110183 -0.045676973 0.03557779
0.061716232 0.05966693 -0.040760186 -0.00066627003 0.00931717 0.04792603 -0.05004671 0.05636976
-0.023178604 0.08600456 -0.023256766 0.009072647 0.116483875 -0.023177069 -0.09588432 -0.10096178
-0.08494956 -0.053975448 -0.008493027 0.030625317 0.028313588 -0.07566951 -0.034795575 -0.07521631

fc4.bias f4 [128]
00000000: a80a dbbd 07bb 323a dc0b 28bc cea1 203d
00000010: e7cf a8bd cd57 0cbc 5827 aabd 799e 80be
00000020: 55f9 253e 9ea3 ba3d 1bda 53bd 2e9c d3bc
00000030: e674 9f3d d397 a8bd 75cd 58bd c23d 373e
00000040: 0599 0c3e f910 f03d bb77 8abd 931e cc3d
00000050: 7480 293e e706 ccbd 221a 2f3d 0b94 f23d
00000060: 3bc5 1fbc a384 223e 39bb 0e3e a359 003e
00000070: c5ee b1bd 7bcc 2c3c 3bc1 2d3e d553 41bd
00000080: e0c7 b8bd 66d7 133e 7775 283d 546b cdbd
00000090: 456c e83d d818 83bd 0c81 f13d 869b 753d
000000a0: 5829 6f3d c962 88bd 4cf1 323e a7a9 91bd
000000b0: eaa2 813d 027d 2d3e 42ce cbbd 6741 8bbc
000000c0: 7368 503c 0520 c83d 4cf4 583d 3219 e53d
000000d0: ac09 a5bd b43f 53bb 22cd ac3c 2676 c3bd
000000e0: 810c 2abc bf86 aabd 2adc 633d 0c2d c2bd
000000f0: 3665 61bd bbe4 d13d 8062 ca3d f402 093e
00000100: bec9 7abd 7f3c 873d 641b c7bd 924f 80bd
00000110: 6044 043c 2f24 bd3c 5801 60bd b618 60bd
00000120: eb60 253e 994d e23c a70e f8bd 81ec 43bd
00000130: 6850 05bd 5dfe 093e 1c5f 5cbd 6eee 3fbb
00000140: 85ff 7fbd a9a4 8e3d 3ae6 183d 71d7 62bd
00000150: 6fe3 8abd cdba 803d 0dbe eabb 89d3 163d
00000160: 6361 b6bd a9cc dfbd 3c12 2d3e 28a7 013e
00000170: 3c42 b23d 441d 7ebc 8037 a1bd 12ad f93a
00000180: 4d1b a9bd b7ba 87bd 0abc 213d b125 f73c
00000190: 2f30 8cbd 72ff 50bd 1518 193e 9c7e 9a3c
000001a0: 3223 b13d 0d32 193e 884e e83d f4b9 aabd
000001b0: 547a e53c 35df 853d 3e72 88bd 5d32 713d
000001c0: c81a ee3d dcb6 803b 8e2d 85bc e8a8 c5bc
000001d0: 33d7 81bd 4464 4c3c 4515 bdbc 457b a0bc
000001e0: 46fe 92bd fad0 dabd 80d5 fdba 9271 543d
000001f0: 4fde 01bd 43ec 213e b37e 803d f732 0f3e
-0.10695392 0.00068180304 -0.010256734 0.03921681 -0.08242779 -0.008565855 -0.083082855 -0.25120905
0.16208394 0.09113239 -0.051721673 -0.025831308 0.077859685 -0.08232083 -0.052930314 0.17894652
0.13730247 0.11721987 -0.06761118 0.09966769 0.16552907 -0.09962254 0.04274953 0.11844643
-0.009751613 0.1587091 0.13938607 0.12534194 -0.0868812 0.010546799 0.16968243 -0.04719909
-0.09022498 0.14437637 0.04112765 -0.10030237 0.11348776 -0.06401223 0.11792192 0.05996277
0.058389038 -0.06659467 0.1747486 -0.07112437 0.063299015 0.16942218 -0.0995145 -0.01699896
0.012720215 0.09771732 0.052967355 0.11186446 -0.080584854 -0.0032234015 0.021093909 -0.095440194
-0.010378958 -0.08326482 0.055629887 -0.09481248 -0.055028163 0.10248705 0.09882069 0.13380033
-0.061227553 0.066033356 -0.09722021 -0.06265177 0.0080729425 0.023088543 -0.05468878 -0.054711066
0.16150253 0.027624892 -0.1211217 -0.04783297 -0.032547385 0.13475938 -0.05380164 -0.0029286402
-0.06249954 0.06965 0.037328936 -0.055381242 -0.06781661 0.062856294 -0.007163769 0.03682283
-0.08905294 -0.10927708 0.16901487 0.12661421 0.087040395 -0.015509907 -0.07871914 0.0019048771
-0.0825716 -0.0662741 0.03948597 0.03016934 -0.06845128 -0.05102486 0.14950593 0.0188592
0.08649291 0.14960499 0.11343104 -0.08336249 0.028012432 0.06536714 -0.06662415 0.05888592
0.11626202 0.0039280485 -0.016257074 -0.024128392 -0.06339874 0.012475077 -0.023081431 -0.01959003
-0.07177405 -0.1068439 -0.0019365996 0.05186612 -0.03170615 0.15812783 0.06274166 0.13984285
