data/Fanuc_success/Behavior_cloning/BC_policy_GIC_GCEV_100_itr_39.pt (torch, 141887 bytes, 8 tensors)

fc0.weight f4 [128, 6]
-0.39347017 -0.3596471 0.32338092 0.3352668 0.14287497 -0.03074597 0.012505108 -0.020033915
0.8023503 -0.2470712 0.90053725 -0.21942055 0.2331452 0.020611055 -0.14471383 0.13925758
-0.29057336 -0.27926686 -0.17002791 -0.11176058 -0.21234386 -0.0033323262 0.2537588 -0.13572878
0.15919167 -0.115807645 0.677647 -0.24408057 0.12357752 -0.045086257 0.120705366 -0.31827447
-0.70577526 -0.2699255 -0.5174735 -0.10733195 -0.33550256 -0.96870106 0.47869194 0.018611562
0.370378 0.15465662 0.011251126 0.16852693 0.11643811 -0.30518472 0.10928153 -0.09427249
-0.56407565 -0.033480234 -0.38721982 -0.07206452 -0.23087588 -0.29573533 -0.043510392 0.094106175
-0.46990868 0.05351261 -0.49210447 -0.26179314 0.85925996 0.3715446 -0.01300077 -0.036537107
0.8831497 -0.064826235 0.39943066 0.27814215 -0.25575176 -0.13636959 -0.065164514 0.3822852
-0.34348935 -0.63047475 0.31651443 0.035278212 -0.2200953 0.098216794 -0.57469517 0.16688327
0.45453405 0.34136015 0.059257343 -0.56924397 -0.32183942 -0.06206924 0.1555833 -0.26451865
0.22141393 -0.13033274 -0.59098554 -0.3944891 0.5730508 0.38991317 0.051026527 0.20623335
-0.021734085 -0.019605417 -0.20328031 0.4385555 -0.2519953 -0.05221968 0.08486504 0.4659626
0.074116334 0.009664484 -0.12323416 0.024026638 -0.25225455 -0.12894407 -0.2021964 -0.20182687
-0.3820036 -0.3321716 -1.0944009 -1.4561615 0.84203875 -0.051539496 0.10828283 -0.240848
-2.2202306 2.345015 0.3414335 -0.07251482 0.12281772 -0.3853248 0.28918353 0.33033386
0.031432986 0.032928523 0.28012487 0.07730902 -0.28011268 -0.18266173 -0.64167786 -0.3296785
-0.14442582 -0.5141601 -0.47682577 -0.3152268 -0.53205 -0.05705033 0.0019074525 0.23885973
-0.48048955 0.25858074 -0.6407616 0.6953553 -0.6189219 -0.30867198 -0.3397189 0.038494863
0.44404334 -0.33985406 -0.2595689 -0.025169969 0.068795174 -0.15261856 0.25392354 -0.2481561
-0.29251197 0.307209 -0.55982566 -0.11558012 0.16268617 0.006833346 0.40659338 0.52549905
-0.3849585 -0.15337594 -0.23529194 -0.0667593 0.04563633 -0.2793532 -2.8425753 2.2673922
0.33746952 0.49533653 0.25891656 -0.5458416 -0.29411653 0.16062349 -0.32316262 -0.36433214
0.022645779 -0.21147732 -1.3365906 -0.23232211 -0.3768064 -0.055261437 -0.3148941 0.411798
-0.16074459 0.38373604 0.0948998 -0.076840065 -0.16330019 -0.023114825 0.24922991 0.0015699937
0.37587976 -0.50693214 0.34031823 0.60245425 0.26436606 0.32482535 -0.1851505 0.082896575
0.25912842 0.11905995 -0.66620284 -0.1787682 -0.767172 -0.2761159 -0.13021189 0.44380134
-0.1540155 0.17442207 0.8481557 0.34048128 -0.31489435 0.41776654 -0.85265344 0.27696714
-0.35298643 -0.14101924 -0.021178331 0.304606 -0.38221028 0.24111307 -0.17791012 0.1323017
-0.33311552 -0.21673149 -0.6945531 -0.65245616 0.15439054 -0.3171264 0.5053111 -0.40554255
-0.91214645 -0.40106142 0.13056548 -0.07644868 0.28108883 0.36470866 -0.55955917 -0.7523795
0.5955205 0.31055644 0.19428456 0.099706 -0.13546227 0.2160012 -0.53530717 0.43728358
00000000: ec74 c9be aa23 b8be 2f92 a53e 17a8 ab3e
00000010: d14d 123e f9de fbbc 39e2 4c3c 2a1e a4bc
00000020: d466 4d3f 3c00 7dbe 9c89 663f c8af 60be
00000030: 9ebd 6e3e 84d8 a83c dd2f 14be 8a99 0e3e
00000040: 08c6 94be 11fc 8ebe cc1b 2ebe bbe2 e4bd
00000050: ab70 59be 2863 5abb acec 813e 7cfc 0abe
00000060: 2403 233e 8f2c edbd 467a 2d3f 42f0 79be
00000070: 3616 fd3d 5eac 38bd 6034 f73d dff4 a2be
00000080: b0ad 34bf ad33 8abe 2579 04bf dad0 dbbd
00000090: fec6 abbe cbfc 77bf 1c17 f53e 4677 983c
000000a0: 2fa2 bd3e 4e5e 1e3e a556 383c 5392 2c3e
000000b0: 1b77 ee3d 2c41 9cbe ffce df3d ef11 c1bd
000000c0: 4367 10bf 9222 09bd ad41 c6be 9096 93bd
000000d0: ba6a 6cbe 9f6a 97be f437 32bd bdba c03d
000000e0: df97 f0be 0a30 5b3d 1ef5 fbbe c009 86be
000000f0: 76f8 5b3f 183b be3e 2e01 55bc efa7 15bd
00000100: 1916 623f 9ec3 84bd 2d82 cc3e a668 8e3e
00000110: e5f1 82be 78a4 0bbe f974 85bd e3ba c33e
00000120: d6dd afbe cb66 21bf 2e0e a23e e37f 103d
00000130: aa60 61be e325 c93d 391f 13bf 73e3 2a3e
00000140: b0b8 e83e c2c6 ae3e d4b7 723d f9b9 11bf
00000150: 23c8 a4be 513c 7ebd 3b51 1f3e fd6e 87be
00000160: 55ba 623e f275 05be d44a 17bf 7afa c9be
00000170: 75b3 123f b3a2 c73e 3101 513d d62e 533e
00000180: ae0b b2bc 8a9b a0bc b728 50be 598a e03e
00000190: 8705 81be 4ee4 55bd b9cd ad3d a692 ee3e
000001a0: 4eca 973d c957 1e3c 3162 fcbd 83d3 c43c
000001b0: 8227 81be ea09 04be 930c 4fbe b4ab 4ebe
000001c0: fa95 c3be 6512 aabe 5415 8cbf 8063 babf
000001d0: da8f 573f 141b 53bd 63c3 dd3d dca0 76be
000001e0: 4218 0ec0 ba14 1640 5fd0 ae3e a682 94bd
000001f0: db87 fb3d 4b49 c5be dd0f 943e 8521 a93e
00000200: e0bf 003d 0fe0 063d 876c 8f3e 3154 9e3d
00000210: ee6a 8fbe ad0b 3bbe 0045 24bf 9fcb a8be
00000220: 5de4 13be ff9f 03bf 8222 f4be 6865 a1be
00000230: 6e34 08bf 9bad 69bd 7c03 fa3a a597 743e
00000240: ba02 f6be b264 843e f408 24bf ce02 323f
00000250: aa71 1ebf 410a 9ebe a3ef adbe caac 1d3d
00000260: a659 e33e 5a01 aebe 37e6 84be 4031 cebc
00000270: 7ce4 8c3d 0a48 1cbe 4402 823e a21c 7ebe
00000280: 21c4 95be 804a 9d3e bc50 0fbf 45b5 ecbd
00000290: 3497 263e 43ea df3b 022d d03e 1b87 063f
000002a0: 4819 c5be 950e 1dbe 5ff0 70be 1ab9 88bd
000002b0: 29ed 3a3d 6207 8fbe c1ec 35c0 f41c 1140
000002c0: cec8 ac3e c09c fd3e b690 843e 46bc 0bbf
000002d0: 7196 96be 7c7a 243e 9275 a5be be89 babe
000002e0: a483 b93c 838d 58be 6715 abbf d9e5 6dbe
000002f0: c5ec c0be d159 62bd cd39 a1be 30d7 d23e
00000300: 3b9a 24be 0d79 c43e d45a c23d 535e 9dbd
00000310: 2a38 27be 4d5b bdbc 2036 7f3e 3fc8 cd3a
00000320: 5073 c03e 4ec6 01bf 313e ae3e 713a 1a3f
00000330: fd5a 873e 824f a63e 1898 3dbe aec5 a93d
00000340: 7bac 843e b4d5 f33d 458c 2abf 030f 37be
00000350: 6265 44bf 105f 8dbe 4456 05be ee39 e33e
00000360: 3db6 1dbe b39b 323e bb20 593f 9053 ae3e
00000370: d539 a1be 7fe5 d53e 7f47 5abf a3ce 8d3e
00000380: a3ba b4be 5967 10be 2e7e adbc 51f5 9b3e
00000390: 11b1 c3be 58e6 763e 122e 36be 197a 073e
000003a0: 1e8e aabe dcee 5dbe 3bce 31bf 5e07 27bf
000003b0: 8e18 1e3e 645e a2be 115c 013f 46a3 cfbe
000003c0: 6e82 69bf ec57 cdbe f5b2 053e 2091 9cbd
000003d0: e0ea 8f3e 18bb ba3e 453f 0fbf f19b 40bf
000003e0: 0874 183f 4101 9f3e 88f2 463e a932 cc3d
000003f0: 9fb6 0abe 6b2f 5d3e e409 09bf a2e3 df3e

fc0.bias f4 [128]
0.21250376 -0.032494083 -0.31853184 -0.17658773 0.102606036 0.16855754 0.16564962 -0.33401588
0.22782043 0.17385869 -0.007090337 -0.23937546 -0.0041676983 0.10377437 -0.2413536 0.1977169
0.36323398 0.040522344 -0.38489696 -0.034652445 -0.014255743 -0.25911337 0.2265115 0.33477017
0.11414135 0.1962747 -0.3894897 -0.2843258 0.41714454 -0.013947135 0.30831343 0.39616594
-0.4000581 0.023565589 -0.24347784 0.19857782 -0.035026845 0.11687395 -0.298354 -0.1881237
0.11348072 0.0010221476 0.18327746 0.019889833 -0.03141854 0.37913042 0.30614465 -0.02820393
0.054748468 -0.39612988 0.18272643 0.17808776 0.05398939 -0.00990001 -0.40021738 0.23073271
-0.29464674 -0.29051682 0.262481 -0.4003297 -0.20388179 -0.3827505 -0.3368328 0.18570414
-0.23544891 0.11524322 -0.028263364 0.06992635 0.019856034 -0.257271 0.029196208 0.17267576
-0.3075654 -0.3406948 -0.14783862 0.1409839 -0.050322533 -0.077098 0.14625844 0.04666888
0.10001188 -0.021167438 0.25348625 0.29388177 0.16938494 0.23913792 -0.35678545 0.120644584
0.062371176 -0.30392584 -0.28807536 0.001399278 0.006282536 -0.0012211056 0.27116874 0.16943333
0.3273709 0.40012193 0.23909159 -0.04131787 -0.007591587 0.38776916 0.29161587 -0.28147367
0.0015206255 -0.35649982 0.15788786 0.40111747 0.17069285 0.19555743 0.2785974 0.09188698
-0.027109392 -0.00067698583 -0.004751697 -0.34323466 0.22734609 0.031947948 -0.20148183 -0.027944634
-0.3915712 0.25845143 -0.33689198 -0.03649154 -0.015332848 -0.3905357 0.001906179 0.24976726
00000000: 969a 593e 8418 05bd 9b16 a3be 6ad3 34be
00000010: 1d23 d23d 599a 2c3e 0ea0 293e 2104 abbe
00000020: c249 693e 0308 323e 0f56 e8bb d71e 75be
00000030: 3091 88bb a887 d43d 6625 77be 4d76 4a3e
00000040: cef9 b93e c2fa 253d 3711 c5be b9ef 0dbd
00000050: eb90 69bc 82aa 84be a1f2 673e ff66 ab3e
00000060: f1c2 e93d 3cfc 483e 326b c7be 2793 91be
00000070: f893 d53e 8682 64bc 42db 9d3e 43d6 ca3e
00000080: 6ad4 ccbe 9f0c c13c 4152 79be fc57 4b3e
00000090: 4f78 0fbd 9c5b ef3d dbc1 98be 80a3 40be
000000a0: 9468 e83d 95f9 853a 16ad 3b3e 01f0 a23c
000000b0: bab0 00bd 621d c23e febe 9c3e ee0b e7bc
000000c0: ee3f 603d 89d1 cabe a31c 3b3e a35c 363e
000000d0: fb23 5d3d a733 22bc 4be9 ccbe 3245 6c3e
000000e0: f0db 96be 9fbe 94be e963 863e 04f8 ccbe
000000f0: 63c6 50be e0f7 c3be 5975 acbe 3a29 3e3e
00000100: 8519 71be a304 ec3d 9288 e7bc 8c35 8f3d
00000110: 1fa9 a23c 06b9 83be e32c ef3c ead1 303e
00000120: 3679 9dbe 8c6f aebe 0263 17be 155e 103e
00000130: 001f 4ebd 8ee5 9dbd c6c4 153e de27 3f3d
00000140: 07d3 cc3d 5667 adbc f3c8 813e ac77 963e
00000150: 3f73 2d3e 92e0 743e 95ac b6be 8214 f73d
00000160: eb78 7f3d 2b9c 9bbe 9d7e 93be fa67 b73a
00000170: bbdd cd3b 810d a0ba a1d6 8a3e ee7f 2d3e
00000180: 299d a73e c8dc cc3e 6dd4 743e ed3c 29bd
00000190: d9c2 f8bb ae89 c63e ad4e 953e 511d 90be
000001a0: ba4f c73a 2587 b6be 5bad 213e 455f cd3e
000001b0: 1bca 2e3e 3540 483e 52a4 8e3e 3e2f bc3d
000001c0: 8414 debc c077 31ba 20b4 9bbb 74bc afbe
000001d0: 6acd 683e dadb 023d 4151 4ebe 25ec e4bc
000001e0: 057c c8be bf53 843e 1b7d acbe 2778 15bd
000001f0: a036 7bbc 4cf4 c7be c1d8 f93a fdc2 7f3e

fc1.weight f4 [128, 128]
-0.034724433 -0.012761233 0.07788128 -0.0005350964 -0.00788224 0.04698558 0.03913695 0.056771424
-0.059258368 -0.025610061 -0.030433705 0.039309457 -0.079098575 0.08382311 0.07283787 -0.004362407
-0.046818063 0.05601933 -0.0063089193 -0.06418179 0.020616056 -0.0020167478 -0.06473537 0.044094525
-0.03374059 -0.08485298 0.057351198 0.05652399 -0.051340863 -0.04021266 0.054894775 -0.033083703
0.06955791 0.04757063 -0.007360715 -0.105625816 -0.045265466 -0.10006547 0.05007269 -0.044780366
-0.017433066 0.0032172508 0.060336925 0.083465405 0.005687226 0.07132932 -0.04459223 0.020174256
0.055331554 -0.0049625067 -0.07909133 0.05266326 0.053935725 0.039985683 0.041227162 -0.10340258
0.08275457 -0.021225901 0.035675533 -0.038021166 -0.061621074 -0.0564154 0.07013421 -0.041776508
0.026577128 -0.069263324 -0.051533762 0.049232423 0.079969585 -0.028271131 -0.0795543 -0.015371029
-0.028869126 -0.07582179 0.013768054 0.02997733 0.020235887 0.030325668 -0.084067784 -0.07526128
0.03220277 0.013041958 -0.04895585 -0.03344684 0.019152394 -0.06363756 0.041433163 -0.011080201
0.0027445143 0.0033249122 0.021335304 0.037445124 -0.090806626 0.056904584 -0.054218255 0.04300527
-0.044428173 -0.057533074 -0.09443711 0.09957159 -0.04253604 0.019936658 0.072428495 0.052619137
-0.065899506 0.05721423 0.023154264 -0.04939957 -0.09694287 0.00046948178 -0.0063344655 -0.07403945
0.04568193 -0.0072096083 0.040998764 0.07401605 0.023395844 -0.06429436 -0.06291434 0.024372073
0.054697104 -0.06367338 0.078725465 -0.0065060705 0.03686323 0.04898644 -0.034383357 -0.041566942
-0.025945382 0.9988493 -0.073749095 0.07174752 0.25087568 -0.24741653 0.12217824 -0.0066061076
-0.08422021 -0.045249306 0.6672048 -0.0529085 0.32340035 0.09058008 -0.056228034 0.078656346
-0.08380755 -0.012287463 0.018002816 0.8032503 1.3567789 0.071109414 -0.1950986 -0.044396967
-0.23470983 0.096803606 0.030874506 -0.13812658 -0.07371832 1.3633716 -0.092907295 0.04031026
-0.0739684 0.27262807 -0.076513365 -0.094879285 0.8363565 -0.0568166 0.007230534 -0.5190494
0.111489944 0.33425525 -0.16284399 0.9657154 0.09468218 -0.015963573 0.06908353 0.9849239
0.09213346 0.009146392 -0.02128392 -0.14279334 0.2442189 2.1249175 0.053745933 0.039558273
0.010925665 -0.02232999 -0.040061347 -0.008016636 0.027435238 0.008434206 0.07226077 -0.0732303
-0.072445236 -0.10180123 1.0061443 -0.30865958 -0.13384083 -0.4709378 0.32030335 0.12844014
-0.033301625 -0.242712 -0.049803905 0.12827948 -0.73895097 -1.2574466 -0.052002095 0.0432048
0.17646007 1.0208278 0.11663521 -0.0039519705 0.03160733 0.028723571 -0.01750328 -0.16011237
0.17321359 -0.05401693 0.06191179 0.15632181 0.30907565 -0.73083997 0.03037551 0.033933386
-0.054398973 -0.0007283286 -0.014507982 -0.09869463 0.41723305 -0.049591932 -0.038101293 -0.076166034
0.45594087 0.06940055 0.026843209 0.11624875 0.18248813 -0.028327068 0.051892493 -0.20083363
0.768857 -0.74370044 -0.6930252 -0.021381423 -0.035349853 -0.8341743 -0.0005706262 0.82843083
0.0031794107 -0.023004781 -0.02387071 0.79926264 0.57386243 -0.02954059 0.407979 -0.075406425
00000000: 353b 0ebd 7e14 51bc 3880 9f3d b645 0cba
00000010: 8324 01bc f473 403d 114e 203d 2789 683d
00000020: e7b8 72bd 31cc d1bc 1b50 f9bc f402 213d
00000030: 6ffe a1bd 73ab ab3d 052c 953d 86f2 8ebb
00000040: 4cc4 3fbd 8674 653d 0dbb cebb be71 83bd
00000050: 01e3 a83c 6a2b 04bb fa93 84bd 769c 343d
00000060: 9333 0abd 66c7 adbd 17e9 6a3d b385 673d
00000070: cc4a 52bd 08b6 24bd 58d9 603d c782 07bd
00000080: 6174 8e3d 6cd9 423d 2732 f1bb 5952 d8bd
00000090: 4868 39bd 20ef ccbd 0519 4d3d 9e6b 37bd
000000a0: cacf 8ebc 83d8 523b da23 773d e9ef aa3d
000000b0: e95b ba3b 1b15 923d 58a6 36bd 7b44 a53c
000000c0: 57a3 623d 869c a2bb a3fa a1bd 6eb5 573d
000000d0: b5eb 5c3d 07c8 233d d0dd 283d bbc4 d3bd
000000e0: 3a7b a93d f1e1 adbc 8220 123d 15bc 1bbd
000000f0: 6166 7cbd d613 67bd 86a2 8f3d d81d 2bbd
00000100: 47b8 d93c eed9 8dbd 1115 53bd f0a7 493d
00000110: 18c7 a33d dc98 e7bc 5ded a2bd c5d6 7bbc
00000120: f27e ecbc 7448 9bbd 6793 613c 0493 f53c
00000130: bbc5 a53c 896d f83c bb2b acbd 9622 9abd
00000140: 0de7 033d f0ad 553c ee85 48bd 8eff 08bd
00000150: 7be5 9c3c 6954 82bd d2b5 293d bb89 35bc
00000160: 4fdd 333b c5e6 593b 60c7 ae3c 0f60 193d
00000170: d3f8 b9bd c814 693d f613 5ebd 4b26 303d
00000180: 51fa 35bd cda7 6bbd 3e68 c1bd 31ec cb3d
00000190: 453a 2ebd 3452 a33c 6455 943d 2a87 573d
000001a0: 52f6 86bd 7859 6a3d 03ae bd3c 3457 4abd
000001b0: fc89 c6bd c724 f639 5991 cfbb ffa1 97bd
000001c0: fa1c 3b3d 943e ecbb 52ee 273d ba95 973d
000001d0: a4a8 bf3c c3ac 83bd 3cd9 80bd f1a7 c73c
000001e0: 120a 603d 3067 82bd d13a a13d e030 d5bb
000001f0: e6fd 163d 01a6 483d 90d5 0cbd 1942 2abd
00000200: 698b d4bc 96b4 7f3f c409 97bd 5df0 923d
00000210: c772 803e c25a 7dbe 9638 fa3d 0c78 d8bb
00000220: a57b acbd 5657 39bd efcd 2a3f 95b6 58bd
00000230: bb94 a53e 0d82 b93d 5e4f 66bd 9416 a13d
00000240: 4ba3 abbd 5b51 49bc a47a 933c d0a1 4d3f
00000250: eeaa ad3f d0a1 913d edc7 47be 98d9 35bd
00000260: c657 70be f840 c63d 88ec fc3c 0e71 0dbe
00000270: a1f9 96bd f682 ae3f 2e46 bebd 5f1c 253d
00000280: bf7c 97bd e895 8b3e 0ab3 9cbd 1250 c2bd
00000290: 761b 563f 86b8 68bd 1eee ec3b 6ce0 04bf
000002a0: d754 e43d 8123 ab3e 93c0 26be 2039 773f
000002b0: bbe8 c13d 0ac6 82bc aa7b 8d3d f923 7c3f
000002c0: 78b0 bc3d c0da 153c 9e5b aebc 6b38 12be
000002d0: 8514 7a3e a6fe 0740 b224 5c3d db07 223d
000002e0: 8f01 333c 62ed b6bc 5e17 24bd 3558 03bc
000002f0: ddbf e03c a02f 0a3c 74fd 933d c4f9 95bd
00000300: 2b5e 94bd 2a7d d0bd 56c9 803f a108 9ebe
00000310: 920d 09be c21e f1be cdfe a33e d085 033e
00000320: 4967 08bd 7f89 78be 2eff 4bbd b25b 033e
00000330: e42b 3dbf 03f4 a0bf 2600 55bd 84f7 303d
00000340: f3b1 343e 7caa 823f 71de ee3d 887f 81bb
00000350: b076 013d b24d eb3c 0a63 8fbc 7ff4 23be
00000360: e75e 313e db40 5dbd 3897 7d3d d312 203e
00000370: 2a3f 9e3e 5418 3bbf 10d6 f83c bcfd 0a3d
00000380: 75d1 5ebd 4eed 3eba e3b2 6dbc 6920 cabd
00000390: 929f d53e e920 4bbd 1a10 1cbd f0fc 9bbd
000003a0: 1571 e93e e021 8e3d 4ae6 db3c d313 ee3d
000003b0: 2bde 3a3e 2b0e e8bc 398d 543d 55a7 4dbe
000003c0: d0d3 443f 2763 3ebf 196a 31bf 1828 afbc
000003d0: 02cb 10bd 728c 55bf 1396 15ba 0b14 543f
000003e0: a95d 503b 8674 bcbc 828c c3bc 7a9c 4c3f
000003f0: a6e8 123f 1bff f1bc a0e2 d03e af6e 9abd

fc1.bias f4 [128]
-0.024699641 -0.051880654 0.10720404 -0.03900811 -0.046196416 0.1011432 -0.028617784 0.018644491
-0.04449587 -0.033266097 -0.032665104 -0.015165297 0.079019815 -0.08810844 -0.06030237 -0.061198294
-0.074961506 0.11085423 -0.042023327 -0.034318484 0.10437759 0.05501299 -0.058382273 0.07570883
-0.020913212 0.023469139 0.09227961 0.08559163 0.12196628 -0.016434846 -0.015844222 -0.078511484
-0.052733522 -0.05059306 -0.052352306 -0.013962039 -0.054952927 -0.020192258 -0.041079175 -0.04387366
-0.053329352 -0.06472021 0.115660645 -0.049967997 0.06933472 0.080616 0.019484159 -0.014638675
-0.043033596 -0.039638527 0.08645759 -0.094480544 0.033794504 -0.05420743 -0.047651827 -0.091868386
-0.04005176 0.044264637 0.07269204 0.011779199 0.030558202 0.06250102 -0.051637117 0.0818956
-0.0035210114 -0.051371183 0.071141355 0.10766809 0.082534246 0.06789201 0.019045372 -0.05719701
-0.06650565 -0.030370979 -0.041747034 0.019364707 -0.056214202 0.11370915 0.10077394 0.092507124
0.07520122 -0.019351896 -0.0254771 0.046098147 0.07818904 -0.03372912 -0.0141567 0.050108645
0.10001934 0.112852804 -0.047699157 0.05433965 -0.06029359 0.047939345 -0.027727434 -0.0934851
0.101834856 -0.050816312 0.08286796 0.036320146 0.09583443 0.11223918 0.094968095 0.07395614
-0.03457091 -0.03197265 0.003976007 0.08218234 -0.037961297 0.09167776 0.043888252 -0.028946374
0.10784455 0.09689983 -0.0248348 0.049840488 0.07083661 -0.06708881 0.039981604 -0.011026339
0.056444332 0.012954323 0.051199913 0.08916418 0.049631886 -0.044671234 0.038065072 -0.047860783
00000000: e756 cabc cf80 54bd cb8d db3d f8c6 1fbd
00000010: 7438 3dbd 2b24 cf3d d86f eabc 55bc 983c
00000020: 4d41 36bd 0842 08bd d8cb 05bd de77 78bc
00000030: 24d5 a13d 3372 b4bd 9eff 76bd 10ab 7abd
00000040: 6b85 99bd 8b07 e33d a720 2cbd 8a91 0cbd
00000050: ebc3 d53d 4d55 613d 4022 6fbd 3b0d 9b3d
00000060: 2f52 abbc 5a42 c03c 18fd bc3d aa4a af3d
00000070: 75c9 f93d 5fa2 86bc becb 81bc a1ca a0bd
00000080: 1bff 57bd ab3a 4fbd 5f6f 56bd 09c1 64bc
00000090: 5216 61bd 3c6a a5bc a342 28bd deb4 33bd
000000a0: e16f 5abd 088c 84bd 7ddf ec3d 3eab 4cbd
000000b0: 5dff 8d3d 001a a53d 3e9d 9f3c 0ed7 6fbc
000000c0: ff43 30bd 025c 22bd ad10 b13d 047f c1bd
000000d0: 1b6c 0a3d 9c08 5ebd 902e 43bd 7e25 bcbd
000000e0: 500d 24bd d64e 353d 90df 943d 8bfd 403c
000000f0: 3255 fa3c 8900 803d 7181 53bd e1b8 a73d
00000100: c5c0 66bb 976a 52bd 8fb2 913d 1681 dc3d
00000110: b707 a93d f70a 8b3d 0a05 9c3c 6947 6abd
00000120: 1d34 88bd 8fcc f8bc f0fe 2abd bca2 9e3c
00000130: dd40 66bd 58e0 e83d 9162 ce3d 6074 bd3d
00000140: 1903 9a3d de87 9ebc 5ab5 d0bc 69d1 3c3d
00000150: 9321 a03d 8c27 0abd 81f1 67bc b93e 4d3d
00000160: f1d6 cc3d 5f1f e73d 3160 43bd 4193 5e3d
00000170: 69f6 76bd 0c5c 443d a524 e3bc 1e75 bfbd
00000180: cb8e d03d c424 50bd adb6 a93d 6fc4 143d
00000190: d744 c43d a8dd e53d a27e c23d 5176 973d
000001a0: 3a9a 0dbd c1f5 02bd 2a49 823b 374f a83d
000001b0: 4e7d 1bbd 8dc1 bb3d 2bc4 333d f220 edbc
000001c0: 9add dc3d 6b73 c63d 5a72 cbbc 8a25 4c3d
000001d0: c912 913d dc65 89bd c0c3 233d d1a7 34bc
000001e0: 2c32 673d 5e3e 543c 00b7 513d b69b b63d
000001f0: ce4a 4b3d 2ff9 36bd 1fea 1b3d ab09 44bd

fc2.weight f4 [128, 128]
0.040614106 0.66482383 0.15041092 -0.18560365 0.020844165 0.12130405 0.26797193 0.3972453
-0.006716161 -0.106147885 -0.027841523 -0.051534835 -0.3261254 0.6813633 -0.02929461 0.51711524
0.05959927 0.13172135 -0.40021375 -0.122034185 -0.057823338 0.677731 0.1932203 0.12998615
0.045482084 0.24109963 0.12881613 -0.081921175 0.04440167 0.041102722 -0.021926908 0.54800326
-0.084828384 0.052927516 0.08326261 -0.015768666 0.022451542 -0.065608345 -0.076253854 -0.5237343
0.04791135 -0.037406214 -0.11417578 0.7543322 -0.13230395 0.110186346 0.49568415 -0.015066202
-0.08776293 0.3751495 -0.053761825 0.05870118 0.15260473 0.007925135 0.5217917 0.011523595
-0.47774002 -0.040469375 0.073370956 0.2738173 0.2406567 0.2786984 0.097784765 -0.05660567
-0.13185959 0.08083302 -0.12568203 -0.19480795 -0.24547431 0.5275218 0.027319513 0.14207885
0.027645066 0.13025765 -0.7259722 0.11436165 -0.015478177 -0.11479268 0.032418173 0.14975403
-0.11656067 -0.070751056 0.08100137 -0.046595264 0.40262312 0.035528116 0.16441931 0.005804369
-0.1722172 0.07047656 0.05076296 -0.0064792456 0.075373575 0.021111146 -0.47133812 0.04483725
-0.0077399854 0.040030085 0.02972655 -0.13569629 -0.21086502 -0.053177916 0.14813896 -0.13154872
-0.022943227 -0.06567955 -0.028095553 0.032515842 0.029158149 -0.031321056 0.25799933 0.5179742
-0.008843594 -0.08025269 -0.042150624 0.06461946 0.011907215 -0.072219625 0.01833292 -0.07368173
0.018087309 0.18611556 0.060776196 0.3105175 -0.024107123 -0.0151628135 0.3322126 -0.077663235
0.078361936 -0.38334376 0.0003850438 -0.01699568 0.04726715 -0.004658746 0.031379767 -0.041582264
0.09938034 0.131197 -0.028934855 0.00058066106 0.17924078 -0.2612682 -0.043117605 -0.15429412
0.01600203 -0.010783687 -0.46744013 0.13635425 0.13260345 -0.37939146 0.039346386 0.028794913
-0.009475557 0.032699116 -0.03159443 0.0051911855 0.10440189 -0.020110441 0.076006226 -0.044839293
0.058666367 0.05169434 -0.02667457 -0.0396845 0.008818395 0.05981371 0.12793614 0.13574626
0.09518196 -0.064633586 0.045450043 -0.26529533 -0.0022229846 -0.007556354 -0.09336729 -0.017383669
-0.070089005 -0.011048825 0.117904395 0.050242994 0.103852816 0.010890621 -0.05527989 -0.06780886
-0.012638467 0.057305157 0.10081997 0.050582312 0.046790786 0.020996002 -0.0015838612 -0.056828994
-0.046964515 -0.035950363 0.06625555 0.13784494 0.1186455 -0.002381592 0.032827873 -0.00595254
-0.025104389 0.091989614 -0.0600742 0.064304054 -0.0018490771 0.11403534 0.043542802 -0.0038035358
0.030906724 0.08989461 -0.07207453 0.13427262 -0.15749277 0.011482901 0.08574682 -0.02982895
0.119393624 -0.020586198 -0.049958386 0.02637762 -0.062581755 0.068564594 -0.63254416 -0.07485402
0.092412665 0.018273374 0.117086776 -0.0372234 0.032306273 0.063363686 0.08502509 0.6220951
0.06078766 0.0018733381 0.0024919957 0.024947992 0.032223362 -0.017756697 0.088879324 -0.4553148
0.0061053257 0.11853843 0.021947488 -0.022713054 0.062656686 0.08315836 -0.0733411 0.0041768327
-0.035140254 0.051502813 0.02946342 0.047568705 -0.07879958 -0.0036512446 0.10978715 -0.0722373
00000000: fa5a 263d e531 2a3f 5205 1a3e e20e 3ebe
00000010: 62c1 aa3c 426e f83d 9e33 893e bc63 cb3e
00000020: 3e13 dcbb 1064 d9bd e813 e4bc 3116 53bd
00000030: e9f9 a6be d36d 2e3f 40fb efbc aa61 043f
00000040: 5d1e 743d f6e1 063e d1e8 ccbe 0fed f9bd
00000050: 2ad8 6cbd c77f 2d3f 8bdb 453e 171b 053e
00000060: 6c4b 3a3d d2e2 763e 60e8 033e 4ac6 a7bd
00000070: 87de 353d 545b 283d 0fa0 b3bc f149 0c3f
00000080: 81ba adbd 86ca 583d 9685 aa3d 4a2d 81bc
00000090: 4cec b73c ab5d 86bd fb2a 9cbd 7313 06bf
000000a0: b13e 443d 4237 19bd fed4 e9bd ea1b 413f
000000b0: b07a 07be 61a9 e13d 50ca fd3e 3bd8 76bc
000000c0: 0dbd b3bd 9813 c03e 5c35 5cbd a670 703d
000000d0: 6a44 1c3e 6dd8 013c 2494 053f 76cd 3c3c
000000e0: 579a f4be 37c3 25bd 8343 963d c831 8c3e
000000f0: b66e 763e 8fb1 8e3e 6143 c83d 59db 67bd
00000100: 3306 07be c88b a53d cab2 00be bc7b 47be
00000110: 9e5d 7bbe ab0b 073f 2ccd df3c 1e7d 113e
00000120: e877 e23c 4362 053e 50d9 39bf 7136 ea3d
00000130: 2e98 7dbc 6d18 ebbd ebc8 043d 1f59 193e
00000140: 5cb7 eebd eee5 90bd 0ce4 a53d adda 3ebd
00000150: 9e24 ce3e ee85 113d 895d 283e 9432 be3b
00000160: b559 30be 0456 903d d2ec 4f3d da4f d4bb
00000170: 765d 9a3d 48f1 ac3c 3b53 f1be 44a7 373d
00000180: b49f fdbb 96f6 233d 1885 f33c f8f3 0abe
00000190: 00ed 57be 16d1 59bd bdb1 173e b5b4 06be
000001a0: 6ff3 bbbc 0083 86bd a528 e6bc 552f 053d
000001b0: 12dd ee3c 824a 00bd 7d18 843e f599 043f
000001c0: b9e4 10bc 865b a4bd 22a6 2cbd 3557 843d
000001d0: 7b16 433c e2e7 93bd eb2e 963c 72e6 96bd
000001e0: d62b 943c 1495 3e3e 76f0 783d 26fc 9e3e
000001f0: 4d7c c5bc 736d 78bc c517 aa3e e70d 9fbd
00000200: 397c a03d a245 c4be b4df c939 863a 8bbc
00000210: 339b 413d 65a8 98bb 1288 003d 2a52 2abd
00000220: eb87 cb3d 8258 063e ca08 edbc 8137 183a
00000230: e58a 373e f2c4 85be 169c 30bd 47ff 1dbe
00000240: b016 833c 10ae 30bc 5054 efbe 73a0 0b3e
00000250: 33c9 073e 993f c2be ad29 213d 4fe3 eb3c
00000260: 5e3f 1bbc 82ef 053d 2969 01bd d21a aa3b
00000270: a8d0 d53d a7be a4bc 27a9 9b3d 68a9 37bd
00000280: 254c 703d 72bd 533d a184 dabc 378c 22bd
00000290: 087b 103c 39ff 743d b101 033e 1101 0b3e
000002a0: c2ee c23d 9d5e 84bd d329 3a3d cad4 87be
000002b0: 7eaf 11bb 4b9b f7bb 5a37 bfbd 3268 8ebc
000002c0: d38a 8fbd 2206 35bc dc77 f13d 99cb 4d3d
000002d0: c9b0 d43d 936e 323c 2a6d 62bd 5fdf 8abd
000002e0: 9311 4fbc d0b8 6a3d b37a ce3d 662f 4f3d
000002f0: b2a7 3f3d cfff ab3c 9099 cfba 85c5 68bd
00000300: dd5d 40bd b040 13bd fdb0 873d 3927 0d3e
00000310: 69fc f23d 7c14 1cbb 8576 063d 860d c3bb
00000320: b8a7 cdbc 0d65 bc3d 5d10 76bd d8b1 833d
00000330: bb5c f2ba 5c8b e93d f059 323d be44 79bb
00000340: 1930 fd3c aa1a b83d d09b 93bd c37e 093e
00000350: c945 21be c722 3c3c 079c af3d d85b f4bc
00000360: a584 f43d 63a4 a8bc 2aa1 4cbd e115 d83c
00000370: dd2a 80bd 986b 8c3d 6aee 21bf 104d 99bd
00000380: da42 bd3d 0bb2 953c 31cb ef3d 9077 18bd
00000390: 9553 043d d2c4 813d a221 ae3d a041 1f3f
000003a0: 7bfc 783d cc8a f53a c050 233b bb5f cc3c
000003b0: a5fc 033d 7e76 91bc 5d06 b63d 051f e9be
000003c0: 2f0f c83b 47c4 f23d 38cb b33c ba10 babc
000003d0: 2652 803d ee4e aa3d dc33 96bd d0dd 883b
000003e0: 3aef 0fbd 9df4 523d 455d f13c 67d7 423d
000003f0: ad61 a1bd b849 6fbb 16d8 e03d 26f1 93bd

fc2.bias f4 [128]
-0.030542595 0.12534584 0.09964602 0.055150043 -0.030550728 0.077122614 -0.02971813 0.13611698
0.07767097 -0.09630104 0.0470354 -0.036953736 0.11094627 0.043375995 -0.046849333 0.010336308
0.023618527 -0.030184045 -0.01170339 0.112494305 0.0686676 -0.087994196 0.078592606 -0.06625886
0.06520095 0.00736143 0.043666374 0.08168851 0.026176553 0.009391877 -0.084558494 0.0056940527
-0.04202178 -0.021210322 -0.013575383 0.008225655 -0.089761846 -0.008664315 0.022748701 0.014686488
-0.013331011 0.032086484 0.008218221 0.016656386 0.038627826 -0.07519766 -0.075503886 -0.07234285
-0.05230757 -0.0035461134 0.0068928697 0.08307207 -0.017356694 0.066565484 -0.01468888 -0.08094784
-0.06419702 0.098475456 0.041015577 -0.07657887 0.057686593 0.054806348 0.056445446 0.0020566927
0.032198947 0.11285247 -0.05180773 0.01428472 0.022825308 -0.08012865 0.04580362 -0.09680997
0.13070816 -0.06139803 -0.049578495 0.10355669 -0.047126435 0.001589189 -0.045358717 -0.025338821
0.031554043 -0.06420148 0.11134735 0.03928573 0.0036549135 -0.058615077 -0.011066759 0.077888414
-0.045316204 -0.060016636 -0.029185954 -0.05434461 0.074794866 -0.080176674 -0.07790733 0.07072612
0.0035272494 0.06480976 -0.054835092 0.051594444 0.04411341 -0.07988635 -0.0057737217 0.101972
0.008009983 -0.040956963 -0.025103992 -0.010516091 0.022208985 -0.06673936 -0.059212666 -0.08449425
0.0029781505 0.009189955 0.038661167 -0.030162169 -0.0345694 -0.0638197 0.04514983 0.09703797
0.07159611 0.020920452 0.08837581 0.09560846 0.059200715 -0.0066223973 0.04602533 0.0040530954
00000000: 7734 fabc a95a 003e 3613 cc3d 03e5 613d
00000010: 8545 fabc 76f2 9d3d 7073 f3bc 4062 0b3e
00000020: f511 9f3d 7b39 c5bd 31a8 403d cd5c 17bd
00000030: cc37 e33d 07ab 313d 16e5 3fbd 9e59 293c
00000040: a47b c13c 8844 f7bc 93bf 3fbc 6a63 e63d
00000050: 99a1 8c3d 4d36 b4bd 29f5 a03d bab2 87bd
00000060: 1388 853d 2738 f13b 83db 323d 4e4c a73d
00000070: 3670 d63c 63e0 193c 012d adbd 2d95 ba3b
00000080: 081f 2cbd 45c1 adbc 496b 5ebc e6c4 063c
00000090: 0fd5 b7bd c5f4 0dbc 7c5b ba3c 989f 703c
000000a0: 506a 5abc 1e6d 033d b8a5 063c f972 883c
000000b0: 3638 1e3d 3b01 9abd c8a1 9abd 7d28 94bd
000000c0: 7640 56bd e965 68bb 95dd e13b b021 aa3d
000000d0: a02f 8ebc 7c53 883d a1a9 70bc fbc7 a5bd
000000e0: ba79 83bd 80ad c93d f3ff 273d 62d5 9cbd
000000f0: c748 6c3d 9f7c 603d 5733 673d 94c9 063b
00000100: 0be3 033d 321f e73d 5834 54bd 750a 6a3c
00000110: 24fc ba3c 7d1a a4bd 949c 3b3d 4e44 c6bd
00000120: 5cd8 053e 807c 7bbd d212 4bbd 8815 d43d
00000130: a607 41bd 564c d03a 10ca 39bd 5c93 cfbc
00000140: d03e 013d 117c 83bd 140a e43d 13ea 203d
00000150: 4687 6f3b 5d16 70bd 5a51 35bc f683 9f3d
00000160: 7c9d 39bd 01d4 75bd 6217 efbc 7498 5ebd
00000170: 0d2e 993d ab33 a4bd e18d 9fbd dbd8 903d
00000180: 6d29 673b fbba 843d c39a 60bd b254 533d
00000190: 43b0 343d 749b a3bd 7d31 bdbb b2d6 d03d
000001a0: 4e3c 033c 7dc2 27bd e3a6 cdbc af4b 2cbc
000001b0: 9eef b53c a5ae 88bd fb88 72bd 520b adbd
000001c0: 132d 433b 7791 163c 2c5b 1e3d a716 f7bc
000001d0: a598 0dbd e7b3 82bd 07ef 383d d8bb c63d
000001e0: fba0 923d 5e61 ab3c 60fe b43d 5ece c33d
000001f0: 737c 723d b200 d9bb 0e85 3c3d d4cf 843b

last_fc.weight f4 [6, 128]
-0.09381635 0.058733404 0.07331933 -0.01164209 -0.049838047 0.021495264 -0.068063095 0.16849142
-0.0064848843 -0.05394985 0.09897876 0.077329285 0.0025366147 -0.018458394 0.08556033 0.04764096
-0.13718241 -0.047214437 -0.048551295 0.02489241 0.053861223 0.025514223 -0.037763804 0.057932295
0.019438367 -0.046106078 -0.06253499 0.08899644 -0.010565344 -0.033552486 0.069755286 0.068498865
0.050906125 -0.028120935 -0.0600642 0.014603162 0.048231784 -0.023942223 0.054578636 -0.45257032
-0.17592233 0.09514992 0.011974185 -0.021366408 -0.07811056 -0.036044527 -0.043664947 -0.056104366
-0.013974894 0.028528389 0.075131595 0.026932597 0.027776362 -0.21037723 -0.01465878 0.050069176
-0.03135402 0.02809571 -0.012486817 0.013283254 0.028972942 0.08772757 -0.058462724 0.032957528
-0.06894443 -0.045692936 0.018250328 0.014588929 -0.049522113 0.023151243 -0.04706822 -0.083011776
0.08015586 -0.028026626 -0.07291874 0.02649011 0.13921446 0.046598196 -0.037610777 -0.004726495
0.014754371 0.04390002 0.076439805 0.012794521 0.05046324 -0.07641644 0.07237875 0.047841575
-0.10415568 -0.034196425 0.07599952 0.01802803 -0.020616522 0.0644361 -0.023601096 -0.05153604
-0.025207808 -0.052995715 -0.016221162 -0.08000126 0.081712216 0.059825964 -0.045648847 -0.021849025
0.3466097 -0.041788597 0.06911272 -0.04407995 -0.043263696 -0.045032557 -0.0010331876 -0.0142759895
-0.0010254192 0.1012719 -0.06344802 -0.06011408 -0.017629236 0.003319321 0.019548248 0.034363803
-0.05572856 -0.01927816 -0.00660757 -0.015417192 5.8275786e-05 0.07451571 0.124120645 0.06112363
-0.08442332 0.044205815 -0.067814335 0.05230366 0.043928683 0.0018125304 -0.012072962 0.15247037
0.085704975 -0.083634205 0.022901986 -0.0752348 0.040876783 -0.04673968 0.0018683518 -0.0089424625
-0.15247653 0.049910698 -0.04398759 -0.07335338 0.06172762 -0.04278134 -0.077059664 0.052805964
0.093078606 -0.01807576 0.048300013 0.09082272 -0.07973215 -0.040610306 -0.09227093 -0.047218308
0.064819954 0.024474114 -0.054479994 -0.048169713 -0.03190988 0.036731645 -0.036130447 -0.50976217
-0.054297153 -0.03108847 0.01531271 0.097070664 0.011272951 0.06480458 0.0062143314 0.0281012
0.039758988 0.0708119 0.07311892 0.13673927 0.0293766 -0.21867216 -0.03539247 0.009453485
0.0505787 -0.06379947 -0.06646295 -0.048320822 0.020885807 0.08547416 0.031004393 0.067317955
-0.040588286 0.04870897 0.09050375 -0.0015282212 0.092483014 -0.031374935 0.07035315 -0.09679526
0.055204753 -0.0021447411 0.009998517 0.030987 0.07610139 0.08439826 -0.033066943 -0.057692472
0.031228479 0.050337084 0.024807233 -0.023370223 -0.064741604 -0.047669742 -0.025137912 0.07857749
-0.09819123 0.0669401 0.06973299 -0.069936916 0.025154598 0.053017057 0.001950377 0.01487424
-0.023951605 0.07792313 -0.063861944 -0.06295106 0.09661234 -0.058657993 0.019134939 0.08549485
0.32085273 0.031198235 -0.04175221 0.073033705 -0.06733706 0.003039399 0.028637668 -0.04985333
-0.048516043 0.01731926 -0.0035820922 0.08882406 -0.054172177 0.026544608 -0.058026053 0.10557945
-0.01878097 -0.06865602 -0.025742821 -0.073051445 0.013648145 -0.036527187 0.10526705 -0.07635353
00000000: c922 c0bd 7092 703d 7228 963d 77be 3ebc
00000010: fb22 4cbd d616 b03c aa64 8bbd 0489 2c3e
00000020: 277f d4bb 85fa 5cbd 60b5 ca3d d15e 9e3d
00000030: 553d 263b 0f36 97bc 413a af3d 2b23 433d
00000040: 8c79 0cbe ed63 41bd b9dd 46bd 2beb cb3c
00000050: 969d 5c3d 3403 d13c 38ae 1abd 6a4a 6d3d
00000060: 363d 9f3c bad9 3cbd 5812 80bd c443 b63d
00000070: 441a 2dbc 556e 09bd dcdb 8e3d 2249 8c3d
00000080: f182 503d e05d e6bc e105 76bd 1a42 6f3c
00000090: b18e 453d 7b22 c4bc d98d 5f3d 4cb7 e7be
000000a0: fc24 34be f6dd c23d 5f2f 443c 9b08 afbc
000000b0: 6ef8 9fbd 6da3 13bd 04da 32bd b1cd 65bd
000000c0: f4f6 64bc 5eb4 e93c 98de 993d c0a1 dc3c
000000d0: 418b e33c 216d 57be 612b 70bc 5615 4d3d
000000e0: 136d 00bd f928 e63c 8295 4cbc 01a2 593c
000000f0: aa58 ed3c 83aa b33d 9c76 6fbd 79fe 063d
00000100: bd32 8dbd 8428 3bbd b681 953c 6706 6f3c
00000110: b3d7 4abd ada7 bd3c 9bca 40bd 1402 aabd
00000120: c128 a43d 1898 e5bc 6c56 95bd ca01 d93c
00000130: 3c8e 0e3e c0dd 3e3d c20d 1abd b7e0 9abb
00000140: 51bc 713c 82d0 333d 798c 9c3d 1ca0 513c
00000150: 8bb2 4e3d 3980 9cbd 4f3b 943d 87f5 433d
00000160: 934f d5bd 8d11 0cbd a3a5 9b3d 85af 933c
00000170: fbe3 a8bc 13f7 833d 1657 c1bc 7417 53bd
00000180: 9b80 cebc 0912 59bd 3ee2 84bc b3d7 a3bd
00000190: bc58 a73d 120c 753d 49fa 3abd bafc b2bc
000001a0: d476 b13e 852a 2bbd f88a 8d3d 2d8d 34bd
000001b0: 4635 31bd 0f74 38bd 066c 87ba d7e5 69bc
000001c0: 5c67 86ba a467 cf3d 09f1 81bd 2e3a 76bd
000001d0: 306b 90bc f788 593b a623 a03c 0fc1 0c3d
000001e0: a143 64bd 3bed 9dbc 5184 d8bb 6498 7cbc
000001f0: 266d 7438 b19b 983d f732 fe3d c55c 7a3d
00000200: 22e6 acbd 2811 353d 3ee2 8abd 5d3c 563d
00000210: 90ee 333d 6e92 ed3a accd 45bc 3121 1c3e
00000220: 1786 af3d 6948 abbd f29c bb3c b414 9abd
00000230: 6a6e 273d 1b72 3fbd 7ce3 f43a 6883 12bc
00000240: cf22 1cbe 296f 4c3d 552c 34bd 4c3a 96bd
00000250: 1ad6 7c3d 7d3b 2fbd 75d1 9dbd 114b 583d
00000260: ff9f be3d 9e13 94bc 3cd6 453d 4301 ba3d
00000270: 9c4a a3bd fe56 26bd 8bf8 bcbd fc67 41bd
00000280: 53c0 843d f07d c83c 6a26 5fbd 9b4d 45bd
00000290: efb3 02bd ec73 163d 85fd 13bd c67f 02bf
000002a0: b166 5ebd 3fad febc 29e2 7a3c fccc c63d
000002b0: 2fb2 383c 43b8 843d 97a1 cb3b 7d34 e63c
000002c0: 52da 223d d405 913d 5fbf 953d 6105 0c3e
000002d0: 32a7 f03c 98eb 5fbe b2f7 10bd cae2 1a3c
000002e0: 9c2b 4f3d 4ca9 82bd ba1d 88bd 0eec 45bd
000002f0: b618 ab3c 140d af3d edfc fd3c ffdd 893d
00000300: e73f 26bd 0f83 473d 085a b93d 984e c8ba
00000310: bc67 bd3d 0183 00bd 5015 903d 983c c6bd
00000320: 611e 623d c98e 0cbb d2d0 233c 73d8 fd3c
00000330: 0cdb 9b3d ffd8 ac3d 3471 07bd f14e 6cbd
00000340: ded2 ff3c 422e 4e3d 8a38 cb3c e972 bfbc
00000350: 3f97 84bd 5941 43bd 06ee cdbc 3ced a03d
00000360: 7c18 c9bd e417 893d 2bd0 8e3d 163b 8fbd
00000370: 0411 ce3c 6a28 593d cba3 ff3a 16b3 733c
00000380: 2836 c4bc 2996 9f3d 0dca 82bd 7cec 80bd
00000390: b1dc c53d 5d43 70bd e0c0 9c3c ed17 af3d
000003a0: cf46 a43e 7193 ff3c 5e04 2bbd b292 953d
000003b0: 03e8 89bd a730 473b 8b99 ea3c 0133 4cbd
000003c0: c2b8 46bd 1fe1 8d3c 89c1 6abb 64e9 b53d
000003d0: a5e3 5dbd 1474 d93c baac 6dbd 0a3a d83d
000003e0: 8cda 99bc 879b 8cbd 9ce2 d2bc ff9b 95bd
000003f0: 789c 5f3c 889d 15bd 4096 d73d 3d5f 9cbd

last_fc.bias f4 [6]
-0.037880383 0.041676097 -0.06589134 0.10735498 -0.026339702 0.10996226
00000000: 7628 1bbd 8eb4 2a3d 0af2 86bd eedc db3d
00000010: 5cc6 d7bc e533 e13d
