data/Fanuc_success/Behavior_cloning/BC_policy_GIC_CEV_300_aug_allangle_itr_39.pt (torch, 408729 bytes, 16 tensors)

fc0.weight f4 [128, 6]
000000 47 a6 11 c0 5e c3 50 bf ad d3 18 bf db 45 36 be
       -2.2757738 -0.81548107 -0.5969799 -0.17800085
000010 9f db 98 be 47 5f 09 3f 4a 2f fd 3f 34 9e e4 3e
       -0.29855058 0.53661007 1.9780056 0.4465195
000020 a3 a7 cc 3e 2e 8d cf 3e 34 14 8c bc e8 50 58 3f
       0.39971647 0.405374 -0.017099477 0.84498453
000030 c9 53 4b 40 9e 85 52 bf 36 2a 89 be d6 f0 a3 3d
       3.1769888 -0.82235134 -0.26790017 0.0800492
000040 33 c0 50 bf 70 b1 2a bf ad c4 9e bf 04 a1 08 3f
       -0.8154327 -0.66677 -1.2403771 0.5337069
000050 38 fc 97 bf 4f 9d 1b 3e 6e 20 d9 be ca eb 2e 3f
       -1.1873846 0.15196727 -0.42407554 0.68328536
000060 02 2d c5 be 5a b0 9f 3d 79 75 b2 3e 01 39 75 bd
       -0.385109 0.07797308 0.3485525 -0.059868816
000070 14 c5 2f be 48 68 76 3d a1 69 59 3f 11 27 d7 3e
       -0.17165023 0.060158044 0.849268 0.42021993
000080 98 dd b6 be 08 24 97 3e 3e 75 55 3f ba 69 5e be
       -0.35715938 0.29519677 0.8338202 -0.21720019
000090 bc b7 0b 41 01 68 03 3c 8e a6 94 3d a7 88 62 c0
       8.732357 0.008020402 0.0725833 -3.5395906
0000a0 7f f6 cb bf 26 e5 ad 40 93 4a 97 3e ab c7 aa bf
       -1.59346 5.434222 0.29549083 -1.3342184
0000b0 76 6c 2b be 23 6a 63 3d 07 64 7a 3d 0e 51 82 bd
       -0.16740593 0.05552114 0.06113055 -0.06363116
0000c0 d3 97 52 3e 7d 47 9c bd 2f cf 9f bc cd 1c 50 3e
       0.20565729 -0.07630823 -0.019507973 0.20323487
0000d0 c5 fc 96 3e cf 17 e2 bd 35 c7 cf 3e 02 ad 89 3e
       0.29489723 -0.110396974 0.4058167 0.26889807
0000e0 d9 73 d8 bc 31 c6 69 3d f6 46 ad 3d cc 14 bb 3e
       -0.026422428 0.057073776 0.084608 0.36539304
0000f0 0c 5a cc be f7 c9 65 3f ce 93 20 bf 80 b7 dd bc
       -0.3991245 0.897613 -0.6272553 -0.027065039
000100 0f 02 c6 be 5f ec 8b be c6 a8 68 3f 99 95 bd 3e
       -0.38673446 -0.27328774 0.9088253 0.37028196
000110 90 45 38 3f d9 37 8b ba 6d 6e b6 bf a8 cb e9 3d
       0.71981144 -0.0010621502 -1.4252449 0.114157975
000120 5d 14 1f bf 5c a3 c5 3e 6e b6 fe bf 69 41 42 3e
       -0.62140447 0.38601196 -1.9899423 0.18970264
000130 ca 86 2d bd d2 2c c5 be 5a e5 9d be 02 e1 81 3e
       -0.042364873 -0.38510758 -0.30839044 0.2536698
000140 97 2e ec be d5 4c fe 3e d9 e7 0f 3f 06 c7 0b bf
       -0.46129295 0.49667993 0.56213146 -0.5460056
000150 0c 5d 77 bd 3d b5 90 3e 8b a7 c0 be 1b 46 89 3e
       -0.06039147 0.28263274 -0.37627825 0.268113
000160 fc 73 08 3e a1 91 85 3e 0d 98 5b 3f bf 8c aa be
       0.13325495 0.2608767 0.85778886 -0.33310506
000170 f0 48 a4 3e c7 12 82 be 2c b7 44 bf 3f 8b 10 3e
       0.32086897 -0.2540495 -0.76842 0.14115618
000180 fb 5b 11 3c f0 d0 90 3f af 6e 68 3f 23 b6 61 be
       0.0088720275 1.1313763 0.9079389 -0.22042136
000190 c6 3e 54 be 03 4a 8c be cb 9a 9d be 36 61 9f 3e
       -0.20727071 -0.27400216 -0.3078216 0.31128854
0001a0 47 5b 82 bf f2 51 4c be d3 a2 31 bf 09 ad 15 3d
       -1.0184106 -0.19953135 -0.69389075 0.036541972
0001b0 23 73 bc 41 36 29 73 3a 18 32 0f 3b 2d ba ed bd
       23.55622 0.0009275855 0.0021849927 -0.11607776
0001c0 1e 68 11 be d7 f8 a3 bf 40 30 3f 3d e9 ac 9b bd
       -0.14199874 -1.2810315 0.046676874 -0.07601339
0001d0 44 ac fd 3d d9 b7 29 3e e4 b9 f9 be df 8b 34 be
       0.12386373 0.16574039 -0.48774636 -0.17631482
0001e0 40 05 92 3f 69 07 62 be 1e 73 34 c0 a2 5b c6 bc
       1.1407852 -0.22073139 -2.8195262 -0.024213616
0001f0 39 23 07 be 37 58 bd be 4d db 3b 40 3f ce 24 3e
       -0.1319703 -0.36981365 2.93526 0.16094302
000200 cd 28 c3 3e 9e ff 1e bf 21 91 4a bf 9b 43 2d bf
       0.38117066 -0.6210879 -0.791277 -0.6768128
000210 e7 b7 44 3f f3 d6 fe 3e 35 07 31 bf f6 6f 0b 3f
       0.7684311 0.49773368 -0.6915162 0.54467714
000220 da 3a b6 be d7 84 9c 3e f9 9f 81 3d dd 3f 9b be
       -0.35591775 0.305701 0.063293405 -0.3032216
000230 ee 80 a7 3d 14 1b 3d bd a7 23 5f be 3d 65 43 3e
       0.08178888 -0.0461684 -0.21790944 0.19081588
000240 d9 5f 03 40 21 9f 15 3f 2e 6f fd 3e 96 91 92 be
       2.052725 0.58445936 0.49498886 -0.28626698
000250 18 36 cb 3e ab 07 94 3e 10 2a 7d 3f e8 5a ac bf
       0.39689708 0.289121 0.9889231 -1.3465242
000260 96 30 a6 be 02 b7 fa be 59 0e 4b bf 6e 2f c9 bd
       -0.32458943 -0.4896775 -0.7931877 -0.098234996
000270 3e 25 0d bf 5a 8d 20 3d bf 81 09 bf 3f 11 c7 3c
       -0.5513495 0.039197303 -0.537136 0.024300216
000280 f7 07 59 bf 7c 05 20 be f9 43 9d 3d 94 cc 93 3d
       -0.8477778 -0.15627092 0.076789804 0.072167546
000290 d7 7f c2 bd cb ce cc be a2 e6 4b 3e db 3a 4a be
       -0.0949704 -0.4000152 0.19912198 -0.19749014
0002a0 18 f8 5c be cd 79 95 3f 7f 11 cf 3e f4 55 99 be
       -0.21579015 1.1677796 0.40443036 -0.2994839
0002b0 7a 1a 3d ba 94 01 23 bf 31 42 8f 3e 0e 1b 9c 3f
       -0.0007213723 -0.63674283 0.27980188 1.2195756
0002c0 05 04 a1 3f 99 0a b1 3d 0b 39 40 3e 6d 27 a2 3d
       1.2579352 0.086445995 0.1877176 0.07917676
0002d0 3c 91 49 3a f2 26 b9 3f dc 43 6b 3e a5 79 a8 bd
       0.0007689183 1.446501 0.22975105 -0.08226327
0002e0 00 04 6c bd 75 0d f4 3d 5d bf c8 3e 36 ec 13 be
       -0.057621002 0.11916629 0.392085 -0.14445576
0002f0 a0 84 a6 3e 3f d3 ca 3d 76 3f 91 3e 0d d1 41 3e
       0.3252306 0.09903573 0.2836873 0.18927403
000300 8c 80 c1 3e 74 8a 05 bf 50 8e 9d 3f 49 f9 a8 bd
       0.37793386 -0.5216439 1.2309055 -0.08250672
000310 83 c2 53 be d8 44 b2 bd 6f 9d 78 bf 1e 1b 43 3d
       -0.20679669 -0.08704537 -0.97115225 0.047633283
000320 09 62 23 3f 94 a2 e2 bd 22 ac 4e bd 78 88 fb 3d
       0.63821465 -0.110661656 -0.050457127 0.12281889
000330 e3 7c 11 bf 0c 86 1b bf fe cb 8a 3f df 3d 44 bd
       -0.56831187 -0.60751414 1.0843503 -0.047910567
000340 c5 6c c7 bd 7b 75 c2 3d fc 1f da 3f e1 00 41 be
       -0.09737543 0.09495064 1.7041011 -0.18847992
000350 b1 ff 66 3d 81 9b d8 be ba 50 ed 3e 3e f9 6a bf
       0.05639619 -0.4230614 0.46350652 -0.91786563
000360 b5 ab fb 3c 4e ad 7e 3d 1f d7 37 3e e6 27 19 be
       0.030721525 0.062176995 0.17953156 -0.14956626
000370 bc 1c 08 be 39 9e 1b be 56 f9 46 c0 25 f9 b4 bf
       -0.13292211 -0.15197076 -3.1089683 -1.4138533
000380 6c 20 c2 be 6e ad 3f be de fc c7 3d 01 6b f5 3e
       -0.3791536 -0.18718502 0.097650275 0.479332
000390 82 3d 6c 3f 09 56 fa bd 5f f5 f9 3e 54 c6 39 3f
       0.92281353 -0.12223441 0.48820016 0.7256825
0003a0 2b cb ea be 42 86 e2 3e 22 74 ce 3e d1 e1 b1 be
       -0.4585813 0.44243056 0.40322977 -0.34742597
0003b0 f5 97 2e be 16 0e bf 3e 9b 0f 9f bd de e9 07 3e
       -0.17050155 0.37315434 -0.077666484 0.13272807
0003c0 14 a7 41 be 4f c8 27 bd 22 97 f2 be b3 62 8e ba
       -0.18911391 -0.040962514 -0.4738093 -0.0010863155
0003d0 5b 21 91 3c f8 23 de 3c a0 7e eb bf bf 1a 7d be
       0.0177161 0.02711676 -1.8398018 -0.24717234
0003e0 89 17 e6 3e fe 1c 18 bf 6c 2b 99 3d 8e b3 31 bf
       0.4493983 -0.5941924 0.07478985 -0.69414604
0003f0 4c 0b b6 3e d7 f8 a2 3d 10 91 11 be c6 dd 42 3e
       0.35555494 0.07957619 -0.14215493 0.19029912

fc0.bias f4 [128]
000000 29 fc 5c bd c6 c4 30 be a5 37 84 be 0e b5 a2 bd
       -0.053951416 -0.17262563 -0.25823703 -0.0794469
000010 dd 4f ad be e8 d4 45 bd 01 92 9a bb a0 85 e8 bc
       -0.33849993 -0.048298746 -0.004717112 -0.02838403
000020 2a 66 ab be f7 0e a0 be a5 ff fa bc d1 ae 87 bd
       -0.33476382 -0.31261417 -0.030639479 -0.066251405
000030 6d ea ad 3c 45 c5 69 bb 78 78 bb be a8 39 96 bd
       0.021229947 -0.003567056 -0.36615348 -0.07335216
000040 71 18 3b bd ba 94 b8 bd 4c ce 01 bb 1c d5 98 bc
       -0.045677606 -0.09012742 -0.00198068 -0.018656306
000050 bd 11 52 3d 34 25 45 be b9 a8 2c bc 08 40 73 be
       0.051286448 -0.19252473 -0.0105382735 -0.23754895
000060 e7 ec 9d bd cb 19 31 be 8a c5 a4 3c 27 51 c7 be
       -0.07711201 -0.17294995 0.020113725 -0.38929102
000070 b4 45 15 bd 51 6a e8 bc d2 63 1c bd 8c 21 a9 be
       -0.036443427 -0.028371008 -0.038181134 -0.33033407
000080 51 73 c2 bc e1 18 8f bd 37 a8 bd bc 3d d7 90 bc
       -0.023736628 -0.06987167 -0.0231515 -0.017680759
000090 a7 7a 65 be 6e 70 54 be 0b 04 7b bd ec 1d bc be
       -0.2241007 -0.20746014 -0.061283153 -0.3674158
0000a0 db b6 1d bd 9f f3 5a bd bc f4 6b be 44 dd 8e 3c
       -0.038504463 -0.05345499 -0.23042578 0.017439492
0000b0 61 2f 2c bd 10 1f 14 bd 30 f3 3d bd cb e4 b7 bd
       -0.04203737 -0.036162436 -0.0463745 -0.08979186
0000c0 97 75 2e bd f1 0e cd be 80 7e 04 bd 4a 5c 75 bd
       -0.04259261 -0.40050462 -0.032347202 -0.059902467
0000d0 d4 9c 04 be 9c 8a 9b bd 4e 24 81 bd d2 f4 09 bd
       -0.1295045 -0.07594797 -0.06305753 -0.033680744
0000e0 f2 7c ef bd c0 76 99 bd 02 20 09 bc 86 22 9b 3d
       -0.11693753 -0.07493353 -0.008369448 0.07574944
0000f0 10 84 f5 b9 71 d8 ab be 0d 22 a6 bd 89 7b 4a bd
       -0.00046828436 -0.3356357 -0.081119634 -0.04943422
000100 6f 4c 85 bd 28 8e 83 bd 31 2a ce bc 42 42 a8 be
       -0.06508719 -0.064235985 -0.025166603 -0.3286305
000110 57 15 78 bd b5 ea d7 39 aa 68 31 bd 77 05 81 bd
       -0.060567226 0.00041182866 -0.043312706 -0.062998705
000120 00 df b4 3c 06 e0 62 bd d6 42 8e be 4e ad 62 bc
       0.022078991 -0.055389427 -0.27785367 -0.013835264
000130 7a d8 97 bd bd f0 80 3e b0 48 e7 be e1 4b 4f bd
       -0.074143365 0.2518367 -0.45172644 -0.050609473
000140 1a df 98 bd b7 4c d7 bd 40 64 34 bd 4c ec a3 be
       -0.07464428 -0.10512679 -0.04404092 -0.32016218
000150 4f cf 97 bd 7a 4a 25 3a 6e 37 54 bd 4d 27 e4 bc
       -0.07412588 0.00063053484 -0.051810674 -0.027850771
000160 2d 28 86 3d 66 f7 b1 bd ee 10 01 3c 8c 36 6e bd
       0.06550632 -0.08689766 0.0078775715 -0.05815749
000170 80 61 15 3e 20 7a 1e 3c 91 25 fd bd 89 25 80 3d
       0.14587975 0.009672672 -0.12360681 0.06257159
000180 26 c7 9a be 4b 1a 94 be 6d ef c4 be 9b 52 09 bd
       -0.30230063 -0.2892631 -0.38463917 -0.033526044
000190 b3 b7 81 be d6 40 4a be 9c 3a 96 bd 0e 35 8f be
       -0.25335464 -0.19751295 -0.073353976 -0.27970165
0001a0 ae 4b 2f bc 66 25 73 bd 61 b8 0e bd f4 4c c1 3c
       -0.010699196 -0.059361838 -0.034843806 0.023596264
0001b0 8d ee 32 be 0d dc 90 be 26 74 e3 3d e7 8e 9e bd
       -0.17473812 -0.28292885 0.11106138 -0.077421
0001c0 99 ff 19 bd e0 0c 69 bd 61 71 d3 bd 6d 3b 5f be
       -0.037597273 -0.056897044 -0.1032436 -0.21800013
0001d0 0a 14 3f be 20 55 cd be 83 c4 a3 bd d1 a9 bc bd
       -0.18659988 -0.40104008 -0.07996466 -0.092120774
0001e0 f2 2d 28 bd 67 57 25 be 21 08 d0 bc 72 c2 1b bd
       -0.041059442 -0.16146623 -0.025394501 -0.038027234
0001f0 a7 39 b2 3d ed ff 95 3d 81 ec 3f bd b1 8f 41 bd
       0.087024026 0.073242046 -0.046856407 -0.047256175

fc1.weight f4 [128, 128]
000000 fd 04 90 3e 55 2c 9a 3f 7b 1c c3 bf d3 83 fb bf
       0.28128806 1.2044779 -1.5243067 -1.9649605
000010 b4 98 a6 bd 54 7b 69 bd a5 7f c1 3e fa c9 3a bf
       -0.081345946 -0.05700238 0.37792698 -0.7296444
000020 ee cf f3 3c d6 bb 90 3d 37 05 8b 3e d7 35 9f be
       0.029762235 0.07067077 0.27152416 -0.31095764
000030 b9 b7 ae bc b9 35 77 bd 65 4e d5 bc 9f b1 6d 3f
       -0.02132784 -0.06035397 -0.026038358 0.92849153
000040 69 3d f0 3e b5 28 74 bf f3 3e 9e be a0 25 25 3e
       0.46921852 -0.95374614 -0.309074 0.16127634
000050 a0 18 e9 be dd 21 3c be 2e 99 ec bd 51 3c 89 bd
       -0.455266 -0.18372293 -0.11552654 -0.067009576
000060 30 61 ac 3e 03 f2 9e be 11 87 2b 3f b9 4f 83 bd
       0.33667898 -0.31044015 0.6700297 -0.0641169
000070 4c b6 9b 3e cf f1 9b be 90 9d 30 bf 39 98 bc 3a
       0.3041252 -0.30457923 -0.6899042 0.0014388628
000080 be 19 4d be f0 17 21 be fe 88 67 bf c8 77 5a 3e
       -0.20029351 -0.15731788 -0.9044341 0.21334755
000090 16 88 8d bd d1 19 80 bf 90 08 fd 3e 06 c8 fc bc
       -0.06910722 -1.0007879 0.49420595 -0.030857097
0000a0 2b 18 ae be a8 1c e3 3e 3d 48 90 3d 31 03 ed bf
       -0.34002814 0.443578 0.07045028 -1.8516599
0000b0 0e e2 14 bf a0 3b 2e bf 98 7e 0c be dc 6c 30 c0
       -0.5815743 -0.6805973 -0.13720167 -2.7566442
0000c0 db e0 43 be 19 66 31 3d cb f3 18 bd cf 90 a2 3d
       -0.19128744 0.04331026 -0.037341874 0.07937776
0000d0 d0 91 b9 bf b6 8b 27 bf 4a 6c fd 3d 13 e4 4f 3e
       -1.4497623 -0.65447557 0.1237417 0.20301847
0000e0 32 c7 61 be 5a 61 44 be fd 0c 5b bd f2 29 78 be
       -0.22048643 -0.19177762 -0.053479183 -0.24234751
0000f0 94 74 da 3e 21 e7 1f bd a5 34 12 3d 7e 01 ad bf
       0.42667067 -0.03903878 0.035694737 -1.351608
000100 e3 0b 4c bb ab 5a fd bd 95 b9 af be 4e 09 f1 3d
       -0.0031135015 -0.12370809 -0.34321275 0.11769353
000110 21 7b 95 3e 4b de 66 bf 96 08 20 bf ae 7d 9b 3c
       0.29195502 -0.9018294 -0.625131 0.018980827
000120 65 25 a3 3d c2 a3 12 3f eb e0 cd be e8 3a 8e be
       0.07966117 0.57281125 -0.4021066 -0.27779317
000130 b3 39 49 be cc 71 b6 bd c0 90 f4 be 19 69 db be
       -0.19650917 -0.08908424 -0.47766685 -0.4285362
000140 36 01 bc 3e 61 38 eb be bc a0 ea bf 5a 0c 72 3d
       0.36719674 -0.4594145 -1.8330302 0.05909381
000150 e3 61 26 bd 20 68 25 bf e6 71 f8 bf a5 ce 81 3e
       -0.040620696 -0.6461201 -1.9409759 0.2535297
000160 d0 44 0f be fe bf 89 3e de 2f b1 bd 6c ef 4d 3e
       -0.13991094 0.2690429 -0.08651708 0.20110863
000170 1f 00 09 bf 92 46 08 be 79 c7 64 bf 12 49 e4 be
       -0.5351581 -0.1330817 -0.8936687 -0.44586998
000180 a9 a4 35 3c 0b 96 82 bc d0 cf aa 3c 22 35 a1 3e
       0.011086621 -0.015940687 0.020851046 0.3148585
000190 03 c2 8a 3f 97 b0 b2 be bb 0f 8a be 14 49 52 bd
       1.0840458 -0.34900352 -0.26965126 -0.051339224
0001a0 33 ce 04 be 45 fe ef bd b0 23 94 3e 17 a9 05 3e
       -0.12969284 -0.1171842 0.28933477 0.13052784
0001b0 8e 70 89 3e b4 03 84 3d ca 69 8f bd 24 92 1e 3f
       0.26843685 0.06446019 -0.070025995 0.6194174
0001c0 1b 2b 58 bf a6 b3 9b bf d0 4b fd be 2b 6b 2d bf
       -0.84440774 -1.2164199 -0.49471903 -0.6774165
0001d0 78 86 b2 3e ba b9 1c 3d ed 3b e8 bd c4 3c 91 be
       0.34868217 0.03826306 -0.11339555 -0.28366673
0001e0 b5 b4 62 bd bd b7 fe bd 5a 35 89 bf 77 e2 b1 bc
       -0.055348117 -0.12437389 -1.0719407 -0.021714432
0001f0 cf 77 f1 3d 4d c2 81 3d 22 7b e4 be c8 de db 3e
       0.1179043 0.06335888 -0.44625193 0.42943406
000200 67 ad f9 bf 7c c5 71 3e 21 3f d0 bf 9f 3f 62 3e
       -1.9506043 0.2361049 -1.6269265 0.22094582
000210 57 53 a9 bd 0b 34 c3 be 03 1d 3f bd 30 8d e2 3e
       -0.08267849 -0.38125643 -0.046658527 0.44248343
000220 5a 4f 6f 3a 2b 3f 32 3d 9b 69 89 be e9 06 8b bd
       0.0009128951 0.043517273 -0.26838383 -0.067884274
000230 e5 83 1a 3f 11 49 df be 2f d6 aa 3d 2b b2 b9 bf
       0.60357505 -0.43610433 0.083416335 -1.4507498
000240 65 ef ea 3e 0b 61 c9 3e dd bf f3 3d 1b 26 ae be
       0.4588577 0.3933185 0.119018294 -0.34013447
000250 ab 0b 39 3e 43 79 b3 be b8 61 98 be 9f cf f7 3b
       0.18070857 -0.35053453 -0.29762053 0.007562592
000260 c5 5a 60 3e b8 84 a7 bf de a1 24 bf 91 13 47 bd
       0.21909626 -1.3087378 -0.6430949 -0.048602644
000270 b1 2c bc 3e 3a 55 1c 3f 1d 63 23 3f 08 d6 11 ba
       0.36752847 0.61067545 0.6382311 -0.0005563204
000280 b2 28 af 3e fc ac 68 3d 5c aa db 3e 6c 50 0a 3d
       0.34210736 0.056805596 0.4290341 0.033768103
000290 29 9b 10 ba ef 25 58 3f 36 89 fc bd 38 ed 0c bd
       -0.0005516285 0.8443288 -0.123308584 -0.034405917
0002a0 8c 3a 50 3d c9 b7 10 3e 1f 65 9d 3d 32 4d 0d bd
       0.050837085 0.14132608 0.07685303 -0.034497447
0002b0 30 0c 20 3f 5a b6 21 3f 3b 83 a8 be a5 95 76 bf
       0.62518597 0.6316887 -0.3291262 -0.9632209
0002c0 20 5a fe 3e 0b 79 80 3d 2f 6b 88 3e 20 31 6d bf
       0.49678135 0.06273087 0.26644275 -0.92653084
0002d0 4e 28 31 3f a2 24 0a 3e ad 48 f6 bd 5f e1 e0 3e
       0.69202125 0.13490537 -0.120255806 0.43921944
0002e0 20 81 62 bc dc fc 7a 3d 4a 3d 75 3c d9 52 51 be
       -0.013824731 0.0612763 0.014968226 -0.2044176
0002f0 49 11 c9 bd a0 28 a6 bd 6f 68 9f 3e 4d 93 06 3f
       -0.0981775 -0.08113217 0.31134364 0.52568513
000300 19 d8 9b be ef 27 80 bd a3 1b e5 3e aa cb ca bf
       -0.30438307 -0.06257617 0.44747648 -1.5843403
000310 d6 0e 9b be 15 48 56 bd da dc 1c 3f fb b3 65 3d
       -0.30284756 -0.052314837 0.6127449 0.056079846
000320 fa 69 6f be 70 8f 08 3d d2 b2 0f bf 47 ec c0 3d
       -0.2338027 0.033339918 -0.56132233 0.09420066
000330 bb fe 88 be 2d 4b 4c be 0e 87 04 bf 1a 4f 9d 3e
       -0.26756844 -0.19950552 -0.5176858 0.30724412
000340 7c f6 0c 3c f0 24 25 bf 8c 35 0a 3f cc 6c 97 3d
       0.008603688 -0.6450949 0.53987956 0.07393798
000350 5d b6 c4 3e c0 16 14 3f 26 b7 32 bf 90 ca 02 3f
       0.38420382 0.57847214 -0.6981071 0.51090336
000360 79 52 5a be 66 e8 93 bb c1 c4 e0 3e 14 a8 c3 3c
       -0.21320523 -0.004513788 0.4390011 0.023883857
000370 79 d4 2d be af c6 75 3e da 34 e4 3e e0 a6 1b 3e
       -0.16975583 0.24001573 0.44571573 0.15200377
000380 d0 61 64 3d 82 3d f2 3c bc 09 61 3d 43 71 79 3e
       0.055757344 0.029570345 0.054940924 0.24359612
000390 ea f5 1f 3f ca 66 b2 3c 9d 10 1c be 33 c4 8f bd
       0.6248461 0.02177753 -0.15240712 -0.07019844
0003a0 67 98 0c 3f e0 0c 8f be 85 cb a4 3e ee 37 05 be
       0.5492005 -0.2793951 0.32186523 -0.13009617
0003b0 74 df 05 be 37 d3 d9 3c 58 68 11 bd 6b 4c de be
       -0.13073522 0.026589973 -0.0354999 -0.43417677
0003c0 24 a4 46 3e 15 37 49 3e 4c 3b e7 3c c0 00 a1 3e
       0.19398552 0.19649918 0.028226517 0.31445885
0003d0 d8 65 6a 3e 77 26 7e 3d f5 3c 02 3e 8e 14 64 be
       0.22890413 0.0620484 0.12718566 -0.22273466
0003e0 94 cd 1c 3f 90 47 c8 be 86 26 f8 3e 30 63 80 3e
       0.6125119 -0.39117098 0.4846689 0.25075674
0003f0 89 d1 02 bd e3 d5 ec 3d 2b d9 f4 3e f1 fd 56 3f
       -0.03193811 0.11564233 0.47821936 0.83981234

fc1.bias f4 [128]
000000 96 ed 1b be dd 9a 97 be 02 e1 ed be 52 8a 87 be
       -0.1522735 -0.2961034 -0.4646073 -0.26472718
000010 c7 e5 e1 bc d2 01 94 bd 57 3a b3 bc 4c 67 0d be
       -0.027575387 -0.0722691 -0.021878405 -0.13808936
000020 3b 9d a1 be 3f ea 99 be 0f 51 69 be 68 e9 1b be
       -0.3156527 -0.30061528 -0.22784828 -0.15225756
000030 39 53 e9 bd 68 c6 4d bd 92 d1 11 3d 7f 78 be bc
       -0.113928266 -0.050238043 0.035600252 -0.023250816
000040 a1 c9 98 be cf b9 c7 bc 73 64 b8 bd 5d 29 28 be
       -0.2984133 -0.024380593 -0.09003534 -0.16422029
000050 0f 7f ed bd de a3 e8 bc 5f 04 a3 be 9d 91 86 be
       -0.115965 -0.02839845 -0.31839272 -0.2628297
000060 f5 4c 64 bd c1 77 94 bd b9 c3 26 be 43 63 9a be
       -0.055737454 -0.07249404 -0.162856 -0.30153856
000070 89 5b ac bd 70 86 7a be a6 9a a4 be ad 41 a8 bd
       -0.084158964 -0.24465346 -0.32149237 -0.08215652
000080 ac 43 2c 3a f2 67 a0 bd f3 9a 10 bd 2e 8e 4e bd
       0.0006571363 -0.07832326 -0.03530402 -0.050428562
000090 35 e3 31 be e8 77 ba 3c aa d4 90 be f2 fe d3 bc
       -0.17371829 0.022762254 -0.2828725 -0.025878403
0000a0 a2 53 a6 bd 4c f6 85 be 49 a7 8e be dd c3 33 be
       -0.081214204 -0.26164472 -0.27862003 -0.17555185
0000b0 5b b5 81 bd 82 1b 4e be da 2c 2a 3c 25 fd 18 bd
       -0.06333419 -0.20127681 0.01038667 -0.037350792
0000c0 c0 f5 57 be 62 c1 a5 be 9f b0 f0 bd 8d fb c8 bb
       -0.2108984 -0.32374102 -0.11752438 -0.006133503
0000d0 7a 28 a0 bc 03 ff 6a 3c 4b 31 87 be c3 c4 8f bd
       -0.01955055 0.014343026 -0.26404795 -0.07019951
0000e0 56 a2 15 bc 05 45 53 be 5b 22 25 bd c9 56 af be
       -0.009132942 -0.20631798 -0.040315967 -0.342459
0000f0 cf 0d 9a be e2 c6 8b bd 4e e9 c8 bc f6 5e 62 be
       -0.3008866 -0.06825043 -0.02452531 -0.22106537
000100 b9 99 8c bd a9 9a ad be 46 c6 a3 be 7e 6a bb bd
       -0.06865258 -0.3390706 -0.31987208 -0.09151171
000110 b8 7b 7c be cc 72 53 3d 25 06 96 be ef f8 b7 bd
       -0.2465657 0.05162315 -0.29301563 -0.08983027
000120 ac 2b 49 bd 83 2d a6 be 08 8a ce bd 69 02 17 bd
       -0.049113914 -0.32456598 -0.10084921 -0.036867533
000130 f4 2c 3d bd c6 83 5b bd ea 76 8b be 6f e3 94 bd
       -0.04618545 -0.053592466 -0.27239162 -0.07269942
000140 df 15 54 bc ff ed c7 be dc 78 14 be cb e2 a0 be
       -0.012944668 -0.39048764 -0.14499229 -0.3142303
000150 7f 68 25 bc 7e e6 13 be be 98 5a bd 52 06 5c bd
       -0.010095715 -0.14443395 -0.053368323 -0.053716965
000160 c5 a3 93 be 73 e8 58 bd 18 5d 66 bd 89 23 e2 bc
       -0.28835884 -0.052956056 -0.056241125 -0.027604835
000170 c1 64 2b bd 65 d8 59 bc 1d 97 4e be 1b 6e a8 bd
       -0.041844133 -0.013296221 -0.20174833 -0.08224126
000180 00 e4 11 bc b5 17 57 bc 60 f3 60 be 0e 73 a4 be
       -0.008904457 -0.013128211 -0.2196784 -0.3211903
000190 49 27 8c bd 79 74 81 be fe de 8d bc c3 4a ef bd
       -0.068434305 -0.25284174 -0.017318245 -0.116841815
0001a0 1f b3 8f be 26 b6 89 be dc 97 93 be 29 39 32 bc
       -0.28066346 -0.2689678 -0.28826797 -0.010877886
0001b0 28 f2 b6 be 22 72 7f 3d 9d e1 97 bd 3d 61 88 be
       -0.35731626 0.062364705 -0.07416079 -0.26636687
0001c0 b8 4c 80 bd 49 1c ec bd eb 1f 90 be 05 5a 86 bd
       -0.06264633 -0.115288325 -0.2814935 -0.065601386
0001d0 09 b1 9f 3c 23 1b a1 bd dd e7 7f bd 0a cd a8 bd
       0.019493597 -0.07866504 -0.06247698 -0.08242233
0001e0 3e 9f 30 3d 11 87 c3 bd 4b 0b 23 3c 44 90 f6 bd
       0.043120615 -0.09547246 0.009951423 -0.12039235
0001f0 93 ad 94 bd 25 4f be bd 39 aa ae be 32 b1 64 bc
       -0.07259669 -0.09292439 -0.34114245 -0.013958262

fc2.weight f4 [128, 128]
000000 60 8a 0a 3f 97 34 47 bd 01 06 4c 3e de ec 53 be
       0.54117393 -0.048634138 0.19924165 -0.20695826
000010 72 fb 51 bd 18 52 20 3f e4 c4 ac 3a 80 ed c0 be
       -0.051265188 0.62625265 0.0013181237 -0.37681198
000020 15 4b 20 3f 0b 74 19 be 8e d7 7c bc 75 4b b4 3d
       0.62614566 -0.14985673 -0.015432252 0.08803455
000030 78 c5 21 bd 3a 96 86 bd 89 62 4c 3e 42 94 dd bc
       -0.03949496 -0.06571622 0.19959463 -0.027048234
000040 72 c2 00 bf a2 53 63 be 6f 94 54 3d 01 87 ce be
       -0.502967 -0.22199872 0.05189937 -0.40337375
000050 a2 7c b5 3f b7 4a c0 3e f7 7a 2a be 36 1c 76 bd
       1.417866 0.37557003 -0.1664847 -0.060085498
000060 84 6c 89 3d b7 6a e8 bd 47 6d 2e 3e 37 00 4f bf
       0.06710151 -0.11348479 0.17033873 -0.808597
000070 f8 47 71 be 99 ab 22 3e 40 59 f5 be ee 52 5a 3d
       -0.2356261 0.15885772 -0.47919655 0.053301744
000080 46 bb f0 3d 62 b2 8b 3f 1b c2 97 3e ce 14 74 3e
       0.117544696 1.0913813 0.29640278 0.23836061
000090 f5 5a 78 3c c0 eb e6 bd 07 f1 89 be ee fe 36 3d
       0.015158405 -0.112754345 -0.26941702 0.044676714
0000a0 3b f0 44 bd f7 2c c1 bd 03 de 13 bf db d1 1d be
       -0.048080664 -0.094324045 -0.5776064 -0.15412085
0000b0 cd 13 6d bd b1 ca 35 bf 6d fb b3 bd cb 8f 92 3d
       -0.05788021 -0.7101241 -0.0878819 0.071563326
0000c0 a7 ff 2c bf 61 5a f1 bd 48 05 b4 3b 20 24 80 bf
       -0.67577595 -0.117848165 0.0054937936 -1.0011024
0000d0 df bd d6 3d a9 bb e0 bb 80 fb 52 3e 4c 3b 19 bd
       0.10485434 -0.0068583083 0.20603752 -0.037410066
0000e0 cd 25 2f 3c e4 e8 5e 3d dd 9b d3 bc ff 09 c7 3d
       0.010690165 0.05442132 -0.025831157 0.097187035
0000f0 53 a4 91 be 83 2b 6a bd b6 15 b4 bd cb 68 c8 be
       -0.28445682 -0.057170402 -0.087932035 -0.3914245
000100 11 84 a1 bd e0 97 8a be 0e 28 34 be e2 20 cb 3c
       -0.07886518 -0.27068996 -0.17593405 0.024795953
000110 2e ab 18 bf a0 12 01 bf bb 29 16 3d 3c b1 97 3c
       -0.596362 -0.50419044 0.03666089 0.01851713
000120 e3 4d 9d 3c d8 34 ed bd e3 9d 3d bf 44 33 8c 3d
       0.019202178 -0.11582345 -0.7406904 0.06845716
000130 cf b7 e4 3e 1f 16 a4 bc 5e d4 6b bf 37 44 3a bb
       0.44671485 -0.02003008 -0.9212092 -0.0028422007
000140 55 8f 69 3d 15 cf 9a bf a4 08 45 3e a1 57 d8 3d
       0.057021458 -1.2094446 0.19241577 0.10563589
000150 ae 63 a3 bd 89 1f 15 bd 9d 85 08 3c f3 c8 96 bd
       -0.07977997 -0.036407027 0.008332637 -0.07362547
000160 dc f1 e3 bd b6 0d 99 bb 65 65 50 3d 63 2b 65 bd
       -0.111301154 -0.004670824 0.050877947 -0.05594958
000170 fb 93 69 3c da 21 0a 3e 37 25 b6 be 3d b2 51 3d
       0.014256473 0.13489476 -0.35575268 0.051195372
000180 8c 5e 28 3e 60 37 9d 3f 0d d1 09 bf 6c 8d a2 3e
       0.16442317 1.2282524 -0.5383461 0.3174852
000190 07 62 07 b9 0a fc c8 be 7d ca a4 3d 77 db b0 3d
       -0.00012911121 -0.3925479 0.08046434 0.086356096
0001a0 ff 8c 91 be 24 20 51 bf 9f 22 97 bc d4 28 e7 bd
       -0.28427884 -0.8168967 -0.018449126 -0.11287084
0001b0 86 9e 14 be 9f 93 9c 3d 27 20 16 3d 25 e6 fb bc
       -0.14513597 0.07645344 0.036651757 -0.03074939
0001c0 93 62 db bc 58 4e 8a bd a2 3c 5c 3d af 09 06 bc
       -0.026780402 -0.06753224 0.05376876 -0.00818102
0001d0 d7 21 9e 3e 11 77 f8 3c 64 40 74 3d 07 54 05 bd
       0.30885193 0.030330213 0.05963172 -0.032550838
0001e0 a3 5c 38 3f a8 3e 2e bd b9 5b b0 be fa 95 6e be
       0.7201635 -0.042540222 -0.3444498 -0.23299399
0001f0 35 ef 76 3d b0 3d 78 bd 04 4b 92 be 2d 5d 25 bc
       0.06028672 -0.060605705 -0.28572857 -0.010093016
000200 5b 18 92 bc 98 4b b7 bd 89 3f cc bd 0d 86 b4 bd
       -0.01783388 -0.08949965 -0.09973056 -0.08814631
000210 d6 80 18 3d f5 3a 84 bd c8 62 a3 bc e7 d8 32 be
       0.037232243 -0.06456558 -0.019944564 -0.17465554
000220 b6 4e 39 bd 4d 8d 43 3d e7 8b 78 be b3 0c 99 3b
       -0.04524108 0.047742177 -0.24272119 0.0046707033
000230 26 f4 5d 3d 6b e5 81 bd c8 b1 fa bd 99 ad d6 3c
       0.054187916 -0.06342586 -0.1224094 0.026205825
000240 ca 96 15 3d b2 37 e4 3d 79 6b 69 bc 68 41 2f bd
       0.036520757 0.111434355 -0.014246815 -0.042786986
000250 3d 59 04 bd 7d 0e d2 bd 4f 3e c5 be 02 45 73 bd
       -0.032311667 -0.1025667 -0.385241 -0.059391983
000260 c2 f0 91 bc 03 c6 07 bd 06 c1 d2 bd 9c 56 9b 3c
       -0.017814998 -0.033147823 -0.102907225 0.018962197
000270 8a 26 8d bd bf 23 22 be 7d 3b 03 be 5c 63 87 bd
       -0.06892116 -0.15833949 -0.12815662 -0.06610748
000280 da 70 6d be db 5a 3d bd f0 d4 93 bb 5b 40 05 bf
       -0.2318758 -0.046229225 -0.004511468 -0.52051324
000290 24 6f f3 bd ad 9f 38 3d 60 14 24 be 5d 17 5f bd
       -0.11886433 0.045074154 -0.16023397 -0.05446564
0002a0 ff ce 76 3d 37 7f a2 bd d0 90 6e bb 3a 78 92 bd
       0.060256 -0.079344206 -0.0036402233 -0.07151838
0002b0 4e 7f 69 bd 98 54 66 be b6 f6 25 bd 65 85 30 bd
       -0.057006173 -0.22493207 -0.040518485 -0.043095965
0002c0 5b 12 3d bb a7 4a 6e 3c ee e8 73 bd f1 56 cc bd
       -0.0028850052 0.014544166 -0.05954831 -0.0997752
0002d0 90 a6 a6 3a 6b eb d3 3c 0f 23 ac bd ca 16 55 3d
       0.0012714434 0.025869092 -0.084051244 0.052023686
0002e0 03 61 a7 3d 15 ea 68 be 85 7b 42 bd f9 cf be ba
       0.081728004 -0.22745545 -0.04748108 -0.001455783
0002f0 91 4e 85 bd 1a a8 68 bd 8b 61 90 bd 7d 8b e7 bd
       -0.06509126 -0.05680094 -0.07049855 -0.11305902
000300 c7 3f da 3c f2 af b3 3d 66 d7 d4 bd c3 7f 6c bd
       0.02664174 0.08773793 -0.103926465 -0.05773903
000310 13 13 61 bd a2 9c 5f bd f5 1d 6e bd 3b c6 97 bd
       -0.05494983 -0.054592736 -0.058134038 -0.07410856
000320 a4 94 19 be 13 54 dd bd 27 f5 96 bc 72 7c cf b9
       -0.14998108 -0.108070515 -0.018427445 -0.00039574836
000330 b6 c5 4d be 89 89 88 bd d8 10 38 be 94 d0 54 3d
       -0.20094952 -0.06666858 -0.17975175 0.051956728
000340 59 bc f1 bc a8 07 89 3d 72 fd 34 bd e5 1f 7f bb
       -0.029508756 0.066909134 -0.044187017 -0.0038928923
000350 d9 1c b2 bd d9 a6 1f 3d fd 82 9a bd 0b 97 dd 3c
       -0.086969085 0.038977478 -0.07544515 0.027049562
000360 d2 e4 ef bd b9 e4 8a 3d c4 63 cf bc c5 f6 90 3d
       -0.11713566 0.06781907 -0.025316127 0.070783176
000370 60 dd 9f 3c f7 57 7f bc ab 3e 92 bd 8d cd c5 bc
       0.01951474 -0.015584937 -0.07140859 -0.024145866
000380 df 88 a2 bc 7e e1 c0 3b 35 9e 96 bd 54 51 38 be
       -0.019840656 0.0058862558 -0.07354394 -0.17999774
000390 32 5a a9 bd b7 39 f0 3b 2a c0 0f bc bd 38 88 3d
       -0.082691565 0.007331099 -0.008773843 0.06651447
0003a0 64 e9 35 bc 62 24 c9 bd aa c5 c2 bd 42 a7 57 bd
       -0.011103008 -0.098213926 -0.09510358 -0.052649744
0003b0 9f 85 8f 3c e2 42 ef bd 8b 8d 22 bc b8 fc 64 bd
       0.01751977 -0.11682679 -0.009921442 -0.055905074
0003c0 c7 fc a1 bd 89 01 1a bd f8 38 61 be a8 ce a4 3d
       -0.079095416 -0.03759912 -0.21994388 0.08047229
0003d0 8f a7 15 3d 62 05 6f bd cc 32 6a 3d 83 45 3b bd
       0.03653675 -0.058354743 0.05717735 -0.04572059
0003e0 94 8c 60 bd 45 2a f0 bc 74 0a 1c be 1d 65 11 3d
       -0.054821566 -0.02931703 -0.15238363 0.03549682
0003f0 ab eb ef 3c 46 ad 70 3d d4 7c 5d 3d 97 62 83 bd
       0.02928718 0.058758996 0.054074124 -0.06415289

fc2.bias f4 [128]
000000 65 16 f2 3d b6 32 a7 bc 51 5e c3 3c 82 6e 12 bd
       0.11820678 -0.020409923 0.023848685 -0.03574992
000010 8e 8a 57 bd b3 93 61 bd 66 c6 f8 be 96 e0 6a bb
       -0.05262237 -0.055072498 -0.48588866 -0.003583943
000020 02 99 7b bc af 81 a4 bd 85 6f 97 bd 2b b7 26 3d
       -0.015356304 -0.08032548 -0.073943175 0.040702026
000030 12 ca c6 bd 6c 81 0f be 33 ab af bd 32 c7 c3 3c
       -0.097065106 -0.14014214 -0.085775755 0.023898695
000040 9b 5e de bd 93 d1 99 bc 16 89 d9 bc 30 aa 03 be
       -0.10857888 -0.01877669 -0.026554625 -0.1285789
000050 6d 99 c7 3d e7 b5 d2 bb 44 a0 d3 bd ad 9d 5f bc
       0.097460605 -0.006430376 -0.103333026 -0.013648433
000060 a0 38 cf bd 87 e3 23 bd 21 b1 ec 3c c6 00 1a 3d
       -0.10118222 -0.04001191 0.028893055 0.037598394
000070 c8 40 65 3c 8b 27 ff 3c 2a 4d 4e bd 8c 82 59 bd
       0.013992496 0.031146785 -0.050366558 -0.053103015
000080 0e 4e ff bc 19 d5 8a bd a6 6e 09 bd 6b 44 53 bd
       -0.031165149 -0.067789264 -0.03355279 -0.05157892
000090 c7 5b 3e 3c d3 3e a9 bd bf 44 90 be d8 73 c8 bd
       0.011618561 -0.08263936 -0.2817745 -0.097877204
0000a0 f0 db 18 be 3f a0 cd 3c 60 b2 ba bd 33 07 c0 bc
       -0.1492765 0.025100825 -0.091160536 -0.023440933
0000b0 90 86 85 bd 25 64 26 3d c9 0c ec bc ff 6c bf bd
       -0.065198064 0.04062285 -0.02881469 -0.09346961
0000c0 a8 3d 41 3d e5 69 6d bd 7e ab fc bb 1f e5 f6 bb
       0.04717794 -0.057962317 -0.007710873 -0.0075346376
0000d0 c9 b1 c5 bd 63 7f 5a bd fe 26 95 bd a9 4c 44 bc
       -0.096530505 -0.05334414 -0.07282828 -0.011981168
0000e0 3e b8 04 bf 0c 89 9c bd 15 76 dc bd 25 b3 2b bd
       -0.5184363 -0.07643327 -0.1076471 -0.041918892
0000f0 c2 ea 12 bd 73 c8 30 be ea 67 ef bd 54 60 13 bd
       -0.035868414 -0.17263965 -0.11689742 -0.035980538
000100 6a 9a 01 bf 5b 61 bc be 3c 65 79 bd 22 ae 4b bc
       -0.5062624 -0.36793026 -0.06088756 -0.012431653
000110 48 2c 4b 3c 36 66 94 bd 24 9b 30 bd 4a 5c b6 3c
       0.012400694 -0.07246058 -0.043116704 0.022260804
000120 50 eb 80 bd 41 dc a0 bc ba 9a ee bd 0d 3d ae 3d
       -0.06294882 -0.019636275 -0.116506055 0.08507738
000130 90 91 b7 3c 6a 20 98 3d b6 96 9f bc ff 7b 66 bc
       0.022408277 0.074280575 -0.019481044 -0.014067649
000140 66 5c 89 bd fe 26 e6 bd a7 e7 ec 3c 00 b4 9f 3d
       -0.06707077 -0.11237906 0.028919054 0.07798004
000150 17 f3 e3 3c 95 56 ea bd 60 95 8c bd 67 ad 22 3c
       0.027825875 -0.114422955 -0.068644285 0.009929038
000160 e7 c4 02 bd 5d 3c d4 bd 51 bc 4d bd 02 9b 2a 3d
       -0.031926062 -0.10363076 -0.05022842 0.041651733
000170 40 6a 78 bd 04 e6 03 3e 17 74 07 bd b0 2f 19 be
       -0.060648203 0.12880713 -0.033069696 -0.14959598
000180 f0 7f fd bd 45 21 bd 3b 82 0a 1c bd dd 23 00 3d
       -0.12377918 0.0057717883 -0.03809596 0.031284202
000190 26 2e 9b 39 2e 2c c1 bd 4b 0c 8e be c0 e6 d1 bd
       0.00029598287 -0.09432255 -0.27743754 -0.1024909
0001a0 02 f9 08 bd 81 ec 9c 3c d0 d2 ab bb 68 2c 2d 3d
       -0.033440597 0.019155743 -0.0052436367 0.042278677
0001b0 2d dc 5d bd 28 d0 f8 3d fd 89 af 3c 1d af ff 3c
       -0.054165054 0.12149078 0.021428103 0.03121143
0001c0 82 53 a1 3c 1f 63 7d bd 91 07 b7 be da 3b 2a bd
       0.01969314 -0.061862107 -0.3574796 -0.041560985
0001d0 26 60 76 bd 38 b4 81 bd d4 5d a5 bd d2 20 c1 bc
       -0.060150288 -0.06333202 -0.08074537 -0.02357522
0001e0 a9 88 a6 bd 98 4d 0c be 62 2f 76 bd ff 31 eb bb
       -0.081315346 -0.13701475 -0.06010378 -0.007177591
0001f0 3d cd 7b bd bb 0e 04 be 5a cc 7b bd 00 76 cd 39
       -0.061475027 -0.12896244 -0.06147418 0.00039188564

fc3.weight f4 [128, 128]
000000 88 48 8d 3c b7 79 32 be cc b2 13 3e 16 39 eb 3c
       0.0172465 -0.17429243 0.14423674 0.028713744
000010 a8 9c 23 3f de f9 0e be c3 88 9f bd 1e 64 c5 3d
       0.63910913 -0.13962504 -0.07789757 0.096382365
000020 68 b1 d5 3e 3c 60 06 bd 2d 6f 95 3d 2e 3a bb 3e
       0.41736913 -0.03280662 0.07296596 0.36567825
000030 8d 72 8d 3d a9 25 ff bc ea 8b b0 bc 4a 98 a9 bc
       0.069066145 -0.031145887 -0.021551091 -0.0207025
000040 ba f6 61 bd 4d 02 92 bb 24 53 89 3e 90 20 c7 bc
       -0.055166937 -0.0044558407 0.26821244 -0.02430752
000050 cd 32 e6 3e a1 8f 24 3c 18 a2 56 bc fb f2 b3 bf
       0.44960633 0.010044009 -0.01310017 -1.4058527
000060 ab 28 11 bf 9d e1 b1 3d d7 a2 9e 3d 61 2e 9f 3d
       -0.5670268 0.086856104 0.07745903 0.07772518
000070 49 34 d2 bf e2 09 81 be 26 75 51 3c ae 72 a5 bc
       -1.6422206 -0.25202852 0.012784278 -0.020196285
000080 7e 6c 81 3d 2c 55 a9 3d a8 da 03 be e0 1b 84 3d
       0.06319521 0.08268198 -0.1287638 0.06450629
000090 db 63 a8 3e 7d ec 1f 3d 95 f7 e1 bc 40 91 64 bd
       0.32888684 0.039043892 -0.027583877 -0.055802584
0000a0 b5 85 0c bf 43 b3 09 bf ce c5 5d bd f8 6d 8e 3d
       -0.5489152 -0.53789157 -0.05414372 0.069545686
0000b0 6d 4d b2 3c 23 65 50 be 68 69 c3 3c 4d e7 4c be
       0.021765435 -0.2035108 0.023853973 -0.20010109
0000c0 7c 9d 2f be f4 c2 1b bc fd d5 f5 be 7c 06 84 bc
       -0.1714992 -0.00950693 -0.48014823 -0.016116373
0000d0 3b 5a 98 bd 3a cf 60 bd 3f a5 2b be e0 5d e6 3c
       -0.07439085 -0.054885127 -0.16762255 0.028120935
0000e0 66 d4 0e 3e 40 75 6a bc ae 8c af 3d 07 79 35 bd
       0.13948211 -0.014310181 0.085717544 -0.044304874
0000f0 3f 72 c4 bd cf 51 42 bf 87 7e 04 3d 10 36 e0 bc
       -0.09592103 -0.7590608 0.03234723 -0.027369529
000100 e4 75 d0 3e 1a 58 84 bc 86 97 30 be 0d 78 e6 be
       0.40714943 -0.016155291 -0.17245302 -0.45013466
000110 8d 4e a9 3f ce 61 8e bd 0b f8 c2 bd ee f6 44 3e
       1.3227097 -0.069522485 -0.09519967 0.19234821
000120 96 6f 0a bc db 25 6f bf f6 9d 91 3e 91 f4 c1 be
       -0.008449456 -0.9341714 0.28440827 -0.37881902
000130 54 59 a4 be 90 3f 1b bd e5 a9 9b 3e bf bb ae 3e
       -0.32099402 -0.037902415 0.30403057 0.34127614
000140 fe ce 9c bd 14 c0 b0 bd 73 e8 5e bf 3a 55 b4 be
       -0.07656668 -0.08630386 -0.8707344 -0.35221273
000150 d4 c5 e9 3e d7 6d b2 bc d4 44 8c bd 39 a0 a4 3e
       0.45658743 -0.021780891 -0.068490654 0.3215349
000160 63 ae 7a 3e 1a 52 26 bc 70 68 1e 3d 40 48 1f 3e
       0.24480586 -0.0101514105 0.038673818 0.15554905
000170 de 36 2c 3e f6 d0 fb be 85 be f2 bc ca 01 09 3e
       0.16817805 -0.49182862 -0.029631862 0.13379589
000180 46 c5 b8 3c 56 e4 3f 3f e0 cc 7b be 90 51 a9 bd
       0.022555005 0.7495779 -0.24589872 -0.0826751
000190 8a 76 9e 3d 08 c7 eb bc 08 2b 92 bc 9e b4 a3 3c
       0.07737453 -0.028781429 -0.017842785 0.019983586
0001a0 89 35 1c bf a4 ba b0 3f b8 46 a4 be 5e 34 88 bf
       -0.6101919 1.3806958 -0.32085204 -1.0640981
0001b0 93 8c b1 3e 37 ae 43 be f9 a6 c4 be 35 a5 c2 be
       0.34677562 -0.19109426 -0.3840864 -0.38016668
0001c0 89 fa a1 bd 65 b6 91 be e7 45 dc be f0 e1 ba bf
       -0.07909114 -0.28459468 -0.4302208 -1.4600201
0001d0 75 d2 21 be d6 eb c5 3c bf f5 92 3d 22 90 a0 3d
       -0.15802939 0.024160307 0.071757786 0.07839991
0001e0 62 0d 0d bf 59 3c 20 bf 78 4d 7d bf 20 82 b1 bd
       -0.55098546 -0.62592083 -0.9894633 -0.086673975
0001f0 a4 72 2c 3c ed 01 18 3e c6 a0 38 3e 6c 48 b6 be
       0.010525379 0.14844485 0.1803008 -0.35602129
000200 55 b0 4f bd d5 26 a7 3d 8e f8 64 bb ed f2 3d 3d
       -0.050705273 0.081617035 -0.003493819 0.04637425
000210 fc 3f 61 bd b0 e4 89 3c 2a b7 83 bd cc fb 06 bd
       -0.05499266 0.01683268 -0.0643142 -0.032954976
000220 b2 67 f1 3c 99 aa a7 3d 43 08 9a 3d 39 ca 00 3d
       0.029468391 0.08186836 0.07521107 0.031442855
000230 f8 c2 bc bc e1 8a 9c 3c b0 a0 a8 3d 0c fa 27 bd
       -0.023042187 0.019109191 0.08233774 -0.041009948
000240 28 a8 b4 3d 13 3f ae 3d e6 10 0d bd 8f 9d 3f bd
       0.08821136 0.08508124 -0.034439944 -0.04678112
000250 b2 86 3e 3d b7 bb 13 bc 40 63 78 bd 10 f8 92 3d
       0.046515174 -0.009016923 -0.060641527 0.071762204
000260 5c 74 88 3b a8 3b 79 bc 64 e8 8c 3c d8 77 35 bd
       0.0041642617 -0.015211977 0.017200656 -0.044303745
000270 8a d7 80 3d 88 ae 82 3d 06 fe 71 bc c2 2a 93 bc
       0.06291111 0.063809454 -0.014770037 -0.017964724
000280 63 3e a8 bd 4d 51 81 bd 77 e0 28 bc 36 3d 67 3b
       -0.08215024 -0.06314335 -0.010307423 0.0035284287
000290 5d be 72 3d 85 51 32 3d cd f4 9f 3d 1e ba a2 bd
       0.059263576 0.043534774 0.07810364 -0.07945655
0002a0 ae 10 59 bd b5 4c 16 3d 10 3a 98 bd 81 e4 6f bc
       -0.052994423 0.036694247 -0.074329495 -0.014641882
0002b0 d6 89 08 bc a1 c0 2f bd c6 df 12 3d 45 14 40 bd
       -0.008333644 -0.042908315 0.03585794 -0.04689433
0002c0 75 8a 10 bd 07 2a 31 3d 88 5a 76 bd 4d 75 a3 bd
       -0.035288293 0.04325297 -0.06014493 -0.07981358
0002d0 66 cf 98 3c bd 31 ca bc 2a 40 d8 bc 82 34 ab bd
       0.018653583 -0.02468192 -0.026397783 -0.083596244
0002e0 91 22 27 bc a0 d2 14 bd 89 57 9b bd 51 9f e4 3b
       -0.010201112 -0.03633368 -0.075850554 0.006977
0002f0 12 d5 1e 3c b8 c6 49 3d 1a 9f 3b bd cf b0 8b bd
       0.009694355 0.04926178 -0.045806028 -0.06820833
000300 05 00 84 bd 41 1e fd bc 88 ae 27 bb ba b0 5e 3c
       -0.06445316 -0.030898215 -0.0025586206 0.01359194
000310 14 73 9f bd 33 64 94 bd 04 21 95 bd ec 83 88 bd
       -0.07785621 -0.07245674 -0.07281688 -0.06665787
000320 fc d3 2f 3d 08 eb 3f 3d 34 b7 14 3c 08 6b 1d bc
       0.042926773 0.046855003 0.009076882 -0.009608038
000330 36 15 c1 bc 6b 50 12 bd c2 0d b8 bd 12 aa 64 bd
       -0.023569684 -0.035721224 -0.08986999 -0.055826254
000340 0d df 0a bd c9 d4 7e 3d 88 4a 48 bd 43 a0 c3 bc
       -0.033904124 0.062214646 -0.048899204 -0.02388013
000350 9c 69 7d 3d 99 bb 90 bc 8d 0a b2 bd 46 c0 82 3c
       0.061868295 -0.017667579 -0.08693419 0.015960824
000360 6e ed c3 bb bf a3 a7 3d 1b 9b bc 3b 98 f7 27 bd
       -0.0059792316 0.08185529 0.0057557947 -0.04100761
000370 63 fb 05 3d c4 30 81 bd 0a d7 0d bc 8d 0a 62 bc
       0.032710444 -0.063081294 -0.008657226 -0.013796461
000380 35 f9 79 bd 9f 6d c1 bd 5b c6 7f bc 39 cc a6 bd
       -0.061028678 -0.09444737 -0.0156112565 -0.08144421
000390 f9 e4 25 3c f3 9e a6 3d b1 0a c2 bd 23 33 9a bd
       0.010125392 0.08135786 -0.094746955 -0.07529285
0003a0 3a 1b 14 3d d8 41 75 bd 7d be 48 bd 7f 6e 5d bd
       0.036158778 -0.059877247 -0.04900979 -0.054060455
0003b0 e8 b5 30 3b 45 2a 53 3d 93 0c 28 bd 39 3c 82 bd
       0.0026963893 0.051553983 -0.041027617 -0.06359143
0003c0 8f ce ee bc 7d 78 b1 bd c5 39 20 3d 51 df 2c 3d
       -0.02915123 -0.086655594 0.039117593 0.04220516
0003d0 67 7d b9 ba 0f 5a 4c bd 4b 54 99 bb 1d ee 5f bd
       -0.0014151753 -0.049890574 -0.004679238 -0.054670442
0003e0 43 30 01 3d 03 bf 0e bd 4f d0 ac 3d 9b 15 30 3d
       0.031540167 -0.03485013 0.08438169 0.042989355
0003f0 ce 45 15 bd 87 6a c8 bd fd fa 6a 3d ed 26 59 bd
       -0.036443524 -0.097859435 0.057368267 -0.05301564

fc3.bias f4 [128]
000000 61 1b dd bd 25 a2 a4 bd 7d d2 8a bc e8 c3 f7 bd
       -0.10796238 -0.08038739 -0.016946072 -0.12097913
000010 3e 95 07 be 88 58 02 3d 78 ab bd 3d 15 58 9e bb
       -0.13240525 0.03182271 0.09261221 -0.0048322775
000020 08 d3 13 be e2 51 d1 bc e4 5e 16 bd 91 23 fe bd
       -0.14435971 -0.02555174 -0.03671159 -0.124091275
000030 2c 0c 27 bd b3 45 43 bd eb 31 1a 3e a8 95 0d bd
       -0.040783092 -0.047673892 0.15058105 -0.03456655
000040 89 c3 25 bc e4 90 87 bd ca d5 dc bd e8 85 84 bd
       -0.01011742 -0.066194326 -0.107829645 -0.06470853
000050 85 19 de bd 73 b2 d4 bd 02 04 d0 bd 83 44 ef 3d
       -0.10844711 -0.10385599 -0.101570144 0.116829894
000060 73 16 84 be bb 0d 0d bd 1e f9 8d bd 29 66 5b bd
       -0.25798377 -0.034436923 -0.06932281 -0.053564224
000070 14 73 be bd 0d 08 5e be 07 98 70 bd 47 de 54 bb
       -0.09299293 -0.21682759 -0.058738735 -0.003248112
000080 57 7e a1 bd 75 f2 f0 bd 58 4f 2f be b6 dd d3 bf
       -0.078854255 -0.11764995 -0.17120111 -1.6552036
000090 34 8a 97 3d 86 28 a6 bd 85 41 85 bd 58 aa 49 bd
       0.07399407 -0.08113198 -0.065066375 -0.049234718
0000a0 ad a8 9a bd cf bf 8b 3e 2f 4d 05 bc ac ca 2f bf
       -0.075517036 0.27294776 -0.008136078 -0.6866863
0000b0 be c1 09 be 93 6a 8c bd 42 76 a8 bd 27 a9 59 bd
       -0.13452813 -0.06856265 -0.08225681 -0.053139832
0000c0 ed e8 1c bd 8c 5e e7 bd 45 16 9f bc bb 71 a7 bc
       -0.038308073 -0.1129733 -0.019419799 -0.020439973
0000d0 b1 d8 df bc b8 a6 c5 bd 21 28 83 be 67 6f 25 bd
       -0.027325006 -0.0965094 -0.25616553 -0.040389445
0000e0 2b 38 3f bc 4f c2 7d be 93 95 85 bc 14 be 8a 3a
       -0.011671106 -0.24781154 -0.016306674 0.0010585212
0000f0 9e be 3d 3e 47 cf 07 3e 35 12 39 bd cd 5e 5a 3c
       0.18529746 0.13262664 -0.04518338 0.013328266
000100 11 07 5a bc 6d da 18 be 4c 36 b8 3d 51 c1 f9 3d
       -0.013307349 -0.14927073 0.08994731 0.12195075
000110 fc ac b7 bc d8 f9 23 bd fc 43 93 bd ef 3a 1f be
       -0.022421353 -0.04003319 -0.07190701 -0.15549825
000120 60 2f 92 3e 20 d7 b7 bc ea 1b 31 be ac dc 63 bd
       0.2855177 -0.022441447 -0.17295805 -0.05563037
000130 f4 e9 8c bd 65 15 88 3c 50 36 0b 3d 78 a8 90 be
       -0.068805605 0.016611764 0.033987343 -0.2825353
000140 7a cd 58 bd a3 68 f4 bd b8 11 4c be 01 44 c7 bd
       -0.052930333 -0.1193402 -0.19928634 -0.097297676
000150 8d e6 d0 bd 02 91 59 3d 48 42 d7 bd 15 4f a3 bd
       -0.10200224 0.053116806 -0.10510689 -0.07974068
000160 f0 b5 a6 bd 5d 2a 56 bd a8 0e 61 3e b0 82 e0 bd
       -0.081401706 -0.052286495 0.21978247 -0.10962427
000170 dc 43 e3 bd 2e f1 4b 3b 32 a3 c9 bf a2 93 9e bc
       -0.110969275 0.0031119096 -1.5752928 -0.019357506
000180 5e 1f 12 bd ce e0 d3 bd a5 d7 80 bd 5f 71 dd 3d
       -0.035674445 -0.103456125 -0.06291131 0.108126394
000190 4c 02 ad bd a7 92 bd bd 90 21 0b be 78 9c 43 3e
       -0.08447704 -0.09256487 -0.13587022 0.19102657
0001a0 72 3b 07 be ac 4e d4 bc 63 50 c6 bd 51 1a b5 bd
       -0.1320627 -0.02591642 -0.09683301 -0.0884291
0001b0 93 70 61 bd 31 5b 8d 3d 4a 2d 08 be d1 8d ae bd
       -0.055039 0.06902159 -0.13298526 -0.08523143
0001c0 9e cc 84 3e 62 d4 91 3d c2 ac c6 bd f9 b4 de bd
       0.2593736 0.07120587 -0.0970092 -0.108743615
0001d0 46 d7 ad bd 4b 80 72 bd 48 a5 04 bf 73 e7 17 bd
       -0.08488326 -0.05920438 -0.518147 -0.03708596
0001e0 75 de 2e bd 8b 6c c8 bd ee 96 3e 3d 09 25 d2 bd
       -0.04269262 -0.09786328 0.046530657 -0.1026097
0001f0 f9 1c 06 be 57 f6 d6 bc 22 61 ef 3d 98 40 c4 bc
       -0.1309699 -0.02624051 0.116884485 -0.023956582

fc4.weight f4 [128, 128]
000000 18 3d d7 3d 1f 2f 41 3c 11 fc 84 3d 52 f7 f6 bc
       0.105096996 0.01179102 0.0649339 -0.030147228
000010 60 dc 8a bd 9b f9 7c 3d 30 25 29 be bb 42 01 be
       -0.067803144 0.06176148 -0.16518092 -0.12623112
000020 da 91 d4 bd dc 52 3f 3d 1b 40 23 be 29 98 9c 3c
       -0.103793815 0.04670988 -0.15942423 0.019115524
000030 f5 92 0a bf 88 63 a4 bc 7e 3b 16 3f 12 c8 c1 3c
       -0.5413049 -0.020066991 0.5868453 0.023654971
000040 b6 0e db be 4a f3 5f bd d1 99 a3 3d ae 41 8a 3d
       -0.4278466 -0.054675378 0.079883225 0.06750809
000050 84 de 83 3d 13 1f 87 bd 24 f3 75 3d ff e7 a4 be
       0.06438926 -0.06597724 0.06004633 -0.3220825
000060 9a 4c bf bd 8b 07 10 3d d0 bb af bb a8 50 f9 bd
       -0.093407825 0.035163444 -0.005362965 -0.12173587
000070 4a 9e ac bd 77 4b ad be 34 4f ad bd d9 98 9e 3d
       -0.08428629 -0.33846638 -0.084623724 0.07743997
000080 a2 85 ff be f0 13 0e bc da 8e e8 be f4 82 49 3c
       -0.4990664 -0.008671746 -0.45421487 0.012299288
000090 a0 ff d4 bd e8 0a 90 bd c2 6d 8f 3d d4 57 cd bd
       -0.10400319 -0.0703333 0.070033565 -0.100265175
0000a0 d9 77 69 3b cd 6a 17 be 02 ef 00 bd c4 df 0a be
       0.0035624413 -0.14786835 -0.031477936 -0.13561922
0000b0 b5 a8 99 3d 4f 86 b7 3c 63 04 91 bc 34 91 09 bd
       0.075028814 0.02240291 -0.017702287 -0.033585742
0000c0 e1 5f 9c bd a8 83 3b 3d d1 6e be 3c 5b a6 3f 3d
       -0.07635475 0.045779854 0.0232462 0.04678951
0000d0 8c f9 e0 bc da 48 46 3d 17 79 0b 3e 82 fb a6 3b
       -0.027462743 0.04840932 0.13620411 0.0050959
0000e0 ce 4c 56 be 1d 4d 9e bc 96 4a 36 be 87 4d 99 3d
       -0.20927736 -0.01932388 -0.1780189 0.0748549
0000f0 04 39 f5 bd f7 f3 45 3e ee 65 d2 bd 09 2a 76 3d
       -0.119737655 0.19331346 -0.10273348 0.06009868
000100 ff 01 34 bd 13 f7 96 bd 98 23 01 be 61 7b ab 3e
       -0.043947216 -0.073713444 -0.12611234 0.33492568
000110 a1 8f be bd 41 de 40 be 19 cb 17 3c 99 d2 ca bd
       -0.09304739 -0.18834783 0.009264731 -0.099034496
000120 d1 e1 12 be 60 a9 7c bd 29 b8 00 be 9c 62 1c bc
       -0.14343955 -0.061684966 -0.12570252 -0.009544995
000130 81 40 76 bd 2a 3f b9 bc 5c a2 ea be 0c 7a c0 3e
       -0.06012011 -0.022613127 -0.45826995 0.37593114
000140 03 db 0e 3e 29 b9 6c be b8 10 d9 3d cb 12 d0 3c
       0.13950734 -0.23117508 0.10598892 0.025399586
000150 e5 7e 2c bd b9 3a 3f bd 89 ba 6c be 39 7f 37 ba
       -0.042113204 -0.04668686 -0.23118033 -0.00069998536
000160 7c 9e 3f bd f1 16 63 3d 2a 01 1b be c0 45 65 3d
       -0.046782 0.0554418 -0.15137163 0.055974722
000170 66 d1 4b bd 84 9a 5e bd c4 76 b7 bc f9 52 83 3d
       -0.049760245 -0.054346576 -0.022395499 0.0641231
000180 a4 31 fd bc ff e6 71 3a 51 96 12 3e 64 e8 11 be
       -0.03090746 0.00092278415 0.14315154 -0.14248806
000190 6b 6a 39 3d f9 03 ce bc 8a 40 3e bd 0a c5 33 be
       0.045267504 -0.025148379 -0.046448268 -0.17555633
0001a0 db c0 29 be fd 02 1a bd 5b 53 5c 3d 9f fb 52 bd
       -0.16577475 -0.037600506 0.05379043 -0.051509496
0001b0 bf b2 e7 bd e5 c1 61 be 2a 7b a1 3c ad c1 a2 3d
       -0.1131339 -0.22046621 0.01971205 0.07947097
0001c0 72 23 f9 bc 58 f3 e9 bd ef fd da bc a9 0f db 3e
       -0.03041241 -0.11423367 -0.026732413 0.42785385
0001d0 60 58 ac bd c1 49 9a bd 09 29 75 3e 31 8c 81 bd
       -0.08415294 -0.07533599 0.23941435 -0.063255675
0001e0 f9 dc e8 3d d1 b5 6b bd 4d a1 11 bf 91 9f 8a 3a
       0.11370272 -0.05754644 -0.5688675 0.0010576119
0001f0 d4 2b 54 bd 00 00 31 3d f7 97 6d be e1 f4 c0 bd
       -0.05179961 0.04321289 -0.23202501 -0.09421707
000200 84 a3 f9 3c 1f ac 86 bd 82 91 ff 3c ae 33 af 3b
       0.030473478 -0.06575798 0.031197313 0.005346737
000210 05 4d 37 3a dc 33 25 3c f5 2c c3 3d 1d e6 0f bf
       0.0006992373 0.010083165 0.09530059 -0.562105
000220 52 3c c4 bd 67 3a ad 3d 1f 77 0b bf de 95 4d bd
       -0.09581818 0.08458405 -0.5447864 -0.050191753
000230 b3 26 e8 3d 11 e6 3a 3d cb 53 81 3d 7a 2e 3c bb
       0.11335506 0.045629565 0.0631481 -0.0028714226
000240 b4 d5 63 be 44 11 7f bd fc 7c a9 bc fc 91 69 3d
       -0.2224949 -0.062272325 -0.02068948 0.057023987
000250 8f 93 71 bd b6 63 ee bc d7 3d 5d bd f5 a8 c0 3e
       -0.058978613 -0.02910028 -0.054014053 0.37628904
000260 62 07 1f 3f 9e 59 8f bc 88 8e a3 3b 16 c8 db 3d
       0.6212064 -0.017498787 0.0049913563 0.10731523
000270 58 87 17 bd d8 a2 9c 3e 75 c0 8d bd ac 87 d4 bc
       -0.03699431 0.3059299 -0.06921474 -0.0259436
000280 70 62 87 3c 54 96 39 bd 49 96 44 3e 43 17 99 bd
       0.01652643 -0.04530938 0.19197954 -0.0747514
000290 48 a2 01 be ec 66 51 bd 8d 5d 50 3d 39 6b 06 3e
       -0.12659562 -0.051123545 0.050870467 0.1312684
0002a0 01 ef 74 3c f4 aa 71 bd cb 60 a7 3d 57 eb 05 bb
       0.014949561 -0.059000924 0.08172759 -0.0020434463
0002b0 75 f8 8a bd c1 76 3b 3d 8b 65 a4 3c b3 93 62 bb
       -0.06785671 0.04576755 0.02006795 -0.00345729
0002c0 d1 e5 f9 bb a5 94 9c 3b 49 ff 95 3c 44 44 a1 3d
       -0.007626273 0.004778462 0.018310206 0.07874349
0002d0 ac ec 02 3e bf 8a 8d 3d 33 df d4 bd f7 d9 0c bc
       0.12785596 0.06911229 -0.10394134 -0.008596889
0002e0 14 59 54 bd 6a 1e d8 bd 85 c8 a8 be 6a ad 8c 3d
       -0.051842764 -0.10552676 -0.32965484 0.068690136
0002f0 4b 99 0a 3c 79 a2 0c bc a5 28 4c 3e d8 65 f0 bd
       0.008459399 -0.008583658 0.1993738 -0.11738175
000300 9d eb e2 bc a5 74 49 bd 49 10 c4 bd 75 14 31 be
       -0.02770024 -0.049183507 -0.09573419 -0.1729296
000310 c4 b3 1b bd d7 e3 d8 bd eb 22 c5 bc 51 f5 4f be
       -0.038013235 -0.10590332 -0.024064502 -0.20308425
000320 a7 b1 13 be fe 8c 8f bd 95 b8 69 bd 64 b3 15 3b
       -0.14423238 -0.07009314 -0.057060797 0.002284252
000330 ee 63 a4 bd 4e ad 2e be 6c 07 d1 bc 09 80 a0 be
       -0.080268726 -0.17058298 -0.025516234 -0.31347683
000340 e3 f1 e5 bd 88 2d d9 3d 3a f7 12 bf e3 a5 5c 3d
       -0.11227777 0.106043875 -0.5740849 0.05386914
000350 20 19 99 3c 4a d6 d8 3e 20 41 b9 be d2 2a 57 bd
       0.018688738 0.4235099 -0.361825 -0.05253107
000360 e8 94 1f 3d 9b b9 21 bd 9c f4 8e be f5 f0 95 3d
       0.038960367 -0.039483648 -0.27920997 0.073213495
000370 6c dd 62 bd 13 32 30 be 8e 19 37 bc 64 d9 a4 bc
       -0.055386946 -0.17206602 -0.011175526 -0.020123191
000380 c3 b8 20 bd 92 77 12 bc 25 3a c0 be 52 59 fe bd
       -0.039238703 -0.008939641 -0.3754436 -0.1241938
000390 01 4b 0d 3d fe 11 b8 bc 62 b3 83 bb f1 db 48 be
       0.034495357 -0.022469517 -0.004019187 -0.19615151
0003a0 67 fb 8e 3d 8d 2a 9a bd 6a 23 7a bd c7 77 05 3d
       0.06981545 -0.07527647 -0.06106893 0.03258493
0003b0 4f 5d 04 be ca 3d 03 be a6 08 4f 3d 3b 5b 91 3c
       -0.1292622 -0.1281654 0.050545357 0.017743697
0003c0 35 55 3b be d5 bf a6 3e 14 68 28 3d e3 7d 00 3d
       -0.18294223 0.3256823 0.04111488 0.031370055
0003d0 52 a3 fc bc 09 12 8c 3d 29 1d df bb ff 12 43 3d
       -0.030839596 0.068393774 -0.006808896 0.047625538
0003e0 95 ca 6b 3c d9 96 86 3d cf db 34 bb 5d 79 12 bd
       0.014391561 0.06571741 -0.0027596836 -0.035760272
0003f0 db a6 ba bb 3b ca 1d 3d ee e5 a0 bd 26 df 43 be
       -0.0056961603 0.03852294 -0.078563556 -0.19128093
