data/Fanuc_success/Behavior_cloning/BC_policy_CIC_GCEV_itr_39.pkl (torch, 141827 bytes, 8 tensors)

fc0.weight f4 [128, 6]
000000 24 4b da 3e 55 20 ef 3f 93 ad dd be f0 ee cb be
       0.42635453 1.8681742 -0.4329649 -0.39830732
000010 58 7b 3b bd ea 61 29 bd 02 76 1e 3f de 1f 33 bf
       -0.045771927 -0.041353144 0.61898816 -0.699705
000020 46 e4 19 3f 2b af 04 bf e3 a3 b9 3e af 33 25 be
       0.6011394 -0.51829785 0.36257848 -0.16132997
000030 e4 99 fe be ae 86 71 40 c8 5f c3 bc 65 67 04 be
       -0.49726784 3.7738452 -0.023849383 -0.12930067
000040 af a8 26 3e 1a fb 57 3e a1 5e a2 3e 99 c0 40 3d
       0.16275285 0.21091881 0.3171282 0.047058675
000050 6f da 6e 3e c5 e1 f3 38 b3 0d be bd 85 a0 b6 3c
       0.23325513 0.00011629196 -0.09279957 0.022293339
000060 46 d5 e8 3e 60 36 f3 bf f6 6a 26 3f 35 c6 2c bf
       0.45475215 -1.9000969 0.6500696 -0.6748994
000070 98 9a f0 be 8e d9 1f 3f 46 59 af 3e 21 b2 c4 be
       -0.46992946 0.6244134 0.34247798 -0.38417152
000080 fb 20 71 3d 5f 5c 5e be 79 6a 01 be 0d c9 2d be
       0.058869343 -0.21714924 -0.12638272 -0.16971226
000090 0b 1e 79 3d 10 0f 1b 3f ee 13 70 bf 46 06 b9 bd
       0.060819667 0.6056986 -0.9378041 -0.090344
0000a0 ca 7a fc bd 37 ca b2 3e 10 70 c6 be 00 5a c7 3f
       -0.12328108 0.34919903 -0.38757372 1.5574341
0000b0 d3 a5 2c bf 68 6b 73 be 76 44 53 3e 87 53 fb bd
       -0.6744053 -0.23771441 0.20631585 -0.12271791
0000c0 de 51 40 be 0b ec 34 40 34 50 49 bf 98 be ab 3e
       -0.1878123 2.826907 -0.78638005 0.3354385
0000d0 f1 b0 ce 3e 37 39 74 3d 0e c5 23 3b bc 5c 34 bf
       0.4036937 0.059624877 0.002498928 -0.70454
0000e0 9b 96 31 3e bd 9d 97 3e 28 b0 89 bd 98 cb 13 be
       0.17342608 0.29612532 -0.06723052 -0.14433134
0000f0 59 e4 8d 3d 38 a3 b2 be 6b 54 0e 3f f0 19 7b be
       0.069283195 -0.3489015 0.5559756 -0.24521613
000100 0f 09 18 3c 42 ab 1d bc 54 63 92 bf af 63 75 3f
       0.0092795035 -0.009623351 -1.1436563 0.9585523
000110 15 76 11 3d 5f 8c 8c 3e c3 ee 2b 3f 66 1a 21 bf
       0.035513002 0.27450845 0.67161196 -0.62930906
000120 98 1c 9f 3e 89 49 2d be 1b d6 ae be 0d c5 bb 3e
       0.31076503 -0.16922583 -0.34147725 0.36673775
000130 b5 87 df bd 0b a9 36 3e eb 47 e6 bd cc 43 63 be
       -0.10914556 0.17837922 -0.11244186 -0.22193831
000140 ff 80 2c be 94 62 82 bd c0 90 79 bd 1e 87 b3 3e
       -0.16846083 -0.063664585 -0.06092906 0.35064024
000150 01 70 4f 3e 70 2a 2d bf ea d1 f3 3e 28 de 3b be
       0.2025757 -0.6764288 0.4762109 -0.18346465
000160 f1 7e 87 be 04 34 0d be f5 4d 10 bf 42 fe 26 3f
       -0.26464036 -0.13789374 -0.56368953 0.65231717
000170 e5 9a 20 bf 6a 5c 08 3e 6b 30 03 be 74 f8 86 3d
       -0.6273635 0.13316503 -0.12811439 0.065903574
000180 71 c0 16 3e e6 d9 c1 3d f9 c8 85 3c e2 86 2b bd
       0.14721848 0.09465389 0.016331183 -0.04187668
000190 24 6e ba 3d e9 a6 37 3e d7 67 08 3f a7 a8 1c be
       0.09103039 0.17934765 0.5328345 -0.15298711
0001a0 fc 14 c1 3e 6b 8a 8a ba 00 8e c5 3d 00 d8 96 bd
       0.37711322 -0.0010569816 0.09646225 -0.073654175
0001b0 89 bd 47 bf f5 86 0f 41 33 70 10 bf af 8a 0e 3c
       -0.7802358 8.9704485 -0.564212 0.008700057
0001c0 93 cd 6e 3e 3a 8c 37 be 8d 64 02 bf ef 51 70 3f
       0.23320608 -0.17924586 -0.5093468 0.9387502
0001d0 3f d9 c7 be 24 32 37 3f 36 9c 43 be 03 63 3a 3e
       -0.39032933 0.71560884 -0.19102558 0.18201832
0001e0 be 49 9a 3e e2 49 9a be 62 1d 9a 3e f1 35 cb be
       0.30134386 -0.30134493 0.30100542 -0.39689592
0001f0 15 16 e0 3d 9b 70 3e 3c 1e a9 99 3e 17 68 05 be
       0.10941712 0.011623527 0.3001184 -0.13027988
000200 11 5f 8b 3e 1a e0 c9 bd 76 20 89 be e7 e3 81 3d
       0.27220967 -0.09857197 -0.26782578 0.06342297
000210 26 10 7d 3f d6 08 38 3f 9c b4 94 3e eb 1d 5c 3e
       0.98852766 0.7188848 0.29044044 0.21495788
000220 fd 02 4f 3d 78 9c 3c 3c 13 69 a8 bd 23 7a f1 3b
       0.05053996 0.011511914 -0.08223166 0.007369296
000230 a9 b8 ad 3e f9 f7 bc 3e 2d ce 80 be 57 3c 88 bb
       0.33929947 0.36907938 -0.251573 -0.0041575837
000240 89 e0 03 be 05 c0 b3 be b7 d6 22 3f e3 ae dd bc
       -0.12878622 -0.35107437 0.6360888 -0.027060932
000250 b6 09 44 be 82 07 4e be 15 a2 86 bd 76 6a ca bf
       -0.1914433 -0.20120052 -0.065738834 -1.5813739
000260 f0 10 67 be 13 9d 3d 3e 9a 0f 9c bf 3a 72 2f 3e
       -0.22565055 0.1851695 -1.2192261 0.17133418
000270 8c 74 06 3f c0 66 b9 3d 27 51 e9 bd 40 15 93 bd
       0.52521586 0.09052801 -0.11392432 -0.071817875
000280 85 e7 8d 3d 35 c5 7b 3e ee 3f db 3e fb 30 90 be
       0.069289245 0.24586947 0.42822212 -0.2816237
000290 54 ae 02 3f 00 f5 ce 3e 5a b0 eb 3b 35 6c 8b bd
       0.51047254 0.40421295 0.0071926536 -0.06807748
0002a0 e1 b2 6b 3f 8c 61 fb bf 64 75 0e bf cb bb 83 3e
       0.9206982 -1.9639144 -0.55647874 0.25729212
0002b0 e9 01 5e 3e 5a 75 07 ba f1 53 0d 3f de 56 c2 be
       0.21680416 -0.0005167328 0.5520621 -0.379569
0002c0 45 d5 12 3f bc c2 bb be 0d a8 53 3e 14 e9 2a be
       0.57356673 -0.36672008 0.20669575 -0.16690475
0002d0 01 98 9d 3e ff ed 91 bd 50 18 06 3f 99 57 bd be
       0.30780032 -0.07125472 0.5238085 -0.36980894
0002e0 94 a8 7a 3d 6a 2b f5 bd 5a 46 bc be eb 44 c6 bf
       0.061195925 -0.11971171 -0.36772424 -1.5489782
0002f0 ea e4 5a be 91 2f 75 3e 1f 41 74 be 44 05 93 bd
       -0.21376386 0.23943926 -0.23852967 -0.07178739
000300 0f b7 5c bf 3f 9b 1a c0 62 97 0a bf 61 f9 21 3f
       -0.86216825 -2.4157255 -0.5413724 0.63271147
000310 7e 0d 39 3f 90 6a 35 3f 13 58 32 3e 91 f5 e4 3f
       0.7228621 0.70865726 0.1741641 1.7887441
000320 18 f1 f5 be 12 63 ee 3d 67 5c 2c be 8f 2c 8f bd
       -0.48035502 0.1163999 -0.16832124 -0.06990921
000330 3a b9 a8 be fc d9 c4 be 73 67 61 be d1 0f a6 bc
       -0.32953817 -0.3844756 -0.22012119 -0.020271214
000340 b8 b5 e5 3b 96 24 be be b1 50 e9 3d 52 d9 92 be
       0.007010188 -0.37137288 0.11392344 -0.28681427
000350 73 4d 05 3e f9 8c 85 3e 4a e9 ed 3d 62 ad f5 3d
       0.13017826 0.26084116 0.11616762 0.11995961
000360 ce 79 41 bf 64 a7 b2 bf 3d b7 36 3f 64 58 87 3e
       -0.75576484 -1.3957334 0.7137335 0.26434624
000370 74 27 86 3e 4d 09 66 bf ff 7c 6e bf 65 63 de 3f
       0.26201975 -0.8985794 -0.9315948 1.7374083
000380 ca 4a 10 bf 90 61 92 bc 6f 68 9a 3e 38 ce 56 be
       -0.5636412 -0.017868787 0.30157802 -0.20977104
000390 2f 95 95 bf ab c0 ce be 96 15 1f bf eb 4e 88 3e
       -1.1686152 -0.4038137 -0.6214231 0.2662271
0003a0 e4 9a b6 3e 9e bc 93 3d 8a 79 55 be d9 9a b3 3d
       0.35665047 0.0721371 -0.20847145 0.08769769
0003b0 5a c0 95 be d5 1a fd 3d 07 85 24 3e 7a de b9 3d
       -0.29248315 0.123586334 0.16066371 0.09075637
0003c0 2e 96 0c 40 3b d3 e3 c0 ac 9d 09 bf cd 14 16 bd
       2.1966662 -7.119535 -0.53756213 -0.03664093
0003d0 69 24 79 be 9b d2 e5 be 53 c9 5b 3d b8 19 ec bf
       -0.24330296 -0.44887242 0.053658795 -1.8445349
0003e0 c1 65 e7 3e e5 9f b8 be dc 98 83 3e 4c a2 f0 bd
       0.4519482 -0.3605949 0.2570256 -0.11749706
0003f0 76 59 4a bf e1 eb a3 bf 85 f7 05 3d 94 4f 01 be
       -0.79042757 -1.280636 0.032706756 -0.12628013

fc0.bias f4 [128]
000000 5f 43 02 3e 28 8d 6e 3e 4d f6 4f ba 96 52 78 3d
       0.12721013 0.23296034 -0.0007933125 0.060625635
000010 c5 71 c7 3d a1 e9 8c be 77 05 1c bd f0 09 3f bd
       0.09738497 -0.27521995 -0.03809115 -0.046640337
000020 b0 87 15 bd 9d f3 3b bc e1 95 30 3e 77 5d 8b bc
       -0.036506355 -0.011471656 0.17244674 -0.017012341
000030 c9 4c bd be 74 ad a7 bd 8e af 94 3e 2f 04 dc bc
       -0.36972645 -0.081873804 0.29040188 -0.026857464
000040 58 6a bf be ea 29 85 3d 58 88 c0 bc 37 d1 7f bc
       -0.3738582 0.06502135 -0.023502514 -0.015613846
000050 b4 9f 84 be 2f 18 88 be d6 3b 14 bb 5d 8d e9 3d
       -0.25903094 -0.2658095 -0.0022618673 0.11403916
000060 ba ee 79 3e be e8 d2 bc 20 d4 9e 3d 86 cb d4 3b
       0.24407473 -0.025745746 0.077553034 0.0064939884
000070 c4 de 52 bd c4 0b 6b 3d 25 52 13 3e 81 ce bc bc
       -0.051481977 0.057384267 0.14386804 -0.023047687
000080 1b 23 cf bc 6b b9 aa 3b e0 6e ce be ba 71 ce be
       -0.025285294 0.005210092 -0.40318966 -0.4032114
000090 b8 6a 91 3d e3 c6 cc bc b9 e7 6b bd da 20 0c 3e
       0.07100433 -0.02499718 -0.057594035 0.13684407
0000a0 1d ca c2 bc 0b 01 34 3d e2 c2 25 bc 53 72 ea bb
       -0.023778016 0.043946307 -0.010117264 -0.007154742
0000b0 3e ae bc be 15 28 3e 3e 99 0f c6 be 72 cb 9c be
       -0.36851686 0.18569978 -0.38683775 -0.30623966
0000c0 a6 68 86 bc f6 4d 26 bd 38 be e2 b9 c0 66 96 be
       -0.016407322 -0.040601693 -0.00043247803 -0.29375267
0000d0 b3 4d ec 3d 50 8e 5a bd 41 b4 b2 be d2 4a 4c bd
       0.115382574 -0.053358376 -0.34903148 -0.04987604
0000e0 ac 55 36 bd 6f a7 88 3b 00 0a 8a bd 0e a4 56 bc
       -0.044515297 0.0041703503 -0.067401886 -0.013100637
0000f0 48 6d 59 bb 2e 91 11 bd 6e 32 16 bd c1 67 59 3c
       -0.003317671 -0.035538845 -0.036669187 0.013269366
000100 65 96 35 bd 12 2b b8 be 52 32 86 3b 9a b6 44 3c
       -0.04433288 -0.3597036 0.004095354 0.012006426
000110 a2 bf c8 bc bb c9 76 3c c1 f8 47 3e f7 71 30 bc
       -0.02450544 0.015062745 0.19528486 -0.010769359
000120 f2 10 91 ba f8 40 6f be 29 86 bd 3d ee 15 0c 3d
       -0.0011067672 -0.23364627 0.09254105 0.0342006
000130 af ed 99 be be e9 ca be 1a a4 65 bd f8 c7 6c be
       -0.3006415 -0.39631456 -0.056064703 -0.23123157
000140 c7 79 3a bc 23 b3 c2 be 66 92 bb bd 77 a7 e7 bd
       -0.011381573 -0.38027295 -0.09158783 -0.11311238
000150 0d 1d 2d 3e 68 f9 6f bc f3 d5 91 be 5b 01 e9 3d
       0.16905613 -0.014646865 -0.28483543 0.11377212
000160 29 14 be be 9d 11 0e 3e 49 c3 06 bd 4c 7a ec bb
       -0.37124756 0.13873906 -0.032901082 -0.0072167274
000170 59 fc 26 be b7 35 16 3d 5e 7b 2a 3a a4 56 06 3e
       -0.163072 0.03667232 0.00065033685 0.13118988
000180 55 3d 09 be 6f 0b b3 3d 6b fd b9 be 19 ea 4f bc
       -0.13402303 0.08742415 -0.36326155 -0.012690091
000190 58 39 bc bc 03 be 46 bc 4a 66 6c bd 9c 5a 1d 3e
       -0.022976562 -0.012130263 -0.057714738 0.15366596
0001a0 84 d3 d6 3c af ea 32 3e a9 31 91 bc f3 1f 9f be
       0.026223905 0.17472337 -0.017723875 -0.31079063
0001b0 ff 79 b4 be ab 9b ec bd 38 c3 cf 3c 4d 4f fa ba
       -0.35249326 -0.11553129 0.025361642 -0.001909712
0001c0 0c 91 3e 3e be 09 21 3e 7b 77 86 bc 97 aa 0b bb
       0.18610018 0.15726373 -0.016414395 -0.0021311396
0001d0 07 9c be be 52 97 6e bc 02 6e 19 bd ab d2 a1 bc
       -0.37228414 -0.014562445 -0.037458427 -0.019753775
0001e0 67 31 a5 be 84 41 0d 3d 7b fe 6a 3b fe 8f 06 bd
       -0.32264253 0.03448631 0.0035857249 -0.032852165
0001f0 9b d7 4e be 80 8d 5e bc ce a1 2c 3e ac ba 2d 3d
       -0.20199434 -0.013583541 0.16858599 0.042414352

fc1.weight f4 [128, 128]
000000 ac b3 44 3d 47 fb e9 3b c1 59 5d 3f ca ab e7 3d
       0.04802291 0.0071405503 0.8646508 0.11312063
000010 e7 5a df bd 49 f6 a5 3d 7a f7 09 bf 7a f7 2a be
       -0.1090601 0.08103616 -0.53893244 -0.16695967
000020 1f 39 d6 be 72 91 a5 3e 21 4d e0 3d 5e c3 a5 3d
       -0.41840455 0.32337528 0.10952211 0.08093904
000030 0a 62 27 3d c6 03 0d be d3 12 09 3d 27 81 94 bd
       0.04086498 -0.1377097 0.033465218 -0.07251196
000040 da 86 88 bc 58 97 3c 3d 02 6b 2b be 05 4e 94 bd
       -0.016665865 0.04604277 -0.16740039 -0.072414435
000050 e5 dc 91 3a 69 68 fc 3c 4a a1 3e 3e 73 4c f7 3d
       0.0011128454 0.030811505 0.18616214 0.120751284
000060 6f 7c 84 3d d6 f2 88 3f 3e 4d d8 3d 6c 62 3d 3e
       0.06469046 1.0699108 0.10561608 0.18494576
000070 b3 fb 94 bf 0c be 56 3c 8a 15 bf 3d 6c 6f 13 3f
       -1.1639313 0.013106834 0.0933028 0.5759189
000080 2d a8 46 3e d3 cc b9 3d 38 c9 13 3d 74 f0 54 3b
       0.19400091 0.0907227 0.03608057 0.0032491954
000090 ea 2b 82 be c5 fb 19 3e 15 fd 33 bf 84 e4 ec 3d
       -0.2542413 0.15037449 -0.7030805 0.115670234
0000a0 8e 27 d3 bf cf 7d cd bd 60 32 ff 3d 9c 20 4a bf
       -1.6496446 -0.10033762 0.1246078 -0.7895601
0000b0 f4 5f 96 bc ac d1 91 bc f6 bf ac bb 99 2d 22 bc
       -0.0183563 -0.017800175 -0.005271907 -0.009898567
0000c0 ce 8a 5f 3f 46 42 2d bf 6b f5 90 3d ed 6e 70 3d
       0.87321174 -0.6767925 0.0707806 0.058699537
0000d0 51 10 ab 3d c4 19 b8 be b8 87 8f bc 71 41 35 bf
       0.083527215 -0.35957158 -0.01752077 -0.7080298
0000e0 74 59 d8 bd 52 b4 07 3e 22 9d ed be 72 5e 07 3a
       -0.10563937 0.1325238 -0.46408945 0.0005163915
0000f0 b8 3e 1f 3f 1b 59 08 3d 55 95 5b be 5c 0a 8c 3d
       0.62205076 0.033288103 -0.21443684 0.068379134
000100 80 b5 10 bf da 55 8e 3d 3a 9f 87 3d d6 f7 e9 bd
       -0.5652695 0.06949969 0.06622167 -0.11424224
000110 64 3d cc bb 15 5f 6f bd 7f 3b 38 bd 1b 93 b0 be
       -0.0062329043 -0.058440287 -0.044978615 -0.34487233
000120 4d 7d f2 3e a7 d1 ab bd 8e e5 2b 3d d9 4f 02 bf
       0.47361222 -0.083895974 0.041966967 -0.5090309
000130 e1 30 56 bd c2 bb 98 3c d9 4f 88 bf ca 6a a3 bd
       -0.05229271 0.018644217 -1.0649368 -0.07979353
000140 4f 84 27 bd 58 98 d5 3c bc ea 21 bf 74 28 8d bf
       -0.040897664 0.02607362 -0.632488 -1.102797
000150 75 9e 9c ba 3b 9e 53 bc aa 5f fb 3c 8e ec 95 3d
       -0.0011949079 -0.012916143 0.030685265 0.0732051
000160 8d 72 87 3d 65 72 de 3d 86 d4 a7 bd 0f 6a a1 bc
       0.06613646 0.10861663 -0.081948325 -0.019703893
000170 37 fa 0f bf e9 84 3b 3f cd dc 84 be 29 e2 88 bd
       -0.5624117 0.7324968 -0.25949708 -0.066837616
000180 f0 16 85 3e ea d2 15 bd a8 a9 5a 3d 36 86 21 bf
       0.25994062 -0.036578096 0.053384453 -0.63095415
000190 bc ee c4 3c 14 f2 2b be bc e1 58 bf 8a f4 dc bd
       0.024039619 -0.16791564 -0.84719443 -0.107888296
0001a0 f4 0d 71 3d 80 01 1f bd d8 2d c3 bf 0c 27 03 bf
       0.058851197 -0.03881979 -1.5248365 -0.51231456
0001b0 8f 15 6b 3d ea 13 2e bf 04 05 1e 3d 5b ed a7 bf
       0.057393607 -0.67999136 0.038579002 -1.311931
0001c0 59 08 41 bd 43 e5 99 bc 1e c9 36 bf 83 e9 34 3f
       -0.0471271 -0.018786078 -0.7140063 0.7066881
0001d0 03 31 9f 3d 88 a9 98 be e5 75 92 be cc ce 8e 3f
       0.0777302 -0.29816842 -0.2860557 1.1156859
0001e0 98 db 7c 3d 31 85 e9 bc e7 fd cf be 03 1c 04 bf
       0.06173286 -0.028505893 -0.406234 -0.5160524
0001f0 a5 00 9f 3d 1e 2a 81 3d 24 78 d1 bc 9f a1 50 3e
       0.07763795 0.06306861 -0.025569983 0.20374154
000200 57 bc 92 bc 5c 72 68 bc 70 42 2d 3f ec f7 c9 bc
       -0.017912073 -0.014187422 0.676795 -0.024654351
000210 24 25 f0 ba 54 82 f0 bc ab 9d 13 be f3 d4 06 be
       -0.0018321616 -0.02935902 -0.14415614 -0.13167171
000220 69 72 1b bf 1b 2b 08 3d 83 e6 b8 3b 7f ff 6a 3e
       -0.6072145 0.033244234 0.0056427135 0.22949027
000230 c9 23 5d 3d 7f 1e 01 be 54 0d 37 bd 5c f9 b4 3d
       0.053989206 -0.1260929 -0.044690445 0.08836624
000240 ea 9d 3c bd d9 ad 05 bd af 5e 3a bf 47 57 1a be
       -0.046049036 -0.032636497 -0.72800726 -0.15072356
000250 7d 43 8e bc c8 69 63 3d a0 1e d3 be de b5 7d 3d
       -0.017366165 0.055520803 -0.41234303 0.06194102
000260 ce 06 14 3d 8d 1c fb 3c b7 51 80 3d 44 7c c5 3e
       0.036139302 0.030653263 0.06265586 0.3857137
000270 7e 59 14 3d 9e 65 90 bb 44 71 c3 bd cb ea fd 3d
       0.03621816 -0.004406645 -0.09543088 0.12398299
000280 96 5b d2 be a4 2e d7 3d 55 48 46 bd b4 c9 90 3d
       -0.410855 0.10506943 -0.048408825 0.07069722
000290 42 f0 09 be e8 ab 0f 3e 1d 8f e8 bd ff 97 c3 bd
       -0.13470557 0.14030421 -0.11355422 -0.09550475
0002a0 80 d3 11 3e 96 cd fe bd 57 93 18 bd 2a d1 c2 3e
       0.14240837 -0.12441556 -0.03724989 0.38050205
0002b0 42 a3 4b bd 57 76 f5 bc 2f f5 ba 3c 3a 48 d8 3a
       -0.04971624 -0.029963655 0.02282199 0.0016501017
0002c0 aa 86 c7 3d 3b 42 10 3c 69 1e ad 3c e1 4c 7e 3c
       0.09742482 0.008804853 0.021132665 0.015521259
0002d0 fc 8f e1 bd 16 fb 84 bd 69 82 1d bd e3 d0 95 be
       -0.11013791 -0.06493203 -0.038454447 -0.2926093
0002e0 1c 16 ae bd 6c 00 79 be fb ce c5 bd 4d 3d e6 3e
       -0.08500311 -0.24316567 -0.09658619 0.44968644
0002f0 28 c3 96 3e cc 0f 80 bd 94 d9 b3 3c df 5c dd 3d
       0.29445767 -0.06253013 0.021954335 0.108087294
000300 65 cc 2c 3f c5 32 94 3d c6 7a 0d be e1 a2 4a be
       0.6749938 0.07236246 -0.13816366 -0.19788696
000310 3e 45 33 3e 6d e8 5f 3d f0 82 a4 3d f2 0b 52 3e
       0.17506883 0.054665018 0.08032787 0.2051237
000320 01 6e bb 3e e7 de f2 3c 7f 48 7b bd 60 5c 5a 3e
       0.36607364 0.029647304 -0.061348435 0.21324301
000330 da 33 97 bd b0 c6 aa 3d 0f 8d 9a be 88 f0 87 3d
       -0.07382937 0.08338678 -0.30185744 0.066376746
000340 34 b2 fe 3d 06 f8 0c 3d d6 a8 cf 3e be a6 93 bf
       0.12436333 0.03441622 0.405585 -1.1535261
000350 f8 9b b5 3c 16 d4 3e 3d 5b 65 2b 3d 90 a6 90 3d
       0.022169098 0.04658898 0.041844707 0.07063019
000360 74 86 b2 3d 36 4a 76 3c 0e 4a 89 3d 51 25 6f 3d
       0.08717051 0.015032342 0.06703578 0.058385197
000370 d7 92 c8 be 4b be 36 3d 92 0a 7d 3e 38 90 19 bd
       -0.3917453 0.04461507 0.24711064 -0.037491053
000380 84 e6 c3 3e c3 f5 cb bd 5e 00 28 bd e1 31 f6 be
       0.38261807 -0.09958985 -0.041015975 -0.4808493
000390 fc 29 ba 3c f0 00 e5 be bb d4 99 be 3d 13 9a bc
       0.022725098 -0.44727278 -0.30045113 -0.018808002
0003a0 2d 21 b7 bc 79 97 b1 3d a9 ea 48 be 65 e9 80 be
       -0.022354687 0.08671469 -0.19620766 -0.25178066
0003b0 4d 0e c9 ba 8d c4 8c bf 20 e7 9f bd 03 eb d0 3d
       -0.0015339345 -1.0997483 -0.078077555 0.10201075
0003c0 7e 48 5b bd 23 46 b7 3d 92 c9 f1 bd 7c b2 fe 3e
       -0.05353593 0.089489244 -0.118060246 0.49745548
0003d0 6f d9 87 bc eb c1 88 bd 65 18 ec 3d 87 5b 31 3e
       -0.016583173 -0.06677612 0.115280904 0.17320071
0003e0 a4 4e 93 3d 03 4b c2 bd 78 77 a8 3c 12 94 28 3e
       0.07192734 -0.094869636 0.02056478 0.16462734
0003f0 5f 2d a5 bd fd 03 e9 3c ad 01 2e 3d bd 89 19 3d
       -0.080652945 0.028444285 0.042482067 0.037484873

fc1.bias f4 [128]
000000 f5 b2 c8 3d 85 5f 79 3d bc 8b 5e 3c dc 2c ba bd
       0.09799758 0.06088211 0.01358312 -0.090905875
000010 e1 f2 01 be cb f9 42 bd 44 8b 80 bd 16 8e 23 bd
       -0.12690307 -0.047601502 -0.06276563 -0.039930426
000020 b6 81 9a bc 6c dc 5a 3c e7 16 33 bc 4b d2 da 3c
       -0.01886068 0.013358217 -0.010930753 0.026711604
000030 bb 42 76 bd 58 52 49 3c 61 49 4b bd 55 07 ec 3b
       -0.060122233 0.012287699 -0.049630526 0.0072030225
000040 3f b5 6f 3d 03 75 50 bb 20 02 a3 3c 7a b9 24 3d
       0.05852246 -0.0031808026 0.019898474 0.040215947
000050 c4 3c 85 3d 96 74 ac 3c 8a a7 6e bd 27 de 34 bc
       0.06505731 0.021051686 -0.058265246 -0.011039293
000060 72 6b 36 3d a5 c3 7b bd 3b 4a 94 bd de cb b1 bd
       0.04453606 -0.061465878 -0.07240721 -0.08681463
000070 67 d8 92 bd fb fe 39 3c ec 59 59 3d 5c a2 4e bd
       -0.07170182 0.011352296 0.05306427 -0.050447807
000080 45 92 46 bd e7 f7 a4 bb e5 6d b2 bd d8 7b af bd
       -0.048479337 -0.005034435 -0.08712367 -0.08568543
000090 de 24 14 3d ec 29 ec bb ce 23 c7 bd 35 ab f1 3c
       0.03616797 -0.007207146 -0.09723626 0.029500583
0000a0 16 78 30 3d ed 88 10 3d 1b 6a 0f bd 41 4d 47 3d
       0.043083273 0.035286833 -0.0350133 0.04865766
0000b0 5b ce 5c bd a1 f9 40 bd 64 3c 93 bd 16 fd b2 bd
       -0.053907733 -0.047113065 -0.07189253 -0.087396786
0000c0 5f f0 f1 bd ba a9 6e 3d fc da 15 3c 1b 6b 32 ba
       -0.11813425 0.058267333 0.009146448 -0.0006806121
0000d0 9a df 4f 3c ef 40 c2 3d d9 12 67 3d f4 cb a1 bd
       0.012687588 0.09485041 0.05641446 -0.07900229
0000e0 42 90 e5 3d 3c 6d aa bd 1b de 58 3d 8a cd bc bd
       0.112091556 -0.08321616 0.05294619 -0.09218891
0000f0 53 4c ef bc f1 20 c8 3c 78 45 81 3c 5b 65 20 3d
       -0.029211199 0.02442977 0.015780196 0.03915916
000100 43 21 4a 3d d6 4a e7 bc 26 11 e7 3c 53 de dd ba
       0.049348127 -0.028233927 0.02820642 -0.001692722
000110 e6 88 49 3d 2d 5a 2e 3d a0 0d 61 bd 65 bb 08 bb
       0.049202822 0.042566467 -0.054944634 -0.002086365
000120 18 94 60 3d 83 bd b5 3c 10 c3 55 bd 15 b2 1f bd
       0.054828733 0.022185093 -0.05218798 -0.03898819
000130 e2 e6 01 be 1e 1a 28 3c 49 f5 89 3c 73 bb 3a 3d
       -0.12685731 0.010260133 0.016840594 0.04558892
000140 9a 7a df 3d 17 1a 52 bd ac 46 ef bc 6a e1 80 bd
       0.10912056 -0.051294412 -0.029208504 -0.06292994
000150 3a 3b d9 bc 12 e8 43 3d 57 b7 05 bd b8 47 40 bd
       -0.0265175 0.04782874 -0.03264555 -0.046943396
000160 b2 fe e3 ba b4 15 b7 bc 8c 8f 1d 3d 0d b5 3b 3c
       -0.0017394631 -0.022349216 0.038466975 0.01145674
000170 5b 35 78 bc a1 d4 4e bc 4a 5e 3c bd 83 4e cd 3c
       -0.01514944 -0.012623937 -0.04598836 0.025061851
000180 6f 95 a6 bc d2 23 83 bd b1 e8 81 bd d6 90 41 bd
       -0.020334927 -0.064033166 -0.063432105 -0.047257267
000190 5e 14 83 bd de bc ba bd 36 11 3e 3d 62 4e bc bd
       -0.06400369 -0.09118055 0.046403132 -0.09194638
0001a0 e4 34 bd 3d 28 4b 05 be c5 d5 90 bd ec 68 f7 bc
       0.09238604 -0.13016951 -0.07072023 -0.030201398
0001b0 ca 2d 2d bd 25 f2 4f bd 1d fd af bc 33 85 81 bd
       -0.042279996 -0.050768036 -0.021482999 -0.06324234
0001c0 32 2e 0c bd 3f 51 73 bc 75 a7 11 bd 9e 3f 80 bb
       -0.034223743 -0.014850914 -0.03556009 -0.0039138338
0001d0 e5 a2 cb b9 b3 96 70 3b 79 91 c2 3c 02 98 f1 bd
       -0.00038840543 0.0036710917 0.023751007 -0.11796571
0001e0 aa dd 4a bc 6b 24 35 bd fa 92 8e 3b 6f 55 a6 bd
       -0.01238195 -0.044224184 0.004351017 -0.08121764
0001f0 5e f2 4c 3d 7e a6 56 bd 81 11 2a bc 95 22 57 3d
       0.050035827 -0.052404873 -0.01038015 0.052523214

fc2.weight f4 [128, 128]
000000 30 af a0 3c c6 8d 7b 3b dd 23 64 3c 9c 56 a9 bc
       0.019614786 0.0038384064 0.013924566 -0.020671181
000010 a5 9a e6 bc 16 0a ff 3c 9f 10 82 bc 1c 86 b4 3d
       -0.028149912 0.031132739 -0.015877066 0.08814642
000020 b6 3b eb bc 27 c8 c6 3c 9b 21 a1 3b 00 2e 92 bd
       -0.028714996 0.024265362 0.004917336 -0.0713768
000030 e9 f2 82 3d 5b 52 37 3d b9 69 22 3d e4 ad 94 bd
       0.06393988 0.044756275 0.039651606 -0.072597295
000040 64 ea 96 3c 22 a3 9a bd f4 bd ba bb 46 95 85 3d
       0.018422313 -0.07550646 -0.0056989137 0.06522612
000050 ef 92 8e bc 95 09 b8 bd dd cb 29 bd 56 7a 8b bd
       -0.017404048 -0.089862026 -0.041454185 -0.06810443
000060 76 85 3d 3d fa 9a 98 bd fe a9 af bd a0 ab 7d bc
       0.046269856 -0.074514344 -0.08577345 -0.015482813
000070 ce a0 10 3d a2 1b 24 3d 3c 97 a0 bd 08 03 1a 3d
       0.035309605 0.040065415 -0.07841346 0.037600547
000080 31 7c 5b bd 03 88 97 3c 99 2f 8c bd 65 c9 26 3d
       -0.053585235 0.018497473 -0.06845016 0.04071941
000090 7c 85 95 3c f3 f0 60 bd 4e b5 74 3d d8 31 9a bc
       0.018252127 -0.054917287 0.059743218 -0.018822595
0000a0 28 10 8a 3d 20 aa 84 3d 18 79 28 3b c6 1e 84 3d
       0.06741363 0.06477761 0.0025706943 0.06451182
0000b0 f0 4e 5e 3d 13 eb a7 3c b1 d4 e2 3c 9d c0 19 bc
       0.0542745 0.020497834 0.02768931 -0.0093843015
0000c0 e7 02 7c 3b c6 60 2c bd ab 23 90 3b 67 49 a5 bd
       0.0038453878 -0.042084478 0.004398783 -0.08070641
0000d0 6a bc ce bc 85 28 f6 bc 2e c2 c6 bc 95 48 bd bc
       -0.025236327 -0.030048618 -0.024262514 -0.023105899
0000e0 ba 3d 4e 3d 8a c3 6b bd b9 49 6e bd 9f 64 8f bd
       0.050351836 -0.057559527 -0.058175776 -0.07001614
0000f0 d0 06 2e 3d 6b 17 99 bc 3e d7 ae bd 10 9d 8f bd
       0.042486966 -0.018687924 -0.08537148 -0.07012379
000100 8f c5 cf 3c 59 55 02 3d f9 a6 88 3c d9 12 b3 bd
       0.025362758 0.031819675 0.016681181 -0.08743829
000110 db 7e 96 bd 8b 88 c1 bd 79 44 27 3d 83 55 2b bd
       -0.073484145 -0.09449872 0.040836785 -0.041829597
000120 50 6b b4 bd ac e3 c5 bd 7f 44 81 3d ef 54 57 bd
       -0.08809531 -0.096625656 0.06311893 -0.052571233
000130 32 9b af bb 11 17 b1 bd 05 09 46 bd 98 db 5f bd
       -0.005359077 -0.08646978 -0.048348445 -0.05465278
000140 0e cc 6a 3d 0d 3c ae 3d 92 30 9d bd c5 83 de bc
       0.057323508 0.085075475 -0.0767528 -0.027162442
000150 67 ef 8f bd 7f 44 1f bd bb 21 eb 3a 80 31 67 bd
       -0.07028084 -0.038883682 0.001793913 -0.05644369
000160 f4 a1 9d 3d 87 88 9b bd 2b fd 94 bd b8 51 7e bd
       0.07696906 -0.075944 -0.072748505 -0.06208965
000170 02 cb 81 bd fb b1 c3 bd a2 b1 4c 3d 48 35 da 3a
       -0.06337549 -0.095554315 0.04997409 0.0016647959
000180 ec 18 26 bd f7 76 94 3d 52 b8 99 3d 54 a7 76 3d
       -0.04055111 0.07249253 0.075058594 0.06021817
000190 8d 22 8c bd dd 86 b4 bc 91 b6 75 3c 02 91 a3 bd
       -0.068425275 -0.022036964 0.0149971405 -0.079866424
0001a0 f3 2c 91 bd 31 b3 88 bd c2 70 c0 3c cf d1 88 3b
       -0.070886515 -0.06674803 0.023491267 0.0041754018
0001b0 67 34 79 bd df 2a 28 3d b7 54 66 3d f9 87 89 bc
       -0.06084099 0.04105651 0.056233134 -0.01678847
0001c0 37 e5 cf bd f8 79 ae 3c 72 67 20 bd 51 38 a5 bd
       -0.10151141 0.021298394 -0.039161153 -0.08067382
0001d0 c2 ca 10 3d f4 29 56 bd 98 15 8f 3d 09 9e 65 3d
       0.035349615 -0.052286103 0.069865406 0.056058917
0001e0 44 46 90 bd 45 02 29 3d 07 f4 50 3c a4 47 69 bd
       -0.07044652 0.04126193 0.012753493 -0.056953087
0001f0 25 8e 39 bc 8c 71 a4 bd 99 60 09 bd 95 1b e2 bb
       -0.011325394 -0.0802947 -0.03353939 -0.0069002607
000200 e9 9a 19 3e cb 36 90 3d df 38 18 3c 84 ea 50 bd
       0.150005 0.07041701 0.009290903 -0.0510049
000210 ad 56 cb bd 48 f7 56 3d ba 99 27 3d 10 e7 c1 bd
       -0.099286415 0.05248192 0.04091809 -0.094679
000220 90 be 8e bc a6 cd ce bc ca 4d e7 3b 28 2e 50 bd
       -0.017424852 -0.025244545 0.0070588337 -0.050825268
000230 7f 1f 27 be 33 4c 94 bd a8 b9 02 bb 47 6d 29 bc
       -0.16320609 -0.07241096 -0.0019947086 -0.010340995
000240 2e dd 7f be 61 ce 38 bd 48 60 8c bd be 87 a2 3d
       -0.24986717 -0.045118693 -0.06854302 0.07936047
000250 16 7e bd bd b1 3f bc 3e 3f f1 b9 3d a2 bf 61 3d
       -0.092525646 0.36767343 0.09079217 0.055114396
000260 eb fc d3 3c 3f 6a e6 bd 6a f8 2a ba 2d 3a 9b 3d
       0.025877437 -0.112507336 -0.0006522002 0.075794555
000270 64 14 d6 bc b9 67 e6 bb a3 ec 9c 3d b8 31 e6 3d
       -0.02613277 -0.0070314077 0.07662322 0.11239952
000280 36 5c 10 be a5 6e 6f bd e2 f9 9e bb 3f 7a 87 3b
       -0.14097676 -0.05845513 -0.0048515657 0.004134446
000290 c8 02 d3 3c 57 0a 8d bd b1 0c 76 be 73 5b 6a bc
       0.025758162 -0.06886738 -0.24028279 -0.01430403
0002a0 9f 58 44 bd 08 99 97 bc 6a 5e 42 be 51 53 0c 3e
       -0.04793608 -0.018505588 -0.18981329 0.13703658
0002b0 85 47 bf 3d a3 18 1c 3c 2a d7 88 3d 5f 8f 4f 3d
       0.09339813 0.009527358 0.06681664 0.05067384
0002c0 47 a2 7e bd 05 ef c7 3d 6b e9 47 3c 71 0c 95 3e
       -0.06216648 0.09762386 0.012201647 0.29111055
0002d0 e0 f5 da bc 17 90 37 3c 8e c8 d5 bd ed 4e 1c be
       -0.02672857 0.011203787 -0.104386434 -0.15264483
0002e0 1c 09 07 3e 02 26 29 be 94 a3 68 3d e3 6f ec bc
       0.13187069 -0.16518405 0.056796625 -0.028861945
0002f0 ff 62 c7 bd a6 bb 97 3d 36 ee 09 be 99 e3 f4 ba
       -0.09735679 0.07408838 -0.13469777 -0.0018683552
000300 a4 b2 7e bd 55 07 2d bd c8 4a 46 bd c4 b2 ed 3d
       -0.062182084 -0.04224332 -0.04841116 0.116063625
000310 aa 5d 10 3e b9 b3 9b 3d 2c 22 22 3b a7 62 18 bd
       0.1409823 0.07602639 0.0024739606 -0.037203457
000320 b4 c0 e9 3c e4 54 67 3d cd e4 ca bd a4 c8 ae 3c
       0.02853427 0.056477442 -0.099069215 0.021335907
000330 b6 81 41 3b 7f 53 56 bc 7a 2a c7 bc a9 a6 bc 3c
       0.0029526777 -0.01308143 -0.024312247 0.023028689
000340 4d 90 0a 3d 74 81 6b bd b9 72 f5 3c a1 e4 0e 3d
       0.033829022 -0.057496503 0.02996193 0.034886006
000350 31 b7 23 3e ad 1f df 3d 7f 8d 7c bd 21 68 17 be
       0.1598785 0.108947136 -0.06165838 -0.14785816
000360 3b 92 bf bd c4 c2 ba 3b e6 29 01 bd 9e bf 44 3d
       -0.09354063 0.0056994874 -0.031534098 0.048034303
000370 34 96 6f bc 3f 48 e6 ba d6 30 25 bf 11 73 07 bd
       -0.014623214 -0.0017569138 -0.6452764 -0.03306872
000380 2d 32 b3 3d 69 18 ca 3e b6 9a 64 3d 02 a3 26 be
       0.08749805 0.39471748 0.055811606 -0.1627312
000390 7b 9f 58 3d 74 24 de bc e4 ae 6c 3c d8 94 01 bc
       0.052886467 -0.027116992 0.014445994 -0.007909022
0003a0 aa 39 08 3e d9 d8 81 bd 8e f5 99 bb 6e 89 0c 3c
       0.13303247 -0.063401885 -0.004698462 0.008577688
0003b0 66 8a 5e bd 1f 84 14 3c 6d 18 e4 3c 28 44 3f bd
       -0.054331206 0.009064703 0.027843678 -0.04669586
0003c0 dc c1 36 bd 5f b5 30 bc 27 80 ad bd 72 75 a2 bd
       -0.044618472 -0.01078543 -0.08471709 -0.07932557
0003d0 b4 6a b5 bd 09 3f 93 be 75 d0 2b 3d 9d 35 11 3e
       -0.08858243 -0.2875903 0.041946847 0.14180608
0003e0 27 3c 00 3c 0a 16 6d 3e 79 13 16 bd f5 8b 3c 3d
       0.007826841 0.23152938 -0.036639664 0.04603191
0003f0 0c 10 ba bd 74 f5 df 3c 63 28 e1 3d 9c 02 9d 3d
       -0.09085092 0.02733872 0.10994031 0.07666513

fc2.bias f4 [128]
000000 b6 79 39 3c ef 6f 0c 3e 96 11 60 3e cf 7d d3 3d
       0.011320522 0.13714574 0.21881709 0.103267305
000010 36 6d 2f 3e 4e 30 e6 3b 21 b0 d2 3d 9d ba 46 3d
       0.17131504 0.0070248013 0.102875 0.048517812
000020 20 4d 36 3e 82 00 f4 3d a3 13 48 bd b3 87 af 3c
       0.17802858 0.11914159 -0.048846852 0.021427011
000030 3a 43 86 3c 39 0e 11 3d 85 bd 88 3e de e2 e1 3d
       0.016389478 0.035413954 0.26707092 0.110295996
000040 cc 1e 4d 3e 30 e4 98 3a eb ac 9b bd 22 d9 20 bd
       0.2003128 0.0011664685 -0.07601341 -0.039269574
000050 ba 76 c3 3d 9b 3f 70 bd 32 0c 70 3d ce f8 75 bd
       0.0954413 -0.05865441 0.05860538 -0.06005173
000060 54 f1 c0 3c 27 11 4c 3d bb 82 39 3e f8 be e9 3d
       0.023552574 0.049821045 0.18116276 0.114133775
000070 44 cf 3b 3d f3 28 1b 3e bf 00 f7 3d 34 31 77 bd
       0.04585196 0.1515234 0.12060689 -0.060349658
000080 03 fb e6 bc e2 4d a9 3c ca 00 71 bd d3 a2 27 3e
       -0.028195864 0.02066702 -0.058838643 0.16370706
000090 fc 05 02 3d 2c 5b 0d 3d 07 fa a5 bc 6e c3 5b 3d
       0.03174399 0.034510776 -0.020260824 0.053653173
0000a0 41 8a f6 3b 1e 27 8e bd fc 5f 8e 3d 83 5e a6 bd
       0.0075238054 -0.06941055 0.06951901 -0.081234954
0000b0 97 90 20 bd 17 8e a2 3d 46 73 2c 3a d8 3f 29 bb
       -0.03920039 0.07937258 0.00065784564 -0.0025825407
0000c0 bb 12 5c 3e 78 74 38 3e d4 8f 9b bd 60 6e a2 3d
       0.2149152 0.1801318 -0.075957924 0.079312086
0000d0 9d 56 5c bd 4c d5 d6 bd 33 91 27 3d ca e5 d6 bd
       -0.05379354 -0.10489902 0.040909957 -0.104930475
0000e0 a1 00 0a 3e 04 5e 64 3d 88 d2 43 3e 84 6f bd bc
       0.13476802 0.055753723 0.1912328 -0.023124464
0000f0 af 39 2b be 5b 15 23 3e 03 4e 25 3c 09 09 84 3d
       -0.16721223 0.15926115 0.0100894 0.06447036
000100 95 7f c6 3d 33 12 a7 bd 8f 93 73 3c b1 1a 86 bc
       0.09692303 -0.08157768 0.014866724 -0.01637015
000110 c2 44 c0 bc a3 fd 1f bd 19 b3 08 3e d2 79 d3 3c
       -0.023470286 -0.039060246 0.1334957 0.025814924
000120 e1 d0 48 3e 13 0f a4 3d 31 f6 50 bb af 7c ee 3d
       0.19610931 0.08010688 -0.0031885023 0.11644875
000130 24 72 14 3e 12 3d 92 bd ae b3 3c 3d 9a dd 30 3b
       0.14496666 -0.071405545 0.046069793 0.0026987554
000140 90 2f 95 3e f4 bf 23 bd 87 2d f5 3b 03 2f f2 bc
       0.2913785 -0.039977983 0.007482234 -0.029563433
000150 f2 67 0e 3c ac c6 a4 3c 70 cb 31 bd 80 3c ac bc
       0.008691775 0.020114265 -0.043406904 -0.021024942
000160 a6 07 e3 bb aa 2c 93 3d 97 84 e2 bd 83 a7 68 be
       -0.006928402 0.07186253 -0.11060446 -0.2272015
000170 05 af d0 bd df 0b 44 3e 90 04 11 bc 2f 61 56 bd
       -0.10189632 0.19145153 -0.008851185 -0.052338775
000180 75 cf 8e 3c 7b ee 19 3d ed 4a 19 3e 52 1a 36 3e
       0.017432908 0.03758095 0.14969988 0.17783478
000190 1d 63 1e 3e 6a 49 c4 bc 90 eb 87 bd af 72 07 3c
       0.15467496 -0.023960788 -0.06636727 0.008267089
0001a0 a6 c0 01 bd b5 59 70 bd 0a c9 45 3e 63 4a b2 bc
       -0.031677864 -0.0586793 0.19314972 -0.021763986
0001b0 b4 50 3c 3d d0 c9 e7 bb 46 38 28 bd f4 a6 83 3d
       0.045975402 -0.0070736185 -0.04106929 0.06428328
0001c0 33 d1 01 bc 66 58 b8 bd ed b7 3a bd 1d 9e bc bd
       -0.007923412 -0.09001236 -0.04558556 -0.09209845
0001d0 95 f7 e7 bc 1a 2a d5 3b 09 db a0 3d 2e 77 80 bd
       -0.028316298 0.006505263 0.07854278 -0.06272732
0001e0 ce c5 71 bd f3 ce 6a bc 8c 50 c4 3c 32 b8 91 be
       -0.059026532 -0.014331567 0.023964189 -0.28460842
0001f0 f5 7b 9f bc cf c0 c4 bc 56 b6 c3 3d 4d d4 ea 3d
       -0.019468287 -0.02401772 0.09556262 0.114662744

last_fc.weight f4 [6, 128]
000000 24 db 15 3d 81 98 b4 3c e4 2a 55 3d a3 e2 84 3c
       0.036585942 0.022045376 0.052042857 0.01622135
000010 97 45 f9 3b 2f 12 84 3d f7 e4 63 bd 98 81 ab 3d
       0.0076071727 0.06448781 -0.05563828 0.083743274
000020 14 40 da 3d 0e ef b5 3c 40 7e d9 bd ab a6 82 3d
       0.10656753 0.022208717 -0.106197834 0.06379446
000030 ef 0c 33 3d 46 d0 62 3d 88 d3 71 3d 6e b2 4e 3c
       0.043713506 0.055374406 0.059039623 0.012615783
000040 d8 8c f6 3d 6e 8b 7a 3c a9 0c a2 bd 27 05 da 3c
       0.120385826 0.015292032 -0.07912571 0.026613785
000050 3b 20 21 3d 84 2f a2 3b cb 6d 4f 3c 8c c1 55 bd
       0.039337378 0.004949512 0.012660454 -0.052186534
000060 60 a5 e9 3c d7 36 cc bc 6e 91 31 3d e5 f8 70 3d
       0.02852124 -0.024928493 0.043351583 0.058831114
000070 12 5b 93 3d c2 4c 3e 3d 37 f6 47 3d 09 c2 de bc
       0.07195105 0.04645992 0.048818793 -0.027192133
000080 2a 29 33 bd 97 d5 b9 3c 47 25 28 3d 3f 7a 67 3d
       -0.04374043 0.022684855 0.041051175 0.056513067
000090 0b 83 4b bd 32 18 bc bc 42 8b 05 bc 25 4a b9 3d
       -0.04968552 -0.022960756 -0.008150877 0.09047345
0000a0 ce a5 10 3c 2f 9b a2 bd 12 2b 35 3d c5 50 fc bc
       0.008828593 -0.07939755 0.04423053 -0.030800233
0000b0 a0 01 a7 bd 94 34 06 3d 99 12 96 3d 99 f1 31 bd
       -0.08154607 0.032764986 0.07327766 -0.043443296
0000c0 fe 65 9e 3d 63 d9 9b 3d 7f 36 b3 3d e8 db 8e bc
       0.07734297 0.076098226 0.08750629 -0.017438844
0000d0 52 02 92 bd 9e a7 84 bd 27 41 46 bd 5a ce 49 bd
       -0.07129349 -0.06477283 -0.048401978 -0.049269058
0000e0 bf 8e 43 3c e0 6e 33 bd 83 f7 86 3d c7 c7 0e bd
       0.011935889 -0.04380691 0.06590178 -0.03485849
0000f0 0b 2f 0f 3d 02 0a b8 3d 65 45 26 bd 94 16 81 3d
       0.034956973 0.08986284 -0.040593524 0.063031346
000100 39 66 98 3a 7b 7a a8 bc c9 88 8f bd 10 5d 58 bc
       0.0011627144 -0.020566216 -0.070085116 -0.013205782
000110 e1 16 34 bb e8 06 59 bd 4b 7c 4b 3d 9f 69 97 bc
       -0.0027479457 -0.052985102 0.049679082 -0.018482981
000120 7d a1 db 3d 21 e5 fc ba fb cc 84 3d 27 53 9e bc
       0.10724161 -0.001929436 0.064844094 -0.01932676
000130 02 0b c6 3d b0 51 8e 3b ec ea 8c bd 74 d9 c9 3d
       0.09670068 0.004343234 -0.06880745 0.09855929
000140 91 a1 5c 3d af 91 08 bd 08 5d 5e bf 0c fa af bd
       0.05386502 -0.03334206 -0.86860704 -0.085926145
000150 5c 50 b6 3d 2c c0 87 3d 51 f2 c3 bc 74 15 84 bd
       0.08902046 0.06628451 -0.023919256 -0.06449404
000160 c8 50 5d 3c 03 54 ad 3c d7 97 64 3d cc b0 03 be
       0.013508029 0.021158224 0.05580887 -0.12860411
000170 b7 fd 57 bd 9e 56 e4 3d 63 fe f8 bb 48 55 57 bd
       -0.052732196 0.111493334 -0.0075986846 -0.052571565
000180 c7 48 9c bc 99 b5 a8 3c 80 e2 ae 3d d0 60 0b 3a
       -0.019077672 0.020594405 0.08539295 0.00053168554
000190 2a 0c ad 3d e6 63 9a bc 40 73 08 3b 53 97 b4 bc
       0.08449586 -0.018846463 0.0020820647 -0.022044813
0001a0 74 6b 1c bd e7 f0 a5 ba 5e ca 8e 3c 7a 09 f4 3c
       -0.038188413 -0.0012660295 0.01743048 0.029789675
0001b0 7c bb ca 3c 83 ea 96 3d 00 56 da bc df 16 c3 3c
       0.024747603 0.07368948 -0.026652336 0.023814617
0001c0 ba a9 15 3d 86 53 71 bd 9f 29 c2 3d b9 f9 73 bb
       0.036538817 -0.058917545 0.09480595 -0.0037227704
0001d0 3a 19 ea 3b db 33 87 bd 4f 0b 1c bd b6 9b 6f bd
       0.0071441205 -0.066016875 -0.038096722 -0.058498107
0001e0 45 e8 9d bd 9b 82 fe bc 58 c4 0d 3d 35 9d 04 bd
       -0.077103175 -0.031068137 0.034611076 -0.032376487
0001f0 a5 d2 01 3d 76 8f 1c bd fd 5b eb 3c 56 5b ff bc
       0.031695027 -0.038222753 0.028730387 -0.031171482
000200 33 77 7f bd 11 44 c1 3c 3e 3d 79 3b 18 22 51 3b
       -0.062369537 0.023592027 0.0038030888 0.003191119
000210 dd cf 3e bb 05 cd 71 bd e3 d7 72 3d 97 f3 30 bd
       -0.0029115595 -0.059033412 0.059287917 -0.043201055
000220 f4 71 af 3d 5a b3 a7 3d 6f 62 d1 bc f9 68 71 bd
       0.08566657 0.081885055 -0.025559632 -0.058938
000230 0a c6 98 3c a7 41 ea 3c 42 1d d8 3c 37 85 e4 b9
       0.01864912 0.028595759 0.026381139 -0.00043586802
000240 db c2 a8 3d 87 a3 a0 3d 7d 34 85 3b 75 24 5c 3d
       0.08240291 0.0784369 0.004065095 0.053745706
000250 b9 83 d4 3c 47 17 26 3d 54 1e 8a 3d 7e df 34 bd
       0.025941717 0.040549543 0.06744066 -0.04415845
000260 a9 34 48 bd 2c d4 65 3d 0f 03 0c bd 2d ba 83 3d
       -0.048878346 0.056110546 -0.034182604 0.064319946
000270 76 80 7b 38 56 19 08 bd 2b 7d 2f 3d 3f 13 86 3d
       5.9962702e-05 -0.033227287 0.04284398 0.0654664
000280 fd 25 27 bd e5 4b 89 3d 4a e3 30 bd 12 7c 87 3d
       -0.040807713 0.06703929 -0.04318551 0.066154614
000290 ab e4 36 bd 4a 7c 42 bd 80 eb 52 bd 87 78 54 bd
       -0.04465167 -0.047481813 -0.05149412 -0.051872756
0002a0 a3 84 d6 b9 f4 ce 9c bd e7 5f cc 3d ba 53 08 3d
       -0.00040916083 -0.07656661 0.099792294 0.033282973
0002b0 5d 29 ec 3b d7 71 93 bc 21 ab 51 bd ce 57 b8 bc
       0.0072070793 -0.017998619 -0.051188592 -0.022502806
0002c0 9d c8 2b 3b 8e 8b 90 bc 26 1f 47 3d a8 65 fc bd
       0.0026212104 -0.01764467 0.04861369 -0.12324077
0002d0 bc de 16 3c c5 41 91 bd 75 47 f1 bb 13 98 9b bb
       0.009208377 -0.07092623 -0.0073632547 -0.0047483533
0002e0 29 72 ba 3c 8f 4f 1e bd a5 42 69 3d a5 3d 52 3d
       0.022759514 -0.03865009 0.056948323 0.05132832
0002f0 d3 76 7e 3d 16 ed b9 3d d3 83 12 bc 7a 4c 2d 3c
       0.06212504 0.09078424 -0.008942562 0.010577315
000300 5e b1 a4 3d 50 53 95 3c 9d a5 65 bb 76 e2 1a bd
       0.080416426 0.018228203 -0.003504134 -0.037813626
000310 8d b2 94 bb 55 89 5a bd 23 de ca 3c 14 e0 82 bc
       -0.0045378865 -0.053353626 0.024764126 -0.01597599
000320 e7 5a 07 3e 0f 62 b9 3b 8b 0c 14 3c 10 c1 71 3d
       0.1321827 0.0056574414 0.009036194 0.05902201
000330 60 64 d6 bc 20 e8 b9 3c 49 8d 77 3d e2 1a 85 bd
       -0.02617091 0.022693694 0.060437474 -0.06499268
000340 4b d2 93 3d 7b b4 22 bd 93 2a 5f bf 0d 38 1a bd
       0.072178446 -0.0397229 -0.8717434 -0.03765111
000350 0b 8d 69 bd dd 4b 98 3d e2 12 34 bb 01 0e 6c 3d
       -0.057019275 0.07436345 -0.0027477075 0.057630543
000360 83 e8 bd bd 2e 79 05 3b e4 50 c1 3d b9 2b 00 be
       -0.09272864 0.0020366418 0.09439257 -0.12516679
000370 79 83 57 bd 43 3f d3 3d 7f 6b e3 3a 98 a1 be 3c
       -0.052615616 0.103148006 0.0017350762 0.023270413
000380 2c d5 96 bc 82 56 86 3c 14 eb 69 bd c4 8b 9c 3d
       -0.018412195 0.016398672 -0.057108954 0.07643846
000390 d4 96 75 bd 09 72 19 bc 6e f6 1b bc 9e f9 99 bd
       -0.059958294 -0.009365567 -0.009519203 -0.07518314
0003a0 e9 00 24 3b ec b1 48 bd b9 a2 b8 3d 94 bb 8a 3c
       0.0025024957 -0.048997805 0.09015412 0.016935147
0003b0 25 79 b7 3c fd 0d ff 3a 7e 29 15 3d 78 53 03 3c
       0.022396633 0.0019459125 0.036416523 0.008015506
0003c0 93 c1 76 3d c0 fc ea 3c 86 72 2a bb 59 6b 6b 3d
       0.0602432 0.028684974 -0.0026008203 0.05747542
0003d0 19 25 7a ba c9 b3 36 bd f1 e7 85 3d c0 e7 40 3d
       -0.0009542271 -0.04460505 0.0653838 0.047096014
0003e0 2f 70 61 3c b8 c5 b4 3d c6 f6 29 bd b3 31 11 bd
       0.013759657 0.08826774 -0.041495107 -0.035447787
0003f0 52 99 b3 3c 3a 0c b7 3c 6f f2 0c 3d cb b2 bf bc
       0.021923695 0.022344697 0.03441089 -0.023400685

last_fc.bias f4 [6]
000000 d8 ac 9f 3d 11 4d 46 3e a8 de cc 3c bc da 7e 3e
       0.07796639 0.19365336 0.025008515 0.24888128
000010 09 9c 98 3e 3f 69 9b 3e
       0.29806545 0.30353734
