data/Fanuc_success/Behavior_cloning/BC_policy_GIC_CEV_300_default_39.pt (torch, 142444 bytes, 8 tensors)

fc0.weight f4 [128, 6]
1.1770058 -0.06446755 0.7531044 -0.088582024 -0.14710227 -0.02303284 0.34139743 -1.2609563
0.6237188 0.3479807 -0.16068533 0.007682699 -0.5007014 -0.94775385 -0.53814214 -0.13605686
-0.17087966 -0.39243382 -0.25739753 -0.09098333 -0.2338188 -0.050616395 0.08904312 -0.00013422356
-0.23618053 -0.2509739 -0.3276803 0.16884315 -0.3038169 -0.17289288 0.20397465 0.06395378
-0.26651922 0.13374886 -0.16679706 -0.21333964 -0.029261623 0.36445287 -0.6568021 0.1314387
-0.061543703 -0.11489271 0.4608094 -0.23448469 0.6378871 0.24838479 0.14197221 0.12873463
0.9255489 0.57210714 0.78007907 -0.80153173 0.6329864 -0.04011561 0.7452385 1.1109257
0.3371764 0.10380793 -0.07804023 0.27790928 0.80380213 0.09840733 0.62650144 -0.40392354
0.109355114 0.049164705 0.09807893 -0.0093226 -0.10571439 0.05883362 -0.36480436 0.2050352
0.97252786 -0.2057457 -0.24430351 -0.049266886 -0.12282579 0.015577199 -0.39428556 0.15617904
-0.24480796 -0.2995354 0.17110963 -0.14429548 0.09043193 0.084850654 0.17811145 -0.14424089
-0.38437375 -0.2501464 -0.7369111 0.10180846 -0.72084385 0.022236163 0.30849496 -0.11309359
-0.31159344 0.16415474 0.078637116 0.10819367 -0.12547767 0.18111517 1.0317674 -0.075330734
0.8149642 0.1651588 0.019736167 0.2660482 0.72714037 -0.5460852 0.7310253 -0.3239694
-0.046680532 -0.011524698 0.14118692 -1.352415 0.3661184 -0.037442423 0.07144914 -0.28429562
1.0640349 -0.08004799 0.6801378 0.42086434 -0.15447739 -0.18800306 0.50845134 -0.30922908
0.423598 -0.35779634 0.18173265 0.31294176 -0.73513144 1.6960454 -0.060698554 0.04195123
-0.25919992 -0.6182259 -0.8907017 -1.3163972 0.8617383 -0.0549195 0.35208616 0.115671255
-4.744398 1.2180653 0.35428587 0.54929 1.682172 -0.15826748 0.9839632 1.2968633
-0.118601665 -0.026185589 -0.12816061 0.2434688 -2.2575915 -1.8904421 0.8374775 0.2216307
-0.029895985 -0.027899751 -0.52318394 -0.29842204 -0.35794163 0.27291986 -0.15731311 0.14949882
0.4049353 -0.14460348 0.92102 0.4274497 -0.4710475 -0.4346458 0.2646111 0.39203525
-0.33850613 -0.07630059 0.05528463 -0.21072865 -0.057387296 -0.22017957 -0.0034667714 -0.54984534
0.37500215 0.088537864 0.050427306 0.10416322 0.54843736 -0.059688427 0.46728793 0.14190753
0.82391787 -0.15755104 0.8836389 0.13526505 0.21425949 -0.20772444 -0.2939841 -0.33131894
0.2847128 -0.019593306 0.2700379 0.06656535 1.1218237 -0.33790445 0.62493014 0.27314785
0.21164475 -0.14969496 -0.9166277 2.0193095 0.78296095 -0.22746658 0.17542389 -0.046392974
1.5654931 -0.51066005 0.6287703 -0.054123487 -0.14346153 -0.078536816 0.74270964 -0.6399027
0.3576799 0.6947089 0.3164395 0.38573188 1.1248606 0.80063206 0.59650874 0.09917814
0.22192326 0.22578411 -0.30494025 -0.013625443 -0.11524713 0.16627564 -0.05127875 -0.04402956
0.03121491 -0.91330975 -0.5143661 0.9080894 -0.068122506 0.48165065 -0.23565131 0.045640416
-0.10279161 -0.10939569 0.06731658 -0.38021025 -0.52509266 0.28716493 -0.40600136 -0.14661382
00000000: 20a8 963f 9007 84bd 73cb 403f 7e6a b5bd
00000010: faa1 16be 5eaf bcbc a5cb ae3e 0467 a1bf
00000020: 09ac 1f3f 872a b23e b28a 24be 26bf fb3b
00000030: f82d 00bf ff9f 72bf afc3 09bf 7d52 0bbe
00000040: 14fb 2ebe 16ed c8be 9cc9 83be 7855 babd
00000050: 326e 6fbe 2353 4fbd 3d5c b63d 5dbe 0cb9
00000060: 4fd9 71be a77f 80be b6c5 a7be 38e5 2c3e
00000070: e48d 9bbe d50a 31be bbde 503e 33fa 823d
00000080: 3575 88be 76f5 083e d9cc 2abe b575 5abe
00000090: 12b6 efbc 9199 ba3e 2f24 28bf de97 063e
000000a0: 4015 7cbd de4c ebbd 36ef eb3e c11c 70be
000000b0: 924c 233f 9558 7e3e 2a61 113e 03d3 033e
000000c0: c6f0 6c3f 9d75 123f 43b3 473f 2f31 4dbf
000000d0: 660b 223f 4450 24bd f3c7 3e3f d032 8e3f
000000e0: 63a2 ac3e 4199 d43d 8ed3 9fbd 204a 8e3e
000000f0: fac5 4d3f c889 c93d 6662 203f 11cf cebe
00000100: 93f5 df3d ee60 493d 9bdd c83d d2bd 18bc
00000110: c980 d8bd 86fb 703d a3c7 babe bff4 513e
00000120: 96f7 783f 00af 52be b32a 7abe 13cc 49bd
00000130: 168c fbbd 8237 7f3c ccdf c9be 66ed 1f3e
00000140: f0ae 7abe b45c 99be 5d37 2f3e 32c2 13be
00000150: 6034 b93d 2ec6 ad3d d962 363e e2b3 13be
00000160: a3cc c4be 3013 80be 35a6 3cbf f480 d03d
00000170: 3989 38bf 9d28 b63c 0df3 9d3e 9d9d e7bd
00000180: 2d89 9fbe 2e18 283e 7f0c a13d a594 dd3d
00000190: 387d 00be 4176 393e f410 843f 0047 9abd
000001a0: 7ea1 503f 631f 293e bead a13c 7837 883e
000001b0: df25 3a3f 3dcc 0bbf 7924 3b3f 51df a5be
000001c0: 1634 3fbd 16d2 3cbc 4e93 103e ef1b adbf
000001d0: df73 bb3e 3a5d 19bd ed53 923d 328f 91be
000001e0: 4c32 883f 33f0 a3bd 831d 2e3f 887b d73e
000001f0: 522f 1ebe e083 40be de29 023f 4653 9ebe
00000200: d6e1 d83e 1531 b7be 2018 3a3e e739 a03e
00000210: 9331 3cbf 0418 d93f 0c9f 78bd 0ed5 2b3d
00000220: dab5 84be 0d44 1ebf 0705 64bf b47f a8bf
00000230: e29a 5c3f 45f3 60bd a344 b43e 0de5 ec3d
00000240: 1cd2 97c0 90e9 9b3f f564 b53e 459e 0c3f
00000250: 6951 d73f df10 22be 03e5 7b3f 9eff a53f
00000260: 6ee5 f2bd 2983 d6bc 893c 03be e34f 793e
00000270: 617c 10c0 02fa f1bf ed64 563f 29f3 623e
00000280: 6de8 f4bc 058e e4bc 62ef 05bf c6ca 98be
00000290: 2044 b7be 27bc 8b3e b016 21be 3816 193e
000002a0: ae53 cf3e ef12 14be f7c7 6b3f b0da da3e
000002b0: 232d f1be e589 debe 1b7b 873e d8b8 c83e
000002c0: ad50 adbe 7c43 9cbd 2372 623d 40c9 57be
000002d0: f10e 6bbd c176 61be c632 63bb aac2 0cbf
000002e0: 4800 c03e 5753 b53d dd8c 4e3d 8753 d53d
000002f0: 6466 0c3f da7b 74bd 5d40 ef3e 3550 113e
00000300: 48ec 523f 0f55 21be 2936 623f ec82 0a3e
00000310: d766 5b3e b7b5 54be 1585 96be a3a2 a9be
00000320: e0c5 913e 2482 a0bc 6842 8a3e 6a53 883d
00000330: eb97 8f3f d001 adbe 6cfb 1f3f 09da 8b3e
00000340: 67b9 583e a349 19be 1da8 6abf 5e3c 0140
00000350: 2170 483f 00ed 68be 52a2 333e 8f06 3ebd
00000360: 1462 c83f 9eba 02bf 17f7 203f 97b0 5dbd
00000370: 94e7 12be e9d7 a0bd 3822 3e3f aad0 23bf
00000380: d221 b73e 71d8 313f 5c04 a23e a67e c53e
00000390: 6ffb 8f3f 39f6 4c3f ccb4 183f e91d cb3d
000003a0: da3f 633e f333 673e 2121 9cbe 403d 5fbc
000003b0: b006 ecbd 2944 2a3e ab09 52bd 5758 34bd
000003c0: 69b6 ff3c abce 69bf 7fad 03bf 8c78 683f
000003d0: d083 8bbd ea9a f63e 944e 71be 72f1 3a3d
000003e0: 6884 d2bd d90a e0bd 46dd 893d ebaa c2be
000003f0: 796c 06bf 4807 933e 69df cfbe ef21 16be

fc0.bias f4 [128]
-0.0053758007 0.11531481 0.36517063 -0.40721768 0.34867468 -0.40757728 0.3416843 -0.0057186885
0.02948555 0.05459025 0.035604037 -0.34369797 0.03517975 -0.30511668 -0.37456656 0.10633857
0.090698 -0.015255698 0.071243204 0.15676351 0.06676213 0.15266305 -0.006309093 -0.034832776
-0.014511047 0.07837681 -0.034729987 0.21346515 -0.023849044 -0.365214 -0.00350066 0.21199946
-0.0097449655 0.30916327 0.037177984 -0.0323057 0.28766772 0.027673062 -0.023677083 -0.13390347
0.052935008 0.2765131 0.3904624 0.13694115 0.08073016 0.0469508 0.221551 -0.34005943
0.08173786 -0.00950606 -0.005056987 -0.3647243 -0.07137519 0.021640271 -0.004702978 0.049759153
-0.3584453 0.24168523 0.3757701 -0.30772468 -0.084584765 -0.0011845515 0.17300995 -0.28778797
-0.3174029 -0.0071965205 0.1675367 0.05583136 0.0858212 -0.29641312 -0.2619323 0.2185229
0.023629785 0.120204456 -0.28678313 0.20892833 0.0026700662 -0.024246918 0.09180078 0.011244773
0.0061762007 -0.33677593 -0.32550484 0.41225648 -0.3509125 0.14559937 0.3208971 0.25386676
-0.35613954 0.024842853 0.035704173 0.18096116 0.2665252 0.31525126 0.20653874 -0.2868534
0.2985324 0.23297477 0.18732549 -0.017183451 -0.18977082 0.06421611 -0.22749574 -0.26648048
0.20977105 -0.32903737 -0.011445794 -0.033766218 -0.37442338 -0.02799862 -0.029558416 0.11300128
-0.027174275 -0.0034290429 0.17106248 0.08430416 0.13458993 -0.3872363 0.021195045 0.09744473
-0.30433157 0.08410672 -0.31290266 -0.0077311248 -0.021699525 0.12567969 -0.24041006 0.182726
00000000: 7c27 b0bb 2c2a ec3d a5f7 ba3e d67e d0be
00000010: 7d85 b23e f8ad d0be 3ff1 ae3e d663 bbbb
00000020: ae8b f13c 079a 5f3d 8ad5 113d 2ef9 afbe
00000030: a418 103d 4138 9cbe 30c7 bfbe 09c8 d93d
00000040: dfbf b93d 09f3 79bc f5e7 913d 9d86 203e
00000050: 95ba 883d b453 1c3e 82bc cebb d0ac 0ebd
00000060: bebf 6dbc 0584 a03d 0841 0ebd 9c96 5a3e
00000070: 125f c3bc 54fd babe 546b 65bb 6316 593e
00000080: 59a9 1fbc a64a 9e3e f147 183d fb52 04bd
00000090: 2f49 933e 9eb2 e23c 71f6 c1bc fe1d 09be
000000a0: 61d2 583d 2093 8d3e b0ea c73e 4d3a 0c3e
000000b0: db55 a53d 7b4f 403d 44de 623e 451c aebe
000000c0: 2e66 a73d 4ebf 1bbc 15b5 a5bb 25bd babe
000000d0: 282d 92bd f046 b13c 701b 9abb 41d0 4b3d
000000e0: 2486 b7be 557c 773e f064 c03e 178e 9dbe
000000f0: c73a adbd f442 9bba 8529 313e f258 93be
00000100: a282 a2be cad0 ebbb be8e 2b3e 6daf 643d
00000110: 06c3 af3d 76c3 97be fe1b 86be 78c4 5f3e
00000120: 4093 c13c c12d f63d 3dd5 92be 4ff1 553e
00000130: 47fc 2e3b 79a1 c6bc 0c02 bc3d ff3b 383c
00000140: ba61 ca3b e56d acbe 92a8 a6be 4813 d33e
00000150: ceaa b3be 0018 153e a04c a43e d3fa 813e
00000160: ec57 b6be 3d83 cb3c 8a3e 123d e24d 393e
00000170: fe75 883e 9d68 a13e e47e 533e 73de 92be
00000180: 3dd9 983e f090 6e3e 41d2 3f3e 4fc4 8cbc
00000190: 4853 42be bc83 833d a5f4 68be 2170 88be
000001a0: 39ce 563e 9677 a8be 2487 3bbc 724e 0abd
000001b0: 6cb4 bfbe 5d5d e5bc 7e24 f2bc 376d e73d
000001c0: 969c debc cbb9 60bb 012b 2f3e a9a7 ac3d
000001d0: f1d1 093e d643 c6be 3ba1 ad3c 1a91 c73d
000001e0: 59d1 9bbe 2540 ac3d c734 a0be 6055 fdbb
000001f0: 34c3 b1bc 2db2 003e 0e2e 76be 861c 3b3e

fc1.weight f4 [128, 128]
0.033548217 -0.029651137 -0.0747682 -0.036027737 0.03241759 0.06435343 0.07717533 -0.074445054
-0.04564453 0.031502005 0.024084343 0.0061018835 0.022033367 -0.00026036214 -0.06219585 -0.052018892
-0.0214879 0.07319066 0.05192881 -0.06459162 -0.022779528 0.0064663296 -0.02042882 0.003713569
-0.061852265 -0.05916566 0.014847954 -0.06838574 -0.069494106 0.05102172 -0.013282314 -0.054417625
-0.012437851 -0.06109088 0.07913857 0.06130573 -0.024981074 -0.043148953 0.07223435 -0.07189865
-0.0838046 0.051121023 -0.037464496 0.069151044 0.03232327 -0.06601365 -0.02867175 -0.034467503
-0.026720965 -0.07364543 -0.012016406 0.0128994435 -0.059271935 -0.024981575 0.053065296 -0.036720563
0.07672338 0.07544638 0.06638617 -0.04856203 0.01960331 0.0058114184 0.029398786 -0.023480842
0.011392219 0.027264448 0.0036540485 0.06471403 -0.020067483 0.010705816 -0.020664515 -0.06786944
-0.06795459 0.057069708 -0.045052208 -0.049774267 0.0023163592 0.068254404 -0.048438154 -0.024968259
-0.015924629 -0.08542598 -0.0071940664 0.062237155 0.017063363 -0.071958214 -0.016511565 0.056984182
0.022331698 0.06571839 0.03693247 -0.007707468 -0.061513174 0.028471062 -0.038602944 0.0060431417
-0.057885624 -0.0885231 0.054857023 0.061284427 -0.014400187 0.022513393 -0.053939693 -0.018554317
-0.019834094 0.05668006 -0.07422245 -0.06824069 -0.032029055 -0.07638024 0.054153673 -0.0060112574
0.01104511 -0.003302174 -0.095832884 -0.007300646 -0.0012628154 0.07044167 0.031175928 -0.0063378215
0.060507078 0.026156325 0.063747875 -0.064433396 -0.038883492 -0.06835782 -0.07786946 0.07359265
0.29843232 0.051754672 0.065214545 7.3978255e-05 0.04205515 -0.06234013 0.06209744 0.16302635
0.045226656 0.07383645 0.06633996 -0.012862575 0.1342093 0.016074091 -0.07921917 -0.03397249
-0.03697859 0.24248531 0.071606845 0.04822383 0.061246615 -0.066986926 -0.09540109 0.3524509
0.54345727 0.019680267 0.5089028 0.0067241616 0.083081104 0.08083165 -0.097978264 0.022988696
0.20127879 0.0742509 -0.0173854 0.4885017 0.062341683 -0.098626986 0.47681955 -0.008224304
-0.062047757 0.088183984 -0.07306987 -0.02422575 -0.08327901 -0.010053358 -0.06501771 -0.06947461
0.044152237 0.10313069 0.0777217 0.068380676 -0.11565095 0.0014543054 0.076727554 0.01782082
-0.020507962 -0.06922781 -0.05644521 0.055231906 -0.18206216 0.32845148 -0.042128243 -0.024690045
0.052048802 0.24635662 -0.0026036375 0.011045343 0.07537327 -0.32729918 -0.0115122115 -0.027997317
-0.07078968 0.025412375 0.009053448 0.015721694 0.021149512 0.2198134 -0.047341045 -0.0009106491
-0.08907597 0.03469342 0.070212595 0.016660526 0.0867199 0.059436385 0.039297793 -0.083954796
0.03998703 -0.06404744 0.05126612 -0.06973665 -0.046647474 -0.049939353 -0.040022194 -0.081919394
-0.014831543 0.04258518 0.045883033 0.59714615 0.024876896 0.05175259 -0.008452382 -0.026310096
0.04242929 -0.03776801 -0.030707693 0.24391028 -0.08220402 0.43522176 0.5628214 -0.004798058
0.51355463 -0.050620157 -0.075393446 0.005510737 0.037084218 0.086745396 0.0067076664 0.06034808
-0.07373827 -0.013011848 0.071506985 -0.037320092 0.562059 0.026596026 -0.0147748515 -0.0047350596
00000000: db69 093d f1e6 f2bc 1220 99bd d291 13bd
00000010: 4fc8 043d bbcb 833d 190e 9e3d a676 98bd
00000020: c2f5 3abd 3f08 013d 874c c53c 4ff2 c73b
00000030: 527f b43c 3781 88b9 13c1 7ebd c311 55bd
00000040: 6407 b0bc fce4 953d 4eb3 543d 9c48 84bd
00000050: 229c babc 81e3 d33b 575a a7bc 595f 733b
00000060: cd58 7dbd b157 72bd d544 733c d30d 8cbd
00000070: ed52 8ebd 27fc 503d 109e 59bc 04e5 5ebd
00000080: 21c8 4bbc 6e3a 7abd 6713 a23d b81b 7b3d
00000090: 1ca5 ccbc f5bc 30bd 9aef 933d 993f 93bd
000000a0: bfa1 abbd 4764 513d 5f74 19bd 109f 8d3d
000000b0: 6865 043d 2a32 87bd 05e1 eabc cc2d 0dbd
000000c0: ede5 dabc 6ad3 96bd 76e0 44bc 3058 533c
000000d0: 21c7 72bd 29a6 ccbc ff5a 593d 4d68 16bd
000000e0: 2621 9d3d a283 9a3d 79f5 873d fbe8 46bd
000000f0: 1f97 a03c b66d be3b b9d5 f03c e55a c0bc
00000100: 6ea6 3a3c b159 df3c c378 6f3b ca88 843d
00000110: 9064 a4bc 7267 2f3c a148 a9bc 22ff 8abd
00000120: c72b 8bbd edc1 693d aa88 38bd 1ae0 4bbd
00000130: 0fce 173b f7c8 8b3d 1667 46bd 3c8a ccbc
00000140: 5e74 82bc d1f3 aebd 34bc ebbb 63ec 7e3d
00000150: 77c8 8b3c d45e 93bd 4343 87bc 3f68 693d
00000160: f7f0 b63c 5d97 863d 8046 173d ed8e fcbb
00000170: 3df5 7bbd 253c e93c 1f1e 1ebd 8c05 c63b
00000180: 7a19 6dbd 994b b5bd c2b1 603d 6105 7b3d
00000190: c3ee 6bbc 026e b83c deef 5cbd 39ff 97bc
000001a0: 1c7b a2bc 5a29 683d f101 98bd c6c1 8bbd
000001b0: e630 03bd 3e6d 9cbd 3ed0 5d3d 15fa c4bb
000001c0: 8df6 343c 4969 58bb 0844 c4bd 423a efbb
000001d0: 0e85 a5ba b943 903d a964 ff3c 80ad cfbb
000001e0: 45d6 773d ca45 d63c 3f8e 823d a8f5 83bd
000001f0: 4c44 1fbd 2fff 8bbd 067a 9fbd beb7 963d
00000200: 1fcc 983e b5fc 533d 348f 853d c624 9b38
00000210: 0542 2c3d 5d58 7fbd e359 7e3d 61f0 263e
00000220: 963f 393d 9137 973d 3fdd 873d 8dbd 52bc
00000230: 2a6e 093e d0ad 833c a93d a2bd bd26 0bbd
00000240: dd76 17bd 124e 783e 9ca6 923d 5a86 453d
00000250: bbdd 7a3d 7130 89bd a661 c3bd 7274 b43e
00000260: 0420 0b3f 8338 a13c 7447 023f 5b56 dc3b
00000270: 6d26 aa3d 108b a53d d4a8 c8bd ca52 bc3c
00000280: 071c 4e3e db10 983d d46b 8ebc e51c fa3e
00000290: fe59 7f3d f2fc c9bd b121 f43e 3bbf 06bc
000002a0: ca25 7ebd ce99 b43d a8a5 95bd 1475 c6bc
000002b0: 308e aabd d7b6 24bc 0128 85bd b448 8ebd
000002c0: fad8 343d 2f36 d33d 8e2c 9f3d 2b0b 8c3d
000002d0: 68da ecbd 649e be3a 5623 9d3d f8fc 913c
000002e0: 5000 a8bc 4fc7 8dbd 1833 67bd da3a 623d
000002f0: 816e 3abe cb2a a83e aa8e 2cbd c742 cabc
00000300: 2031 553d e944 7c3e caa1 2abb 87f7 343c
00000310: 4d5d 9a3d c293 a7be b79d 3cbc a15a e5bc
00000320: 2efa 90bd 9d2d d03c ea54 143c c8ca 803c
00000330: be41 ad3c c416 613e afe8 41bd a0b8 6eba
00000340: 766d b6bd b01a 0e3d 9fcb 8f3d a87b 883c
00000350: 349a b13d 9173 733d b9f6 203d 7ef0 abbd
00000360: 71c9 233d 4e2b 83bd 6cfc 513d 17d2 8ebd
00000370: 6c11 3fbd 358d 4cbd 50ee 23bd 5bc5 a7bd
00000380: 0000 73bc cc6d 2e3d d9ef 3b3d 92de 183f
00000390: a2ca cb3c 86fa 533d dc7b 0abc 4588 d7bc
000003a0: 56ca 2d3d a1b2 1abd b38e fbbc 9ec3 793e
000003b0: 955a a8bd 63d5 de3e 1015 103f 0739 9dbb
000003c0: 5178 033f 1557 4fbd e167 9abd 6a93 b43b
000003d0: 9fe5 173d 92a7 b13d fccb db3b 8c2f 773d
000003e0: 1704 97bd a52f 55bc 4172 923d f4dc 18bd
000003f0: 19e3 0f3f e9df d93c 3812 72bc 8f28 9bbb

fc1.bias f4 [128]
-0.09225427 0.07998123 0.09608932 -0.036702197 0.012288538 0.02831714 0.0071139913 0.07532062
0.0053222883 -0.08438439 -0.014328801 -0.07587292 -0.080515295 -0.06923864 -0.0052211755 0.013737526
0.013232316 -0.031576503 -0.015824027 0.06608703 0.05295306 -0.040884398 0.025135051 0.012520744
-0.0018655724 0.0037064764 0.060013182 -0.05725582 -0.074955896 -0.03221882 -0.012905377 0.051961835
-0.00051837054 -0.08281271 -0.010528845 0.117424786 0.09694583 -0.08663082 -0.050043702 -0.094596714
0.034632597 -0.056692913 -0.025430713 0.03830198 -0.06696434 0.046682306 0.061799094 -0.052625615
-0.07566316 0.036186505 -0.05810087 0.050506625 -0.0039257165 -0.071156174 0.024893936 0.036549192
0.024127424 0.074919775 -0.051121328 -0.0019760213 0.03214623 0.01889614 -0.0004928042 0.07848827
0.04935951 -0.013127089 -0.06285522 0.051521398 0.040821876 -0.10938255 0.09274177 -0.08680418
-0.02177993 -0.070261516 -0.0009711298 -0.00023208061 0.023866897 -0.0071855164 0.02493463 -0.08312245
0.0554058 -0.057521805 0.06647243 -0.05052911 -0.03174468 0.059648324 -0.036231734 0.0057693124
-0.039499912 0.054085873 0.022477007 -0.01063402 -0.016661763 -0.027900847 0.06971311 -0.08537077
0.041884936 0.10093604 0.002506741 0.019566804 -0.036632143 0.03375404 -0.10058913 0.02067431
0.061314996 -0.022766344 -0.06163358 -0.053388495 -0.047929816 -0.08161336 0.01579147 -0.013453029
0.08587612 -0.08011338 0.06622763 -0.07677836 0.09000512 0.1145761 0.0031457446 -0.065909564
0.017427254 -0.04293608 0.017755149 -0.08864005 0.0670234 0.045482725 -0.10200361 0.019138934
00000000: cfef bcbd 33cd a33d 7aca c43d 0b55 16bd
00000010: dd55 493c 59f9 e73c 7c1c e93b b241 9a3d
00000020: 9766 ae3b b9d1 acbd 59c3 6abc 4363 9bbd
00000030: 34e5 a4bd fdcc 8dbd 6516 abbb 5c13 613c
00000040: 5bcc 583c 5d56 01bd 64a1 81bc a358 873d
00000050: 4fe5 583d 6676 27bd 06e8 cd3c cf23 4d3c
00000060: 3986 f4ba 5be8 723b 62d0 753d 1485 6abd
00000070: 7a82 99bd e2f7 03bd 1371 53bc efd5 543d
00000080: 42e3 07ba b699 a9bd 2d81 2cbc 687c f03d
00000090: 898b c63d 806b b1bd a0fa 4cbd ecbb c1bd
000000a0: e9da 0d3d d436 68bd 1254 d0bc 89e2 1c3d
000000b0: 9a24 89bd f235 3f3d 0c21 7d3d f58d 57bd
000000c0: 49f5 9abd 4d38 143d 2efb 6dbd 09e0 4e3d
000000d0: 4ca3 80bb 54ba 91bd 5eee cb3c 9bb4 153d
000000e0: e0a6 c53c 8a6f 993d 9964 51bd 2380 01bb
000000f0: c4ab 033d 14cc 9a3c 882f 01ba 75be a03d
00000100: 332d 4a3d 0013 57bc 3dba 80bd 1a08 533d
00000110: d734 273d f503 e0bd 66ef bd3d 64c6 b1bd
00000120: d36b b2bc 45e5 8fbd 6b93 7eba aa5a 73b9
00000130: 8384 c33c 7b74 ebbb b643 cc3c 1a3c aabd
00000140: 31f1 623d fc9b 6bbd b322 883d 9df7 4ebd
00000150: b606 02bd cd51 743d ba67 14bd 800c bd3b
00000160: a9ca 21bd 2689 5d3d b321 b83c 503a 2ebc
00000170: 407e 88bc 5190 e4bc bfc5 8e3d dfd6 aebd
00000180: 8a8f 2b3d 8eb7 ce3d 2348 243b 904a a03c
00000190: 960b 16bd ad41 0a3d ac01 cebd 2c5d a93c
000001a0: 6f25 7b3d 7c80 babc 7e73 7cbd e5ad 5abd
000001b0: 0e52 44bd e824 a7bd 1d5d 813c 186a 5cbc
000001c0: d2df af3d 7c12 a4bd 5aa2 873d f93d 9dbd
000001d0: 9b54 b83d e0a6 ea3d d628 4e3b 98fb 86bd
000001e0: 9ac3 8e3c bedd 2fbd 3f73 913c ea88 b5bd
000001f0: 9043 893d 184c 3a3d 45e7 d0bd 41c9 9c3c

fc2.weight f4 [128, 128]
-0.00582245 -0.01838816 -0.000726766 -0.06294209 0.053399857 -0.056342393 0.038563535 0.047147505
-0.06559721 -9.946308e-05 -0.04098624 -0.04012068 0.024815958 -0.0760403 0.025812468 0.037763353
-0.04909536 0.023618966 -0.03550473 0.026388811 -0.07375687 -0.022878163 -0.02346034 -0.06681924
-0.067308724 -0.075725846 0.06901828 -0.0031311947 -0.03053535 -0.09193877 -0.07091317 0.04192463
-0.04859262 -0.07587281 0.059709866 -0.00380917 0.04671352 -0.04526056 0.074396275 0.030530797
-0.019621039 0.038320914 0.051651318 0.0024968556 -0.016780293 -0.07102898 0.03222848 0.004991251
-0.07421564 -0.04972717 0.04598243 -0.006481855 -0.013930018 0.029448023 0.07209836 0.0614233
0.014811688 0.0013688159 -0.0005865155 -0.04086712 -0.036920432 0.056173973 -0.04250893 0.051932193
0.00027139313 0.0027754437 -0.04737527 -0.018351266 -0.0621884 -0.08449862 -0.09822216 0.054408956
-0.07993632 -0.08981616 0.0017344673 -0.0017908651 0.0022124124 0.039933838 0.009513397 0.046629585
0.014558898 0.0067828675 -0.09964709 0.047118425 0.059960913 -0.010729355 -0.06627266 0.07134214
-0.020402255 -0.08467685 0.0077652195 -0.04207997 0.055146676 -0.10110065 0.048849966 -0.052695792
0.03494408 -0.025149485 0.020037442 0.038011696 0.042457562 0.0672316 0.030195761 0.06660578
-0.099453464 -0.048166145 -0.003492088 -0.062540725 0.06305685 0.0365757 0.07218794 0.011581837
0.005047826 0.05212996 -0.054219987 0.057620727 -0.021247108 -0.10447229 -0.017015498 0.08762313
0.01259026 0.03841999 -0.06730784 -0.010013921 -0.07136973 0.026992453 0.046626467 -0.03326917
0.07020061 -0.020205136 0.036470715 -0.039147083 0.012587355 0.08148125 0.08812703 0.033959933
0.028424894 0.009133428 -0.050785046 0.062575005 0.02039471 0.0633707 -0.038005676 -0.0665131
0.04748193 0.0040539894 -0.07325846 0.008802822 0.09402244 -2.0434868 -0.02866385 0.09042114
-0.025649069 -0.7552853 0.042056546 0.08458218 -1.6049722 -1.5312281 -1.1890599 0.014806197
0.04252176 -0.061814927 0.024488902 -0.030344043 -0.020642841 -0.07418087 0.05591061 0.024171965
0.021336578 -0.03277173 0.026690573 0.093679 -0.050277438 -1.735211 -1.1397231 0.071588136
-0.050274868 -0.047424376 0.013986157 0.013644805 0.054176286 -1.3551645 -0.005876201 -0.02489761
0.066663146 0.07314567 0.12738597 0.05881347 0.007923233 -0.0029484415 -0.072205946 0.017101293
-0.044714604 0.018844014 0.053666636 0.09433439 0.08434322 -0.009593711 -0.06151275 0.035539802
-0.080723874 -0.0494327 0.06210469 0.04520108 0.066548504 0.059149586 -2.476054 0.07751122
-0.07898155 -0.06680263 0.029623056 -0.060493767 0.03551779 -0.027655974 0.0754701 0.058585938
-1.6943319 0.09712774 -0.06559181 -0.06533328 0.08233731 0.09456067 -0.0620397 0.028337454
-1.4569507 0.08038161 0.012451737 -0.03555629 0.025443524 -0.059133146 0.07550116 -0.038912516
0.00323505 0.035840046 -0.050697446 -0.048806902 -4.144089e-05 0.053723138 -0.014954752 0.06426238
0.03473675 0.019303773 0.040632173 -2.0665367 0.012945471 0.07644207 0.054044478 -0.032308023
-0.030431246 -0.031033494 -0.0414437 -0.013121592 0.034684863 0.04432617 -1.6313202 -0.029833764
00000000: 40ca bebb c4a2 96bc 7184 3eba c8e7 80bd
00000010: cfb9 5a3d 48c7 66bd ccf4 1d3d be1d 413d
00000020: d457 86bd d696 d0b8 30e1 27bd 9555 24bd
00000030: d64a cb3c 04bb 9bbd ab74 d33c bfad 1a3d
00000040: 3718 49bd 907c c13c 686d 11bd 592d d83c
00000050: d80d 97bd fc6a bbbc e62f c0bc 87d8 88bd
00000060: 28d9 89bd 2716 9bbd 7559 8d3d bb34 4dbb
00000070: 4525 fabc 654a bcbd ed3a 91bd 29b9 2b3d
00000080: 0e09 47bd 3463 9bbd 5592 743d 45a3 79bb
00000090: ad56 3f3d 2363 39bd 135d 983d b91b fa3c
000000a0: 4dbc a0bc 64f6 1c3d 5590 533d 49a2 233b
000000b0: d376 89bc a477 91bd 0302 043d a68d a33b
000000c0: 5ffe 97bd b8ae 4bbd 1358 3c3d be65 d4bb
000000d0: bb3a 64bc fb3c f13c 4ea8 933d 0097 7b3d
000000e0: b9ac 723c d769 b33a 64c0 19ba 4864 27bd
000000f0: e139 17bd ae16 663d d81d 2ebd dab6 543d
00000100: c549 8e39 38e4 353b 920c 42bd 6555 96bc
00000110: 44b9 7ebd 9d0d adbd b328 c9bd eddb 5e3d
00000120: a7b5 a3bd 89f1 b7bd 1157 e33a 76bb eaba
00000130: 1ffe 103b aa91 233d 14de 1b3c aafe 3e3d
00000140: 7288 6e3c d142 de3b c613 ccbd 40ff 403d
00000150: 9399 753d 2dca 2fbc f6b9 87bd d41b 923d
00000160: a122 a7bc 0e6b adbd 6273 fe3b 0c5c 2cbd
00000170: 7be1 613d dc0d cfbd e716 483d 8bd7 57bd
00000180: 8621 0f3d 4b06 cebc 9025 a43c 27b2 1b3d
00000190: fbe7 2d3d b9b0 893d 1a5d f73c 9c68 883d
000001a0: 42ae cbbd dd49 45bd 84db 64bb 5a15 80bd
000001b0: f323 813d 67d0 153d 45d7 933d bfc1 3d3c
000001c0: 3c68 a53b 3a86 553d c715 5ebd b603 6c3d
000001d0: 6a0e aebc 91f5 d5bd 1664 8bbc c173 b33d
000001e0: 6147 4e3c 485e 1d3d b1d8 89bd 6e11 24bc
000001f0: 4b2a 92bd 471f dd3c 65fb 3e3d 4145 08bd
00000200: 56c5 8f3d 3e85 a5bc 5162 153d b158 20bd
00000210: 323b 4e3c a4df a63d f27b b43d 9219 0b3d
00000220: 53db e83c 60a4 153c fb03 50bd 5327 803d
00000230: cf12 a73c 7fc8 813d d7ab 1bbd 0538 88bd
00000240: 6a7c 423d 54d7 843b 8808 96bd b639 103c
00000250: d68e c03d 7dc8 02c0 73d0 eabc b82e b93d
00000260: ff1d d2bc 615a 41bf 7c43 2c3d 6c39 ad3d
00000270: bb6f cdbf 48ff c3bf 1d33 98bf b195 723c
00000280: 4c2b 2e3d a631 7dbd f39c c83c 1294 f8bc
00000290: 2d1b a9bc 24ec 97bd 8602 653d 4904 c63c
000002a0: 0cca ae3c a63b 06bd 30a6 da3c c7da bf3d
000002b0: b7ef 4dbd 651b debf 72e2 91bf cd9c 923d
000002c0: 05ed 4dbd 1040 42bd 3226 653c 768e 5f3c
000002d0: f4e7 5d3d 0876 adbf 268d c0bb 13f6 cbbc
000002e0: b086 883d 66cd 953d 7871 023e 65e6 703d
000002f0: 73d0 013c a43a 41bb b6e0 93bd 0318 8c3c
00000300: a926 37bd c35e 9a3c 8cd1 5b3d 6332 c13d
00000310: 23bc ac3d f12e 1dbc cbf4 7bbd 2f92 113d
00000320: 8f52 a5bd f179 4abd 7d61 7e3d c524 393d
00000330: 954a 883d d646 723d ab77 1ec0 34be 9e3d
00000340: 14c1 a1bd d1cf 88bd 0dac f23c 50c8 77bd
00000350: 1a7b 113d c88e e2bc 1190 9a3d cff7 6f3d
00000360: dedf d8bf e9ea c63d 0055 86bd 74cd 85bd
00000370: 77a0 a83d 06a9 c13d 571d 7ebd f323 e83c
00000380: 5c7d babf 1d9f a43d 5f02 4c3c 79a3 11bd
00000390: f06e d03c 9935 72bd 5aa0 9a3d bb62 1fbd
000003a0: 2203 543b 03cd 123d 20a8 4fbd bfe9 47bd
000003b0: d1d0 2db8 cb0c 5c3d c704 75bc ff9b 833d
000003c0: 1f48 0e3d f222 9e3c ec6d 263d 2342 04c0
000003d0: 3e19 543c a98d 9c3d be5d 5d3d 6b55 04bd
000003e0: f34a f9bc f439 febc dfc0 29bd f2fb 56bc
000003f0: b711 0e3d 5c8f 353d 1acf d0bf f065 f4bc

fc2.bias f4 [128]
-0.025957966 0.07689362 0.028747475 0.07651297 0.070864104 0.024780227 0.0891523 0.10295261
-0.030848013 -0.107208095 0.0925557 -0.07007725 -0.078338176 0.086361654 -0.022182705 0.041235495
0.07140869 0.08078759 0.06582481 0.108651705 0.11091789 -0.075872 0.054931685 0.12568088
0.04931817 0.09725532 0.027550565 -0.056893893 -0.022830682 -0.042852838 0.10270329 0.048854534
-0.04400119 -0.0959978 -0.120599054 -0.0019196941 0.06836977 0.02773953 0.038856793 -0.060464505
-0.040020633 0.065187804 -0.04537916 -0.0323657 -0.039307654 -0.049509022 -0.09680065 0.0060662045
0.060554612 0.030473985 -0.0042238995 -0.067089155 -0.010592101 -0.068513006 0.013066761 0.087853864
-0.038246118 -0.03095117 0.007858416 -0.023047548 -0.033145282 0.020859046 0.044935353 0.020201642
0.01796463 0.10224339 -0.038694087 0.027934877 0.09164923 -0.011944304 -0.055838577 0.08546705
0.011674919 0.05823098 -0.076321095 0.083437555 0.10746514 -0.03296567 0.022127815 0.038474385
-0.20867465 0.039660465 0.053635072 -0.03984702 -0.03434137 -0.066961594 0.00047847303 0.049381897
-0.052511547 -0.057062723 0.026136614 -0.07852036 0.037631027 0.0023289707 -0.04774194 0.124613985
0.059730824 -0.05579593 -0.18442334 0.1080362 0.025410648 -0.06608236 -0.053694695 0.09504158
-0.014385958 0.12009439 0.09966582 -0.02155247 0.04704841 0.12632547 0.013737296 0.02199018
0.06751886 0.019038528 -0.053474117 0.09477178 -0.07660524 0.02550247 -0.076671466 -0.059232
-0.036368247 -0.016476605 0.05934578 -0.084917754 -0.030368743 0.10448219 0.017998159 -0.021004876
00000000: cda5 d4bc 677a 9d3d d37f eb3c d5b2 9c3d
00000010: 3321 913d e7ff ca3c 7b95 b63d d1d8 d23d
00000020: f9b4 fcbc eb8f dbbd d88d bd3d a984 8fbd
00000030: c46f a0bd 61de b03d 81b8 b5bc 8de6 283d
00000040: b83e 923d f773 a53d 28cf 863d c984 de3d
00000050: eb28 e33d c762 9bbd 0c00 613d 7db2 003e
00000060: d901 4a3d cc2d c73d b9b1 e13c 9209 69bd
00000070: 6907 bbbc 7586 2fbd 1a56 d23d b11b 483d
00000080: 983a 34bd 7f9a c4bd a3fc f6bd 3f9e fbba
00000090: 7305 8c3d 033e e33c 4d28 1f3d a1a9 77bd
000000a0: adec 23bd 2f81 853d 80df 39bd e591 04bd
000000b0: 1001 21bd f9c9 4abd 6b3f c6bd 03c7 c63b
000000c0: 1d08 783d 94a4 f93c a368 8abb 0a66 89bd
000000d0: 7e8a 2dbc 8c50 8cbd f815 563c baec b33d
000000e0: f6a7 1cbd 4f8d fdbc 96c0 003c 36ce bcbc
000000f0: 59c3 07bd 97e0 aa3c 220e 383d ea7d a53c
00000100: 8f2a 933c fc64 d13d b17d 1ebd afd7 e43c
00000110: 97b2 bb3d 0bb2 43bc feb6 64bd 5909 af3d
00000120: 2948 3f3c 9c83 6e3d 3c4e 9cbd 4fe1 aa3d
00000130: af16 dc3d 0307 07bd 6445 b53c 5197 1d3d
00000140: cfae 55be 0373 223d 73b0 5b3d a136 23bd
00000150: 89a9 0cbd 2923 89bd 90db fa39 ac44 4a3d
00000160: 5916 57bd 9aba 69bd 741c d63c 48cf a0bd
00000170: fe22 1a3d a5a1 183b 0d8d 43bd 9e35 ff3d
00000180: 4fa8 743d 468a 64bd 79d9 3cbe 1542 dd3d
00000190: fe29 d03c 3056 87bd f8ee 5bbd 29a5 c23d
000001a0: 15b3 6bbc 0cf4 f53d 981d cc3d ce8e b0bc
000001b0: d5b5 403d 775b 013e 6512 613c c024 b43c
000001c0: 5447 8a3d b0f6 9b3c ad07 5bbd b517 c23d
000001d0: 35e3 9cbd 8eea d03c ee05 9dbd 419d 72bd
000001e0: dff6 14bd f2f9 86bc 9014 733d 5ce9 adbd
000001f0: dfc7 f8bc c2fa d53d e070 933c 6b12 acbc

last_fc.weight f4 [6, 128]
-0.011162845 -0.015733382 0.0046549775 -0.06585329 -0.029537814 0.03591606 -0.07288078 -0.042349763
-0.06777365 0.019897101 0.069771476 -0.017544491 -0.030860266 -0.002721338 0.015444281 0.08316123
0.09167739 0.01081483 0.053133063 0.010994964 -0.00094321097 0.043308377 0.062014796 0.047382
-0.053847425 0.026115015 -0.026674686 -0.02685792 0.06672044 -0.06560962 -0.017123139 0.07042742
-0.06544394 -0.048521664 -0.35805497 0.047793783 0.009832626 -0.0817565 -0.028677844 0.0512342
-0.06794943 -0.045472007 0.07447311 -0.025796434 -0.44167492 0.0655511 0.08795156 -0.011672106
0.006301399 0.049979884 0.042651545 -0.08680658 -0.014150766 0.054670066 -7.195412e-05 -0.046978295
0.046004422 -0.0017924632 -0.034084823 0.018905334 0.08133961 -0.023943553 0.001212495 0.08602815
0.019613402 0.0015888907 -0.016882394 -0.066810034 0.013474101 0.06084777 -0.020182028 0.032417543
0.016912838 -0.014081218 -0.045707203 -0.060466673 0.07876549 -0.0037637947 0.014103799 0.014907064
0.34954247 -0.006658001 0.06920292 0.03483485 0.018942406 0.052874833 -0.012658423 0.06379884
0.048935387 0.040924918 0.0046478966 0.007595431 -0.041335948 0.024692865 -0.029290574 0.07502986
-0.008434675 -0.021797352 -0.39452514 -0.07732827 -0.05161167 0.03470105 0.026759261 0.041438665
-0.0056487857 0.093266 0.047234323 0.05406972 -0.054754667 0.08812955 0.0030872717 0.028971601
0.00906258 -0.022007244 0.04543385 0.075570114 0.020332398 -0.04649255 -0.024081696 -0.085668355
-0.03394774 -0.05101267 0.042736333 -0.06117798 0.032608837 -0.0112503525 0.018590318 -0.063743785
-0.026765779 0.036127258 -0.025483122 0.05234468 -0.03489215 -0.034290385 0.016775556 0.0152365705
0.006245062 -0.05936209 0.09570676 -0.04561557 0.03642178 -0.0433576 -0.07500836 0.06736318
0.058091402 0.06598665 -0.057262443 0.054818925 0.032385357 -0.011785913 0.0084871305 0.10251509
0.05417731 0.05322369 -0.004310829 0.038272586 0.04252282 0.051057883 0.08317885 -0.02437241
0.032576047 -0.06179725 -0.35808873 -0.051768877 -0.022436975 0.051552337 0.098437816 -0.07336305
0.024453605 -0.046898074 0.051736984 0.07593358 -0.40662974 0.046216857 0.007870042 -0.016310595
-0.028881859 0.046344306 0.044732742 -0.056610726 0.037056264 -0.0070535 0.038886055 -0.030921837
0.023450537 0.08265139 0.022930082 -0.057980165 0.07044001 0.0002868471 0.018217342 0.0065822755
0.020805612 0.011658053 0.048106022 -0.008084204 0.059905704 -0.017581556 -0.020276321 0.08760002
0.0716996 -0.009206569 -0.06013585 -0.013932524 0.08232878 0.033729155 -0.014442722 0.0005658628
0.38964984 -0.05307332 -0.014151612 -0.06769867 0.05791374 -0.02467964 -0.041742735 -0.011024582
-0.039895825 0.02419615 0.047086447 -0.08568864 0.017255474 -0.02722097 -0.039513297 0.04483647
-0.06309735 -0.07119798 -0.43841508 0.031933844 0.016536988 0.008832272 -0.060443375 -0.053864587
-0.047449876 0.11198946 0.09232968 -0.013266877 -0.07626899 0.04369461 -0.023484604 -0.06504144
-0.018764358 0.017387573 0.0108678285 0.050768223 -0.022438629 0.04014551 -0.006824904 0.056049973
-0.07152194 0.06287042 0.034580126 -0.0060319346 0.0004107105 -0.034840606 0.07405123 0.058147594
00000000: 5ee4 36bc 4be3 80bc c888 983b 17de 86bd
00000010: 49f9 f1bc b81c 133d 8542 95bd f276 2dbd
00000020: e9cc 8abd 3fff a23c 59e4 8e3d 77b9 8fbc
00000030: abce fcbc 7a58 32bb 020a 7d3c 6f50 aa3d
00000040: 5bc1 bb3d af30 313c 0ea2 593d 3924 343c
00000050: d141 77ba 2064 313d 3a03 7e3d a113 423d
00000060: 1e8f 5cbd 28ef d53c df84 dabc 2405 dcbc
00000070: baa4 883d 565e 86bd d345 8cbc 403c 903d
00000080: 7907 86bd a7be 46bd fb52 b7be 6ac3 433d
00000090: 0619 213c f46f a7bd cced eabc f4da 513d
000000a0: 1229 8bbd db40 3abd 5c85 983d 0b53 d3bc
000000b0: 3723 e2be a83f 863d f31f b43d 5c3c 3fbc
000000c0: f77b ce3b b5b7 4c3d 63b3 2e3d a6c7 b1bd
000000d0: 9dd8 67bc b8ed 5f3d 13e6 96b8 506c 40bd
000000e0: 226f 3c3d 16f1 eaba 879c 0bbd 5cdf 9a3c
000000f0: 6295 a63d 4525 c4bc 95ec 9e3a 872f b03d
00000100: 49ac a03c 5342 d03a f24c 8abc b3d3 88bd
00000110: 7ac2 5c3c 833b 793d c854 a5bc 42c8 043d
00000120: cb8c 8a3c e9b4 66bc 7a37 3bbd e7ab 77bd
00000130: cd4f a13d ffa9 76bb 9f13 673c c23c 743c
00000140: 3bf7 b23e 5c2b dabb 43ba 8d3d fdae 0e3d
00000150: 1b2d 9b3c 4893 583d 4665 4fbc f7a8 823d
00000160: 7970 483d e3a0 273d 624d 983b 18e3 f83b
00000170: e24f 29bd b148 ca3c c9f2 efbc 41a9 993d
00000180: 9731 0abc 5c90 b2bc 33ff c9be 495e 9ebd
00000190: c266 53bd b022 0e3d 3d36 db3c 97bb 293d
000001a0: 7319 b9bb 3f02 bf3d c778 413d 3678 5d3d
000001b0: 6e46 60bd 447d b43d d353 4a3b da55 ed3c
000001c0: 377b 143c 8948 b4bc d818 3a3d 81c4 9a3d
000001d0: 2190 a63c f96e 3ebd fa46 c5bc e472 afbd
000001e0: c90c 0bbd a9f2 50bd 4b0c 2f3d c395 7abd
000001f0: d890 053d 6653 38bc b94a 983c 1a8c 82bd
00000200: e843 dbbc 2dfa 133d fbc1 d0bc 6067 563d
00000210: 12eb 0ebd 1374 0cbd e46c 893c cfa2 793c
00000220: 61a3 cc3b aa25 73bd e801 c43d 64d7 3abd
00000230: 012f 153d bd97 31bd fc9d 99bd b5f5 893d
00000240: 40f1 6d3d 0224 873d 068c 6abd cf89 603d
00000250: 82a6 043d b419 41bc 9b0d 0b3c 6ef3 d13d
00000260: 07e9 5d3d 1501 5a3d db41 8dbb b7c3 1c3d
00000270: 692c 2e3d 1222 513d ac59 aa3d a6a8 c7bc
00000280: 766e 053d 1d1f 7dbd 6857 b7be 9a0b 54bd
00000290: bfcd b7bc 8b28 533d c499 c93d 5e3f 96bd
000002a0: ed52 c83c 3218 40bd 29ea 533d 1183 9b3d
000002b0: c631 d0be e34d 3d3d 59f1 003c cc9d 85bc
000002c0: a699 ecbc 87d3 3d3d ae39 373d a6e0 67bd
000002d0: 4fc8 173d 0c21 e7bb fc46 1f3d cb4f fdbc
000002e0: 571b c03c 2245 a93d ded7 bb3c 9c7c 6dbd
000002f0: da42 903d f763 9639 893c 953c 21b0 d73b
00000300: 8870 aa3c 6b01 3f3c d20a 453d 9c73 04bc
00000310: af5f 753d 3207 90bc 871a a6bc a467 b33d
00000320: 3dd7 923d 26d7 16bc 0251 76bd 3e45 64bc
00000330: fe9b a83d 9527 0a3d 2ba1 6cbc 6956 143a
00000340: 2f80 c73e 6963 59bd 2adc 67bc 9aa5 8abd
00000350: f536 6d3d f52c cabc 6efa 2abd 73a0 34bc
00000360: ce69 23bd 0137 c63c b8dd 403d 877d afbd
00000370: 5a5b 8d3c 83fe debc b2d8 21bd 72a6 373d
00000380: 2f39 81bd 3fd0 91bd f177 e0be 10cd 023d
00000390: 9478 873c 3cb5 103c 7993 77bd 1da1 5cbd
000003a0: cd5a 42bd bb5a e53d 5817 bd3d 515d 59bc
000003b0: eb32 9cbd 1ff9 323d c962 c0bc 7234 85bd
000003c0: b6b7 99bc 6270 8e3c fa0e 323c 57f2 4f3d
000003d0: 37d1 b7bc 9e6f 243d 72a3 dfbb a894 653d
000003e0: 187a 92bd 35c2 803d e4a3 0d3d 89a7 c5bb
000003f0: a154 d739 06b5 0ebd 2ca8 973d 2c2c 6e3d

last_fc.bias f4 [6]
0.04467894 0.026133487 0.013516558 0.06036867 0.033107687 0.19671638
00000000: 4401 373d e515 d63c 8e74 5d3c 2345 773d
00000010: ed9b 073d 0570 493e
