data/Fanuc_success/Behavior_cloning/BC_policy_wiping_GIC_GCEV_39.pt (torch, 142332 bytes, 8 tensors)

fc0.weight f4 [128, 6]
00000000: 068a fbbd 3d89 cebd 88c9 ebbe f734 afbe
00000010: 2da3 263d 973c 9e3e 2b1c 82be 424a ad3d
00000020: 494f 763f 497e e03e ae52 383c ef94 9f3d
00000030: b0b3 debd a796 18be 9c59 9bbf a0f7 373f
00000040: 9775 a83b dda7 e6be ef65 2cbd dc5e 853d
00000050: c1ee 23bd df32 21be fe58 ba3e ec31 80be
00000060: 7dec 79be d4f8 2fbe a8be 83bf c81a ba3e
00000070: 9f56 153e 5b97 073e c4f4 cabd 8a3c bdbd
00000080: 67b0 683f 3a52 33be b386 30be 3f09 d13e
00000090: bc44 c3be 142a 2fbe 9ca2 793f 8152 d7bd
000000a0: 5fd0 bfbd ada9 863e 7450 afbe be92 013e
000000b0: a281 5e3f 87dc 5d3e 3a42 cdba cd39 0ebe
000000c0: ccc0 a8bd 53f4 7ebe 0ff4 643f 8e06 063f
000000d0: 4c67 a5be 6482 a33d 4876 a23e 7f32 a93e
000000e0: a18d 8bbf 25e1 0340 4ed6 7e3f b212 5d3e
000000f0: dc19 9ebe caea fbbd a172 a33e 7520 1fbe
00000100: a8b9 d0bd f3fb 45bc d95c f2be 0f10 fbbe
00000110: 4697 283f ad87 13bf 2e79 223d c6e0 b13d
00000120: 63bb bb3e 7306 783e 92fc 423e c589 833e
00000130: 3309 bbbc 96cb 3c3e d8b1 a7be 7f62 d6bd
00000140: c0e3 8fbf 152a 913c 387c 333f 4461 90be
00000150: 9656 13bf 83e6 24be 6dad dcbd 9b74 e2bd
00000160: 81dc 39be 2f8c 0c3f 41b9 783e 3fdd 01bf
00000170: 7da1 1a3f cec3 9dbd 2de1 b9be d8da 553d
00000180: 09b3 5abd c3cb b63e 2c86 0f3e d9bc 8b3e
00000190: d1f1 ac3e b354 773e f39c c73e 44aa 083e
000001a0: e0a3 3b3d 2c75 b93e 6bab 5ebe 86cd 2a3e
000001b0: ed5d 6fbe 3a06 21bf 23b4 d33e 86d6 973e
000001c0: c4fe 843e 36ca d83e be5c 6b3e 45fc c13e
000001d0: da83 99be fc8c fbbc 4a50 43be 9780 c3bc
000001e0: 3988 85be d1a9 15bf 8556 023f 8374 35bc
000001f0: bd42 16be edd7 52be ce56 8f3e f61c 713e
00000200: 685a 7bbf c135 873f dfae 153f 3760 8e3e
00000210: 625e a1bd 5d9e e8be 0940 433f 07e6 c5bd
00000220: 7495 04bd 6178 ba3d 1177 ddbe b619 d6be
00000230: 0d77 d03e 113e 0b3d d8b3 a8be 432e e33b
00000240: 60d9 bb3e 5dbe 8cbe d6e1 a13e da6a 2abf
00000250: ae96 053f 2ab4 303e f9dc 86be 6234 fbbe
00000260: b8a0 563f 2740 a93d fa1a 383e dacf 263f
00000270: 8a8f 8b3e a936 5dbe 160b 8ebd 9844 0bbe
00000280: 619d 9e3e 4bf8 16be 67ed a9be b666 cabe
00000290: a5cf 32be e851 da3d cf1f b03d 6b37 893d
000002a0: 125c 93be e0d1 08bf b3d2 323f bd0c ebbd
000002b0: c750 3bbe 570e 803e 0e28 743e db4d 02be
000002c0: 0fb4 173e 32b5 b13e 2716 88be 46df c73e
000002d0: fc3e 85bd aaac 69be e9e0 15be 5a0a c43e
000002e0: a1b0 6ebe f53b 2f3e 10d3 abbd 6a85 403f
000002f0: e6ec f5be 2ef0 29be a77c 813e 2581 513e
00000300: 6ee8 513e f8fb 9c3d cb7a 3bbf 209e e3be
00000310: 16cb 4e3e a466 c1be 0931 d1be 5f18 91be
00000320: 681f 4a3f 7941 05be 6ceb 783d f76a 3d3e
00000330: f6cc c1bd 614b e03e 3518 61bf c6b5 db3d
00000340: facf 103f c943 e6bd 0d13 b8be 4a3f 873e
00000350: 08e2 cf3e cf6e a13e 1025 64be c0eb a03d
00000360: c267 3abe cf4c 17bf 6681 aa3e b4c8 69bd
00000370: 3a2b 37bb 35a6 773e b1de 9cbe fc9f bfbe
00000380: 9d22 af3e 0e81 9a3e f695 be3d 563b 16bd
00000390: 89c0 dd3d e38b 373e c7ee b8be 4eb6 2e3d
000003a0: 45ac c6be f368 9cbe ca64 973e 0d9a c3be
000003b0: 3b47 3d3f 149a 45bf 3fad f3bd 7d09 82be
000003c0: 7431 033e 7b99 ac3d 39e8 85be 0039 a03e
000003d0: 591f 84bd 6988 bebd 9efa 0cbf 0a76 24be
000003e0: 8f5c 5b3f 6b44 e3be 32a8 7bbe 5871 0fbe
000003f0: 379c 2abe 7c60 283e 441b a9bd 56d6 39be
-0.12282185 -0.1008477 -0.46052194 -0.34220096 0.04068296 0.309056 -0.25412115 0.08461429
0.9621473 0.43846348 0.011250181 0.07792079 -0.108741164 -0.1490122 -1.2136722 0.7186222
0.005140971 -0.45049945 -0.0420894 0.065122336 -0.040022615 -0.15742062 0.3639602 -0.25038087
-0.2440662 -0.17184764 -1.0292559 0.36348557 0.14583825 0.13241331 -0.099099666 -0.092400625
0.9089417 -0.17511836 -0.17238884 0.40827367 -0.38138378 -0.17105895 0.9751375 -0.10513783
-0.093659155 0.26301327 -0.34241068 0.12653634 0.86916554 0.21666156 -0.0015659996 -0.13889237
-0.08239898 -0.2489789 0.89434904 0.5235375 -0.32305372 0.079838544 0.31730866 0.33046338
-1.0902597 2.0606167 0.99545753 0.21589163 -0.30879104 -0.12300642 0.31923392 -0.15539725
-0.10191661 -0.012083995 -0.47336462 -0.4903569 0.65855825 -0.576289 0.039666347 0.0868545
0.36666402 0.2422121 0.1904166 0.25691047 -0.022831535 0.18437037 -0.32752872 -0.104680054
-1.1241379 0.017720262 0.7011142 -0.28199208 -0.57553995 -0.16103558 -0.10775266 -0.11057397
-0.18150522 0.54901403 0.24289419 -0.5072822 0.6040266 -0.077033624 -0.36304608 0.05221066
-0.053393397 0.35702333 0.14016026 0.27292517 0.3377824 0.24153404 0.3898693 0.13346201
0.04581058 0.36222208 -0.21745078 0.16679963 -0.23375674 -0.62900126 0.4134837 0.29655856
0.2597562 0.42341775 0.22984597 0.3788778 -0.29983407 -0.030706875 -0.19073597 -0.023865027
-0.26080492 -0.58462244 0.5091327 -0.011075142 -0.14673896 -0.20590182 0.27995914 0.23546204
-0.98184824 1.0563279 0.5846996 0.2780778 -0.0787933 -0.45433322 0.76269585 -0.09663015
-0.032369092 0.09104992 -0.43254903 -0.4181649 0.4071583 0.033994738 -0.3294971 0.006933005
0.3668928 -0.27488986 0.31617612 -0.6656929 0.52183044 0.17256227 -0.26340464 -0.49063402
0.8383899 0.08264189 0.1797904 0.65160906 0.2725795 -0.21602882 -0.06935708 -0.13600385
0.30979446 -0.14743154 -0.33188936 -0.39531487 -0.17462023 0.106601536 0.08599817 0.06700023
-0.28781182 -0.53445244 0.6985275 -0.11477039 -0.18292533 0.2501094 0.23843405 -0.12725012
0.1481478 0.34708554 -0.265794 0.39037532 -0.06506154 -0.22819772 -0.14636578 0.38289148
-0.23309566 0.17112716 -0.08389866 0.75203574 -0.48032302 -0.16595528 0.25290415 0.20459421
0.20498821 0.07665247 -0.7323424 -0.44456577 0.20194659 -0.3777362 -0.40857723 -0.28338906
0.7895417 -0.13013257 0.06077139 0.18497835 -0.09462921 0.4380751 -0.8792756 0.1072803
0.5656735 -0.11243398 -0.35952035 0.26415473 0.40602136 0.31529853 -0.22279763 0.07857466
-0.18203643 -0.59101576 0.33301848 -0.05707617 -0.002794935 0.24184497 -0.3063865 -0.37426746
0.34206095 0.30176586 0.093059465 -0.03667768 0.10827739 0.17924456 -0.36119673 0.042654328
-0.38803306 -0.3054882 0.29569083 -0.3820347 0.73936814 -0.7718823 -0.118982784 -0.25397864
0.12811834 0.084277116 -0.26153734 0.31293488 -0.064512916 -0.09303362 -0.5506991 -0.16060653
0.8568811 -0.44388136 -0.2457588 -0.14008081 -0.16661154 0.16443056 -0.08257154 -0.18148169

fc0.bias f4 [128]
00000000: 972e 333e 7073 8e3e 79a7 3c3c cb2d 3a3b
00000010: f2b9 923c dd8a 1a3d 0649 0d3e 7414 c43d
00000020: 0240 543e 4b4a 84bd be24 4b3d 9cd9 013e
00000030: 7e93 95be 6241 3f3c 2864 1d3d 2271 343e
00000040: eb29 f5bb 89d9 a1be 5223 1c3e 3218 a6be
00000050: 00fc ef3d 142b 49bd 3674 083e 36c1 8b3d
00000060: 329f 87bd ecd4 d63d f5c0 73be 609a b0be
00000070: 6e05 9e3d 72b5 2fbc eb3f b3be c570 8fbc
00000080: bb3e cc3c 4760 5c3e a903 a73c 05a5 57be
00000090: 00cf 883d b6a3 a5be 261f c9be 0b7c 9e3d
000000a0: 54d2 babe cd27 a13e 5d5b 94bc de04 1cba
000000b0: 363e 8c3e 1f53 193e 41fc 843e a2ac cabe
000000c0: 3c67 043c 912f 47bd 3de0 0a3c 5cc6 5cbc
000000d0: f5b7 c5be 887e 413d af72 963a e5f7 873b
000000e0: bbae 8c3d 6f4e d9bb b707 9fbe abfd 913e
000000f0: 7eb2 153e 13f0 e1bd e47e 8e3d 6c88 b1be
00000100: b643 a4be c22a 3dbe 6b96 aebe 0a60 ab3d
00000110: ffd7 3a3e 0587 d7bc fbc4 a7bd b920 a93e
00000120: c705 563e 3069 893b fc95 9f3d 48b7 353d
00000130: 00c1 ca3b 1d08 0cbd d2a0 1b3c 5326 0abd
00000140: 5c93 9fbe 19e9 69be f5e3 31bd acd7 6bbd
00000150: d84e 64bd 1f78 a6be 1204 50bd af07 31be
00000160: 8d8a 983e a455 57be 91ae babe 96ca 94be
00000170: 3006 c83d 1bb4 33bd efd8 71be 5855 0bbc
00000180: 053f 56bb d795 1f3e cf1e 8b3e 647d 73be
00000190: b083 17bc 53f8 093d af39 a5bc d5d1 a83d
000001a0: a955 59be 8f28 343d 77ba 99bd b63c fd3d
000001b0: 7037 88bc 9dc9 b33d a3ba a83c 691b e83d
000001c0: e0f0 3dbd 7725 b73e bf2d cfbe 62bb c0bc
000001d0: 5ba6 24bc 9606 4c3d c65e 023d ef5b c63d
000001e0: 0346 503d 8dd9 cfbd a1c7 84bd d477 a33c
000001f0: 1e8b 923c 2db9 61be 6a78 acbd 307f b9be
0.17498241 0.27822447 0.011514538 0.0028408642 0.017910931 0.037730087 0.13797387 0.095742136
0.20727542 -0.06459483 0.049595587 0.12680668 -0.2921409 0.011673303 0.038425595 0.17621282
-0.0074818037 -0.3161128 0.15247849 -0.32440335 0.11717987 -0.049113348 0.13325581 0.068239614
-0.06622161 0.104898304 -0.23804076 -0.3449278 0.077158794 -0.010724412 -0.35009703 -0.017509827
0.024932256 0.21521102 0.020387487 -0.21059044 0.06680107 -0.32351464 -0.39281577 0.07738503
-0.36488593 0.31475678 -0.018109972 -0.0005951653 0.27391213 0.14973114 0.25973704 -0.39584833
0.008081254 -0.048629347 0.008476314 -0.013475027 -0.3861691 0.04723981 0.001147827 0.0041494244
0.06869265 -0.0066316645 -0.31060573 0.28513846 0.1461887 -0.11032119 0.06957796 -0.34674394
-0.3208291 -0.18473342 -0.34099135 0.08367927 0.18246458 -0.0263095 -0.08191868 0.33032778
0.20900641 0.0041934475 0.07792279 0.044364244 0.006187558 -0.034187425 0.009498792 -0.033727955
-0.31167114 -0.22842826 -0.043430287 -0.057578728 -0.055739254 -0.3251352 -0.05078513 -0.17288087
0.29793206 -0.21028763 -0.3646131 -0.2906081 0.09766805 -0.043872934 -0.2361791 -0.008504234
-0.003269137 0.15584503 0.27171943 -0.23778301 -0.009247705 0.033684086 -0.020169107 0.08243147
-0.21224083 0.043983992 -0.075062685 0.12365095 -0.016627997 0.08778689 0.020596808 0.11333353
-0.046372294 0.3577077 -0.4046459 -0.023526851 -0.010049428 0.04981097 0.031828664 0.09685504
0.05084802 -0.101489164 -0.06483389 0.0199546 0.017888602 -0.22043295 -0.08421405 -0.3622985

fc1.weight f4 [128, 128]
00000000: bc04 0abd 659e 213d b5d9 683d b1c6 563d
00000010: 3890 02bd 87b7 b7bd 8e69 acbd 3a2b 333d
00000020: 588a bcbd 5435 3ebd 67e0 bcbd 2b36 37bd
00000030: dc2c 76bd 43cc e33c c158 0dbd e8b3 ef3c
00000040: 8a7a f939 7bb4 883c 05f9 313c f65c 993d
00000050: 79b4 9d3c 19d5 b4bd 4e3d 79bd 2d78 3c3d
00000060: 99c4 dbbc 3220 743d cd16 983d 91a9 47bb
00000070: e85c 2dbd 856b c53c 7336 28bc 254f 173c
00000080: b9d6 b83c 6508 3b3d 84e9 2c3d edd0 18bd
00000090: aba2 bcbd 90de a2bd 73b8 473d 6d40 e4bc
000000a0: 518c 9f3d d81c 2cbd 119a a13d f9b8 14bd
000000b0: 9751 ccbd 1648 7e3b a8d0 663d d861 98bc
000000c0: 809e 87bd 83af 0c3d 8fb3 ca3b c7d1 25bd
000000d0: 828d 963d 3484 833d 7cca c2bd 6b1a 703d
000000e0: 503e c9bd eb17 54bd 52c6 4abd 79b8 f1ba
000000f0: 6a93 b23c 348c 273d ce94 69bd 7e53 573d
00000100: 7446 813b 5328 093d d81f bd3c 1772 b03c
00000110: 257a 31bb 5e2c 953d 5f95 233d 5f7b 0cbc
00000120: c252 fc3c 42aa b7bc 1151 2e3c 7fd6 92bd
00000130: 704c 57bc 016f 0dbd 446c ffbc ebb2 143c
00000140: 03f7 9abd f221 d6bc 0389 abbd 61a0 babd
00000150: c0f0 1dbd e567 273d e877 9dbd d486 a8bd
00000160: 261d 8fbc 87f2 f23c 18f5 b23d 1f30 aebd
00000170: ff52 4fbd 62cd 753c aaa3 99bd 4482 563d
00000180: 8dbf 293d 91be a13d fe54 b3ba c50d 8bbd
00000190: 3510 873b 3f6e 8f3d 9952 553d e3ca 1fbd
000001a0: a96c 07bd a28b 86bd 0c9f 06bd ca05 a2bd
000001b0: afef 6d3c 1c01 323d dcda d03c c46e babd
000001c0: 139e af3c 4a73 743b b79e 88bd e34d dcbc
000001d0: 1edc a9bd 7e96 c7bd f07f 9ebd c27f a7bd
000001e0: cc0f 3e3d 6f79 1bbd fc0b 84bc adfa 96bd
000001f0: b020 763d ab5a a93d ec08 a33d 44e2 28bd
00000200: 6a95 f83b 2162 06be 9481 ddbd 9cef afbd
00000210: 0551 0dbe 800f 573d c8f6 383c b417 0bbe
00000220: 0472 3abb d598 bbbc 9e34 d3bd fc7f 78bd
00000230: 60d3 b13d d244 e33d ad44 f5bc 6405 25be
00000240: f88d 01bc 97d4 453d 42d0 11bc 31de 273d
00000250: a897 7ebd 6092 183e 414c 91bb 4ecc 023c
00000260: a29b 903e 8d99 933d 5704 073d 4af2 6dbc
00000270: 2df4 c5bd 6b28 33bd 1320 0dbc 16fb 183e
00000280: 3693 053e 8e1e 55bd 9de3 b63c ffdb 8b3b
00000290: 8d70 b53d 5976 3abc 0e2b 6a3d 746e e7bd
000002a0: 3fb3 323c ca90 04bc 6b36 633c 3dea d8be
000002b0: 98d9 9fbb 7528 02be 50a0 8fbd 6ae8 79bd
000002c0: 8c7b 4bbd 89b9 6cbe df35 543e bc81 efbd
000002d0: 8371 8bbd d413 f33d 4271 ea34 c49a 74bc
000002e0: 0191 68be 9231 133d 6757 ae3d aece aa3c
000002f0: b24d 9a3c 30c7 1d3e 403e 9ebd 0fd0 9dbd
00000300: f497 a33c ccb2 acbd 3a21 813d 51a5 06bc
00000310: e284 c0bd fad2 0f3d 5ac4 673d e5bb 073d
00000320: e00b 28bc f997 a53d 9881 f1bc 288e f33e
00000330: 5998 3cbc fe0a 903d 7bca 1b3e 0887 8d3e
00000340: 8df3 87bd 1580 553c a84b 413d 7d0d ac3c
00000350: e7af 03bd c4fd 9fbc a722 a2be f2e1 f73e
00000360: 0973 97bd 976d 61bd 75fb 8c3c 8b2d 2c3d
00000370: f10e 5a3d b0c0 103d 2dfa 71bd cd3f cebd
00000380: 8a76 95bd ab46 99bc ab4b bd3c 8fde 07bd
00000390: 785c 353c 0632 053e c30f 663d 965a cf3c
000003a0: abad 4dbd a782 0ebe e4c2 973d 6956 29be
000003b0: b67a 0d3d fc63 793d 4f55 063e 6362 0c3d
000003c0: 6b6e 56bd bee8 78bd f9d7 3abc 91d2 9ebd
000003d0: 25e9 86bd d5f4 06be da6b f3bc 6cda 23bd
000003e0: 8a98 56bd 9f92 06be bae0 a3bd ec78 923d
000003f0: 7d28 edbd f449 a4bd e6c8 79be e011 46bc
-0.03369592 0.039457697 0.056848247 0.05243558 -0.03187582 -0.08970552 -0.084185705 0.043742396
-0.092060745 -0.046437576 -0.09222489 -0.044729393 -0.060101375 0.02780736 -0.03450847 0.02926059
0.0004758428 0.016687622 0.010862594 0.07488434 0.019251095 -0.08829708 -0.06084948 0.046013046
-0.026827144 0.059601016 0.07426224 -0.003046606 -0.04232493 0.02409912 -0.010266888 0.009235178
0.022563325 0.045662303 0.042214885 -0.037308622 -0.09210714 -0.07952607 0.04875989 -0.027862752
0.07790435 -0.042019695 0.07890714 -0.036309216 -0.099764995 0.003880029 0.056351334 -0.018601343
-0.06622028 0.03434707 0.006185956 -0.040483262 0.07351209 0.064217 -0.09511277 0.058618944
-0.09826338 -0.051780622 -0.04950554 -0.0018441818 0.021798808 0.040905192 -0.057026677 0.05256986
0.0039451662 0.03348572 0.023086473 0.021538777 -0.002708086 0.07283853 0.039937373 -0.008574336
0.03080118 -0.022420052 0.010639445 -0.07169818 -0.013140783 -0.03452969 -0.031179555 0.0090758605
-0.07566645 -0.026139233 -0.08375742 -0.09112621 -0.038559675 0.040870566 -0.07688886 -0.082288414
-0.017469954 0.029656662 0.08738154 -0.08505272 -0.05061626 0.01500258 -0.075019196 0.052370325
0.041442443 0.07897676 -0.0013681946 -0.06789736 0.004121805 0.0700345 0.052080724 -0.039011847
-0.03306261 -0.065696016 -0.032866523 -0.079112604 0.014522477 0.04345809 0.025494985 -0.09103158
0.02143768 0.0037300163 -0.066708975 -0.026892608 -0.08293937 -0.09745501 -0.07739246 -0.08178665
0.046401784 -0.037957605 -0.016118996 -0.07372031 0.060089767 0.08269247 0.07960686 -0.04123141
0.007586171 -0.1312337 -0.10815731 -0.08590624 -0.13800438 0.052505016 0.011289306 -0.13583261
-0.0028449306 -0.022900024 -0.1031277 -0.06066893 0.08682895 0.11097111 -0.029939974 -0.16115338
-0.007907383 0.048298445 -0.00889975 0.040983383 -0.06215635 0.14899588 -0.004434139 0.00798328
0.28243738 0.07207022 0.032963123 -0.014523098 -0.096657135 -0.043739717 -0.008613604 0.14939532
0.13044438 -0.052031092 0.022325331 0.004268169 0.08859358 -0.011380755 0.057169966 -0.11300364
0.010906993 -0.008091161 0.013867955 -0.4236621 -0.004878234 -0.12710746 -0.07012999 -0.061012663
-0.04967837 -0.23117651 0.20723675 -0.11694667 -0.0680876 0.11869016 4.3668302e-07 -0.014929477
-0.22711565 0.035935946 0.085127644 0.020850506 0.018835876 0.15408015 -0.07726717 -0.077057
0.019969918 -0.0843254 0.063051656 -0.008218125 -0.094003454 0.035113312 0.05658374 0.033138175
-0.0102567375 0.08085627 -0.02948074 0.47569394 -0.011510932 0.070333466 0.15213959 0.27642083
-0.066382505 0.013031025 0.047191292 0.021002525 -0.032150175 -0.019530185 -0.31667063 0.4841457
-0.07394988 -0.055036154 0.017209748 0.04203562 0.053236905 0.03534001 -0.059076477 -0.10070763
-0.07298 -0.018710455 0.02310737 -0.033171233 0.01106941 0.13007364 0.056167375 0.02531175
-0.05021445 -0.13917027 0.07410219 -0.16536869 0.034540854 0.06088637 0.1311848 0.034273516
-0.052351397 -0.060768835 -0.011404031 -0.07755006 -0.065874375 -0.13179334 -0.029714514 -0.040003225
-0.052391566 -0.13141869 -0.080018476 0.0715197 -0.11579988 -0.08021918 -0.24393043 -0.012089223

fc1.bias f4 [128]
00000000: 20cf 13bd a929 1ebd ed30 2e3c 121c 863d
00000010: c249 a13d a72d b4bc a378 a3bc 0044 c13d
00000020: 6d86 18bd 42d8 b23d b700 cd3c a2e1 b9bd
00000030: 4f12 763d e183 363d 13f9 8abc b28f c03d
00000040: 1c4b 813d 64ff 283d 55f6 ce3c c445 b7bd
00000050: 7a82 48bb 7270 26bd 868d ec3c b65a 28bd
00000060: 9a0d 603d c6d3 a2bc a6c1 993b 64ab 36bd
00000070: 3012 b4bd eaa6 37bc f384 05bd dac1 cfbb
00000080: 983c babd 226e 8f3d 8bfa a0bd 8a20 703d
00000090: aeb4 41bd 7dc9 153d 4be6 aa3d bcc3 813d
000000a0: 7fec afbd 966a 79bc d008 df3c e1b2 1f3d
000000b0: e0c4 b93d c9a0 3cbd 3ed8 4ebd e9a5 833d
000000c0: 7fae aabd ab60 0e3d b9ef 7f3d 816c 3d3d
000000d0: e95b a53c 56c4 7abd 5960 013e f06d d53d
000000e0: da7b a73d 580c 96bd dd27 34bc 9058 07bd
000000f0: 64ce a1bd 3ad1 a0bd 7066 183d 0aa6 8d3d
00000100: ca07 b33d 7f52 233c 960e 6f3d cebe 1dbd
00000110: d003 223d fa98 c33d bab1 a1bc 07ab 1e3b
00000120: c1a8 64bd a063 a8bb adf4 983d 96ca b73d
00000130: b1b4 98bb fd70 64bd e78a 873d 6871 ddbd
00000140: cc9f 9cbb 885a 07bd 32d5 6bbd 2bd8 503d
00000150: f22f 043d 9ff0 81bc a152 81bc f14c 673d
00000160: c253 7a3d 01f7 adbd ad2c dbbc 6f1f 7b3d
00000170: c3d6 8cbd f093 89bd 37c9 403d 621c fcbc
00000180: b939 4fbd bdec 9c3c 64a2 a03d af25 b43d
00000190: 7576 883d d786 7e3d c85e 9cbd 642f e7bd
000001a0: 5739 e03d 37f0 e6bc d783 6ebd e6fe 10bd
000001b0: 30be d03c 88af 163d e657 783c b26d b23d
000001c0: c505 19bd d190 c8bc c3ef d0bc f963 6cbd
000001d0: bf7c 2d3d ae9b 85bd d239 81bd 9389 8dbc
000001e0: 3801 143d 7539 cdbd a848 a5bd 6d3d 84bd
000001f0: 473b 67bd 1bef d23c 8a78 133d fb58 543b
-0.0360862 -0.03861395 0.010631782 0.06548323 0.07875396 -0.021994425 -0.019954985 0.09436798
-0.037237573 0.08732654 0.025024755 -0.09076239 0.060076054 0.044559363 -0.016964471 0.09402408
0.06313154 0.041259184 0.025263945 -0.089488536 -0.0030595348 -0.04063458 0.028876077 -0.041102134
0.05470047 -0.019876372 0.004692274 -0.044597045 -0.087925315 -0.011209229 -0.032597493 -0.0063402476
-0.090935886 0.07003428 -0.07860287 0.05862478 -0.04729145 0.036569107 0.08344706 0.063361615
-0.0859003 -0.015223166 0.027225882 0.03898895 0.09070754 -0.046051774 -0.050499193 0.06428129
-0.08334064 0.03476016 0.062484477 0.046246056 0.020185428 -0.061222397 0.1263441 0.104213595
0.0817792 -0.07326573 -0.010995832 -0.033043444 -0.07900694 -0.07852407 0.037207067 0.06916435
0.0874172 0.009968399 0.05836352 -0.038512044 0.039554417 0.09550662 -0.019738067 0.0024210827
-0.055825 -0.0051388294 0.07468543 0.08974187 -0.004660212 -0.055771817 0.066182904 -0.10812646
-0.0047797915 -0.03304532 -0.057576366 0.050987404 0.032272287 -0.015861807 -0.01578647 0.05646986
0.061115034 -0.08494378 -0.026754702 0.061309274 -0.068769 -0.0671767 0.047066893 -0.030775253
-0.050592158 0.019155854 0.078434736 0.0879625 0.06663219 0.062140312 -0.076352656 -0.11288336
0.10948437 -0.028190715 -0.0582312 -0.03539934 0.025481313 0.036788493 0.015157675 0.08712329
-0.037359018 -0.024483116 -0.025504952 -0.05771253 0.042355295 -0.06523834 -0.063098565 -0.017277515
0.036133975 -0.10020725 -0.08070499 -0.064570285 -0.056453016 0.02574878 0.036003627 0.003240167

fc2.weight f4 [128, 128]
00000000: 7916 6e3d 9f16 3ebd 8248 73bd 81a6 4d3c
00000010: 0a29 7abd 06cf b0bc 7a73 b7bc 834d cebd
00000020: 3663 61bc 2c26 593d 353a a3bd d34e 883d
00000030: bf5f 563c e822 1c3d 2e71 c6bc 3b28 94bc
00000040: 974b 683d f5cc 7c3c b82c a03d 8360 943d
00000050: 0878 683c 4bcc 93bd 8f62 3bbd 03a0 b5bd
00000060: ccbd 4b3d 8dad 54bd 0627 ff3c 703d 6e3d
00000070: 06f0 8e3c 540f 1d3d 5083 a33d be94 b83c
00000080: ce6d 583d 8870 143d 44fa 1b3d eff1 4d3c
00000090: 1966 b0bd cb52 87bd 1c1e 943d f26a 9e3c
000000a0: 1600 593d 702a b6bb a6ce a23d 7799 e5bc
000000b0: 0a7b 79bd b50a 06bd 5a3d 1ebd fe36 89bd
000000c0: d58c 293d 2485 96bd fd18 72bd 62e6 763d
000000d0: c7ff a0bd fac4 413d bd0b 8a3d 60bf 053d
000000e0: 6090 04bd 9075 66bc c226 313d d1af 04bd
000000f0: 0dfa d23c 12c3 87bd 1a79 673d 361c bf38
00000100: 0a0e 883d 22cf e93c 2456 b6bb 866e a93a
00000110: d942 3fbd 8dbc 343d 010c 743d fa12 933d
00000120: 4e66 b13b 29b5 a53c 9652 b2bd d0fd 3dbd
00000130: cc80 21bd 3da3 f0bc 218c ccbc d004 25bd
00000140: 242d 453c 8615 93bb 692b a6bd 163a d7bc
00000150: 34d6 813d f78b 813c 8766 3b3d acfd 793c
00000160: 8000 593c a6ec a83d 572f 96bc 21fa 9c3c
00000170: cc40 9dbd 8cbd b0bd af89 593c d01d 7ab9
00000180: f69c f3bb 1966 42bd 9f3c 883d 0c42 99bc
00000190: ab6c 7a3d 8597 1dbd a3c5 a93d e575 96bc
000001a0: 2cbe 663d 73f2 2ebd 7c65 863b 0407 a13d
000001b0: cb4d 60bd aaa1 243d c647 983c c59d ea3b
000001c0: 033c 3a3d ca17 43bc 7c61 bfbb f192 3bbd
000001d0: 24e7 32bd 03fb 903d c33e 66bd 2a72 83bd
000001e0: 29fb 34bd 9f26 8dbd b55a c9bd 6e21 97bd
000001f0: 42c3 7f3a fd61 743c 65f4 8b3d 5ede 9c3d
00000200: 0ad5 8ebd 407a febb 6bd8 0bbf 0af9 a1be
00000210: 686b 0fbe d60d 27bf 00dd 723d cbb9 5f3d
00000220: 4fbf f93c 02d3 92be 15b6 c9be d46d 1c3d
00000230: ed93 4d3c 0b6e 243e 85b4 36bd 7eb3 c83d
00000240: b7ee a93c 76ae 47bd c21c 40bd f346 d7bd
00000250: 095a b03d 9c9c a63d dfda b2bd 4ee6 293d
00000260: 87ab 2b3d 185d 3b3e f961 9abd 4863 e13d
00000270: 1edc c0bb 337b e0be 309b 28bd ab5c a4bc
00000280: b1ee 203d 362a 38bf 748a 923c ea7f adbf
00000290: 866e 08bc 3eb7 15bd b0f8 b2be 6944 493e
000002a0: 6ae9 6ebd f776 f63c a39b 943e 9fb4 813c
000002b0: 256f 6cbe 2fa6 3fbb 0254 753d ee69 9fbd
000002c0: 003b fc3c 0a98 393e 0b9a d33c c19f 98bc
000002d0: a70a 273c 12a3 aebd af6b 0f3e f93a 41bf
000002e0: ffaf 11bf 640e db3c f67b d8bc eebd dbbd
000002f0: f1f4 013d 9a1e 313c dad3 0cbc 1a48 953e
00000300: 4da6 9bbf d02e fcbd 7fde 40be 533d 30bc
00000310: a02c eebd 72a7 a53d ff5d 963d ca0a 563e
00000320: bbcb 1f3d 06a8 23bf 3aa6 a13d b7ae fd3d
00000330: 96bd 163d d672 323e 71d6 75bf d0e3 6d3d
00000340: e54d adbc 896d 05bc 4985 0abd 1837 c1bc
00000350: 38a3 c3bd e1c6 56be 5a7d 4d3d 1697 94bf
00000360: d51a abbf a198 4a3d 3f01 9d3d 8530 c43d
00000370: 06b9 823d 3ff0 a43d 23db 3abe 89a2 72bd
00000380: c90e 863c 83f0 efbe 5825 77be 27e7 893e
00000390: 3039 2d3d fae8 a4bd 5c48 583d 7a82 24bd
000003a0: c716 53bd 2d0c 77bf cd95 18be 48af 03bd
000003b0: 3a8a 88bf a531 3b3e 8fd0 a4bf 6127 a3bf
000003c0: bbb7 b1bd 8ebc 59bc 2e0a 8ebc 491c e9bd
000003d0: bad5 4cbd 84fc 77bd b112 57bd 8278 143e
000003e0: b1db ab3d 359b 70bd a32f 8cbd ec61 d9bb
000003f0: 25b5 183d 7f97 ebbc 94e9 efbe a8c1 b33d
0.0581269 -0.046408292 -0.05939532 0.012551905 -0.061074294 -0.021583091 -0.02239393 -0.10073378
-0.013756564 0.05301492 -0.079700865 0.066556595 0.013084351 0.038119227 -0.02422389 -0.01808559
0.056712713 0.015429725 0.078210294 0.07244971 0.014188774 -0.072167 -0.04574829 -0.088684104
0.04974155 -0.051923323 0.031146538 0.05816406 0.017448436 0.038344696 0.0798403 0.022531863
0.052839093 0.03624013 0.03808047 0.0125698885 -0.086132236 -0.066075884 0.072323054 0.019338105
0.052978598 -0.005559258 0.07949571 -0.02802728 -0.060908355 -0.032725055 -0.03863273 -0.06699942
0.041394074 -0.07349613 -0.059105862 0.060278304 -0.07861286 0.047306992 0.0674052 0.032653213
-0.03236425 -0.014066115 0.043249853 -0.032394234 0.025754 -0.066290036 0.056511976 9.1128444e-05
0.06643303 0.028541151 -0.005564468 0.0012926615 -0.04669461 0.04412513 0.05958176 0.07181354
0.005413807 0.020227985 -0.08707158 -0.046384633 -0.03942947 -0.029374713 -0.024969162 -0.040287793
0.012034688 -0.00448865 -0.081137486 -0.026272815 0.06339684 0.01581381 0.045752075 0.015258234
0.013244748 0.08248262 -0.01833312 0.01916224 -0.07678375 -0.08629903 0.013277455 -0.00023852964
-0.0074344827 -0.04746065 0.066521876 -0.018708251 0.06113879 -0.03847458 0.08289649 -0.018366763
0.056333706 -0.042711686 0.0041014533 0.07862666 -0.05476169 0.040193237 0.018588912 0.007159921
0.045467388 -0.011907527 -0.0058404785 -0.04579443 -0.043677464 0.07079127 -0.056212198 -0.064182594
-0.044184837 -0.06892132 -0.09831754 -0.07379423 0.00097565737 0.01491594 0.06833724 0.07659601
-0.06974228 -0.007766038 -0.546271 -0.31635314 -0.14005816 -0.65255487 0.059292793 0.054620545
0.03048673 -0.2867661 -0.3939673 0.038190678 0.012547475 0.16057603 -0.04460575 0.097998604
0.02074371 -0.048750363 -0.046902426 -0.10511579 0.08610923 0.081353396 -0.087331526 0.0414794
0.041911628 0.18297231 -0.07538218 0.110052645 -0.005885615 -0.43843994 -0.041163623 -0.020063719
0.039290134 -0.7193941 0.017888285 -1.3554661 -0.008327132 -0.036551706 -0.34955359 0.19655003
-0.05832807 0.030086024 0.2902499 0.015833197 -0.23089273 -0.002924334 0.05989457 -0.07783876
0.030789852 0.18124405 0.02583029 -0.018630864 0.010195411 -0.08527197 0.14005922 -0.7548061
-0.56909174 0.02674026 -0.026426297 -0.107295856 0.031727735 0.010810519 -0.008595431 0.29156572
-1.2160126 -0.12313616 -0.18834876 -0.010756808 -0.11629605 0.08088578 0.07342147 0.20902553
0.039012652 -0.6392826 0.07893033 0.1238684 0.036801897 0.17426619 -0.96030337 0.058078587
-0.021155307 -0.008143791 -0.033818517 -0.023585841 -0.09552616 -0.20974304 0.050168373 -1.1608608
-1.3367563 0.049461965 0.07666253 0.09579567 0.06382947 0.08053636 -0.18247657 -0.059237037
0.016364472 -0.46863183 -0.2413534 0.26934168 0.042290866 -0.08052249 0.052803382 -0.040163495
-0.051535394 -0.96502954 -0.14900894 -0.032149583 -1.0667183 0.18280657 -1.2876147 -1.2746392
-0.08677622 -0.013289584 -0.017338838 -0.11382348 -0.050008513 -0.060543552 -0.05250806 0.14499095
0.08391512 -0.058741767 -0.068450235 -0.0066339877 0.037282128 -0.028758762 -0.46857893 0.087771714

fc2.bias f4 [128]
00000000: 63b2 cbbd 28e4 df3d c6eb ba3c f97a 9d3d
00000010: 684f a4bd 2dc3 993d b874 393d e210 ab3d
00000020: abe6 f8bc 6b0b b2bd a503 eb3d f51c 103d
00000030: 2c34 adbd da6b ba3d 255f d13d 60b9 b5bd
00000040: 3463 a5bd 7f23 babc 6806 a93d 74d9 213e
00000050: 0390 7c3c 9583 083e 4686 06bd b124 15bc
00000060: e59a 33bc 58fd 153c c589 edbc 4cdb 883d
00000070: 753f 5ebd 6e57 c6bb e3e3 933d 3d89 123d
00000080: 4d62 e2bd 946c 0d3e 91a2 0cbc c1b2 bb3d
00000090: 7d5e 853d a6ff bebc 5314 fc3c 789a a9bd
000000a0: f534 f73c 606d 1d3d 48d9 c1bd 9128 103d
000000b0: 272c cf3c 05ba 7dbd 70cb c33d ed68 403e
000000c0: 310e 7bbd 1266 1e3e 4167 003d a158 b53d
000000d0: 6f44 053e 6789 943d e1fa ccbc d2fc 8b3c
000000e0: 5886 023c 2293 1f3d d650 58bd e237 7a3c
000000f0: e495 51bd 8994 c2bd 436a d9bc 61fc e23d
00000100: 9bd8 c3bb 0f30 e93d 2c35 373d 46b7 a8bd
00000110: 1964 ddbc 96d3 03be fcd7 333c 4750 21bd
00000120: 0b8d a3be a0a5 2f3e 4753 f93c fae2 8f3d
00000130: a148 41bd cbf7 843d 8765 babc 48f4 053e
00000140: b772 c23d 5704 f83d 38c7 b3bb f504 acbd
00000150: 6950 f43d dbc3 d5bc 5d42 693d 8efa 673d
00000160: fe3e b33d 9f61 8b3d 72f5 90bd 0eec 053a
00000170: 4db6 9b3d 4ea6 0abb 5fd9 eebc dab5 c9bd
00000180: 101b 1abd e9d3 813c 1407 81ba 8409 0c3e
00000190: 8706 98bd 5cbf 75bc 20f7 a33d 5319 45bb
000001a0: 8201 53bb 933f e13c 543a 8e3d 352c 4bbd
000001b0: c16c 57bc d041 3a3e 1c21 b0bd 14cd ad3b
000001c0: e1bf 0a3d 437f 913d ca67 8abd 8f37 013e
000001d0: 6cfa 853c 0f3f a0bd b6bc fd3d 4934 1fbd
000001e0: 52f7 abbc aaec 90bd 045a 423d 263b 813b
000001f0: b2b2 ac3c 97c0 73bd 5488 f23c da45 f3bc
-0.09946134 0.10932189 0.022817504 0.07689471 -0.08022958 0.0750793 0.045277327 0.083528295
-0.030383429 -0.08693584 0.114753045 0.035183866 -0.084572166 0.09102602 0.102232255 -0.08873248
-0.08075562 -0.022722004 0.08253175 0.15805608 0.015415194 0.13331445 -0.032842897 -0.009102986
-0.010962223 0.00915464 -0.028996358 0.066824526 -0.054259736 -0.006052903 0.072212 0.035775412
-0.11053906 0.1381095 -0.008583681 0.09164954 0.06512163 -0.023315262 0.03077141 -0.08281416
0.030176619 0.038434386 -0.09465271 0.035194937 0.025289608 -0.06194498 0.09560287 0.18790026
-0.06129283 0.15468624 0.03134847 0.08854795 0.13014387 0.0725277 -0.025021972 0.017088328
0.0079666 0.038958676 -0.052811466 0.015272113 -0.051168337 -0.09500987 -0.026539927 0.11083294
-0.005976749 0.113861196 0.044728443 -0.08238082 -0.02702527 -0.12873682 0.010976788 -0.0393832
-0.31943545 0.17153025 0.030435218 0.07025714 -0.047188405 0.06492575 -0.02275349 0.13081467
0.09494536 0.12110203 -0.005486395 -0.08399383 0.119293995 -0.026094368 0.056948055 0.056635432
0.08752249 0.06805729 -0.07078065 0.0005108722 0.076031305 -0.0021156254 -0.029156385 -0.098491386
-0.037623465 0.015848117 -0.0009844028 0.13675505 -0.0742312 -0.014999237 0.0800612 -0.003007491
-0.0032196944 0.027496135 0.06944719 -0.049602706 -0.013148488 0.18189168 -0.08600065 0.0053039882
0.033874396 0.07104351 -0.067580774 0.1261885 0.016354762 -0.078245275 0.123895094 -0.038868222
-0.020991955 -0.0707639 0.047449127 0.0039438186 0.021081302 -0.05950984 0.029606022 -0.029696394

last_fc.weight f4 [6, 128]
00000000: c0b3 a9bc 5859 fabe a97e 62bb 9e79 9b3d
00000010: 6126 b13b 6f60 b5bc 197f 84bd a3a2 be3d
00000020: 0e69 8b3c 68b4 4b3d 6229 fb3d d50f 3abd
00000030: 707a 013d 71e3 d53d 3f26 d8bb e06d 833d
00000040: a726 503d e91d 5e3c 3089 82bc 1a6a 0d3e
00000050: 6d15 c8bc f447 fe3d 119f cdbc 9e7f b03b
00000060: 3816 c03d dead 4fbd bb4d 84bd dc52 e53d
00000070: df9c 8abd a3c5 91bd ec21 be3d db4a 9c3d
00000080: 7baa 1a3c 9d6a bb3e 7300 afbc b586 e3be
00000090: 5dbc 18b9 43fb f8bd 8dfb 9fbc ad95 863c
000000a0: 72df f7bc 8394 933d cb23 81bd d9b6 a63d
000000b0: 3993 91bc 4e99 fd3c bfca a33d 9dae 903d
000000c0: 5b68 3fbd ed6f 0f3e 837d 4dbd e311 123e
000000d0: 4732 203e 23b0 8e3e 840e 783e 5400 58bc
000000e0: 8533 583d 9cad fa3d cb1b 013d c30d 8fbe
000000f0: 5acc 383e 468b 483d d46f 82bd c499 e73d
00000100: 2ef6 433b 66df c83e e38e 35bd 3913 5fbd
00000110: 8f92 95bc fdee 14bd b221 70be 81c7 b13d
00000120: 0b5d 3ebb 5932 0a3e 1f31 9d3e 0a4f e8be
00000130: 3fe3 833c 7020 053e 4634 a5bd d8c9 afbc
00000140: dfd5 783d 9954 153e 388b 913d 0913 383d
00000150: 3d37 d03d 850b b53d f9f9 8b3d 1fac d43d
00000160: 07a8 d13d baeb d33c e400 97bd c065 b63c
00000170: e5c5 c13d db37 7e3e 6ba6 6abd e1e6 853c
00000180: 10f9 98bd e23c 01ba 300f 75bd 09e1 ef3d
00000190: 0fff 5a3d 1be7 433d a97e 063e 7e96 c93d
000001a0: 5e13 cf3c d352 f6bd 9668 043c ad87 25ba
000001b0: 6ee7 78bc 5231 2c3d cafc ff3c 4f18 02be
000001c0: 5609 253e a4c8 d13d 2560 393c 77ef 223d
000001d0: 40ef dabd 5519 b63c 638d 67bc 043f 7abd
000001e0: 7fcf 30bd 3681 b53e be1e 7d3c 99e5 873d
000001f0: 8370 04bd a27c 4b3e 00d4 fc3d 3538 59bd
00000200: 46f5 98bd 250f eabe 3de2 82bd 2a51 bb3d
00000210: 3905 91bd 18e3 323d f89b d03d 7c00 0e3d
00000220: f933 623b 74bb 29bd 4419 013e 8d0d e0bb
00000230: b202 3c3b 298f 1e3e 4ce1 ed3d 7e05 5d3b
00000240: 7ae0 95bb 624c 91bd a5b5 063e e6b9 a53d
00000250: d8b3 38bc 48ab 3f3d a7b5 b53d 412c b9bc
00000260: 7553 5c3d 2384 75bd 37ac 37bc 0195 e23c
00000270: 7f58 8d3d 6862 2d3d 7b46 0c3e 1774 b83c
00000280: a9f5 41bb bc48 bf3e f312 42bd 3579 cfbe
00000290: ce81 663d 91c9 1dbd cbcc 90bd 02e9 94bd
000002a0: f609 b03b 07c0 3dbc 3315 203d 3aa5 71bd
000002b0: e79b 63bd 6433 3fbc 929a e53d 83de 0e3e
000002c0: 05de 46bd f6cd d53d 9bac 88bd f771 263e
000002d0: 910c 8d3c 2694 9c3e ccac 2a3e 2f1f 113d
000002e0: 2be8 cb3c ccae 0a3e eab1 b33d e637 a2be
000002f0: 4db9 d33d 815d 233d d361 54bd f949 053d
00000300: 9a00 82bd a772 d33e ef52 703c da4f c33c
00000310: 723d a63d 339c cfbd 4854 13be 8720 80bc
00000320: 1b8e 8bbc bfe9 113e 93a8 9a3e 6b81 0bbf
00000330: 061a 8bbd fe8f d13c 43a9 2abd 7319 883d
00000340: 8ad0 023e 625b 193e af70 63bd 92fa 9fbd
00000350: eee6 e33d 55ea da3d 28c3 803d 5ed1 843d
00000360: c2dd 7c3b 85db cabc 3b0a 743d 2937 57bd
00000370: 793a 913d 3272 8d3e 1f40 1d3c 3395 4ebd
00000380: e007 5f3d bd6c f83b a681 ae3d a5ca 713d
00000390: 9077 a93d 552b 8fbd a09b 273e cb8d ff3d
000003a0: 1acd 0e3d 0e64 1fbe 95cb 33bc 895c 90bd
000003b0: 7b4b 593d 1466 093e a552 c0bb b147 2cbe
000003c0: a564 073e aebb 043e 7929 fd3c d3a4 aa3d
000003d0: c34b 37bd 61ca 26bd aa84 37bd 54c6 2dbd
000003e0: 73f2 08be 2121 bc3e d1f3 af3d 1b83 6cbd
000003f0: 888f 5c3d df86 903e 1431 9b3d 5ea7 bebc
-0.020715594 -0.4889629 -0.0034560359 0.07591556 0.0054061865 -0.02214071 -0.064695545 0.09308364
0.017017867 0.049732596 0.122637525 -0.045425255 0.031610906 0.10443772 -0.006596356 0.06417441
0.05081811 0.013556936 -0.015934557 0.13810006 -0.02442428 0.12416068 -0.025100263 0.005386307
0.09379238 -0.050702922 -0.064601384 0.11197445 -0.06768202 -0.07117774 0.09283814 0.07631465
0.00944006 0.36604777 -0.021362519 -0.4443871 -0.0001456602 -0.12157299 -0.019529128 0.016428793
-0.030257914 0.07206061 -0.06305655 0.08140344 -0.017770397 0.03095689 0.07997655 0.07064555
-0.04673038 0.1400754 -0.050168525 0.14264636 0.1564418 0.27868757 0.24224287 -0.013183672
0.052783508 0.122401446 0.031520646 -0.27940187 0.18046704 0.048960947 -0.06368986 0.11308625
0.0029901373 0.3923294 -0.04432572 -0.05446169 -0.018258361 -0.03636073 -0.23450354 0.086806305
-0.0029047157 0.13495769 0.3070154 -0.45372802 0.01609957 0.13000655 -0.08066611 -0.021458551
0.06075084 0.14583053 0.07106632 0.04494003 0.10166786 0.08840088 0.06834788 0.10384392
0.10237127 0.02586924 -0.07373217 0.022265315 0.094615735 0.24825995 -0.057287615 0.016345443
-0.0746938 -0.0004930032 -0.059828937 0.11712844 0.0534659 0.04782782 0.13134255 0.09843157
0.02527779 -0.12027516 0.008081576 -0.0006314468 -0.015191896 0.042039223 0.031248469 -0.12704585
0.16116843 0.10243347 0.011314427 0.039779153 -0.106901646 0.022228876 -0.01413283 -0.061095253
-0.043166634 0.35450143 0.015449224 0.06635589 -0.032333862 0.19871762 0.12345123 -0.05303212
-0.07468657 -0.4571468 -0.06390808 0.0914634 -0.07081074 0.043673605 0.10185999 0.03466843
0.0034515841 -0.041438535 0.12607294 -0.006837553 0.002868813 0.15484299 0.116152376 0.0033725197
-0.004573879 -0.07094647 0.1315523 0.08092098 -0.011273347 0.046794206 0.08872538 -0.02260411
0.05379053 -0.05994047 -0.011210493 0.027658941 0.06901645 0.042330176 0.13698761 0.022516293
-0.0029595888 0.3736018 -0.047381353 -0.4052216 0.056276135 -0.038522307 -0.07070311 -0.07271005
0.005372281 -0.011581427 0.039082717 -0.058995463 -0.055568602 -0.011669967 0.112111226 0.13952069
-0.048551578 0.104396746 -0.06673547 0.16254412 0.017217906 0.30581778 0.1666748 0.03543013
0.02489098 0.13543242 0.08774169 -0.31683272 0.10338078 0.039884094 -0.051851105 0.03254125
-0.06347771 0.4129841 0.01466821 0.023841787 0.081171885 -0.101372145 -0.1438762 -0.01564051
-0.017035535 0.14249323 0.30206737 -0.5449435 -0.06792073 0.025581356 -0.041665327 0.06645479
0.12774864 0.14976266 -0.055527385 -0.07811464 0.11128031 0.106892265 0.06287223 0.06485246
0.0038584326 -0.024762878 0.05958007 -0.05254284 0.07091231 0.27626187 0.009597807 -0.050435256
0.05445087 0.007581322 0.08520822 0.059031148 0.08274758 -0.06990687 0.1636796 0.12478217
0.03486357 -0.15565512 -0.010973831 -0.070489 0.0530505 0.13417846 -0.005869227 -0.16824223
0.13221987 0.12962219 0.030903565 0.08332219 -0.044749986 -0.040720347 -0.044804253 -0.04242547
-0.13373737 0.36744025 0.08591426 -0.05774222 0.05384782 0.28227898 0.0757772 -0.023273166

last_fc.bias f4 [6]
00000000: 97c1 dc3d f1c3 7b3d 9cb6 fa3d 8613 6d3e
00000010: e9ed 3c3e 2a9f 6a3e
0.10779112 0.06146616 0.12241861 0.23151979 0.1845013 0.22912279
