data/Fanuc_success/Behavior_cloning/BC_policy_wiping_CIC_CEV_39.pt (torch, 142320 bytes, 8 tensors)

fc0.weight f4 [128, 6]
0	0xbe645e4b	-0.22301595
1	0xbe0e83f7	-0.13917528
2	0xbde00b56	-0.10939662
3	0x3d048d08	0.03236106
4	0x3d8cad83	0.06869032
5	0x3edeedc7	0.43540785
6	0x3e52c324	0.20582253
7	0xbdca09ee	-0.09865175
8	0x3f6dbc14	0.9286511
9	0x3e55904a	0.20855823
10	0x3e88a03c	0.2668475
11	0xbe397004	-0.18109137
12	0xbf2286ef	-0.6348714
13	0xbe819c41	-0.25314525
14	0xbe9f745c	-0.31143463
15	0x3e419b25	0.18906839
16	0xbd9796fa	-0.07401843
17	0xbe831dd0	-0.25608683
18	0x3e344fd5	0.17608579
19	0xbe9fe53d	-0.31229582
20	0x3e03124a	0.12799945
21	0x3e1982b6	0.14991269
22	0xbe2a49d1	-0.16629721
23	0x3cd76f90	0.026298314
24	0x3cc18ea1	0.023627581
25	0xbda3e60d	-0.08002863
26	0xbeb31ddf	-0.34983727
27	0xbd7d14f4	-0.06178756
28	0x3eb7b037	0.3587663
29	0xbea01a5f	-0.3127012
30	0x3ea9d460	0.33169842
31	0x3f007f6b	0.50194424
32	0x3f20c6a8	0.62803125
33	0xbe9de552	-0.3083902
34	0xbe76e42b	-0.24110477
35	0xbf075913	-0.5287029
36	0xbd16ebdf	-0.036846038
37	0x3cf4c813	0.02988056
38	0x3ed901d4	0.42384207
39	0x3e9d1c73	0.30685768
40	0x3d834e35	0.06411401
41	0xbea57b9d	-0.32320872
42	0x3f0dc84d	0.5538376
43	0xbf256329	-0.6460443
44	0xbe9d7b0f	-0.3075795
45	0xc01b5092	-2.4267926
46	0xbf4fc648	-0.8116193
47	0x3e2ec6db	0.17068045
48	0x3eba9451	0.3644128
49	0x3f1b3a50	0.6063585
50	0x3f8a6f1b	1.0815157
51	0xbefb410f	-0.49073073
52	0x3e2babe7	0.16764794
53	0xbe619e47	-0.22033034
54	0x3eb2408f	0.3481488
55	0x3ed094e0	0.40738583
56	0x3f8b249a	1.0870545
57	0x3ffe8276	1.9883564
58	0x3fe94954	1.8225503
59	0xbf2c815d	-0.6738489
60	0x3e8dae7a	0.27672178
61	0x3f0c0f17	0.54710525
62	0x3f88325c	1.0640368
63	0xbfb3b952	-1.404093
64	0x3b5e08a5	0.0033879664
65	0x3e7ac6f5	0.24489959
66	0x3e97792f	0.29584643
67	0x3e39649d	0.18104787
68	0x3ea6d698	0.32585597
69	0x3f215a75	0.6302865
70	0xbf3d2c8f	-0.73896116
71	0xbf141b5a	-0.57854235
72	0x3c8b5a13	0.017010724
73	0x3e61ee9a	0.22063676
74	0xbe552c65	-0.20817716
75	0x3de17ae4	0.11009768
76	0xbea3ae0c	-0.31968725
77	0xbe044638	-0.12917411
78	0x3c3e0bb6	0.011599472
79	0xbefbfa18	-0.49214244
80	0xbec3b0c0	-0.38220787
81	0x3aaba5c8	0.0013095671
82	0x3ea8eef7	0.32994816
83	0x3d594ae6	0.053049944
84	0xbf1d124b	-0.6135604
85	0xbd57d0f3	-0.052689504
86	0xbe99a8fe	-0.30011743
87	0x3dd1cc3c	0.10244033
88	0xbed80657	-0.42192337
89	0xbd035a18	-0.032068342
90	0x3e87e4d9	0.26541784
91	0xbbb86be0	-0.005628094
92	0x3ceae58c	0.02867391
93	0xbeaf0bc2	-0.34188658
94	0xbe1ceaa7	-0.15323888
95	0xbe9c0e98	-0.30479884
96	0xbe4801ee	-0.19531986
97	0x3d9c9980	0.07646465
98	0xbdf39624	-0.118938714
99	0x3ea84b8a	0.32870132
100	0x3e02c48d	0.1277029
101	0x3e09ee12	0.13469723
102	0xbf1d1833	-0.6136505
103	0xbf3f24c7	-0.7466549
104	0x3e0d787b	0.13815491
105	0xbe8c2333	-0.27370605
106	0xbe9a4de6	-0.30137557
107	0x3ef2a3b2	0.47390515
108	0xbe7152ff	-0.23566817
109	0xbc0c9379	-0.008580082
110	0xbf2d8ec0	-0.67795944
111	0xbe389479	-0.18025388
112	0xbe4ef23c	-0.20209593
113	0x3db4df17	0.088316135
114	0x3eab6b23	0.33480176
115	0xbeaef01e	-0.3416757
116	0x3e3e7825	0.18600519
117	0x3e7870cc	0.24261779
118	0xbe8f8504	-0.2803117
119	0x3eab6590	0.33475924
120	0x3e25f148	0.16205323
121	0x3e1bb064	0.15204006
122	0x3f7e710e	0.9939126
123	0xc0103cca	-2.2537103
124	0xbf7a0c08	-0.9767461
125	0xbe22a57e	-0.15883443
126	0xbf180c44	-0.59393716
127	0xbeb481a9	-0.35255173
128	0xbe6f07b0	-0.23342776
129	0xbeb64a0f	-0.35603377
130	0xbe837123	-0.25672254
131	0x3edabb74	0.4272114
132	0x3e39d9c8	0.18149483
133	0xbdf922fc	-0.12164876
134	0x3ea0b1d5	0.31385675
135	0x3dd63dc8	0.104610026
136	0x3eb1ba0a	0.3471225
137	0xbe43d885	-0.19125564
138	0x3e535375	0.20637305
139	0x3dbeecc3	0.093225025
140	0xbe60db6f	-0.21958707
141	0xbe163db6	-0.14671978
142	0xbe0b1383	-0.13581662
143	0x3e0ab988	0.13547337
144	0xbe922e09	-0.28550747
145	0xbefc63ec	-0.49294984
146	0xbf03dee7	-0.51511997
147	0x3dd6494d	0.104632
148	0x3f01b856	0.506719
149	0x3e085d24	0.1331678
150	0x3eae6b75	0.34066358
151	0x3ec7ee4d	0.39048997
152	0x3f5c308c	0.86011577
153	0x40009153	2.00887
154	0x3fa8d63d	1.319038
155	0xbf070e86	-0.52756536
156	0x3dadb569	0.08481867
157	0x36820f85	3.8761086e-06
158	0x3f0e81a6	0.5566658
159	0xbda82634	-0.08210412
160	0x3c98d05f	0.018654047
161	0x3e48df18	0.19616354
162	0x3ebf23cb	0.37331995
163	0xbdd2b699	-0.10288734
164	0x3f0bb3c7	0.54571193
165	0x3efd247b	0.49441895
166	0xbeee3c22	-0.46530253
167	0xbe2472fc	-0.16059488
168	0xbe9532ba	-0.29140264
169	0xbe58fbda	-0.21189824
170	0x3e47e01d	0.19519086
171	0xbd8cfb38	-0.06883854
172	0x3cdd4d8a	0.027014513
173	0x3e20a3a0	0.15687418
174	0xbece9e07	-0.4035494
175	0xbe3b5522	-0.18294194
176	0xbbe126f2	-0.0068710977
177	0x3e6a9050	0.22906613
178	0xbe87284a	-0.26397926
179	0xbe299054	-0.16558963
180	0x3e59b34b	0.21259801
181	0xbdc266c8	-0.0949226
182	0x3f015b05	0.5052951
183	0xbe43a7d6	-0.19106993
184	0x3a382daf	0.00070258504
185	0xbd9bec0a	-0.0761338
186	0xbe32d357	-0.17463432
187	0x3d38cd6b	0.045117777
188	0xbee7bf00	-0.4526291
189	0xbd9b349d	-0.075783946
190	0xbe8231dc	-0.25428665
191	0x3f0805fd	0.5313414
192	0xbeb3ad00	-0.35092926
193	0x3e7bbeea	0.24584547
194	0xbdabdabd	-0.083913304
195	0xbca88a2b	-0.020573696
196	0xbd2a1fe8	-0.041534334
197	0x3eb52465	0.3537933
198	0xbe2a2c58	-0.16618478
199	0xbe76948a	-0.240801
200	0x3da1d1d9	0.079013534
201	0xbe365e34	-0.17809373
202	0x3da2faac	0.07957968
203	0xbea967d4	-0.33087027
204	0x3e92ec8b	0.28696093
205	0x3ecf4905	0.40485397
206	0xbde2731b	-0.11057111
207	0x3e3cfa41	0.1845484
208	0xbe6ecc50	-0.23320127
209	0xbde32b95	-0.11092297
210	0x3e133461	0.1437545
211	0x3e350cb4	0.17680627
212	0xbefe4804	-0.4966432
213	0x3f6b5095	0.91919833
214	0x3e1205e7	0.14260064
215	0xbecbed36	-0.39829415
216	0xbee03c08	-0.437958
217	0xbe85e264	-0.26149285
218	0xbef5942d	-0.47964612
219	0xbec64353	-0.3872324
220	0x3b1e40d9	0.002414754
221	0x3f1bf4d6	0.60920465
222	0x3e9d2243	0.30690202
223	0xbda88161	-0.08227802
224	0x3eb0194d	0.34394303
225	0x3e7547df	0.23953198
226	0x3d3d3dd1	0.04620153
227	0xbe8c352c	-0.27384317
228	0x3f2ad11d	0.6672533
229	0xbebaa413	-0.36453304
230	0xbec71d9d	-0.3888978
231	0xbd7acb7e	-0.06122922
232	0x3f595743	0.84898776
233	0xbd8d1ab5	-0.068898596
234	0x3e02c193	0.12769155
235	0xbd2f9023	-0.04286207
236	0x3e9887d0	0.29791117
237	0x3e878335	0.2646729
238	0xbe1f91bf	-0.15582941
239	0x3e38e483	0.1805592
240	0xbe466265	-0.19373472
241	0x3e3f184e	0.18661615
242	0x3e0b43b0	0.1360004
243	0x3d104915	0.035225946
244	0x3e757236	0.2396935
245	0xbce3a819	-0.027790116
246	0xbf59603a	-0.84912455
247	0x3ed2525f	0.4107847
248	0xbf44908a	-0.7678305
249	0x3d6f963c	0.058492884
250	0x3e2f2b1e	0.17106292
251	0xbe5b059a	-0.21388856
252	0xbe617103	-0.22015767
253	0x3e859be5	0.260955
254	0xbcf3cac2	-0.029759768
255	0x3f194f5a	0.59886706

fc0.bias f4 [128]
0	0x3d163b6a	0.036677755
1	0xbb98e422	-0.0046658674
2	0x3e2b185b	0.1670851
3	0xbbfab38a	-0.0076507973
4	0xbe9f69d5	-0.3113543
5	0xbd83a6c0	-0.064282894
6	0x3e01b351	0.1266606
7	0xbc2a873a	-0.010408217
8	0xbdaa5a84	-0.08318046
9	0xbd94a75c	-0.07258484
10	0xbd9d0660	-0.076672316
11	0x3e6fe086	0.23425493
12	0x3b913173	0.0044309436
13	0x3e21a950	0.15787244
14	0x3e5e7be0	0.21726942
15	0xbeaf3d19	-0.342263
16	0xbec603a6	-0.3867466
17	0xbd85578f	-0.06510841
18	0x3e92d9ea	0.2868188
19	0xbc8c1cc4	-0.01710356
20	0xbd39b356	-0.045337044
21	0x3d98aad7	0.0745446
22	0xbc9af883	-0.018917328
23	0xbecbc35e	-0.3979749
24	0x3dbd9740	0.09257364
25	0xbd870b0c	-0.06593904
26	0x3d43ce3c	0.047804102
27	0x3a84574c	0.0010096817
28	0x3b0dc3b7	0.0021631548
29	0x3d00ac1f	0.031414147
30	0x3e8b0342	0.27150923
31	0x3ca63726	0.020289969
32	0xbe6455dc	-0.22298378
33	0xbec3002f	-0.38086078
34	0xbea498f7	-0.32147953
35	0xbc9f54cb	-0.019449612
36	0x3e267a8d	0.16257687
37	0xbe902e5b	-0.28160366
38	0xbcd085c0	-0.025454402
39	0x3e1c569f	0.15267418
40	0xbe7d7081	-0.24749948
41	0x3d8eda38	0.06975216
42	0xbd87c37f	-0.06629085
43	0x3d6c031a	0.057620145
44	0x3dc30dd0	0.09524119
45	0x3e37d851	0.17953612
46	0xbc87d4d2	-0.016580973
47	0x3e5cb4a6	0.21553287
48	0xbeb95efd	-0.36205283
49	0x3bc823fe	0.006107806
50	0xba95fe42	-0.0011443573
51	0x3d7da5ce	0.0619257
52	0x3d68fb20	0.056880116
53	0xbae1914b	-0.0017209438
54	0x3d9bce7b	0.076077424
55	0xbd95aa24	-0.073078424
56	0x3cf7494f	0.030186323
57	0xbb7b5ee7	-0.0038356127
58	0xbdb234e9	-0.08701498
59	0xbe531802	-0.20614627
60	0xbc379c2e	-0.01120667
61	0xbc9a2605	-0.018816957
62	0xbd8078f3	-0.06273069
63	0x3e57435b	0.21021788
64	0xbe77d284	-0.24201399
65	0x3e5b1f7d	0.2139873
66	0x3c444a6d	0.011980635
67	0xbe4f3743	-0.20235924
68	0xbdde09b9	-0.10841698
69	0x3e4cfbf7	0.20017992
70	0x3da30c19	0.07961292
71	0xbb4a96f2	-0.0030912724
72	0x3d822899	0.063554
73	0x3e9f21b4	0.310804
74	0x3d595a27	0.05306449
75	0x3c4abe5c	0.012374487
76	0xbe8a4573	-0.2700611
77	0x3d57d778	0.05269572
78	0xbd3bc220	-0.04583943
79	0x3c8bbe0e	0.017058399
80	0xbb92655e	-0.0044676503
81	0xbeae6e70	-0.34068632
82	0x3de7d78b	0.113204084
83	0x3d46e98e	0.04856258
84	0x3c761d4e	0.015021635
85	0xbe935133	-0.28772888
86	0x3df363a5	0.1188424
87	0x3e25e3b0	0.16200137
88	0x3e8af0da	0.2713688
89	0x3d2d9d76	0.042386495
90	0xbe7a43a5	-0.24439867
91	0x3ccb72c1	0.024834992
92	0x3c955039	0.01822673
93	0xbbee622c	-0.0072748866
94	0x3ccc4aab	0.024937948
95	0x3aa1fead	0.0012359224
96	0xbebefbe1	-0.37301543
97	0x3a217835	0.0006159575
98	0x3e68fb36	0.2275208
99	0xbe93dba2	-0.28878504
100	0x3d4e8675	0.050421197
101	0xbd723896	-0.059135996
102	0x3d9c2810	0.07624829
103	0x3db37ba7	0.08763819
104	0xbd21c469	-0.039493952
105	0x3d631cee	0.05544751
106	0xbecf1521	-0.40445808
107	0xbd2fda57	-0.042932834
108	0x3d9162c6	0.07098918
109	0xbd2e94c7	-0.042622354
110	0x3c014331	0.007889555
111	0x3be71e45	0.007053169
112	0x3d8f75dc	0.07004902
113	0xbec21e01	-0.37913516
114	0xba87a3cb	-0.0010348497
115	0xbecd4f33	-0.40099487
116	0x3c8264fb	0.015917292
117	0x3e17b20a	0.1481401
118	0xbea60d30	-0.32431936
119	0xbbc5a378	-0.00603145
120	0x3e149e65	0.14513548
121	0xbea6b6e6	-0.32561415
122	0xbc6a08cd	-0.014284325
123	0x3d6041b6	0.054750167
124	0x3ce5ff1b	0.028075745
125	0x3d2ae2c9	0.041720185
126	0x3d1aded3	0.037810158
127	0x3ce38f09	0.027778165

fc1.weight f4 [128, 128]
0	0x3cc9d463	0.024637407
1	0xbe6ffe3e	-0.2343683
2	0xbdd5ff09	-0.10449035
3	0xbd60a5bc	-0.054845557
4	0x3c96eb6e	0.018422808
5	0x3e202609	0.1563951
6	0xbe1514b9	-0.14558686
7	0x3e5a07d1	0.21292044
8	0x3d8e3ed0	0.06945574
9	0xbe4264b9	-0.18983735
10	0x3e5ac696	0.21364817
11	0x3d5149ff	0.05109596
12	0x3d0e0465	0.03467216
13	0xbd6fc79b	-0.058539968
14	0x3c3b4955	0.011431058
15	0x3afca5a4	0.0019275439
16	0x3c638627	0.013886965
17	0xbc3e8802	-0.0116291065
18	0xbce280a6	-0.027649235
19	0xbe7242e3	-0.23658328
20	0x3e44f961	0.19235756
21	0x3de317ec	0.11088547
22	0xbdc392a0	-0.09549451
23	0xbd6868d3	-0.056740593
24	0xbe331f9b	-0.17492525
25	0x3de965ad	0.11396346
26	0x3ce8836f	0.028382985
27	0x3db6f9db	0.08934375
28	0xbe8e9387	-0.2784693
29	0xbc252b9f	-0.010081201
30	0xbe302fde	-0.1720576
31	0x3ea60511	0.3242574
32	0x3d248851	0.040169064
33	0xbc933baa	-0.017972786
34	0x3daa7cbd	0.08324573
35	0x3d6df5c0	0.058095694
36	0x3df853fb	0.12125393
37	0xbcd76b25	-0.026296208
38	0x3e7ad072	0.24493578
39	0xbe02ee04	-0.12786108
40	0x3d4b58fe	0.049645416
41	0x3e15a260	0.14612722
42	0x3ea7c0d9	0.3276432
43	0x3e15ad96	0.14616999
44	0x3cea1324	0.02857358
45	0x3d5ef4d3	0.0544327
46	0xbd16d36b	-0.036822718
47	0x3db60a67	0.08888703
48	0xbc5842a9	-0.013199487
49	0x3caaf406	0.020868313
50	0xbeb5a262	-0.3547545
51	0xbe6ebe2e	-0.23314735
52	0xbd1d2434	-0.038364604
53	0xbe70adce	-0.23503801
54	0x3e06cbb2	0.13163641
55	0x3df3cc7a	0.11904235
56	0xba5df5f8	-0.0008467133
57	0x3de60f5c	0.11233398
58	0xbc9890d9	-0.018623756
59	0xbd012426	-0.031528614
60	0x3ec4c688	0.38432717
61	0x3e4fecef	0.20305227
62	0x3dd44d9b	0.103663646
63	0xbda37497	-0.07981222
64	0x3b8fd844	0.0043897945
65	0x3e0a2b0b	0.13492982
66	0xbae261d4	-0.0017271587
67	0x3cbb8969	0.02289267
68	0xbedaf20a	-0.42762786
69	0xbcd97361	-0.026544275
70	0xbd3813e2	-0.044940837
71	0xbd1ceae2	-0.03830994
72	0x3ece2a9c	0.40266883
73	0xbd89aafc	-0.06722066
74	0x3a08cba9	0.0005218336
75	0x3abea9b3	0.0014546424
76	0x3d5dc578	0.0541434
77	0xbe5d2600	-0.21596527
78	0x3e0ded7e	0.13860127
79	0x3e596fdc	0.21234077
80	0x3cde9f21	0.027175488
81	0xbd8fbe66	-0.070187375
82	0xbdfaf395	-0.12253491
83	0xbd7c2b60	-0.061564803
84	0x3d9fc853	0.07801881
85	0xbd14e2cd	-0.036349107
86	0x3d3e68a7	0.046486523
87	0xbdbf8f26	-0.09353475
88	0xbd72ca63	-0.059275042
89	0x3de1237d	0.10993097
90	0xbd07ef60	-0.03318727
91	0x3dcd538d	0.10025702
92	0x3dc84f48	0.09780747
93	0xbdc324ca	-0.09528501
94	0xbe4ff4a6	-0.2030817
95	0xbd4c7e17	-0.049924936
96	0x3afe2e16	0.0019392397
97	0xbd6d1468	-0.05788079
98	0xbd65dc5a	-0.056118347
99	0x3d05359e	0.032521836
100	0xbc916dd0	-0.017752558
101	0x3dc4d857	0.09611576
102	0x3e4c9196	0.19977412
103	0xbcf9e0eb	-0.030502757
104	0x3c1090a4	0.0088235475
105	0xbe11f28d	-0.14252682
106	0xbda3b7c5	-0.07994036
107	0xbdcb94e3	-0.09940507
108	0xbce5a9d3	-0.02803508
109	0x3de3778b	0.111067854
110	0x3e38d462	0.18049768
111	0x3c8865f2	0.016650174
112	0xbd8c4e5f	-0.068508856
113	0x3d22d0b2	0.03974981
114	0x3e246f3d	0.16058059
115	0x3da3faf5	0.08006851
116	0x3bbbbfae	0.005729637
117	0xbd8105e4	-0.06299952
118	0x3ca061fa	0.019577969
119	0x3e1267a0	0.14297342
120	0x3b80d836	0.0039320244
121	0xbcb55ebb	-0.022139898
122	0xbd562b7a	-0.052287556
123	0x3e69af8b	0.2282087
124	0xbda51881	-0.080613144
125	0x3dc62cc2	0.096765056
126	0x3c8c3bee	0.01711842
127	0xbdc7d21a	-0.097568706
128	0x3d9f7750	0.07786429
129	0x3d4f4458	0.050602287
130	0x3d681871	0.056663934
131	0xbd864bbb	-0.06557413
132	0x3d3803bd	0.04492544
133	0xbcf174bc	-0.029474609
134	0x3dd08098	0.10180777
135	0x3e341284	0.17585188
136	0xbdfd7356	-0.12375514
137	0xbe2590c3	-0.16168503
138	0xbe3e156e	-0.18562862
139	0xbd54c2dc	-0.051943645
140	0xbcd63664	-0.026148982
141	0x3bb8468c	0.005623644
142	0x3da7a15b	0.08185073
143	0xbd80e490	-0.06293595
144	0xbd993073	-0.07479944
145	0xbc24ef27	-0.010066784
146	0xbd5d4c98	-0.054028124
147	0x3d8543c9	0.065070696
148	0x3d4f0f67	0.0505518
149	0x3d36ee6b	0.044660967
150	0x3dafab45	0.08577589
151	0xbaebd0e3	-0.001799133
152	0x3d8d4bae	0.068992004
153	0xbc75e443	-0.015008035
154	0x3d5da5bf	0.054113146
155	0x3ccdeb2c	0.025136553
156	0x3b77616c	0.0037747277
157	0xbde1c731	-0.11024321
158	0x3d6e4a2a	0.058176197
159	0xbd3b7106	-0.045762084
160	0xbd91eb41	-0.07124949
161	0x3da79f09	0.081846304
162	0xbd94c7ed	-0.07264695
163	0x3dc1bb50	0.09459555
164	0x3a889801	0.0010421277
165	0x3da7f5d8	0.08201188
166	0xbd45ed1b	-0.048321825
167	0xbcb3ffdd	-0.021972591
168	0xbca071e3	-0.019585555
169	0x3e583c3c	0.21116728
170	0x3e1d773b	0.15377514
171	0xbd4adafd	-0.04952525
172	0x3db0dbb1	0.08635653
173	0x3d75e13d	0.060029257
174	0x3d846aea	0.06465705
175	0xbc809fdd	-0.015701229
176	0xbcd7d881	-0.026348354
177	0xbe4b9b58	-0.19883478
178	0xbd30dee6	-0.043181323
179	0xbbe8c870	-0.007103972
180	0x3d599c7d	0.053127754
181	0x3dab4659	0.08363027
182	0x3d1f89ca	0.038949765
183	0xbd094ca8	-0.03352037
184	0x3dade3a3	0.08490684
185	0xbd2ecf39	-0.04267809
186	0xbd7dfde1	-0.062009696
187	0x3d7a03ab	0.061038654
188	0xbc932bf3	-0.017965293
189	0x3cfc7e84	0.030822046
190	0xbd0e7236	-0.03477689
191	0x3daef897	0.085435085
192	0x3d5e0d5a	0.05421195
193	0x3d8c2fea	0.068450764
194	0x3dee4dbc	0.116359204
195	0x3d8da0d0	0.06915438
196	0x3d27b3fa	0.040943123
197	0x3d8abfed	0.06774888
198	0x3d76b1a3	0.060228
199	0xbd81167c	-0.06303117
200	0x3df2dc56	0.11858432
201	0xbd890cbd	-0.06691883
202	0xbecb7351	-0.39736417
203	0xbd5f928e	-0.054583125
204	0x3d3f6d92	0.046735354
205	0xbdb05a78	-0.086110055
206	0x3dccf126	0.10006933
207	0x3d2f90d9	0.042862747
208	0xbd522e4a	-0.051313676
209	0x3d0cf1ba	0.034410216
210	0xbd5019b4	-0.050805762
211	0xbe9398d8	-0.28827548
212	0xbd2ac68f	-0.041693266
213	0xbcfef2d7	-0.031121654
214	0x3a8de767	0.001082641
215	0x3cee5898	0.02909498
216	0xbc9cf0c6	-0.019157778
217	0x3d629ab3	0.055323314
218	0xbd10acfb	-0.035321217
219	0xbd38c886	-0.04511311
220	0xbe155a85	-0.14585312
221	0x3d964e38	0.07339138
222	0x3da9fbfd	0.08300016
223	0x3d766643	0.060156118
224	0x3d6f12e6	0.058367632
225	0x3de0d309	0.10977752
226	0x3d57a7cd	0.05265026
227	0x3d4a3cd0	0.0493744
228	0x3cbd03c9	0.023073094
229	0xbe794827	-0.2434393
230	0xbcdd978e	-0.027049806
231	0x3cf6da3a	0.030133355
232	0xbd50e7f9	-0.051002476
233	0xbd8bdfe5	-0.06829814
234	0x3b01b1ab	0.0019789736
235	0xbe47f0ec	-0.19525498
236	0xbccccb57	-0.024999304
237	0x3d9bfdf4	0.07616797
238	0xbd0aa994	-0.03385313
239	0xbd3f69db	-0.04673181
240	0x3dafd2bf	0.085851185
241	0xbd308a6e	-0.043100767
242	0xbcad6f12	-0.021171127
243	0xbc84bac2	-0.016202334
244	0x3d79e258	0.061006874
245	0x3c96f6ab	0.018428167
246	0x3d7d9f70	0.06191963
247	0x3d866df8	0.065639436
248	0xbcd39626	-0.025828432
249	0xbd0e1e23	-0.03469671
250	0x3d9eb9e2	0.07750298
251	0x3ea002f6	0.3125226
252	0x3dcb26a7	0.09919482
253	0xbf1748e2	-0.59095585
254	0xbd20c87c	-0.039253697
255	0x3ddae31e	0.106878504

fc1.bias f4 [128]
0	0xbcf429ca	-0.029805083
1	0x3d9f0b30	0.07765806
2	0xbda45d4a	-0.08025606
3	0x3c315b4e	0.010824991
4	0xbd2636a1	-0.040579442
5	0x39c1a9e9	0.00036938422
6	0xbc3d8785	-0.011567955
7	0xbdda1796	-0.1064903
8	0x3cef46b3	0.029208517
9	0xbd0cb1b3	-0.034349155
10	0x3cf47b31	0.029843898
11	0xbd63bcdd	-0.055600036
12	0xbd1a2881	-0.037636284
13	0x3d4bfef0	0.049803674
14	0xbdd4797f	-0.10374736
15	0x3d6bec6f	0.057598528
16	0xbd63d24a	-0.05562047
17	0x3cef7b1f	0.029233513
18	0x3cf973b3	0.030450677
19	0x3d8b3dcd	0.06798897
20	0xbc5f067e	-0.013612388
21	0xbda1cd4e	-0.07900487
22	0xbd8d45f8	-0.06898111
23	0xbcb66713	-0.022265946
24	0x3d145f47	0.036223676
25	0x3d74772a	0.059683956
26	0xbcdbad93	-0.026816165
27	0xbb8a2164	-0.0042154063
28	0xbd4d52ac	-0.05012767
29	0xbd891a0d	-0.06694422
30	0xba83a742	-0.0010044354
31	0xbd277b22	-0.040888913
32	0xbd944cc8	-0.07241207
33	0x3c7819ae	0.015142841
34	0x3ccf8632	0.025332544
35	0x3d12353e	0.035695307
36	0x3ce19ce3	0.02754063
37	0xbd8fb2df	-0.07016539
38	0x3befc635	0.0073173293
39	0x3ca11502	0.019663338
40	0x3c18a2bd	0.009316144
41	0xbc54ed5c	-0.012996044
42	0x3d4f16d6	0.050558887
43	0xbd25717d	-0.040391434
44	0xbdce964d	-0.10087261
45	0xbcb72a92	-0.022359166
46	0x3d38ada1	0.04508746
47	0x3d4a38fc	0.04937075
48	0x3d2c6a1d	0.042093385
49	0x3d310c3a	0.04322455
50	0x3d0ed505	0.03487112
51	0xbccb6809	-0.024829881
52	0xbc66d1fd	-0.014088151
53	0xbca370c3	-0.01995123
54	0x3c2c98f0	0.01053451
55	0xbd6ae1dc	-0.057344303
56	0x3c6c8359	0.014435613
57	0x3d18142a	0.037128605
58	0xb9d0aaca	-0.000398001
59	0xbdfaabeb	-0.12239822
60	0xbdbe4d7b	-0.09292122
61	0xbc840e76	-0.016120177
62	0x3c4c363a	0.0124641005
63	0xbdcab26a	-0.09897311
64	0xbab05c30	-0.0013455208
65	0xbc3e5bc6	-0.01161856
66	0x3d424411	0.047428194
67	0xbd334749	-0.043769155
68	0x3d6b8cd3	0.057507347
69	0xbda0ea00	-0.07857132
70	0xbd8af534	-0.0678505
71	0xbdca6f4e	-0.09884511
72	0xbd10ed2c	-0.035382435
73	0xbc416276	-0.01180326
74	0xbd979b6b	-0.074026905
75	0xbd6ea156	-0.05825933
76	0xbd399d23	-0.045315873
77	0xbddf44dc	-0.10901806
78	0x3cb85fc4	0.022506602
79	0xbc2c78a0	-0.010526806
80	0xbd6a7ae8	-0.05724612
81	0x3c5969ba	0.013269836
82	0x3db74cb3	0.08950176
83	0x3c907062	0.017631713
84	0x3c21c446	0.009873455
85	0xbcd376ae	-0.025813427
86	0x3d4de0ac	0.050263092
87	0xbd5176ec	-0.051138803
88	0x3bdb7b74	0.0066980664
89	0xbd9036fa	-0.07041736
90	0xbd454a5e	-0.048166625
91	0xbdbce25d	-0.09222863
92	0xbdb23f12	-0.08703436
93	0xbdc0f2c9	-0.094213076
94	0xbd88aea7	-0.06673937
95	0x3cab6fb7	0.020927293
96	0x3cfd2c30	0.03090486
97	0x3d16b7e3	0.03679646
98	0x3d942586	0.072337195
99	0x3d2bc71f	0.041937944
100	0xbc295a43	-0.0103364615
101	0x3d098ed9	0.033583496
102	0x3cf0ab3e	0.02937853
103	0x3d9d0616	0.076671764
104	0xbccd518a	-0.025063295
105	0xbc452ab4	-0.012034107
106	0xbcdbee1c	-0.026846938
107	0xbd9567a6	-0.0729516
108	0xbc0afa2e	-0.008482499
109	0xbc43ea8e	-0.011957778
110	0xbd035f1f	-0.032073136
111	0xbcc0d0fe	-0.023537155
112	0x3db31f75	0.08746234
113	0x3d451447	0.04811504
114	0x3d9d8e22	0.07693125
115	0x3d5d0668	0.053961188
116	0x3e077f49	0.13232149
117	0xbcbb9a9d	-0.022900874
118	0xbd33878a	-0.043830432
119	0xbb978d2e	-0.004624984
120	0x3dd822ec	0.10553536
121	0xbbaafa65	-0.0052178376
122	0xbd2c4e9a	-0.042067148
123	0x3d859bb1	0.065238364
124	0xbddd3939	-0.1080193
125	0x3d2bf742	0.04198385
126	0xbbeddac6	-0.007258746
127	0x3bf5a863	0.00749688

fc2.weight f4 [128, 128]
0	0x3d854be4	0.065086156
1	0x3dece501	0.115671165
2	0xb73ffac0	-1.1442869e-05
3	0x3dac91ff	0.08426284
4	0x3d06f3a1	0.032947186
5	0x3d5e2a75	0.05423971
6	0x3e22829b	0.15870135
7	0xbc20a5cb	-0.009805153
8	0x3d0c9d4b	0.034329694
9	0x3cda4175	0.02664254
10	0x3df3fce4	0.119134694
11	0x3de348f0	0.11097896
12	0x3b82083b	0.0039682663
13	0x3c789c82	0.015174033
14	0x3d923775	0.07139484
15	0xbd8b38db	-0.06797954
16	0xbe408601	-0.18801118
17	0xbd04b295	-0.03239687
18	0x3cd0ab57	0.025472326
19	0xbdaec0d2	-0.08532871
20	0x3d0a64a8	0.0337874
21	0x3dabd211	0.08389676
22	0xbd6b0498	-0.057377428
23	0x3d1d9b36	0.0384781
24	0xbd7a6912	-0.06113536
25	0x3dca109c	0.09866449
26	0xbe08053f	-0.13283251
27	0xbd85bcf4	-0.065301806
28	0xbc38889f	-0.011263042
29	0x3c15761f	0.009122401
30	0x3b9ded89	0.004819576
31	0xbc265047	-0.010150976
32	0xbd4c5068	-0.04988137
33	0xbd60880e	-0.05481725
34	0xbd199a22	-0.037500508
35	0xbdae1ba9	-0.085013695
36	0xbdef49f9	-0.11684031
37	0xbd4407eb	-0.047859114
38	0xbd0311d1	-0.031999413
39	0xbda3b0e1	-0.07992721
40	0x3d9d2fd9	0.07675142
41	0x3d78e9ca	0.060769834
42	0x3c5c40ba	0.013443166
43	0xbd1a22c1	-0.0376308
44	0x3ea24e55	0.31700388
45	0x3cfaca8e	0.030614164
46	0xbc64eb80	-0.013972163
47	0x3d09efc0	0.03367591
48	0x3c78983e	0.015173016
49	0xbdbc6747	-0.09199386
50	0xbccce7e5	-0.02501292
51	0x3c80a506	0.01570369
52	0x3d603dfe	0.05474662
53	0x3d8c0a75	0.06837932
54	0xbcd39dce	-0.025832083
55	0x3c2892ba	0.010288889
56	0xbd6c97e9	-0.05776206
57	0xbd964674	-0.073376566
58	0xbdfa50d9	-0.12222452
59	0xbd04a5eb	-0.032384794
60	0xbe27a371	-0.16370942
61	0x3c6d60e5	0.0144884335
62	0xbd9da915	-0.076982655
63	0x3d0594aa	0.03261248
64	0x3d9e88cf	0.07740938
65	0x3d5e1963	0.05422343
66	0xbd4207a0	-0.047370553
67	0xbc05c9dc	-0.008165803
68	0xbd320ac0	-0.043467283
69	0xbd621f0f	-0.0552054
70	0x3c0c603a	0.008567864
71	0x3a66d3dc	0.0008805373
72	0xbc67271b	-0.014108445
73	0xbb076bbe	-0.0020663585
74	0xbc8573e5	-0.016290614
75	0xbe51792f	-0.20456384
76	0xbcce88ed	-0.025211776
77	0x3d463f20	0.048400044
78	0xbd34da98	-0.04415378
79	0x3d341e99	0.043974493
80	0x3c489fa9	0.012245097
81	0xbc55911e	-0.013035087
82	0xbd314ffd	-0.043289173
83	0xbc872197	-0.01649551
84	0x3b4d005c	0.0031280732
85	0x3c5ba983	0.013407114
86	0xbd97286f	-0.07380759
87	0x3d0710da	0.032975055
88	0x3d8f19b7	0.069873266
89	0xbc68d109	-0.014209994
90	0x3d05f342	0.03270269
91	0x3d6e302c	0.05815141
92	0x3c0464e4	0.008080695
93	0x3d039482	0.03212405
94	0x3d9b2505	0.0757542
95	0x3d51e11e	0.05124008
96	0x3de5f80b	0.11228951
97	0x3d112eb5	0.035444934
98	0xbc656ed3	-0.014003473
99	0x3d9d5e84	0.07684043
100	0x3c3e7ad6	0.011625966
101	0x3cc2b489	0.023767726
102	0x3d9cdb48	0.07659012
103	0x3d560e2f	0.05225962
104	0x3d24ba3a	0.040216662
105	0xbd4bc37d	-0.04974698
106	0x3d097098	0.033554643
107	0xbd4a42c1	-0.049380068
108	0xba9f6311	-0.0012160261
109	0x3d70e94a	0.05881623
110	0x3d41cdea	0.047315516
111	0xbd3337d9	-0.043754432
112	0x3c44d2bc	0.012013134
113	0x3cf2552e	0.029581632
114	0x3e108bf3	0.14115886
115	0x3eb468ae	0.35236114
116	0xbb90e97d	-0.004422365
117	0x3d5d4903	0.054024708
118	0x3d1b367c	0.037893757
119	0xbd29e244	-0.04147555
120	0x3e023dd6	0.12718901
121	0x3c66ba0d	0.014082444
122	0x3dd3ac95	0.10335652
123	0x3ca10737	0.01965676
124	0xbcdec845	-0.027195105
125	0x3da0db31	0.078543074
126	0x3d858e30	0.06521261
127	0xbc7c4485	-0.015397196
128	0x3d3ff4af	0.046864208
129	0xbc33b413	-0.010968226
130	0xbd0deb75	-0.034648377
131	0xbd0348c3	-0.032051813
132	0xbdd01e70	-0.101620555
133	0xbc0b06fb	-0.008485551
134	0xbdb95047	-0.09048515
135	0x3d529bff	0.0514183
136	0xbb125575	-0.0022328768
137	0x3d8f0d07	0.06984907
138	0xbd80f681	-0.06297017
139	0x3c1f5fbc	0.009727415
140	0x3cf4c871	0.029880734
141	0x3d6ad451	0.057331387
142	0x3da52b1b	0.08064862
143	0xbdc4533b	-0.095861875
144	0xba4a0069	-0.00077057496
145	0xbda2bbf2	-0.07946004
146	0xbda5e5b9	-0.08100457
147	0xbd2c66ca	-0.042090215
148	0xbc2a41a9	-0.010391631
149	0x3d9299e8	0.071582615
150	0xbda42533	-0.08014908
151	0xbd343aaf	-0.044001278
152	0xbd517a48	-0.051142007
153	0x3c76e6a4	0.015069637
154	0xbcfe7821	-0.031063141
155	0x3c035ba8	0.008017458
156	0x3cad0044	0.02111829
157	0xbd499bca	-0.049220838
158	0xbc9c1e18	-0.019057319
159	0xbdc2da93	-0.09514346
160	0x3ba1413f	0.004921108
161	0x3d68125f	0.056658145
162	0x3d86b9b9	0.065783925
163	0x3d72c4e0	0.059269786
164	0x3db41015	0.0879213
165	0xbd224e6c	-0.03962557
166	0xbcc0055b	-0.023440054
167	0xbd7e683b	-0.06211112
168	0x3c4e3437	0.012585691
169	0xbd8f00ad	-0.06982551
170	0xbdb8b720	-0.09019303
171	0xbd64c051	-0.05584747
172	0x3c8ddeed	0.017318213
173	0x3db49bec	0.08818802
174	0xbda7ce44	-0.08193639
175	0x3b270dd1	0.0025490413
176	0xbc6f502a	-0.014606515
177	0x3d315169	0.04329053
178	0xbd883aa6	-0.06651811
179	0xbd1619a1	-0.036645535
180	0x3d26083e	0.040535204
181	0x3d60b580	0.054860592
182	0xbd0fc187	-0.03509667
183	0x3d78a93e	0.060708277
184	0x3d89948e	0.06717788
185	0xbd2b29c8	-0.041787893
186	0xbd6142e9	-0.05499545
187	0xbd806949	-0.062700815
188	0x3d21b953	0.03948338
189	0xbd3e71bb	-0.04649518
190	0xbd1b243b	-0.03787635
191	0x3cbd3fd7	0.02310173
192	0xbd3ec8ac	-0.046578094
193	0x3d23a416	0.039951406
194	0xbdae619d	-0.08514712
195	0x3d40d720	0.04708016
196	0xbd856b99	-0.06514663
197	0x3d7cec03	0.061748516
198	0xbcd7d5a2	-0.026346985
199	0xbd078547	-0.033086088
200	0xbcb42af0	-0.02199313
201	0x3ce31ff4	0.027725197
202	0xbcb2c362	-0.021821681
203	0xbdd76826	-0.105179116
204	0xbd92c657	-0.071667366
205	0xbd2d043b	-0.042240363
206	0x3cab80a8	0.020935372
207	0x3cb718de	0.022350725
208	0xbdac8cef	-0.084253184
209	0x3c2fcdd8	0.010730229
210	0xbd91d831	-0.07121313
211	0xbd8b3799	-0.06797714
212	0xbd90decc	-0.07073745
213	0x3d48c324	0.049014226
214	0x3c147736	0.009061625
215	0xbc8473b7	-0.016168458
216	0x3d250470	0.040287435
217	0xbc56cb68	-0.013110019
218	0xbd6951c8	-0.05696276
219	0x3d3d51af	0.046220478
220	0xbd352295	-0.044222433
221	0x3c0f0439	0.008729034
222	0x3d75c948	0.06000641
223	0x3d0e57a7	0.03475156
224	0x3d49dfb9	0.049285624
225	0x3d7214f3	0.05910201
226	0x3c94a5c9	0.018145459
227	0x3bba10fd	0.0056782947
228	0xbae97b07	-0.0017813154
229	0x3d8a70d6	0.06759803
230	0x3d6c253d	0.0576527
231	0xbd02a42c	-0.031894848
232	0x3d622222	0.055208333
233	0xbda88caa	-0.082299545
234	0xbdad85c7	-0.08472782
235	0xbd739fa2	-0.05947841
236	0x3d9207d0	0.07130396
237	0x3c6623d4	0.014046628
238	0x3c4ae565	0.0123837935
239	0xbd91de4e	-0.071224794
240	0x3d513688	0.051077396
241	0x3cabfe64	0.020995326
242	0xbd731dba	-0.05935452
243	0xbdd0f71d	-0.10203383
244	0xbd79a1b0	-0.060945213
245	0xbd892aab	-0.066975914
246	0xbd38b77d	-0.045096863
247	0xbd03b01f	-0.032150384
248	0xbd52bfd3	-0.05145247
249	0xbda0cc27	-0.07851439
250	0x3d89f889	0.067368574
251	0x3be21afe	0.0069001904
252	0x3ba9678b	0.005169814
253	0xbc93e572	-0.018053744
254	0xbcd3c695	-0.025851527
255	0xbd821bce	-0.063529596

fc2.bias f4 [128]
0	0x3e4ebda7	0.20189534
1	0xbdb68904	-0.089128524
2	0x3e1d7aaa	0.15378824
3	0xbc6aa38e	-0.014321221
4	0x3dd898e0	0.105760336
5	0x3cbfc482	0.023409132
6	0xbdba46c4	-0.09095529
7	0xbe4dae47	-0.20086013
8	0x3d3049fa	0.0430393
9	0x3def6bc8	0.116904795
10	0x3d34bcd0	0.044125378
11	0x3e05d6d1	0.13070227
12	0x3dcf59a7	0.10124522
13	0x3e673096	0.22577128
14	0x3dcef257	0.101048164
15	0xbd882215	-0.06647126
16	0xbdb070e6	-0.08615284
17	0xbd83afd6	-0.064300224
18	0xbd60001c	-0.054687604
19	0x3d2b4245	0.041811246
20	0x3c8e3e74	0.017363764
21	0xbcdcf29e	-0.026971158
22	0x3db1c766	0.0868061
23	0xbda51fcb	-0.08062705
24	0x3d10b304	0.035326973
25	0xbc9d8fb7	-0.019233568
26	0x3db08237	0.086185865
27	0x3d21a330	0.03946227
28	0x3e2693ce	0.1626732
29	0x3dcabfaf	0.09899842
30	0xbd030e93	-0.03199632
31	0xbced0ff2	-0.028938267
32	0x3e08c548	0.13356507
33	0xbc84bd20	-0.016203463
34	0x3cb72be2	0.022359792
35	0xbd42f17d	-0.047593582
36	0x3e02c067	0.12768708
37	0x3ce70a81	0.02820325
38	0x37a59d0d	1.9742665e-05
39	0x3c6c0f44	0.0144079365
40	0x3deb8262	0.11499478
41	0xbe5c8295	-0.21534188
42	0xbdd11fe0	-0.10211158
43	0x3deb70ae	0.11496101
44	0x3caff390	0.021478444
45	0x3dd8625b	0.10565635
46	0x3c7d9018	0.015476249
47	0xbdd2cf47	-0.10293441
48	0x3dab0eb4	0.08352414
49	0x3bc4de9c	0.0060079824
50	0x3c228114	0.00991847
51	0xbddc76e2	-0.107648626
52	0xbdc9ef37	-0.0986008
53	0xbd2f45a3	-0.04279102
54	0x3ce3a64e	0.027789261
55	0x3e0f0c22	0.13969472
56	0x3dd73fb8	0.105102
57	0x3dec1129	0.115267105
58	0xbdd9dbed	-0.10637651
59	0xbdbd8e87	-0.092557006
60	0x3ce9d1c8	0.028542414
61	0x3d05b688	0.03264478
62	0xbc7d074d	-0.015443635
63	0x3d057cdd	0.032589782
64	0x3e093853	0.13400392
65	0x3e4d77bd	0.20065208
66	0xbcd18a4c	-0.02557864
67	0x3e005062	0.12530664
68	0x3c78587a	0.015157813
69	0x3df4d740	0.11955118
70	0x3c9a3dbc	0.018828265
71	0x3d9cec5f	0.07662272
72	0xbdcd98a8	-0.100388825
73	0x3ca348e0	0.01993221
74	0x3d201569	0.03908292
75	0x3d827785	0.06370453
76	0xbb8787e1	-0.004136071
77	0x3dd7f8e7	0.10545521
78	0xbd053ea8	-0.032530457
79	0x3e0b2e7b	0.1359195
80	0xbd598e12	-0.053114004
81	0xbd029cac	-0.031887695
82	0x3b803d56	0.003913562
83	0x3d0fffcc	0.035156056
84	0xbdec3c0e	-0.11534892
85	0xbd80600c	-0.062683195
86	0x3b84c76b	0.004052093
87	0xbdaebbb0	-0.08531892
88	0x3e331de8	0.17491877
89	0x3e14160c	0.14461535
90	0x3df73c0d	0.12072001
91	0x3c54e87a	0.01299488
92	0xbd8a8854	-0.06764284
93	0xbc8e1536	-0.017344099
94	0x3d9859fd	0.07439039
95	0xbd1fffbb	-0.039062243
96	0x3d1944bb	0.037419062
97	0x3e033ac2	0.12815383
98	0xbdd472a1	-0.10373426
99	0xbdc94d67	-0.098292165
100	0x3dc448c3	0.09584191
101	0xbd9be754	-0.07612482
102	0xbd88a62d	-0.066723205
103	0xbd7b9009	-0.06141666
104	0x3de64b0f	0.11244785
105	0x3cdd9440	0.02704823
106	0xbd27909d	-0.0409094
107	0xbd405757	-0.046958294
108	0x3ded5032	0.11587562
109	0xbca78140	-0.020447373
110	0xbdb64bb2	-0.089011565
111	0x3d672204	0.056428924
112	0x3d28d2cd	0.04121666
113	0xbc931810	-0.01795581
114	0xbcb420d9	-0.02198832
115	0xbd9d4c88	-0.07680613
116	0x3b5ab1e8	0.00333702
117	0x3dc70e20	0.09719491
118	0xbdb93d7e	-0.09044932
119	0x3e261eb2	0.16222647
120	0x3dd712e7	0.10501652
121	0x3bc7a696	0.0060928566
122	0xbd93713a	-0.07199331
123	0x3c88b091	0.016685756
124	0x3e2446b5	0.16042598
125	0xbda175db	-0.07883807
126	0x3dbea011	0.09307874
127	0xbd9babf2	-0.07601155

last_fc.weight f4 [6, 128]
0	0x3d8f524d	0.069981195
1	0xbda5bc8d	-0.08092604
2	0x3c67b238	0.014141612
3	0x3d32b0ba	0.04362557
4	0x3ca87848	0.020565167
5	0xbd5711fb	-0.052507382
6	0xbd5c10f1	-0.053727094
7	0xbcc5b277	-0.02413295
8	0xbcca0de0	-0.02466482
9	0x3eb263ce	0.3484177
10	0xbb80bec3	-0.0039289906
11	0x3e1105c6	0.14162359
12	0x3e122802	0.14273074
13	0x3dfe57d5	0.124190964
14	0x3d8e4b25	0.069479264
15	0xbd40da92	-0.047083445
16	0xbbc4971e	-0.00599946
17	0x3daaa28b	0.08331784
18	0x3d9a7b3d	0.07543037
19	0xbd5e41b3	-0.054261874
20	0xbd2d28ae	-0.042275123
21	0xbd1df99b	-0.03856812
22	0xbecfa147	-0.40552732
23	0xbd0e66c9	-0.034765992
24	0x3c9ddba2	0.019269768
25	0xbcaf347b	-0.02138733
26	0x3bdcf327	0.006742853
27	0xbced0d86	-0.028937113
28	0x3b6c9760	0.0036100969
29	0x3e9e86f7	0.30962345
30	0x3b530d51	0.0032203982
31	0xbd81ef34	-0.063444525
32	0x3e4422be	0.19153878
33	0x3d5275f9	0.05138204
34	0x3e288985	0.1645871
35	0xbd860f45	-0.06545881
36	0x3e211596	0.1573089
37	0xbbf69e3e	-0.007526188
38	0x3dbb5dc2	0.09148742
39	0x3d29680b	0.04135899
40	0x3e564bd7	0.20927368
41	0xbdac510e	-0.084138975
42	0xbd9b3d62	-0.07580067
43	0x3d329eba	0.043608405
44	0xbd1e2c97	-0.038616743
45	0x3e05ba6d	0.13059397
46	0x3c9cce04	0.019141205
47	0x3d0342cd	0.032046128
48	0x3d98bcfa	0.074579194
49	0x3ee57897	0.44818565
50	0x3d7dfaef	0.062006887
51	0x3cceb186	0.025231134
52	0x3d5dfa4c	0.05419378
53	0xbd178693	-0.036993574
54	0x3d6a0405	0.05713274
55	0x3e12395f	0.14279698
56	0x3dce5788	0.10075289
57	0xbeaad5c2	-0.3336621
58	0x3cfdad56	0.030966442
59	0xbd8f3e63	-0.06994321
60	0x3ebffdfa	0.37498456
61	0xbb3036b0	-0.0026888065
62	0xbd4bb849	-0.049736295
63	0xbd95fb56	-0.07323329
64	0x3e03329e	0.12812278
65	0x3dcf84d3	0.10132756
66	0xbe0e297c	-0.13883013
67	0x3d81c94c	0.063372225
68	0xbe041be5	-0.12901266
69	0x3e2a2490	0.1661551
70	0xbd234e1d	-0.039869417
71	0x3e437bb8	0.19090164
72	0xbd538e87	-0.051649597
73	0xbe850755	-0.25982156
74	0x3e52306a	0.20526281
75	0x3c68537a	0.014180059
76	0xbdc0ca36	-0.09413569
77	0x3e984f1e	0.29747862
78	0xbd9cb740	-0.0765214
79	0x3f00d616	0.5032667
80	0x3d9d79f0	0.07689273
81	0xbcaa0578	-0.02075456
82	0x3f2baff7	0.67065376
83	0x3d7dd919	0.06197462
84	0x3cffecc7	0.031240834
85	0x3d1c9b3c	0.03823398
86	0xbdb05485	-0.08609871
87	0x3c9b0934	0.018925287
88	0x3e005997	0.12534176
89	0x3dc17c81	0.09447575
90	0x3dd51887	0.10405069
91	0xbcb83154	-0.022484459
92	0xbc4aafaf	-0.012370988
93	0xbd516e76	-0.051130734
94	0xbcfbd616	-0.030741733
95	0xbd104f27	-0.035231736
96	0x3d661472	0.056171842
97	0x3d57e161	0.052705172
98	0xbc871d6a	-0.016493518
99	0xbc698310	-0.014252439
100	0xbc65c5f7	-0.014024249
101	0x3cfa0e2c	0.030524336
102	0x3ceb9f9a	0.028762627
103	0x3a9c1436	0.0011907879
104	0x3e0685ab	0.13136928
105	0x3d9ed8c2	0.07756187
106	0xbc4296bb	-0.011876757
107	0x3d88161c	0.06644842
108	0x3e3c487a	0.18387023
109	0xbd8e7796	-0.06956403
110	0x3c7bd020	0.015369445
111	0x3e2f3b0d	0.1711237
112	0xbca6e388	-0.020372167
113	0xbd1a69ec	-0.03769867
114	0xbd96811b	-0.07348844
115	0xbcc9793b	-0.02459394
116	0x3ea3d412	0.31997734
117	0x3da071b4	0.07834187
118	0xbd842c87	-0.064538054
119	0x3d4c09dc	0.04981409
120	0x3e08c8ae	0.13357803
121	0x3d3ae3cc	0.0456274
122	0xbcad34fb	-0.021143427
123	0x3d88c96b	0.066790424
124	0x3c70714d	0.0146754505
125	0x3d5dd263	0.05415572
126	0xbd39b91f	-0.04534256
127	0x3d8c60ac	0.06854376
128	0x3ddb25e0	0.107005835
129	0x3da16d3b	0.07882162
130	0x3dd2ac8c	0.10286817
131	0x3c2e3133	0.010631847
132	0x3c12727c	0.008938428
133	0x3c2707a9	0.010194697
134	0x3d21331d	0.039355386
135	0xbd1cd1c0	-0.03828597
136	0xbcbbf9a4	-0.022946186
137	0x3ec7fbb4	0.39059222
138	0xbc8be283	-0.017075783
139	0x3d4b3c83	0.049618255
140	0x3c63df78	0.01390826
141	0x3e0683a3	0.13136153
142	0x3dcc1145	0.099642314
143	0xbcaef8e5	-0.021358917
144	0x3d3dfa1d	0.046381105
145	0xbcd5dbb0	-0.026105732
146	0x3d4701eb	0.048585813
147	0x3ccd99a6	0.02509768
148	0x3da3f114	0.080049664
149	0x3d5ea5fe	0.05435752
150	0xbee69e71	-0.45042756
151	0xbb8283d6	-0.003983001
152	0x3c2bb4ed	0.010480148
153	0xbd5a6a1c	-0.05332385
154	0x3d64a124	0.05581774
155	0xbd46f8ea	-0.048577227
156	0x3dbf5f4d	0.09344349
157	0x3e9e471d	0.3091363
158	0x3cb451b9	0.022011625
159	0xbd9d8ae9	-0.07692511
160	0x3e6a0c7a	0.22856322
161	0x3c82db5f	0.015973745
162	0x3c1d83b7	0.009613923
163	0x3d8bb9bc	0.068225354
164	0x3e2f684d	0.17129631
165	0x3c3be7e3	0.01146886
166	0x3d22b796	0.039725862
167	0x3d9d57a5	0.076827325
168	0x3e449f17	0.19201313
169	0xbdc2bcdb	-0.095086776
170	0x3d1d62d0	0.038424313
171	0x3c3b6c5c	0.011439409
172	0xbda40aed	-0.080098964
173	0x3e2c198f	0.16806625
174	0x3d1e25b1	0.038610164
175	0x3d5a903f	0.05336022
176	0xbd1db9b9	-0.038507197
177	0x3ec68b7b	0.3877829
178	0x3d2b6322	0.041842587
179	0xbdb20d54	-0.086939484
180	0x3daebbc6	0.08531909
181	0xbd9dd81d	-0.07707236
182	0xbd602db7	-0.054731097
183	0x3e09625a	0.13416424
184	0x3e117e14	0.14208251
185	0xbe88b69b	-0.26701817
186	0xbcb93151	-0.022606524
187	0xbd61609d	-0.05502378
188	0x3ea89c1e	0.32931608
189	0x3db337bd	0.087508656
190	0x3d9bb09c	0.07602045
191	0xbd99c750	-0.07508719
192	0x3d9def9d	0.07711718
193	0x3de21432	0.11039008
194	0xbd9f7cf4	-0.07787505
195	0x3c9bed48	0.019034043
196	0xbcf97d39	-0.030455219
197	0x3dcae147	0.099062495
198	0xbca4b17f	-0.020104168
199	0x3e3f1c07	0.18663035
200	0x3d2a5b40	0.04159093
201	0xbe6a1351	-0.22858931
202	0x3eb7b309	0.3587878
203	0xbd29b310	-0.041430533
204	0xbba5d5a9	-0.0050608707
205	0x3e952ccc	0.2913574
206	0x3d7e4786	0.06207993
207	0x3f0b0d49	0.54317147
208	0x3d10811f	0.03527939
209	0x3cb10316	0.021607917
210	0x3f1b8d16	0.60762155
211	0x3cccdafc	0.025006764
212	0xbd104b80	-0.035228252
213	0x3ce4cf08	0.027930751
214	0xbdaa6bde	-0.08321355
215	0x3bd10d3d	0.006379752
216	0x3dcfdc87	0.10149484
217	0x3d99520d	0.07486353
218	0x3d745ffc	0.05966185
219	0xbc97779d	-0.018489653
220	0x3cefe7ed	0.029285396
221	0xbd214076	-0.039368115
222	0xbc503a3a	-0.012709195
223	0xbc3ab7cb	-0.011396359
224	0xbbdc0c54	-0.006715337
225	0x3d1310d1	0.03590471
226	0xbda39b01	-0.07988549
227	0xba773423	-0.0009430071
228	0xbd931a79	-0.07182784
229	0xbcaca251	-0.021073492
230	0x3d91ed83	0.0712538
231	0xbd822aae	-0.06355797
232	0x3e2ff5f3	0.17183666
233	0x3e1515ae	0.14559051
234	0xbd0795bb	-0.03310178
235	0x3d94cae9	0.072652645
236	0x3e41edc6	0.1893836
237	0x3d40ef61	0.04710329
238	0x3cc4b0a2	0.024010006
239	0x3e01b509	0.12666716
240	0xbdd580e4	-0.104249746
241	0xbd7c3d50	-0.06158191
242	0x3dab13b5	0.08353368
243	0x3db276c0	0.08714056
244	0x3e92c0f1	0.28662828
245	0x3e193dac	0.14964932
246	0xbd2d7967	-0.042352106
247	0x3e0dda63	0.13852839
248	0x3df67bfa	0.120353654
249	0x3c81ce80	0.015845537
250	0x3d926f89	0.0715018
251	0xbd76733a	-0.060168482
252	0x3d2744f1	0.040837232
253	0xbca4eece	-0.020133402
254	0x3d13a15e	0.036042564
255	0x3d4cbffd	0.04998778

last_fc.bias f4 [6]
0	0x3e32c745	0.17458828
1	0x3ddab9bf	0.106799595
2	0xbb64f31b	-0.0034934941
3	0x3e1d2187	0.15344821
4	0x3e311833	0.17294388
5	0x3e536434	0.20643693
