data/Fanuc_success/Behavior_cloning/BC_policy_CIC_CEV_300_aug_allangle_itr_39.pt (torch, 546083 bytes, 8 tensors)

fc0.weight f4 [256, 6]
00000000: de18 c3bf 3b8c bc3f cb6b 593e 15d5 7b3e
00000010: ef42 b63e a6dd 803e dc8d 073e cc44 943e
00000020: 37d8 98bd 6115 303c daaf e5bc f22f 453e
00000030: aeab 2ebe 8ab9 75bd e44e afbe c1b0 a2bd
00000040: c4b6 a4be f0fc 40be 9e4e ef3e 1a32 a9bd
00000050: 055a cf3e 4b7a 1d3f cfe2 003e d5e7 963e
00000060: f12c 353e 71bc 3fbe 3a66 26bf d532 6ebe
00000070: 8d8e b2be cfbc 1dbe a992 b8bc 874d 3cbe
00000080: 48c4 35be 9983 43bd 00ee 28bd 3a72 78bc
00000090: 2bc9 42be b1b4 d4bb 6ca4 18bf f788 cfbd
000000a0: 90f1 093e c6f7 6fbe 5df8 2ebf 2153 283e
000000b0: f477 1bbf 74f9 143e 7aee 673e 5d84 0ebe
000000c0: bf64 c6be 41fd 96be d802 9cbe 3384 a2be
000000d0: 8590 3f3f 6b0a 6cbd 969f 03bf a86e 52bf
000000e0: 866c 36bf 5d37 acbe f80c d83d 8138 c5bd
000000f0: 74de 163f 495e 873e 3916 f93e 4b03 2d3e
00000100: 29db 50be 17dd 05be ae89 6d3d 0104 8d3e
00000110: 08ef 0dbf 5009 923e 3581 1d3e d307 063e
00000120: 6237 47be b913 0a3f 431d d33e 7ed5 97bd
00000130: 45a8 27bf 042a 69bd 0c9a 29be ccd9 d1be
00000140: 16ae 10bf dff8 663b 9f40 73be 3bb7 bf3d
00000150: 8750 983c e4a4 303f fd88 483f 4b80 4cbe
00000160: 5a26 a73e e744 c83c ef00 0ebe 0e75 ec3b
00000170: 71eb 07bf d88b dfbc a4fd bbbe 31fb 793e
00000180: b4c7 ea3e 61dd c43e c408 bf3d cf68 873e
00000190: f982 11bf 7bb8 8b3e ad40 05be b104 85bc
000001a0: c53d eabe ada9 1ebe 1e42 fc3d dfbd a43e
000001b0: f2b4 36be de63 eabe 8398 0f3f 38b1 b23d
000001c0: ebff 2bbe 9126 5cbd 2045 31be 2d7e 283e
000001d0: 5388 29bf f669 e73d 0e83 76be 3a6e cbbc
000001e0: a33e c23e 03a6 8abd 49e4 2f3f 99b6 a0bc
000001f0: a255 c9bd 3655 e1be 217e 35bd e7a6 b9be
00000200: 3081 363e 63c8 96bc e3ca 323e 3efe b4bd
00000210: 7d14 b63e 1e3e 5fbd c0ce 87be d418 edbd
00000220: c603 afbd 7780 803e 5218 e3be 81ad 7fbe
00000230: 27e9 b1be a20a 22bc b9ef 753e 3dbd 8a3d
00000240: 307b 813e 6ec4 9dbe 028c 37be 2954 443c
00000250: 8430 5c3d c0c3 ed3c aa4e 25bd 8f70 21be
00000260: eaae 2cbd bff5 cfbd 5154 e93d dec3 403e
00000270: b619 793e f1a3 11bf aef4 17bf 9861 72be
00000280: 779b 17bd dbd5 b9bd 7a85 93be b45a a8be
00000290: e35e d9be 8313 5f3c 8440 1dbe 9314 983c
000002a0: 35cf 04be 10dd 81be 8e1a ba3e b79b c63e
000002b0: 8e69 aabe ea30 72bb d455 90be 2a42 903e
000002c0: a8e7 89be 368f 813d cde1 78be 0060 ae3e
000002d0: b62c 58be 5625 6f3e 75f0 a5be 6b86 f5bc
000002e0: 67c1 41be 4fd7 3d3e 2d3c aabe 918c 09bf
000002f0: 5ecc e5be 1c61 71bd 5184 89be bb79 c73d
00000300: 5eb1 573e 6bcb 613d 36f8 7e3e b972 c6bd
00000310: a2d1 9b3d 4975 a23c 1958 61bd b7a0 7f3f
00000320: 87ba c83e b8c1 443e e5c9 cabe a186 82be
00000330: 4ccf c23c 7b32 903c 6658 06bf 4a36 73be
00000340: 6d4c 733e 8b5c 173e 55fd 80be 6085 1b3e
00000350: 3379 3ebe c5ca e2be 7b81 96bd 47de d3be
00000360: eed3 e13e 349c c33e 9654 01bf 1b2d 963e
00000370: d865 71be 7cb3 83bd 7d14 c4be 3117 883d
00000380: 2186 90be 866d 47be 3e61 a1be 9b5e 863e
00000390: 9afd 473c a0b6 9c3e 9a9d 743e 44f7 423d
000003a0: ade2 6f3e c185 48bd 9b5c 00bf 8989 26bf
000003b0: bcc5 b3be 69a8 b13e 6c22 b63e 70ec 3fbe
000003c0: a26a bfbe 39e5 61be 4b55 8fbe e0c9 02bf
000003d0: 4ef4 403e 10de 093f a14e 4bbc b926 113f
000003e0: 0990 8cbe a4d4 b33d cbfb c03d 3ab7 13bd
000003f0: 82b1 c5bd 3b9c e9bd 43ca dcbe 88c3 38be
-1.5241964 1.4730295 0.21232526 0.24593003 0.3559794 0.25169104 0.13237709 0.28958738
-0.07463115 0.010747285 -0.028037954 0.19256571 -0.17057678 -0.059991397 -0.34239876 -0.079438694
-0.3217069 -0.18846488 0.46739668 -0.08261509 0.40498367 0.6151473 0.1258652 0.2947375
0.17692925 -0.18724228 -0.64999735 -0.23261578 -0.34874383 -0.15404056 -0.02253087 -0.1838895
-0.17750657 -0.047732923 -0.0412426 -0.0151639525 -0.19022052 -0.0064912667 -0.5962589 -0.10133546
0.13471055 -0.23434362 -0.6834772 0.16437961 -0.6072991 0.14548284 0.22649565 -0.1391768
-0.38748738 -0.29490092 -0.3047092 -0.31741485 0.74829894 -0.057627123 -0.51415384 -0.822001
-0.71259344 -0.3363599 0.105493486 -0.09629918 0.58933187 0.2643912 0.48649767 0.16895787
-0.20396103 -0.1307262 0.05799263 0.27542117 -0.5544286 0.2852273 0.1538132 0.13088922
-0.1945472 0.53936344 0.41233262 -0.07413767 -0.65491134 -0.056924835 -0.1656267 -0.40986478
-0.56515634 0.0035243554 -0.2375512 0.0936112 0.018593086 0.69001603 0.7833403 -0.19970815
0.32646447 0.024446918 -0.13867544 0.0072161024 -0.5309363 -0.027288362 -0.3671695 0.24412228
0.45855486 0.3845015 0.09327844 0.2644715 -0.56840473 0.27289185 -0.13012953 -0.016237589
-0.4575025 -0.15494414 0.12317298 0.3217611 -0.17842463 -0.45779318 0.5609209 0.08725208
-0.16796844 -0.053747717 -0.17311525 0.16454382 -0.6622364 0.11299507 -0.24073431 -0.024832834
0.37938413 -0.067699455 0.6870771 -0.01961832 -0.09830786 -0.44010323 -0.04430974 -0.3626015
0.17822719 -0.018406099 0.17460208 -0.08837555 0.35562506 -0.0545026 -0.26524925 -0.11577001
-0.085456416 0.2509801 -0.44354492 -0.2496853 -0.34748194 -0.00989023 0.24017228 0.067743756
0.25289297 -0.30813926 -0.17924502 0.011982956 0.053757206 0.029024005 -0.040358223 -0.15765594
-0.042159 -0.10154294 0.11393035 0.18824717 0.24326214 -0.5689078 -0.59357727 -0.23670042
-0.037013497 -0.09073993 -0.28812772 -0.328817 -0.42455205 0.013615492 -0.15356642 0.018564498
-0.12969668 -0.2536397 0.36348385 0.38790676 -0.33283657 -0.0036955425 -0.28190482 0.2817548
-0.26934552 0.063261434 -0.24304886 0.34057617 -0.21110806 0.23354086 -0.32410017 -0.029971322
-0.18921433 0.18539165 -0.33249035 -0.5373011 -0.44882482 -0.0589305 -0.26858762 0.09740015
0.21063754 0.055125635 0.24899372 -0.0968985 0.07608344 0.019831317 -0.055015657 0.99854606
0.3920481 0.19214523 -0.39607158 -0.2549334 0.023780487 0.017602196 -0.52478635 -0.23751178
0.23759623 0.14781396 -0.25193277 0.15187597 -0.18600921 -0.44295326 -0.07348915 -0.41380522
0.44107002 0.3820511 -0.5051969 0.29331288 -0.23574007 -0.06430718 -0.3829688 0.066450484
-0.28227332 -0.19475374 -0.31519502 0.26244053 0.012206459 0.30608082 0.23888245 0.047599092
0.23426314 -0.048955683 -0.50141305 -0.6505361 -0.35111797 0.346988 0.35573137 -0.18742537
-0.37386042 -0.22060098 -0.2799476 -0.51089287 0.18843195 0.53854465 -0.012408883 0.5669971
-0.2745364 0.08780792 0.09423026 -0.03606341 -0.096529976 -0.11406752 -0.43123063 -0.18043339

fc0.bias f4 [256]
00000000: 5341 68be 36d8 083d b1e7 963d f4bc 70bc
00000010: 2080 f93d d545 b3be 6449 a43d 673d 1e3e
00000020: b3f5 513c d017 0f3d 1f0e 273d 4de5 5b3e
00000030: 82af b33c a03d e63c c6b1 b9bd 1e92 4e3e
00000040: 49ea 623e 9951 493e ce55 a6bc 654c f93d
00000050: 4280 dabc be24 b0be 2d78 ccbe 4feb 233e
00000060: 81d5 31bd b153 c9be 8701 ee3d f203 ea3d
00000070: e025 d7be 1b96 8fbe fe5e a1be e6a6 7b3e
00000080: 04b2 25bc bff1 1fbd 0d54 903c 77ab 87be
00000090: 30eb 443e 5657 403e d1b8 aabe 9f89 833e
000000a0: 5c49 45bd a215 1b3d dc9f b43d 1301 8d3c
000000b0: bb82 583e c44f 533b 2b24 c13d ca3c c5be
000000c0: 897f cd3c 0fd4 a83c 46a5 21bd 0e0f e1bc
000000d0: 6490 603e 28ef 6dbe 002b bbbe 54ff 0e3e
000000e0: e398 423d 3c04 e7bb 5d0a b9be bf75 72ba
000000f0: a170 8bbb cdde 083e 7760 5fbd 7e94 823d
00000100: 81a7 81be a3ed a9be 65f6 a7bc 2561 923c
00000110: f875 97be f581 0c3d fed6 823e eaeb fe3d
00000120: 3972 c23d ade1 c23d 8d90 2cbe 6075 28be
00000130: 75b0 2abe 6cdb aebc f637 a33d 870f ab3d
00000140: b170 74be cd60 7b3c 4949 81be 8eba f83c
00000150: 96f9 813c 6c4b 113d 81c3 413e b90b 8a3c
00000160: 543a 4abd ca0b 973e 4ca4 c3be 2ff6 263e
00000170: edfe cb3d 722f 4c3d 9ff0 5f3d f4e0 89be
00000180: a566 cbbd 0716 053d c606 f53d d926 a13d
00000190: 81ff d83c 0ea9 e73d 9054 0cbd 01bc 5abe
000001a0: 5855 51be 1a55 67bc 05db 3c3e 7a67 8c3b
000001b0: 8ddf 84be 1b4b 0a3e 554f 063d 54c7 8bbe
000001c0: b527 ce3b 2b58 23bc 315b de3d 4ec9 a2be
000001d0: 2cb3 1d3c b277 7b3e 263b febc 4253 ee3d
000001e0: 1cff c43d e7b7 aebe 8883 c43d fff8 56be
000001f0: e5eb 3fbe 0f60 95be 7de0 d73d 3c8c 7dbc
00000200: 98f4 833e c854 b2be bd61 863d 294a 7b3e
00000210: ff24 cfbc 57e1 273d 076d 80bc 2be6 56b8
00000220: 0b7f b9bd 3ef7 e43d 66ac 803d e31d b6be
00000230: 369f bcbd 0298 a0ba d40d a93c c348 2cbc
00000240: ce94 78bd f44a 99be 8c38 b5be 2175 8f3e
00000250: 30ca d33b b697 853b e895 5bbe d8de 32be
00000260: 58fa 003d e906 053c b8b0 393d 9b97 c43d
00000270: 9cfe 92bc dc21 103d 2d91 9bbc a052 30be
00000280: 69f3 78bc 0eaa a63d ecad fc3b 37cd 883d
00000290: d2ec 3b3e a096 a2be 80c4 5f3e ed80 1d3d
000002a0: 0bf6 fe3d 711d 453c 0b6d fb3d b57a babb
000002b0: 967a 1e3d e2cb 39be 3eb2 2c3d 47ff 0bbd
000002c0: e14c 393e 9e5a 40bc 975d 563e f052 45bd
000002d0: c4b3 2b3d b4cd 683d cbe7 b2bc c25e c6be
000002e0: 5bc3 583e e1cf b7bd c759 413e 5744 513d
000002f0: 7d22 723d 7e0a d33d eed6 8b38 644f d8bc
00000300: aeff 9f3e 7e56 833e 42ab 5e3e 74a9 073b
00000310: 0fb0 813e ac13 823d 83e6 cebe 14a4 33be
00000320: 6f6e 92be f0f4 83be e676 f53c 0f7e 833e
00000330: 07f5 9c3e 7a6f 19be 170a 36bc 9afa 15bd
00000340: 0a57 0dbc c6a9 8f3c 1b9d 273e 330e 00be
00000350: c819 973d d991 ea3c f1d9 47bd a8cf 653c
00000360: 3e3b 4b3e 837f 913e e00f b63d e940 463e
00000370: 29c6 f03c 0bb7 d5be 1e76 293e 624a f9ba
00000380: b7b8 3d3d 0d25 e73b 6f0b 7d3e 016c c83c
00000390: 0fdf 4ebb d1eb db3c e265 cf3c 4ec1 8abe
000003a0: f871 1c3c 989b aa3d 758e 78bd 5756 cbbe
000003b0: dba7 083e af75 473e 6211 843e 5673 bfba
000003c0: 037d 30be 4f6a 953b 317f 9dbe a7d2 7d3c
000003d0: e953 c03d b5f9 c3bd 4649 64be 4740 11bd
000003e0: 1ef9 a8bb 8171 a23d 162d 5fbc d433 143d
000003f0: 2307 38bd ce0a 923a b978 b4be 9c29 33be
-0.22681169 0.03340932 0.073684104 -0.014693487 0.12182641 -0.35014215 0.08021811 0.1545311
0.012814927 0.03493482 0.04078495 0.2147419 0.021934275 0.028105557 -0.09067111 0.20172927
0.22159685 0.19660033 -0.020304587 0.12172774 -0.026672486 -0.34403032 -0.39935437 0.16007732
-0.043416504 -0.39321664 0.11621385 0.11426534 -0.42021084 -0.2804421 -0.31517786 0.24575385
-0.010113243 -0.039048906 0.017618204 -0.26498005 0.19230342 0.18783316 -0.3334413 0.25690934
-0.048165664 0.037862428 0.08819553 0.017212426 0.2114362 0.003224359 0.094307266 -0.3852294
0.025085228 0.02060893 -0.039464258 -0.027472999 0.2193008 -0.23235762 -0.36556244 0.13964587
0.047509085 -0.0070500653 -0.3614072 -0.0009249113 -0.00425537 0.13366242 -0.054535355 0.06375979
-0.25323108 -0.33189115 -0.020503232 0.017868588 -0.2958219 0.034303624 0.2555465 0.12447341
0.094944425 0.095157005 -0.16852017 -0.16451025 -0.16668876 -0.021344863 0.07969658 0.08352571
-0.23871113 0.015342903 -0.25251225 0.030362394 0.015866082 0.03547232 0.18922235 0.016851293
-0.049372032 0.29501182 -0.38211286 0.16304849 0.099607326 0.049849935 0.054672834 -0.26929438
-0.09931687 0.03249171 0.119641826 0.07868738 0.026489021 0.113115415 -0.034260333 -0.2136078
-0.20442712 -0.014119411 0.18442924 0.0042847963 -0.25951806 0.13505213 0.0327905 -0.27300513
0.0062913545 -0.009969751 0.10857237 -0.31794208 0.009625237 0.24557379 -0.031034064 0.11636974
0.09618971 -0.3412468 0.095954 -0.20993422 -0.1874233 -0.2917485 0.105408646 -0.015475329
0.25772548 -0.34830308 0.06561611 0.24540009 -0.025286196 0.040986385 -0.015676988 -5.1235937e-05
-0.09057435 0.1117997 0.062828824 -0.35569677 -0.092100546 -0.0012252333 0.020636477 -0.010515395
-0.060688786 -0.29939997 -0.35394704 0.2801905 0.0064633116 0.0040769232 -0.21443903 -0.1746782
0.031488746 0.008119323 0.045334548 0.09599229 -0.017943673 0.03518854 -0.018990124 -0.17219019
-0.015194752 0.08137904 0.007711163 0.066797666 0.18352059 -0.31755543 0.21852303 0.03845303
0.12449273 0.012030945 0.12276658 -0.0056908973 0.038691126 -0.18144181 0.042162172 -0.034179
0.18095733 -0.011740355 0.20934139 -0.0481748 0.041919485 0.0568368 -0.021839043 -0.3874417
0.21168272 -0.08975197 0.18881904 0.051090565 0.05911492 0.103047356 6.66807e-05 -0.026405044
0.31249756 0.25651926 0.21745017 0.0020700367 0.25329635 0.06351408 -0.4041024 -0.1754306
-0.2859988 -0.2577281 0.029963922 0.25682113 0.3065569 -0.14983931 -0.011110804 -0.036615945
-0.008626709 0.017537009 0.16368525 -0.12505417 0.07377964 0.028633999 -0.04879183 0.01402656
0.19846818 0.28417596 0.08889747 0.19360699 0.029391365 -0.41741213 0.16548964 -0.001901936
0.046318736 0.0070539773 0.24711393 0.024465563 -0.0031566059 0.026845844 0.025317136 -0.27100605
0.009548657 0.083304584 -0.060682733 -0.3971431 0.13345282 0.19478486 0.25794512 -0.0014606516
-0.17235188 0.004559792 -0.30761102 0.015492118 0.093910046 -0.09569112 -0.22293577 -0.03546169
-0.00515665 0.079318054 -0.013621589 0.03618224 -0.04492868 0.0011142136 -0.35248354 -0.17496341

fc1.weight f4 [256, 256]
00000000: 9096 d53c 9c1c 0ebd 7818 42bc b4c3 f5bc
00000010: 3a6d 063d 923e 063d b563 38bd afcd 24bd
00000020: acdd d13c e952 363d eb30 273d eb71 5cbd
00000030: c6c6 5a3d 7ce4 383d 4330 89bd a00f 47bd
00000040: a263 7ebd 81f9 403d a5d4 2dbd 9e62 973c
00000050: fdd0 353c 2c13 d9bc 00af 7f3b ab0d 22bd
00000060: 8a22 79bd 7073 1a3d 0a25 d9bc 08fe 5a3c
00000070: c449 423d 84e1 6dbd fc61 7c3d 0975 56bd
00000080: cd49 eb3c 8bca 0bbc 90dc debc 8f54 0dbc
00000090: acca 193d 23fe 80bd d6af 75bd dc24 e53c
000000a0: 485d 803c 3de1 59bd af31 103d f355 483d
000000b0: d7bc bcbc 2553 85bd 5d0b 2fbd 5087 dabb
000000c0: c88f 19bd f325 143d 8418 14bd feaa 0e3d
000000d0: 330f c03c dc2b 403d b022 3a3c d572 033c
000000e0: b445 01bc 98a4 153d 584e c9bc 2349 e23c
000000f0: 5fb4 3f3d b080 4abc 56ba ac3c ca74 a03c
00000100: 928a 64bd 48c5 24bd 16c8 0bbd bb0f e33c
00000110: 4272 083d 457a 003d 6980 0e3d 0d24 6fbd
00000120: 8392 e8bc 5642 a93b 62a3 8fbc 005a 88bb
00000130: ed08 a0bc 70c3 d63c 67d2 343d c625 533d
00000140: f0cc 66bc 91b9 f63a 1cde d1bc 2fce 7abb
00000150: e45b 62bd f6fc 87b9 7c67 aabc d915 503d
00000160: aac3 71bc 49dd 66bd cedd 463d dbdf 85bc
00000170: c8ff e5bc 05b6 1abc ffd5 143d 80e4 b13c
00000180: a64e 1bbd 72a4 31bc a612 16bd 2a3b 61bd
00000190: f4e7 083d 94cc 89bc d0b6 73bd 60ac ad3c
000001a0: 80ec 6a3c c320 34bc d16c 4c3d e838 25bd
000001b0: 70da 16bc 0269 89bd 0a02 273d 7488 b3bc
000001c0: 2c9c 703d 0067 6bbd dd2b c23c b83d 5b3c
000001d0: 24eb 463d a1e2 bebc 0599 3abd c371 453d
000001e0: 82cb b13c 30eb 38bd 4b24 9ebc 480e 3f3d
000001f0: 2c3c 803c 80cd 843a e4a0 b33c 8f2a 1dbd
00000200: 0079 0dbd a2dc 4e3d 1d12 2dbc a259 8dbc
00000210: 5c40 3abd 4c58 8e3c 815c a43c eb90 8e3c
00000220: c289 51bd 3f20 bcbc 8282 953c c3eb fc3c
00000230: 180c ac3c 4340 1ebd 5fb8 8b3c b841 44bd
00000240: 4fd1 04bb e07a a33c b6e9 2ebd 8f45 0abd
00000250: 96c8 7e3d 79a9 2dbc 46b7 68bd fc26 7d3d
00000260: ad7c d23b 410f 0fbd 342b 2abd 7db9 65bd
00000270: 0684 c4bc afbf 65bd 0d43 68bd 7e4b 063d
00000280: c408 77bd b8ed 30bd daba 0bbd a203 51bd
00000290: a789 133d 6a4f 4d3d c4d0 2ebc 9a6f 8c3c
000002a0: e02a 133d 056c f73b 4573 27bd 1d54 fc3c
000002b0: 57a2 203d 38e7 54bc 2d54 74bd 0228 b53b
000002c0: 7f66 89bd 948b 81bd 0c1d 313d d081 bf39
000002d0: ab5c aebb def3 a73c 0091 90bc 88a3 de3c
000002e0: 26b5 97bc e816 88bd 0807 d0bc 17ad 483d
000002f0: 1c8c 1a3d 153e 34bb 067b ef3c 749c 86bd
00000300: 6745 06bd 4fba e83b 108b 503d 6454 813c
00000310: 7fa4 693d 9d00 4dbd 04db 89bc a185 81bd
00000320: 1081 64bc 91b7 013d c90b 0a3d 1d1e 84bd
00000330: a9eb 80bd dc62 c8bc f4ed 8ebd 5c87 553d
00000340: d3c1 04bc 3958 72bc 7daf ba3c 34d4 07bd
00000350: 7454 34bd e6ab e2bc 7cfc 893c a9c6 f1bc
00000360: 5045 bfbc a650 663d 3bd2 89bd ed74 07bd
00000370: b327 cd3b 80bc 423d 53b3 60bd a7d7 0d3d
00000380: faec 80bd 216b 10bd 8be8 55bd 7cc5 17bd
00000390: d27b 323d fd75 c13c ad6f 78bd 949c 193d
000003a0: 6030 08bc 7bfa 973c 1053 453c 643d d4bc
000003b0: 561c 62bd dc5f 223d 6dfc 84bd 1539 8dbc
000003c0: eb28 183c d188 28bd e00a b13b 0ece 4dbd
000003d0: 44dc 4e3c e0ab 19bc cc36 1d3d 3d51 163d
000003e0: b2b4 d93c acdc 073d 5035 a73b b204 583d
000003f0: 8ef3 f13c cf79 1ebc ca6e 4b3d c539 32bd
0.02607277 -0.034695253 -0.011846654 -0.030000545 0.03281901 0.032774515 -0.045016963 -0.040235218
0.025618397 0.044512663 0.040818136 -0.05381958 0.05341222 0.045139775 -0.06698658 -0.048598886
-0.062106736 0.047112945 -0.04243912 0.018479642 0.01109719 -0.0264984 0.003901422 -0.039563816
-0.060823955 0.037707746 -0.02650692 0.01336623 0.04743363 -0.058076397 0.061616883 -0.052357707
0.028721714 -0.008532177 -0.027204782 -0.008626117 0.0375468 -0.06298473 -0.059982143 0.027971677
0.01566948 -0.05319332 0.035203632 0.048910093 -0.023039265 -0.06509999 -0.042735446 -0.0066689625
-0.037490636 0.036169004 -0.036156192 0.03483104 0.023444748 0.046916828 0.011360809 0.008022984
-0.007890154 0.036533922 -0.02457349 0.027622765 0.046802875 -0.012359783 0.021084946 0.01958694
-0.055796213 -0.040227205 -0.034126364 0.027717462 0.03331209 0.031366605 0.03479043 -0.05838399
-0.028390175 0.0051653786 -0.017533962 -0.0041611195 -0.019535506 0.026216239 0.044145968 0.051549695
-0.014086947 0.0018823614 -0.025618605 -0.0038269868 -0.055263415 -0.00025937677 -0.020801298 0.050802086
-0.014756123 -0.056363378 0.048551373 -0.016342094 -0.028076068 -0.009442811 0.036336895 0.021715403
-0.037916802 -0.0108424295 -0.03663888 -0.054988064 0.033424333 -0.016821183 -0.059500515 0.021200359
0.014338613 -0.010994139 0.049908463 -0.040337473 -0.009207353 -0.06709482 0.04077343 -0.021915652
0.058742687 -0.057471275 0.023702556 0.013381414 0.04856409 -0.023301424 -0.045556087 0.048204195
0.021703485 -0.045146167 -0.019304415 0.04664448 0.015653692 0.0010132045 0.021927305 -0.038370665
-0.034539223 0.05050338 -0.010563401 -0.017254654 -0.045471534 0.017376088 0.02006364 0.017403087
-0.051156767 -0.022964595 0.018250708 0.030874139 0.02100186 -0.038635504 0.017055688 -0.047914237
-0.002026636 0.019956052 -0.042703353 -0.033757742 0.062203012 -0.010599487 -0.05681541 0.061804757
0.006423554 -0.034926657 -0.041545108 -0.0560851 -0.023988735 -0.056091007 -0.05670457 0.03278684
-0.060311094 -0.043195456 -0.034113742 -0.051028855 0.036019947 0.050124563 -0.010669891 0.01714306
0.03592956 0.0075507187 -0.040881414 0.030801827 0.03921732 -0.01299458 -0.05965059 0.005528451
-0.06709003 -0.063254505 0.043240592 0.00036527077 -0.0053211055 0.020502027 -0.017647266 0.027177587
-0.018518995 -0.06644994 -0.025393978 0.048993196 0.037731275 -0.0027502824 0.029233467 -0.0657281
-0.03278103 0.007102288 0.05091387 0.01578731 0.05704164 -0.050049413 -0.016828068 -0.06324316
-0.0139467865 0.031669203 0.033702645 -0.06451056 -0.062949486 -0.024461202 -0.0697898 0.052131042
-0.008102852 -0.014791542 0.022788757 -0.033161357 -0.044025853 -0.027669858 0.016844027 -0.029513674
-0.02334848 0.056229256 -0.067295514 -0.033070493 0.006260836 0.04754305 -0.054858517 0.03462949
-0.062952 -0.035258416 -0.052223723 -0.03705357 0.043575116 0.023615832 -0.060653377 0.03750284
-0.008312315 0.018552056 0.012043729 -0.02590818 -0.055202805 0.0396422 -0.06493459 -0.017239133
0.009287099 -0.041146103 0.0054029077 -0.050245337 0.012625758 -0.009379357 0.038382336 0.03669857
0.02657542 0.033169433 0.005102791 0.052738853 0.029535081 -0.009672596 0.049666204 -0.043512125

fc1.bias f4 [256]
00000000: c87a 403d 8f69 2cbc f487 09bd c002 2ebd
00000010: cd76 5cbc ea7d 98bd e205 953d 528a 75bd
00000020: 58c2 e4bc 669e 1c3d 50d9 eebc 15f5 463d
00000030: 905c c6bc 59c7 283c f5c3 ad3c 925a 013d
00000040: f52c b23c f202 69bd 48d0 c8bc 0e0a bbbc
00000050: f2c1 ec3c 6c99 6b3d 4a41 28bd 18a7 19bd
00000060: c152 20bd a2da c53c 88ab 293d bb0b 87bc
00000070: 473a d43c 631f 6d3b 02ea 00bd 24a1 8abb
00000080: 7051 30bd 6408 fbba 4747 ae3c 7a48 4bbd
00000090: 809c 89bd 9b0f 08bd 7c0d e6bc 1713 a73b
000000a0: 3739 d03c d72e 64bc 79f2 973c 2142 e63a
000000b0: 01a7 da3b 0dd8 173d 62c0 283d bd86 2b3c
000000c0: 3e40 16bc 52d2 373c 1e89 b3bc fac6 90bd
000000d0: 6181 ddbc 2795 c83c e849 7ebd 2bdc 73bd
000000e0: 0d07 eebc c7ed 36bc d3d9 fc3b c6c6 db3c
000000f0: 1103 16bd 9737 a93c d7f2 6abd f498 6abd
00000100: 83ae 8abb 9d44 d5bb a7f5 f33c ee7d 49bb
00000110: c2d3 88bb a32e 953c 745d bebc ee3d debc
00000120: 4731 3dbd 38b1 f1bc c80d 3b3b 238d 24bc
00000130: 3de7 20bd af59 abbc f3f0 78bd 1465 bdbc
00000140: cb8d 89bd f4fa 33bd 8994 57bd 52b1 a03c
00000150: 6c54 603d 1680 23bd 7843 513d d5cc 4ebd
00000160: 0d65 82bd 9f91 353a 51f6 21bb 5b93 31bb
00000170: 8002 f4bb b58f 83bc c307 0fbb dff2 fa3c
00000180: ebb3 313d ac7e 3fbd f4f2 9f3d 775f 953b
00000190: 037b b03c 7b54 44bd 30ba 373d c526 09bd
000001a0: cbc0 ee3c ecc3 0bbd c83d a5bc 100b 85bc
000001b0: 455d 25bc 8cad 3c3c 7365 793c 81c8 de3b
000001c0: e785 87bd f99f 2a3d c36a e83c 3596 c63c
000001d0: d5b6 453d 9301 8d3d 1bf2 863b 66a7 afbb
000001e0: 6e03 3c3d e0c1 ecbc fe7e b53c 4ea0 a03c
000001f0: fc70 87bd e830 4fbd 6d9f a1ba d895 b83b
00000200: 8259 3ebd 6bd4 61bd 8f33 383d 45c1 44bd
00000210: e687 143c c83d 343b 941a 83bc dd9e f83c
00000220: a5ae d93c fa6e 043d 660d 7a3c 464e 57bc
00000230: fc63 26bd 06a7 d9bc 88e3 f4bc bfb0 87bc
00000240: 088e 2ebd 5dbf 2d3d 5360 57bd 4fd0 753d
00000250: b0dd 69bd 4570 9fbc 61bc 8cbc 2fe6 073c
00000260: f510 de3c d197 0cbd 7d78 a4bc d97b 61bd
00000270: 5080 783c 8a39 9ebd efea 813d 18fd 26bc
00000280: 4a4f fb3c 89cb ec3c 4f72 d8bc faf6 36bd
00000290: b6d3 333b 341b 72bd 509b 31bd ef88 92bc
000002a0: 6e2b 4a3d 01bf 43bc eea9 933c 76e4 7abc
000002b0: f688 76bd 1022 2a3d 0689 ba3b 6112 42bd
000002c0: 1c2f ebbc ff60 03bc ab36 72bd b94b 913c
000002d0: e48c 6e3d c058 68bd fc36 0dbd 53b9 1abd
000002e0: 5e70 32bd 16f3 ff3a da5b 243d b0dd e73c
000002f0: 8d13 9bbc f875 8bbd 8ac9 3a3c dad4 323d
00000300: 7adf 3b3d e820 063c cc7c 88bc fdfd 40bd
00000310: 2c73 703d d1ac 273c bae5 f4bc 2ea7 863c
00000320: 2fce debc 576f 073d e649 74bc 83a8 aa3c
00000330: 7ab9 efbc f2db af3c 63d0 923d f458 24bd
00000340: a43d 7c3d 3053 84bb 4da5 2bbd cf10 5e3d
00000350: 68a4 17bd edd2 0b3d 7b1f 2fbd 0703 733d
00000360: f16e 4b3d 622c dbbc 69e7 0bbb 28f6 3abd
00000370: b910 39bc efce 263c 2723 56bd ee5c 4ebd
00000380: 3a17 583d 65a6 82bd efd4 873c a352 0f3c
00000390: f110 5ebd b1cb 2cbd a8d8 7abd bb93 e0bc
000003a0: 42f8 ae3c 4bac d5bc c39c e0bb df99 44bd
000003b0: 0f92 f1bc 87e2 1f3d b55d 63bd 003d 91ba
000003c0: 2cf2 e5bc b09a e8bc e6cc 013d dc18 51bd
000003d0: 9c58 7fbd c0c0 533d 432e 183d 46d8 18bd
000003e0: 7549 b93c 4105 353d d513 b8bc 7d97 0cbd
000003f0: fc0f 4e3d a9c1 22bd 80c1 81bc c483 203d
0.046992093 -0.010523214 -0.03357692 -0.04248309 -0.013456059 -0.07445891 0.07276513 -0.059946366
-0.027924702 0.038236998 -0.029156357 0.048573572 -0.02421406 0.010301434 0.021211604 0.031580515
0.021749953 -0.056887574 -0.024513379 -0.022831943 0.028901074 0.05751936 -0.04107789 -0.03751287
-0.03914142 0.024152104 0.04142335 -0.016485086 0.025906695 0.0036182038 -0.031473167 -0.0042306352
-0.043046415 -0.0019152281 0.021274222 -0.049629666 -0.06719303 -0.033218008 -0.028082602 0.0050987112
0.025417907 -0.013927183 0.018548237 0.0017567315 0.0066727404 0.037071276 0.041199096 0.010469136
-0.00917059 0.011219578 -0.021915969 -0.07069202 -0.027039232 0.024485184 -0.0620822 -0.05953614
-0.029056096 -0.011165089 0.0077163964 0.026828181 -0.036624018 0.02065639 -0.057360496 -0.057274774
-0.004232229 -0.0065084235 0.029780222 -0.0030745226 -0.004175634 0.018210715 -0.023237921 -0.02712914
-0.046189573 -0.02950345 0.002854215 -0.010043415 -0.039283026 -0.020916788 -0.060776662 -0.023119487
-0.06716498 -0.0439405 -0.05263189 0.019615803 0.05476801 -0.039917074 0.051089734 -0.05048831
-0.0636693 0.0006926301 -0.0024713466 -0.0027095887 -0.007446587 -0.016059736 -0.0021824695 0.030633388
0.043384474 -0.046751663 0.078100115 0.0045584994 0.021543032 -0.04793213 0.044855297 -0.03348424
0.029144665 -0.034122393 -0.020171061 -0.016240627 -0.010093038 0.011515986 0.015221941 0.0067988043
-0.06617337 0.041656468 0.02837122 0.024241546 0.048270065 0.06885066 0.0041182167 -0.0053605316
0.04590171 -0.02890104 0.022155281 0.01960769 -0.06613347 -0.05058375 -0.0012330838 0.005633097
-0.04647208 -0.05513422 0.044971045 -0.04803588 0.009065604 0.0027502645 -0.016003884 0.03034919
0.026572535 0.032332398 0.0152619835 -0.01314122 -0.040622696 -0.0265689 -0.029893652 -0.016563771
-0.04261592 0.042418826 -0.052582096 0.06001311 -0.057096183 -0.019462714 -0.01717967 0.008294626
0.027107695 -0.03432447 -0.020076985 -0.05504975 0.015167311 -0.077258185 0.06343638 -0.010192178
0.030677456 0.028905647 -0.026421694 -0.04466913 0.0027439422 -0.059107974 -0.04336101 -0.01788756
0.049357824 -0.011947394 0.018025365 -0.015313258 -0.06018921 0.04153639 0.005692604 -0.04738081
-0.028708987 -0.008018731 -0.059134167 0.017736303 0.058239833 -0.056725264 -0.034476265 -0.037774395
-0.043564193 0.0019527401 0.04012666 0.028303951 -0.018930221 -0.0680961 0.01140059 0.043660022
0.04586742 0.008186556 -0.01666107 -0.047117222 0.058703586 0.010234074 -0.029894698 0.01643714
-0.027197925 0.033065166 -0.014910197 0.020832306 -0.029263247 0.021467183 0.07168653 -0.040123895
0.061582223 -0.004038237 -0.04190569 0.05421525 -0.037022024 0.0341367 -0.04275463 0.05932906
0.04966635 -0.026754562 -0.0021347648 -0.04564491 -0.011295491 0.010181173 -0.052279618 -0.050381593
0.052756526 -0.063793935 0.016581027 0.0087477295 -0.054215375 -0.042186443 -0.061241776 -0.027414193
0.021358613 -0.026083132 -0.006854625 -0.047998305 -0.029488591 0.039034393 -0.055509288 -0.0011080801
-0.028069578 -0.028394073 0.031689547 -0.0510491 -0.062340364 0.051697493 0.037153494 -0.03731563
0.022618035 0.044194464 -0.022470394 -0.034324158 0.050308213 -0.03973547 -0.015839338 0.03918816

fc2.weight f4 [256, 256]
00000000: cac3 4abd 2ecf 3cbd 12f3 013d f8c8 f03c
00000010: 289a 003d 3c31 7b3c 6741 0fbd c085 6b3c
00000020: bced 263d 90cd d63b 4ca7 36bd 58c0 29bc
00000030: 8a2c 1bbd 58c8 4bbd 2929 9bbd 3f55 b5bc
00000040: c936 d33c 80bd 6b3c e787 f23c 7022 02bc
00000050: 7d84 243c 9bc7 a53c a084 93bb 3c78 44bd
00000060: c6a6 60bd d2e1 91bd 70fb 7dbc 6a89 f03c
00000070: c8fa 793d c0e1 9b3c 38e9 43bc e11a 07bd
00000080: 33b1 543d 9fb0 513c ef40 7ebc 63fb b9bc
00000090: e664 50bd 9e7d 033d 96d0 b63b 3e00 b9bd
000000a0: 1576 b3bd 0b6c 50bd 8bb1 483c d5d9 21bc
000000b0: 121d 0bbb 1f9b 08bd 6132 abbb fe33 f93b
000000c0: c8fb 07bd c98d 6dbd 14c3 043d b95f 82bc
000000d0: e08e 3abd b598 2dbd 1ed1 033d a84a 10bd
000000e0: f073 02bd 349e c8bc 767a 53bc 300b 8dbd
000000f0: e096 64bd 361e b43b d2c6 143d 9213 4ebd
00000100: 5877 b73c 8030 efba 4833 13bd 601d c5bc
00000110: d316 3f3d 7438 96bb 6088 1ebb 7729 9ebd
00000120: 10ec 21bd c8b4 083c 6ba2 253d fbce a7bc
00000130: 0c59 7e3d 55b7 34bd a41d ccbc b56f 32bd
00000140: dd05 8e3c 10c8 92bc 5fdc 203d 3c52 d53c
00000150: 085e 10bd 505c 563d 7615 7fbd 88b2 0d3c
00000160: c4a8 4cbd b6a3 8b3c 88b7 10bc 1118 dabc
00000170: 642e 01bd dc3c ec3c a84a 22bc 84a0 343d
00000180: 4324 82bd 501d 3e3c b640 fb3c 9b29 053d
00000190: 781c 01bd 14fc 803c 2a87 91bd 2aee aeb9
000001a0: e55c f7bc b00a 69bd b892 ebbc 680b d5bc
000001b0: 2cc9 debc 189c bf3c 1882 77bd 7fe6 54bb
000001c0: 9e94 50bd b5e8 f63a a480 853c 9673 ae3c
000001d0: a7cc d6bb 4ba4 613c 80df 023d b994 48bc
000001e0: cc06 88bd 74eb 36bd 73f2 8bbd d708 9ebd
000001f0: 3457 c13c f0e6 32bc 7457 953c 7151 9dbd
00000200: 543e 59bd f8f9 5f3d 26ec 1ebd 477f e9bb
00000210: 65fc 0abd 6337 a1bc 0a3d db3c 9e92 173d
00000220: 41ad b2bc 9e6d 54bd 7e77 08bd 3c89 11bd
00000230: a792 1fbd dc7f 5e3d 3b14 e83c b09d 6abc
00000240: b0a1 68bc 0373 0fbd a8f8 053c 60b6 683c
00000250: 4079 43bc c8fe 57bc c8a7 34bd db50 283b
00000260: ea29 93bc 006d 46bd acce 4abd 960d 363d
00000270: 28dc 66bd e2a1 0c3d d2cc 253d a8a3 90bc
00000280: 8710 08bc 8866 12bc 63ba c73c a6ce 59bd
00000290: 9156 15bd 44a1 1e3d 48f3 683c 9179 0d3d
000002a0: 33dd 163c d0c6 da3b 8098 963c 5c5b 3c3d
000002b0: 4611 913c 7d42 bebc c047 ba3b b8b1 84bc
000002c0: d6ae 90bc a3f4 babd 5a29 033d ab43 59bd
000002d0: 1aba 0f3d 326a 7e3d caa3 a7bc a6a2 443d
000002e0: 48d4 45bc 45fa 093d b678 5a3d d8d2 e33c
000002f0: bc7f 14bd 9010 513c b09a 86bb 20ca 473c
00000300: c35b 033d d835 0fbd 2028 52bd d8ee c1bc
00000310: 5f61 6dbc dc3e ee3c 8877 a9bc a993 1a3d
00000320: 2810 7e3c 221e 41bc 7830 233d b4ab 5f3c
00000330: d866 7fbd 5bd4 53bd 9c5b 74bd fec4 7a3c
00000340: e4e2 283d d74a 87bd 28e4 a6bc a29b 54bd
00000350: c1df 31bd 5fb9 3ebd e459 0e3d a602 cbbc
00000360: b15f bc3c 1bbf ddbc c24b 6cbd 1359 debc
00000370: 3d3d ae3c a8d6 c0bc 7861 943b edf8 2fbd
00000380: d974 01bd d3e8 99bc 8627 15bd e244 0dbd
00000390: 5e1e 08bd f0b9 243c 2ed1 153c a8e1 243c
000003a0: 04e4 41bd 7e05 37bd 981b 9dbd 14aa 2f3d
000003b0: 5d83 9bbb 5063 e7bc 52f7 02bd 58e3 16bd
000003c0: 5e94 673d 6a2c 20bd ec16 f1bc c04c 82bd
000003d0: 16f1 76bd e04b 903b 984c 8b3c c3d9 ed3c
000003e0: de45 303d 8a15 62bc e610 70bd 8414 963c
000003f0: 1260 4bbd 6909 13bd d05b 27bd a4b2 e9bc
-0.049503125 -0.04609602 0.03172595 0.029392704 0.031397015 0.015331563 -0.034974482 0.01437515
0.040754065 0.0065552667 -0.04459314 -0.0103608 -0.037884273 -0.04975161 -0.0757621 -0.022135375
0.02578296 0.014388442 0.029605819 -0.007942781 0.010041353 0.02023678 -0.004501894 -0.047966227
-0.054846548 -0.0712315 -0.015501842 0.0293624 0.06103018 0.019028544 -0.011957459 -0.032984618
0.051926803 0.012798457 -0.015518411 -0.022702878 -0.050877474 0.03210222 0.0055790646 -0.09033249
-0.08762757 -0.050884288 0.012249361 -0.009878595 -0.0021227044 -0.03335106 -0.0052245115 0.007605075
-0.0331991 -0.057996545 0.032412603 -0.015914785 -0.045546412 -0.04238196 0.03218185 -0.035227448
-0.031848848 -0.0244895 -0.012907615 -0.068868995 -0.055807948 0.0054967655 0.036322422 -0.050311632
0.022395775 -0.0018248707 -0.035937577 -0.024061859 0.046652626 -0.0045843665 -0.0024190173 -0.077227525
-0.039531767 0.008343883 0.040438097 -0.020484438 0.06209664 -0.04412015 -0.024916478 -0.043563563
0.01733678 -0.017917663 0.039272662 0.026040189 -0.035245925 0.05233413 -0.062276326 0.008648522
-0.049965635 0.017045837 -0.00883282 -0.026622804 -0.031538382 0.028837614 -0.009905495 0.044098392
-0.063545726 0.011603668 0.030670505 0.03251038 -0.03152129 0.0157452 -0.071058586 -0.00033365312
-0.030195663 -0.056894958 -0.028756484 -0.026006415 -0.027195536 0.023389861 -0.0604268 -0.003248602
-0.050922982 0.0018837663 0.016296692 0.02129535 -0.006555158 0.013772081 0.031951427 -0.0122424895
-0.066419214 -0.04465814 -0.06833353 -0.0771653 0.023601152 -0.010919318 0.018230177 -0.07681549
-0.053037956 0.05468175 -0.038799427 -0.0071257683 -0.03393211 -0.01967973 0.026762504 0.03700506
-0.02181113 -0.05186235 -0.03331708 -0.035531268 -0.038958218 0.054321155 0.02832996 -0.014319822
-0.014198706 -0.035021793 0.00817696 0.014203638 -0.011930764 -0.013183303 -0.04410532 0.002568296
-0.017964322 -0.048443794 -0.049513504 0.04444655 -0.0563623 0.03433407 0.040478535 -0.017656162
-0.008304722 -0.008935578 0.024380868 -0.05317559 -0.03645951 0.038728014 0.014218159 0.034539763
0.009208011 0.0066765323 0.018383265 0.045985565 0.017708432 -0.023225063 0.005684823 -0.016198024
-0.017661493 -0.09128692 0.032021858 -0.05304305 0.03508959 0.062112994 -0.020463843 0.048006676
-0.012074538 0.03368594 0.053337775 0.0278105 -0.03625463 0.012760296 -0.0041077957 0.012194186
0.032069933 -0.03496346 -0.051307797 -0.02367346 -0.014488547 0.029082708 -0.02068688 0.037738476
0.015506782 -0.011786969 0.039841145 0.013651777 -0.06235394 -0.05171619 -0.059657678 0.015305756
0.041232005 -0.066060714 -0.020372465 -0.051906236 -0.04342628 -0.046563502 0.034753695 -0.024781536
0.022994848 -0.027068665 -0.057689436 -0.027142083 0.021269435 -0.023539856 0.0045282207 -0.042962003
-0.031605575 -0.018787777 -0.036414646 -0.03448952 -0.033232085 0.010054097 0.009144111 0.010063566
-0.047336593 -0.044682972 -0.07671279 0.04288681 -0.0047458843 -0.028245598 -0.031974144 -0.036837906
0.05653798 -0.039104857 -0.029429875 -0.06362295 -0.06028851 0.0044035763 0.017004296 0.029034501
0.04303538 -0.013799081 -0.058609866 0.01832033 -0.049652167 -0.035897646 -0.040859044 -0.028527565

fc2.bias f4 [256]
00000000: 9c31 61bd dac3 cd3d 9269 05bd 21fa 86bd
00000010: aa68 383c 6767 62bd f28a 8a3d 0b69 0abd
00000020: cf07 a13c 124c a43c b021 8a3d 1a7a 933d
00000030: a224 6ebc 54b0 8c3c cd2f 663d 8577 46bd
00000040: 79cc 9a3d 0a46 fc3c 40d6 61bd 222b 31b9
00000050: 75f5 943c 4b44 18bd a1b6 9fbd d8cc b13b
00000060: 9124 91bd 34c7 a43d c34f 553d 38ee 3e3d
00000070: bfab e63d 917b e83c f8bd 7cbd fffc 5cbd
00000080: 45c0 ef3c b499 623c 7ded 073c 7f8b 17bd
00000090: 45f4 573d a872 c63c 9e4f 6d3d f79c 36bd
000000a0: 9d76 833b 9dc2 8b3d a9ee 933d db43 1a3b
000000b0: 626a ae3c 0422 cfbc 0d13 053d 9d3c 15bd
000000c0: d061 ff3b 6193 8b3c ac83 98bd 7000 983d
000000d0: b357 c53d 9eed 1fbd 5d2b a13d 4541 da3d
000000e0: 42b3 1dbd 98cc a63c 54d8 72bd b504 0f3d
000000f0: 7415 e7bc 9983 91bd 9647 023c 3b7e 0fbd
00000100: 70ab 91bd 6972 0c3d ca58 153d aba9 003d
00000110: ec4e f33c 89e3 d73d d33e d63d 5d06 433c
00000120: 923d 52bd a614 85bd 7875 223c 4040 543d
00000130: 4aa2 ed3c c80e 903c ab2f 85bb 8e54 533b
00000140: 1698 aabd 660b 34bd 5f12 293c c541 1fbd
00000150: f383 12bd f60d 0c3b 68ef 7c3c cc06 4dbd
00000160: 5629 6abd 5912 893c 52e2 ec3d 5cbc 083e
00000170: 481b 4cbd b306 0d3d 6eb9 6bbd cb40 3dbd
00000180: 04dc 083d f758 a0bd b4aa 04bd b877 b73d
00000190: e7e8 be3c 593b 90bd 2fac 343d 7f5e aabd
000001a0: 1db9 14bb a5dc 2c3b 9525 1d3d 7fbb 123d
000001b0: 1028 7bbd 6bd3 743d ab75 1c3c 843c 713d
000001c0: 8b72 9bbd ae9d 87bc 08d9 9ebd 77ee b13d
000001d0: 0da9 c63d 62cb 483c ad0d ad3b 7129 2f3d
000001e0: 4d2d 1e3c c7dc 85bd ca1d 283d f911 a83c
000001f0: 9964 923d 9b5f febb bc16 36bd 66dc 3bbd
00000200: 4ac0 cbbc fc66 22bd 4a9f e03d 4b23 17bd
00000210: c122 5ebd 8d0a 00bd 60c8 6fbd 903a 2e3c
00000220: 3079 563c 23da b43d 785e 643d a0f5 183d
00000230: ab6d fd3c af44 65bd 72b3 653d 9acb 9e3c
00000240: 5c4e 70bd 2356 59bc 9d51 82bb 9331 c1bc
00000250: 63ab 9a3d 5d39 bbbc 9612 92bd dc2b 8c3c
00000260: dee6 203d 11e0 18bc 1417 29bd 4628 de3c
00000270: eedc 283d 182a 563c aaa5 503d 7829 82bd
00000280: db5f 18ba 316d a3bd 3ec2 e5bc 3700 c23c
00000290: 4058 313d 6ec9 0c3c 2b93 aebd 8008 4c3d
000002a0: 67e1 b73d 8d28 893c f098 8fbd 1b7a 423d
000002b0: 672a 473d 38d6 233c 7517 9e3b 6bea 6dbd
000002c0: c3c3 223d 2f7b 6dbd c7e9 393d 23d9 6cbd
000002d0: 58ff a83a 07e1 4bbd 6169 cf3c 0f1f 90bc
000002e0: 93ba 843d 7d2e f33c 0998 cabc c1ad 8abb
000002f0: 12ed d63d c224 f33d 059b 87bc 213c 85bc
00000300: f2fb ab3d 95cf e5bc c644 8fbc deab 2d3d
00000310: 4ee7 65bd ca17 983c 9190 a33c f728 3cbc
00000320: 1955 c6bc b38a 0dbd 76f4 063c a3a5 6dbc
00000330: 2118 8fbc b972 ed3d a613 4b3d 38ac d137
00000340: c9af c3bc ba0e 03bd 3aa6 97bd b17a 3f3d
00000350: 92f1 b53d 41a5 f63c 83e1 66bd 1708 dd3c
00000360: caa4 acbc 741b df3d 4e0a 4fbd de1d 7bbd
00000370: b79b 883d 54c0 113c 407b 8dbc 6dd2 acbb
00000380: 519c 6dbd ce75 4a3d f71b 2f3d c9fd dcbb
00000390: ce88 0b3d 08b3 dfbc 4c5c 5ebd 593b 0ebd
000003a0: fb1c 3b3c 6119 773c 962f 1bbd 3119 82bc
000003b0: f972 98bd 5094 01bd 0f5d b53c c73e 263d
000003c0: 6e30 453b bab1 69bd 0c4d c4bb 1d04 b43c
000003d0: 591d a13d eb6d 953d e2ae 903d 4e09 54bd
000003e0: b429 bdbc 36cb a9bd 525a e2bc 2e8b 213d
000003f0: 9cb1 90bd 9c59 aa39 59df c6bc 36c7 473d
-0.05497895 0.10047121 -0.032571383 -0.06590677 0.011255423 -0.055274393 0.06764783 -0.033791583
0.019657044 0.020055804 0.06744707 0.072010234 -0.014535101 0.017173924 0.05619793 -0.048453826
0.07558531 0.030795116 -0.055135965 -0.00016896104 0.01818345 -0.037174504 -0.077985056 0.0054260306
-0.070870526 0.080458075 0.05207802 0.0466139 0.11263227 0.028379234 -0.061704606 -0.053952213
0.029266486 0.013830591 0.008296368 -0.03699827 0.052723188 0.024224594 0.057937257 -0.044583287
0.0040119425 0.06824229 0.07223255 0.002353898 0.021290962 -0.025284775 0.03248887 -0.03643476
0.0077936426 0.01703805 -0.074469894 0.074219584 0.09635868 -0.03904497 0.07869599 0.106569804
-0.03850103 0.02036123 -0.059288338 0.0349166 -0.028208472 -0.071051784 0.007951638 -0.035032492
-0.07112777 0.034288798 0.03646163 0.031411808 0.029700719 0.10541446 0.104612015 0.011903373
-0.05132825 -0.06498079 0.009915702 0.051819086 0.02900805 0.017585173 -0.0040645204 0.0032246443
-0.08329789 -0.043956183 0.010319321 -0.038881082 -0.035770368 0.0021370626 0.015437938 -0.05005531
-0.057168327 0.016732382 0.11566605 0.13353103 -0.049830705 0.034430217 -0.057549886 -0.04620437
0.03341295 -0.07829469 -0.032389358 0.089583814 0.023304416 -0.0704257 0.04410952 -0.08318805
-0.0022693344 0.0026376632 0.03836592 0.03582334 -0.061317503 0.059771936 0.009549539 0.058895603
-0.07590207 -0.01655468 -0.07756239 0.08688062 0.09700213 0.0122555215 0.0052811713 0.04276413
0.009654355 -0.065362506 0.041044034 0.020516383 0.07148094 -0.007762862 -0.044455275 -0.045864485
-0.024871964 -0.039648995 0.10967882 -0.036898892 -0.054232363 -0.031260062 -0.058540702 0.01063408
0.013090417 0.08830669 0.055754155 0.03734362 0.030936083 -0.055973705 0.056079336 0.019384194
-0.05866848 -0.0132651655 -0.003977014 -0.02358321 0.07552221 -0.022854501 -0.07132451 0.017110758
0.039282672 -0.009330765 -0.041281775 0.027118813 0.04122632 0.013071559 0.05093924 -0.06355566
-0.00058126234 -0.07979811 -0.028046723 0.023681743 0.043297052 0.008592946 -0.08524164 0.049812794
0.08978539 0.016742969 -0.070115924 0.04747973 0.048624422 0.009999804 0.0048245736 -0.058084887
0.039737474 -0.057978805 0.045388963 -0.057824265 0.0012893481 -0.04977515 0.025318803 -0.017592935
0.06480899 0.029685253 -0.0247307 -0.004232139 0.10494436 0.11872245 -0.016553411 -0.016264023
0.08397664 -0.028053084 -0.017488848 0.042400233 -0.056128792 0.018566031 0.019966396 -0.011484376
-0.0242105 -0.034556102 0.008236995 -0.014504823 -0.01746756 0.11594147 0.049579285 2.4994937e-05
-0.023887532 -0.031996466 -0.07404752 0.046747867 0.088839665 0.030108096 -0.05636741 0.026981397
-0.021074671 0.10893908 -0.050546937 -0.06130778 0.06670325 0.008895952 -0.017270684 -0.005274108
-0.058010403 0.049428754 0.04275128 -0.0067441207 0.034066014 -0.027307048 -0.05428724 -0.034724567
0.011420484 0.015081734 -0.03788718 -0.015881153 -0.07443804 -0.031635582 0.0221391 0.040587213
0.003008868 -0.05705426 -0.00599063 0.021974618 0.07866926 0.07296356 0.07064606 -0.051766686
-0.023091175 -0.082907125 -0.027630959 0.039439373 -0.07065126 0.0003249169 -0.024276422 0.048773967

last_fc.weight f4 [9, 256]
00000000: 7775 88bc 019b 913d 00b4 1739 bfe6 10bd
00000010: 14fd 903c e417 373a 8c5c a13c 3ac1 33bd
00000020: f80a 923d 63fd bebc 203c 1a3c 1892 e13c
00000030: b927 753c ab9c 36bd 1b97 a9bc 2c7c c3bb
00000040: f1b9 233d b620 6e3c 448c 30bd 0e95 ba3c
00000050: 71be 283b 1098 92bc 572a 1abd 4fad 33bc
00000060: 1713 0d3d c343 963d 8abe 823d c497 9c3c
00000070: 402b fe3b 80e1 bd3c e7dd f23c 6d06 b13b
00000080: b5bf 3cbd 2413 443d 80b6 bc3c e0c1 1fbd
00000090: 03dd 8d3d 9f72 4e3a dd12 19bb fbef 20bd
000000a0: b74d a53b de66 06bc 824b 95bc af90 013d
000000b0: 1b9b f2ba 0172 853b 640f c23c 06ba 18bd
000000c0: 5989 993c 490a 9bbc 3965 673c 494c 9f3d
000000d0: 4c97 023d 1cfc 563d 8d05 333d 8848 883c
000000e0: c624 243d 36a8 49bd ad4d cebc ed19 4dbc
000000f0: 9e2a 173d 307f abbc ed85 173b 1388 7ebd
00000100: 5a89 6bbd 8220 333d 4a83 c03c d945 693c
00000110: effd 6b3c 8686 823d aab9 a13d 1c82 773d
00000120: d44b 473d 8f31 e4bc f89f 12bd f873 073d
00000130: 93ff 403d 07cc 643d 3e46 1e3c 7fb6 903c
00000140: a34e 42bd 7591 1cbb a17a a83d a2d6 683d
00000150: 9b6d 05bd 1fb4 563c 5209 cc3b 2497 9e3c
00000160: 6ba1 70bd 9776 013d 0ccd 9e3d 1f2b b43d
00000170: 2ff5 2fbd 8df9 cbbb ec2a 053d a2bc 403d
00000180: a22a 59bd 2221 3cbd f83d 003b c700 413c
00000190: a70a 523d b295 5c3d 5ad2 1e3d 4de8 79bc
000001a0: 6a2e 11bc 1561 d9bc 4d39 3b3d d298 a73c
000001b0: 3c14 65bd 00a2 223d 1fce 6f3c 9dd0 303d
000001c0: de6d 123d 67d3 733d 2b29 23bc c502 303c
000001d0: 80b8 ad3c 7703 cc3c b300 293c f7cd dbbc
000001e0: b069 9e3c c24d 073d edf5 2d3c d525 573d
000001f0: 366b 623d e366 12ba 2b35 163d c427 4e3d
00000200: dc5c 76bc 81a9 27bd c40b 893c 33f8 243d
00000210: 5f50 72bc dfab 2fbd db6e 3ebd b278 823c
00000220: 34e1 f33c 887f 8e3d 06c6 e03c 743f 59bc
00000230: 6356 b6bb 7a7b 9a3c b51a 703d 1402 323c
00000240: 1173 303d 2155 2e3d e569 5dbd 92f8 75be
00000250: 8fd8 023d 27e4 12bd 1f73 d2bc 0df3 58bd
00000260: 1a2d 373d cb70 9bbf c0a5 a43b 9d86 f0bc
00000270: 840c c83c cfd6 823d 660f 353d d184 293b
00000280: 7955 b1bc 6f21 993c 215f 45bd cda2 f83c
00000290: 8ef6 21bb adc7 f8bc 9ada 2abd cdb1 53bc
000002a0: b86c 9a3d 14fc 4ebd 7f50 45bc ec63 913d
000002b0: b31e e8ba b617 0cbd 42c8 6e3d c527 32bd
000002c0: 73a3 13bb 2518 41bd 6743 a93c fe1e 73bd
000002d0: 495a 40bc 6586 333d 6084 4dbb 4504 c93b
000002e0: 46d9 ec3c 0532 133d 9009 983c 850f 613c
000002f0: 77dc 273d 4fe0 5b3d 5da0 9dbc e7a0 233d
00000300: 8378 99bc 93e5 8abd ce20 9c3a 2752 13bd
00000310: 66a2 ecbc b42c 2abd 73c6 7b3c f22b 5d3a
00000320: 35ea ac3d 2fe8 4abc 7c37 bf3b 61ac 2cbd
00000330: e881 3c3d 0847 58bc adbd 1d3d 015b 20bd
00000340: 272b bfbc 91af 913c a914 bdbc 4b05 793d
00000350: a9e9 313d d68c b23b b42a 523d b65a 91bc
00000360: 6f95 d4bc d2e2 5f3c 9d64 36bc 9685 623d
00000370: f429 b43c 3c9e 0a38 1461 6a3d 58d3 22bd
00000380: 0f74 aebc ece1 aa3c e30b 07bc 5429 43bb
00000390: dcc8 ef3c e9a6 b2bc 02d9 5bbd 3fc6 073d
000003a0: cd91 963d 47b3 f5bc a487 11bd e2f1 513d
000003b0: 9e93 7dba d9b9 723c 8f15 623d 479f 1ebd
000003c0: e760 d4bc db11 05bd 59c3 e73c 46b4 6aba
000003d0: ddcf 7f3d 61e9 f93c fad5 a43d 9232 963c
000003e0: fa56 54bb f25d 963d 6314 133d 8b68 1abd
000003f0: 6c0b b5bc 63f4 19bd 7c41 553c a00c 1dbd
-0.016657574 0.07109643 0.00014467537 -0.035376307 0.017698802 0.0006984456 0.01969745 -0.043885447
0.071309984 -0.023314184 0.009413749 0.027535483 0.014963084 -0.044583004 -0.020701936 -0.00596573
0.03997225 0.014534166 -0.043102518 0.022776153 0.0025748278 -0.017894775 -0.037638035 -0.010966613
0.034442034 0.07337143 0.06383999 0.019115336 0.0077566206 0.023178816 0.029646827 0.0054023773
-0.046081264 0.047869816 0.023036242 -0.039003253 0.0692692 0.0007875356 -0.002335719 -0.039291363
0.0050446647 -0.008203236 -0.018224481 0.03163212 -0.001850936 0.004072428 0.02368898 -0.03728678
0.01874225 -0.018925803 0.014123254 0.07778222 0.03188257 0.052486524 0.043706466 0.016636148
0.040074132 -0.049232684 -0.025183523 -0.012518388 0.036905877 -0.020934671 0.0023120597 -0.06214149
-0.057504036 0.043732174 0.023500104 0.014237844 0.014403804 0.063733146 0.07896741 0.060426816
0.0486563 -0.027855663 -0.03579709 0.03306958 0.047118735 0.05585864 0.009660302 0.017665146
-0.047438275 -0.002389041 0.082265146 0.056845315 -0.03257523 0.013104468 0.006226697 0.019359179
-0.05874769 0.031607237 0.07753953 0.08797287 -0.042958435 -0.006224817 0.032511637 0.047054894
-0.053019173 -0.045930035 0.0019568186 0.0117799705 0.05127969 0.053853698 0.038774826 -0.015253139
-0.008861164 -0.02653555 0.045708943 0.020458613 -0.0559275 0.039705276 0.014636545 0.0431677
0.03574931 0.05952778 -0.009958546 0.010742848 0.02120614 0.024903996 0.010315108 -0.02683161
0.019337505 0.03303314 0.010617715 0.052526314 0.055278026 -0.00055847893 0.0366718 0.050330892
-0.015036788 -0.040933136 0.016729243 0.040275764 -0.01478967 -0.04288852 -0.04649244 0.015926693
0.029770471 0.069579184 0.027438175 -0.013259757 -0.0055644973 0.018857706 0.05861922 0.010864753
0.043078486 0.042561654 -0.054056067 -0.24020603 0.031944808 -0.035862114 -0.02568966 -0.052966166
0.044720747 -1.2143797 0.0050246418 -0.029361064 0.02442003 0.06388628 0.04420414 0.0025866518
-0.021647202 0.0186927 -0.048186425 0.030351067 -0.0024713608 -0.03036865 -0.04171238 -0.012920809
0.07540268 -0.05053337 -0.012043118 0.07099137 -0.0017709344 -0.0342023 0.05829645 -0.04349496
-0.0022527843 -0.047142167 0.020662023 -0.05935573 -0.011740276 0.04382934 -0.003135942 0.006134542
0.028912198 0.035936374 0.018559247 0.01373661 0.040981736 0.053680714 -0.019241506 0.03994837
-0.018734222 -0.06782069 0.0011911632 -0.03596702 -0.028886031 -0.04154654 0.015367138 0.00084370293
0.08443109 -0.012384458 0.0058354717 -0.04215658 0.046022326 -0.013200529 0.038510967 -0.039149288
-0.023336006 0.017783912 -0.02308114 0.060796063 0.043435726 0.005448918 0.051310256 -0.01774345
-0.025950162 0.013664918 -0.0111323865 0.05530318 0.021992661 3.304913e-05 0.057221487 -0.039752334
-0.021295575 0.020859681 -0.00824258 -0.0029779272 0.029270582 -0.021808105 -0.05367375 0.033148047
0.07352028 -0.029992713 -0.035529748 0.051256068 -0.0009673181 0.014814817 0.05519634 -0.038726117
-0.025925113 -0.03248773 0.028291391 -0.00089532544 0.062454093 0.030506792 0.08048625 0.01833466
-0.0032400475 0.073421374 0.035908114 -0.037697356 -0.022100173 -0.03758658 0.013016101 -0.03834212

last_fc.bias f4 [9]
00000000: 6576 e53d 1b14 cb39 3308 84bd b6c6 d13d
00000010: 3912 ae3c 5eb0 07bd 5d49 1c3d 8093 f33d
00000020: 9043 223e
0.112042226 0.00038734157 -0.064468764 0.10242979 0.021248924 -0.03312718 0.038155902 0.11893368
0.15846086
