data/Fanuc_success/Behavior_cloning/BC_policy_CIC_CEV_300_default_39.pt (torch, 142444 bytes, 8 tensors)

fc0.weight f4 [128, 6]
0	0xbf328ede	-0.6974925
1	0x3da14bba	0.07875772
2	0xbea1ba24	-0.31587327
3	0xbe366b71	-0.17814423
4	0x3ec04b5a	0.3755749
5	0x3f04d266	0.5188354
6	0x3ece5fd6	0.40307492
7	0x3cf79cb7	0.030226095
8	0x3e8f3b5a	0.2797497
9	0x3ebc8726	0.3682186
10	0xbea3ef61	-0.3201857
11	0x3e5190f1	0.20465447
12	0x3ecc3832	0.39886624
13	0x3ec39910	0.38202715
14	0xbdebdf31	-0.1151718
15	0x3d559bf1	0.05215067
16	0xbe9d54ca	-0.3072875
17	0xbced4cc7	-0.028967274
18	0xbeb19082	-0.34680563
19	0x3e9ae0ef	0.30249736
20	0xbec6c325	-0.38820758
21	0x3e6e3edf	0.23266171
22	0x3e81235a	0.25222284
23	0x3e8e89f7	0.27839634
24	0x3fbd736a	1.4800847
25	0xbe2b1afb	-0.16709511
26	0x3ed02760	0.4065504
27	0xbe9f28e2	-0.3108588
28	0x3e448467	0.19191132
29	0xba2cb4ca	-0.0006588219
30	0xbfaf919a	-1.3716309
31	0x3f4b8062	0.7949277
32	0xbe89cd41	-0.2691441
33	0xbcdfdf77	-0.027328236
34	0x3d9f7f7b	0.07787987
35	0xbf04bbfb	-0.51849335
36	0xbe22eedf	-0.15911435
37	0x3e265fae	0.16247436
38	0xbeb1f7b7	-0.34759304
39	0xbe5cc7e3	-0.21560626
40	0x3ec51f99	0.3850067
41	0xbe57b720	-0.2106595
42	0x3f58ba49	0.8465925
43	0xbe6b2339	-0.22962655
44	0x3f155fd3	0.5834934
45	0x3d11b53c	0.03557323
46	0xbe5b766b	-0.21431892
47	0xbb227e96	-0.002479469
48	0xbf8d8e59	-1.1059066
49	0xbf165e14	-0.587373
50	0xbecd3f9f	-0.40087602
51	0xbf05b88c	-0.5223472
52	0x3dee7f4e	0.11645375
53	0xbeb6c74c	-0.35698926
54	0xbf6bdbd1	-0.9213229
55	0xbe1e83b9	-0.15479936
56	0xbedcccd8	-0.43125033
57	0xbdc51ac7	-0.09624248
58	0x3e42ef2e	0.19036552
59	0xbe218a6f	-0.15775464
60	0x3f1809f4	0.5939019
61	0x3ee9140a	0.455231
62	0x3e8544b4	0.2602898
63	0x3e3357fa	0.17514029
64	0xbf07234f	-0.5278825
65	0xbed20569	-0.41019753
66	0xbee3fcbd	-0.44528762
67	0x3e058301	0.13038255
68	0x3e82a6f6	0.25518006
69	0x3edbff91	0.4296842
70	0x3e199078	0.14996517
71	0xbe975187	-0.29554388
72	0xbeb69dda	-0.35667306
73	0x3a86e4a1	0.0010291525
74	0xbf1cf360	-0.6130886
75	0xbf19217c	-0.5981672
76	0xbcbaa6df	-0.022784648
77	0xbf417207	-0.75564617
78	0x3fa2a27f	1.270584
79	0xbe22a65f	-0.15883778
80	0x3e8f2477	0.27957508
81	0xbcac47b9	-0.021030294
82	0xbcd53c0d	-0.026029611
83	0x3e0437a9	0.12911858
84	0x3d002450	0.03128463
85	0xbd963fb3	-0.073363684
86	0xbd841d98	-0.06450957
87	0xbdde879f	-0.108657114
88	0xbe3902b4	-0.18067437
89	0x3e30feda	0.17284718
90	0xbad905f9	-0.0016557566
91	0x3ea305f8	0.3184049
92	0x3e84277b	0.2581137
93	0x3e1e2375	0.15443213
94	0x3e585980	0.21127892
95	0xbe205c61	-0.1566024
96	0x3e073cac	0.13206738
97	0xbeeddc84	-0.46457303
98	0x3f1bda1f	0.608797
99	0x3d0beef7	0.03416344
100	0xbe3f8eb6	-0.18706784
101	0xbe14072f	-0.14455865
102	0xbe9db317	-0.30800697
103	0xbf0b2bc2	-0.54363644
104	0xbe96b6c3	-0.2943631
105	0xbe28f0da	-0.16498128
106	0xbe2ce48b	-0.16884057
107	0x3ddc53ec	0.10758194
108	0xbd47970d	-0.048728038
109	0xbe907f6c	-0.28222215
110	0x3e6d2d15	0.23161729
111	0x3ec9cbce	0.39413303
112	0x3df72c56	0.12069003
113	0xbe6b890a	-0.23001495
114	0xbf190a22	-0.59781086
115	0x3eaedbcb	0.34152064
116	0xbf24a458	-0.6431327
117	0xbedb01f7	-0.42774937
118	0x3eeb9042	0.46008497
119	0x3eb93861	0.36175826
120	0x3f388570	0.7207861
121	0x3ee2245a	0.4416836
122	0x3ec1940f	0.37808272
123	0xbe4bb659	-0.19893779
124	0x3dcefa09	0.10106284
125	0x3dcd9232	0.1003765
126	0xbdbd943a	-0.092567876
127	0x3e25c699	0.1618904
128	0x3eb29e31	0.34886315
129	0xbd948c20	-0.07253289
130	0x3dbad64b	0.091229044
131	0x3ec0be60	0.37645245
132	0xbc3b1f3e	-0.011421023
133	0xbe555779	-0.2083415
134	0x3d222b55	0.039592106
135	0x3dc0f2e8	0.09421331
136	0xbc50abb3	-0.012736249
137	0xbe58ad3c	-0.21159834
138	0x3d55b573	0.052174997
139	0xbd53c991	-0.0517059
140	0x3e8a28e6	0.26984328
141	0x3d49076d	0.049079347
142	0x3e9ddc2a	0.30832034
143	0x3ec1c770	0.3784747
144	0x3f728f2c	0.9474971
145	0x3cc714dd	0.02430194
146	0x3f018bc8	0.50603914
147	0xbd42bfb3	-0.0475461
148	0x3e078352	0.13233688
149	0x3e2a72a0	0.16645288
150	0x3e5bc6ba	0.21462527
151	0xbe32c0ec	-0.17456406
152	0x3ec4ea02	0.38459784
153	0x3e96033b	0.2929934
154	0x3d8fcc70	0.07021415
155	0x3e126abb	0.14298527
156	0x3c11cb7d	0.008898613
157	0xbbfc66af	-0.0077026705
158	0xbea8cb1e	-0.32967466
159	0x3e6886b3	0.22707634
160	0xbe55a6f0	-0.20864463
161	0x3da339f3	0.07970037
162	0x3f34da95	0.7064603
163	0x3e912b14	0.28353179
164	0xbd8e4875	-0.06947414
165	0xbdd2d0ea	-0.102937534
166	0x3e0eb95a	0.13937894
167	0x3e2b7367	0.16743241
168	0xbdfd940f	-0.123817556
169	0x3f599720	0.84996223
170	0xbe215ee1	-0.1575885
171	0x3eb93bfa	0.3617857
172	0xbeb3ca11	-0.35115102
173	0x3f21aab7	0.63151115
174	0x3e8ecb4f	0.27889487
175	0x3ef629df	0.4807882
176	0xbea954a0	-0.33072376
177	0x3e6010a0	0.21881342
178	0xbdefa316	-0.11701028
179	0x3e17318e	0.14764997
180	0x3f7074ea	0.93928397
181	0xbed0041f	-0.40628144
182	0x3f1013c0	0.56280136
183	0xbda10c65	-0.07863692
184	0xbee7eae4	-0.45296395
185	0xbe9a01dd	-0.30079547
186	0x3fce5eac	1.6122642
187	0xbeeac377	-0.45852253
188	0xbdc253d5	-0.09488646
189	0xbf162748	-0.5865369
190	0xbc30beb9	-0.010787659
191	0xbed1c068	-0.40967107
192	0x3e4116dc	0.18856376
193	0xbd652845	-0.055946607
194	0x3f3332e6	0.6999954
195	0x3f454ff3	0.7707512
196	0xbf147c56	-0.5800222
197	0xbecbe20e	-0.39820904
198	0xc0968cce	-4.704688
199	0xc00c9cd6	-2.1970725
200	0x3e8fa04f	0.28051993
201	0xbe4539a2	-0.19260266
202	0x3e4ea3f2	0.20179728
203	0x3de5c422	0.1121905
204	0xbfd7910f	-1.6841143
205	0x3f4f0448	0.8086591
206	0x3db76bd6	0.08956115
207	0x3ebb8b75	0.36629835
208	0x3f63a3c0	0.8892174
209	0xbe40560f	-0.18782829
210	0xbcb6b6a4	-0.022303887
211	0x3ea71120	0.32630253
212	0x3daa0622	0.08301951
213	0x3db42f9e	0.08798145
214	0x3e44ec43	0.19230752
215	0x3e96ebe9	0.2947686
216	0xbd432964	-0.047646895
217	0x3f182cca	0.5944334
218	0xbdcbbfd4	-0.09948698
219	0xbeefaacb	-0.46809992
220	0x3f16fcfc	0.58979774
221	0xbe36a20e	-0.17835256
222	0x3d9fa12e	0.077944145
223	0x3ec815f6	0.39079255
224	0x3db802bc	0.089848965
225	0x3e10ac0f	0.14128135
226	0x3dec6be6	0.115440175
227	0xbe2dc807	-0.16970836
228	0x3fb1ac95	1.3880793
229	0xbe9f277b	-0.3108481
230	0x3e8cb605	0.2748262
231	0xbe974e4c	-0.29551923
232	0xbdc5a080	-0.096497536
233	0xbe8156f4	-0.25261652
234	0x3ea48ef2	0.3214031
235	0x3f405ee9	0.7514482
236	0x3f4a5d05	0.79048187
237	0xbe4d0677	-0.20021997
238	0x3e717513	0.23579817
239	0x3c2b66d2	0.010461526
240	0x3ebfcf24	0.37462723
241	0xbe7e05b0	-0.24806857
242	0x3ee0aa97	0.4388015
243	0xbe6da4e5	-0.23207434
244	0x3e5243a0	0.2053361
245	0x3e16dcd1	0.14732672
246	0x3be169f9	0.006879088
247	0x3db11f80	0.08648586
248	0x3bd5585b	0.006510777
249	0x3e99e14c	0.300547
250	0xbe052a6f	-0.13004468
251	0x3dfac1a5	0.12243966
252	0x3e97968a	0.2960704
253	0xbecf9319	-0.40541914
254	0xbeaf9936	-0.34296578
255	0x3ea6ab7f	0.32552716

fc0.bias f4 [128]
0	0x3db8dd66	0.090266034
1	0xbece7208	-0.40321374
2	0xbec9d77e	-0.3942222
3	0x3eb6b0c5	0.3568174
4	0xbae62c9c	-0.0017560902
5	0x3e33128d	0.17487545
6	0xbeae7598	-0.34074092
7	0xbcc0f796	-0.023555558
8	0x3e97d989	0.29658154
9	0x3ea4f71c	0.3221978
10	0x3e3d862e	0.18508217
11	0x3df4b4e5	0.119485654
12	0x3e0ad4ae	0.13557693
13	0xbb5fc367	-0.0034143568
14	0x3e00eb6c	0.12589806
15	0x3e06dfbe	0.13171288
16	0xbb7fc935	-0.003902984
17	0x3da8fe7f	0.08251666
18	0x3c36f37a	0.011166448
19	0x3d850020	0.064941645
20	0x3dfd4100	0.123659134
21	0xbeae84a6	-0.34085578
22	0xbe8ef85e	-0.27923864
23	0xbeca02bc	-0.3945521
24	0x3d24473b	0.040106993
25	0xbec653f2	-0.3873592
26	0xbeb5f8e0	-0.3554144
27	0x3e413379	0.18867292
28	0x3c002247	0.007820672
29	0x3e1dd8a1	0.15414669
30	0x3ea622c2	0.32448393
31	0x38456b84	4.706859e-05
32	0xbd826e21	-0.06368662
33	0xbc453dae	-0.012038631
34	0xbbbacd8d	-0.005700773
35	0xbecc8326	-0.39943808
36	0xbe4be33e	-0.19910905
37	0x3db1b97b	0.08677956
38	0xbc0c38aa	-0.008558432
39	0xbd059b8f	-0.032619055
40	0x3e910dea	0.28330928
41	0x3c7cc145	0.015426938
42	0xbea0b195	-0.31385484
43	0xbe2c08d3	-0.16800241
44	0xbc63f0fb	-0.013912435
45	0x3dcbfcb0	0.09960306
46	0xbcaccabd	-0.021092767
47	0xbb8bf603	-0.0042712702
48	0xbc219450	-0.009862021
49	0xbcf33305	-0.029687414
50	0xbcb00c24	-0.021490164
51	0xbe87f52c	-0.2655424
52	0xbe7e0e06	-0.24810037
53	0xbe958452	-0.29202515
54	0xbc94a20b	-0.018143674
55	0x3bdd30b1	0.0067501892
56	0xbcb13801	-0.02163315
57	0x3caa8215	0.020813981
58	0x3e553b31	0.20823361
59	0x3df570e1	0.119844206
60	0x3d90cb39	0.07070012
61	0xbbdacaf0	-0.006677024
62	0x3d00fb0e	0.031489424
63	0x3df2b64b	0.11851176
64	0xbacfb635	-0.0015847149
65	0xbc39d733	-0.011342811
66	0xbe8f546b	-0.27994093
67	0xbea04fc3	-0.31310853
68	0xbecf8c1f	-0.4053659
69	0x3c17b0b7	0.009258441
70	0xba3f292e	-0.0007292208
71	0xbe7a9ef7	-0.24474703
72	0xbc9785bd	-0.018496389
73	0xbad47b04	-0.0016210978
74	0xbe8192d1	-0.25307325
75	0x3d7df4c7	0.062001016
76	0xbc452899	-0.012033605
77	0x3d5e7bfb	0.054317456
78	0xbe34074b	-0.17580907
79	0xbce90617	-0.028445287
80	0xbeb94642	-0.36186415
81	0x3e6cfef3	0.2314413
82	0xbd00deb9	-0.031462405
83	0xbce865f2	-0.028368924
84	0xbecb6ab1	-0.39729837
85	0xbcd48dc5	-0.025946507
86	0x3e945365	0.28969875
87	0xbeae2af2	-0.3401714
88	0xbb048a94	-0.00202242
89	0xbbab7caf	-0.0052333693
90	0x3c5f4e1e	0.013629464
91	0xbebe3a64	-0.37153924
92	0xbd80b2e6	-0.06284122
93	0x3d39c726	0.04535594
94	0xbc559637	-0.013036302
95	0x3e2d75a8	0.16939414
96	0x3d36dca5	0.044644017
97	0xbc8f45e6	-0.017489385
98	0xbdb98dc4	-0.09060243
99	0xbc14015c	-0.009033527
100	0xbeae47ef	-0.34039256
101	0x3e92ab8a	0.286465
102	0x3b9ba9c8	0.004750464
103	0x3d7d6d46	0.06187179
104	0xbd02cb27	-0.031932022
105	0x3e1104d9	0.14162005
106	0xbcee919b	-0.029122164
107	0x3df1bdd6	0.118037865
108	0x3d2e65fe	0.042577736
109	0xbe13212b	-0.14368121
110	0xbc823ec6	-0.015899073
111	0x3d78dfb4	0.060760215
112	0xbc99f584	-0.018793829
113	0xbe69ccd8	-0.22832048
114	0xbca6f1a3	-0.020378893
115	0x3c1a985f	0.009435742
116	0xbdcad5ea	-0.09904082
117	0x3da58cbe	0.08083485
118	0xbe91d899	-0.28485563
119	0xbeabe708	-0.335747
120	0xbe5dc4dc	-0.21657127
121	0x3eb51fbd	0.35375777
122	0x3e9963e4	0.29959023
123	0xbcd959f9	-0.02653216
124	0xbc33d15e	-0.01097521
125	0xbcd08220	-0.025452673
126	0xbc83ad8e	-0.016073968
127	0x3e547ddb	0.20751135

fc1.weight f4 [128, 128]
0	0xbde0f01a	-0.10983296
1	0x3c24f6e4	0.010068629
2	0x3c1bf855	0.009519656
3	0xbd97af26	-0.07406454
4	0x3d6cc316	0.057803236
5	0x3d66e938	0.05637476
6	0x3db027fc	0.086013764
7	0x3f1c70c4	0.61109567
8	0xbc178837	-0.009248785
9	0xbd005ca0	-0.031338334
10	0x3d7ed3d3	0.06221373
11	0x3d3cc166	0.046082877
12	0xbdbdb32b	-0.09262689
13	0x3e78dfa8	0.24304068
14	0xbcc28110	-0.023743182
15	0x3cc0cc40	0.023534894
16	0x3ee4c711	0.44683126
17	0xbcd690f4	-0.026192166
18	0xbcfdf785	-0.031001816
19	0xbe85bbba	-0.26119787
20	0xbc85165b	-0.016246011
21	0xbd5dba80	-0.05413294
22	0x3d43f8df	0.047844764
23	0x3d3fec1e	0.04685604
24	0xbc96536e	-0.01835033
25	0x3d0fb680	0.035086155
26	0x3d902210	0.07037747
27	0x3da95156	0.08267467
28	0x3e0fc39c	0.14039463
29	0x3d5d8054	0.05407746
30	0x3d66550b	0.056233447
31	0x3d3719b8	0.04470226
32	0x3e49f473	0.19722156
33	0x3fdf59bb	1.7449259
34	0xbea1afdc	-0.31579483
35	0xbd16bb9d	-0.036800016
36	0x3ea0ed22	0.31430918
37	0xbda378ab	-0.07982
38	0x3d46c635	0.04852887
39	0x3f4fd50d	0.81184465
40	0x3dbde6ab	0.09272512
41	0xbd861860	-0.06547618
42	0x3ce9aa3a	0.028523553
43	0x3d6a4948	0.057198793
44	0x3f53f1a6	0.827906
45	0xbd49a83b	-0.049232703
46	0x3f1b25ae	0.6060437
47	0x3edb7961	0.42866042
48	0x3ec49455	0.38394418
49	0x3f71b6f0	0.94419765
50	0x3f1ecd94	0.6203244
51	0xbd864f93	-0.06558146
52	0xbdab09f1	-0.083515055
53	0x3d04c951	0.032418553
54	0x3f451e5c	0.7699945
55	0x3d56f12a	0.052476086
56	0x3f962d03	1.1732486
57	0x3e29e541	0.1659136
58	0xbd5d0197	-0.053956594
59	0x3c791b53	0.0152042685
60	0x3c40592e	0.011740012
61	0x3ed299d3	0.41132984
62	0x3cc28ad1	0.023747833
63	0xbe06a46f	-0.13148664
64	0xbdca6299	-0.09882087
65	0x3d1803b3	0.037112903
66	0x3e724c37	0.23661886
67	0xbd48b4e3	-0.049000632
68	0x3cbfeb86	0.023427736
69	0x3d503731	0.050833885
70	0x3eaca655	0.3372065
71	0x3d78b4c4	0.060719267
72	0x3f9b9b06	1.2156684
73	0xbc93857b	-0.018007984
74	0x3e5fd314	0.21857864
75	0xbe83a164	-0.2570907
76	0x3e8f6d93	0.28013286
77	0xbe688079	-0.22705258
78	0xbcd08c49	-0.025457518
79	0x3f6a9a7a	0.9164196
80	0xbcd8e54b	-0.026476523
81	0xbce5484d	-0.027988577
82	0x3f14bac0	0.5809746
83	0x3f8b7d27	1.0897568
84	0x3d523ebc	0.05132936
85	0x3f95faa4	1.1717114
86	0x3d45ad3a	0.048260905
87	0x39c3db87	0.0003735686
88	0x3ead656f	0.3386645
89	0x3db64f23	0.08901813
90	0x3dfde18e	0.12396537
91	0x3d2f38cc	0.042778775
92	0xbe9ad07e	-0.30237192
93	0x3d9cd6b7	0.07658141
94	0x3f7430b0	0.9538679
95	0x3d8fc545	0.07020048
96	0x3cebb2f6	0.028771859
97	0x3f156911	0.58363444
98	0x3dbd13fb	0.092323266
99	0x3fbd2546	1.4777
100	0x3cb8aad1	0.02254239
101	0x3d756142	0.059907205
102	0x3d528661	0.051397685
103	0xbdb47775	-0.08811847
104	0x3f3ea8e4	0.74476457
105	0x3d40614b	0.046967786
106	0x3f7350c1	0.95045096
107	0xbdb3829c	-0.08765146
108	0xbda7180f	-0.08158886
109	0x3c5283e1	0.012848825
110	0xbdc4d349	-0.09610612
111	0xbd33b194	-0.043870524
112	0x3f8e20de	1.110378
113	0xbdc01ef0	-0.09380901
114	0x3f403cb7	0.75092643
115	0x3e23f007	0.16009532
116	0x3e3215e8	0.17391169
117	0xbcdf44ca	-0.02725448
118	0x3da4249b	0.080147944
119	0xbbf88f09	-0.0075854105
120	0x3c5e5330	0.013569638
121	0xbd908108	-0.07055861
122	0xbd54c75f	-0.051947948
123	0x3f2ba247	0.6704449
124	0x3ebb515d	0.36585513
125	0x3f1b2b56	0.60613
126	0x3f8116e6	1.0085113
127	0xbd7221c7	-0.059114244
128	0x3da4bed0	0.08044207
129	0xbc716b08	-0.014734991
130	0x3d5f6096	0.05453547
131	0xbced6edf	-0.028983532
132	0x3d507091	0.0508886
133	0x3d978327	0.07398062
134	0x3cfc6097	0.030807776
135	0xbd7cc2ae	-0.0617091
136	0xbd0c8397	-0.03430518
137	0x3db4eb8c	0.088339895
138	0x3deea87a	0.11653228
139	0x3d9c27e0	0.07624793
140	0x3d6871e6	0.056749247
141	0xbd260c69	-0.04053918
142	0x3de63630	0.11240804
143	0x3d5381a5	0.05163731
144	0xbe88f2f0	-0.26747847
145	0x3d045f80	0.03231764
146	0x3d62b3df	0.05534732
147	0x3e13aab4	0.14420587
148	0x3d0e52d5	0.034746964
149	0xbd700edc	-0.05860792
150	0xbcdabe54	-0.026702084
151	0x3ce46577	0.027880413
152	0x3dd2e35b	0.10297271
153	0x3c79d9e0	0.015249699
154	0x3c7c598a	0.015402207
155	0x3d19d0cd	0.037552644
156	0x3bbe9d67	0.0058171037
157	0x3da7a168	0.08185083
158	0x3d7846fa	0.060614564
159	0x3e1bdb52	0.15220383
160	0x3dac333b	0.08408209
161	0x3dc541df	0.096317045
162	0x3ed419c7	0.41425917
163	0x3da0da37	0.07854121
164	0x3cc0361b	0.0234633
165	0x3d17a8fa	0.037026383
166	0x3d311970	0.04323715
167	0xbefa6bc8	-0.48910356
168	0x3c0c63b4	0.008568693
169	0x3d82e447	0.06391197
170	0xbdade39c	-0.08490679
171	0x3db7293b	0.08943411
172	0xbe5fcf61	-0.21856453
173	0x3d9e0102	0.07715036
174	0xbd120dbb	-0.035657626
175	0xbe51e91a	-0.20499077
176	0xbe96dfb6	-0.29467553
177	0xbd904081	-0.07043553
178	0xbeb55b3e	-0.35421175
179	0x3d6d2ae8	0.057902247
180	0xbc5ea824	-0.013589893
181	0xbcf5c3a4	-0.030000515
182	0x3ca1cacf	0.019750027
183	0x3d6d0fee	0.05787652
184	0xbeecdaa6	-0.46260566
185	0x3d86e36e	0.065863475
186	0x3d04f916	0.03246411
187	0xbcdc0512	-0.026857886
188	0x3d732699	0.05936298
189	0xbe81460d	-0.25248757
190	0x3dcf3fa5	0.10119561
191	0x3d4220be	0.047394507
192	0x3dc9fa10	0.09862149
193	0x3bfc0694	0.007691214
194	0xbeecc621	-0.4624491
195	0x3ce0d574	0.027445532
196	0xbd30a268	-0.043123633
197	0x3cf3c647	0.029757632
198	0xbca9c2de	-0.020722803
199	0xbd8f6d0a	-0.070032194
200	0x38859f1c	6.3715706e-05
201	0x3f332bb2	0.6998855
202	0xbea142c7	-0.3149626
203	0x3dec8fa6	0.11550836
204	0xbcb43e2f	-0.022002308
205	0xbd3b81de	-0.045778148
206	0x3d0c156e	0.034200124
207	0xbe044034	-0.12915117
208	0x3ca263c2	0.019822959
209	0x3dc843ba	0.09778543
210	0xbee6a7cb	-0.4504989
211	0xbe27a5cb	-0.16371839
212	0xbc8e2e58	-0.017356083
213	0xbe98a0d6	-0.29810208
214	0x3d79277f	0.060828682
215	0x3d613d58	0.054990143
216	0xbdfcdaa7	-0.12346392
217	0x3eb40aa5	0.3516437
218	0xbd683769	-0.05669347
219	0xbd4eaa61	-0.050455455
220	0xbf7b7572	-0.9822608
221	0x3da718d9	0.08159036
222	0xbe947113	-0.2899252
223	0x3d8ab0d3	0.06772008
224	0x3d57e2b0	0.05270642
225	0xbf126342	-0.57182705
226	0x3cd6d8da	0.02622645
227	0x3dc2102f	0.09475743
228	0x3d9e83dc	0.07739994
229	0xbd592590	-0.053014338
230	0xbd72b73b	-0.059256773
231	0x3d78703e	0.060653917
232	0xbde25107	-0.11050611
233	0x3c999eef	0.018752543
234	0xbef8882d	-0.48541394
235	0x3ddb84cb	0.107186876
236	0x3d585aea	0.052821077
237	0xbd74669e	-0.059668176
238	0x3e092571	0.13393189
239	0xbd26d0d8	-0.040726513
240	0xbe1a8b7a	-0.15092269
241	0xbf4aac91	-0.79169565
242	0xbf6bf06d	-0.92163736
243	0x3d9c0d22	0.076196924
244	0xbcb8278b	-0.022479793
245	0xbd203516	-0.039113127
246	0x3d92d73d	0.0716996
247	0x3c5f348c	0.013623368
248	0xbd44e1cb	-0.048066895
249	0x3d326f81	0.04356337
250	0xbcba3b63	-0.022733396
251	0xbee24b02	-0.4419785
252	0xbebd84ed	-0.37015477
253	0xbe6de5d6	-0.23232207
254	0xbe076969	-0.13223805
255	0x3de1dad7	0.110280685

fc1.bias f4 [128]
0	0x3ce3d542	0.02781165
1	0xbbab3de5	-0.0052258843
2	0xbd4816e6	-0.048849963
3	0x3d1e2b67	0.03861561
4	0x3c9ae61c	0.018908553
5	0x3d121b7d	0.035670746
6	0xbda5915e	-0.08084367
7	0x3d98ad1b	0.07454892
8	0xbd9bf96b	-0.07615932
9	0xbd168d15	-0.03675564
10	0xbc84a497	-0.016191764
11	0x3d14149b	0.036152463
12	0xbcc722fe	-0.024308678
13	0x3c9b5e3b	0.018965831
14	0x3d16d9a0	0.036828637
15	0xbcffffe0	-0.03124994
16	0x3d573ac1	0.052546266
17	0xbd7a59ca	-0.061120786
18	0xbb5fee04	-0.0034168968
19	0x3d0a9a57	0.033838596
20	0xbcef04ec	-0.029177152
21	0x3da959b9	0.08269066
22	0x3da82382	0.082098976
23	0xbda266a5	-0.07929734
24	0xbd9233f9	-0.07138819
25	0x3cb7915f	0.022408186
26	0x3de82acb	0.11336287
27	0xbd7d9566	-0.061910056
28	0xbdd45ea3	-0.10369613
29	0xbdc6dbe4	-0.097099096
30	0xbda00f09	-0.07815368
31	0xbd9da17b	-0.076968156
32	0xbc8b4e72	-0.01700518
33	0xbd8b7ae1	-0.06810547
34	0x3dc60313	0.09668555
35	0xbd435e55	-0.047697384
36	0x3d330421	0.04370511
37	0xbd51a80a	-0.051185645
38	0xbd5f0255	-0.054445583
39	0xbc3b57c6	-0.011434501
40	0xbd45d1ef	-0.04829591
41	0xbd05cd12	-0.032666273
42	0x3be1f1e9	0.006895293
43	0xbe120156	-0.14258322
44	0x3d3cc4b7	0.04608604
45	0x3d54e454	0.051975563
46	0xbd5f0b5e	-0.0544542
47	0x3e0d12fe	0.13776776
48	0x3d67f635	0.056631286
49	0x3ddc90bd	0.10769794
50	0x3d93903f	0.07205247
51	0xbd078f88	-0.033095866
52	0x3d9b2de6	0.07577114
53	0x3ca37efe	0.019958016
54	0xbd85e4d6	-0.065377876
55	0x3c9cfb15	0.019162694
56	0x3d0969d6	0.0335482
57	0x3b5ea43e	0.0033972408
58	0x3ccb99f9	0.024853693
59	0x3c8bd8c9	0.017071145
60	0xbc9a5909	-0.018841283
61	0xbd32a6c5	-0.043616075
62	0xbc286c57	-0.0102797365
63	0xbc507ac2	-0.01272458
64	0xbd816206	-0.063175246
65	0x3db01998	0.085986316
66	0x3d0a4aad	0.033762623
67	0x3c793444	0.015210215
68	0xbd379c07	-0.044826534
69	0xbd4961ef	-0.049165662
70	0xbd19cf22	-0.037551053
71	0xbd7f0a31	-0.06226558
72	0x3ce8d64c	0.028422497
73	0x3c7a02ac	0.015259426
74	0x3d97237d	0.07379816
75	0xbc91d874	-0.017803408
76	0x3d4927e3	0.049110305
77	0xbc87bdd4	-0.01657001
78	0xbdcda2d7	-0.10040825
79	0xbd938d0c	-0.07204637
80	0x3cfe3869	0.031032758
81	0x3da6194d	0.081102945
82	0x3d1a9384	0.037738338
83	0x3d999a89	0.07500178
84	0x3d0ff280	0.035143375
85	0x3d20db6a	0.03927175
86	0x3d29f900	0.04149723
87	0xbc8909ed	-0.016728366
88	0x3cb0fa3d	0.021603698
89	0x3b738519	0.003715819
90	0xbd8ce1ca	-0.06879003
91	0x3c3f70d4	0.011684615
92	0x3dbe4f0c	0.09292421
93	0x3d91d4ee	0.07120691
94	0xbcd2f58f	-0.025751857
95	0x3d94cbf1	0.07265461
96	0xbda8d028	-0.08242828
97	0xbdb71bbb	-0.08940836
98	0x3d03fe19	0.03222475
99	0x3d9547e0	0.072891
100	0xbd86ba26	-0.06578474
101	0xbd9a03ac	-0.075202316
102	0x3d76389f	0.06011259
103	0x3cfcc3a7	0.030855013
104	0x3d8dbd8b	0.06920918
105	0xbd210a91	-0.039316718
106	0x3d219c62	0.03945578
107	0x3d739209	0.05946544
108	0x3c86061b	0.016360333
109	0xbbd4de32	-0.0064962143
110	0x3d8fdeef	0.07024943
111	0xbc73301c	-0.014843013
112	0xbc4c83bb	-0.012482579
113	0xbc55847e	-0.013032077
114	0x3d77e93b	0.06052516
115	0xbc666c1a	-0.014063859
116	0xbc98f2f5	-0.018670538
117	0xbdaaa161	-0.08331562
118	0xbca0acde	-0.01961368
119	0x3cbc668f	0.022998122
120	0xbd46c1a3	-0.04852451
121	0x3e0616aa	0.13094583
122	0x3d971df1	0.07378758
123	0x3d332598	0.043737024
124	0x3cf2550d	0.029581571
125	0xbda5f389	-0.08103091
126	0x3d50023d	0.050783385
127	0xbccd7c34	-0.025083639

fc2.weight f4 [128, 128]
0	0x3ee09e77	0.438709
1	0xbd414614	-0.047185972
2	0xbb7dc7f5	-0.003872392
3	0x3e8aa150	0.27076197
4	0x3cf09bfb	0.029371252
5	0xbd36fd86	-0.044675373
6	0xbe8c6596	-0.27421254
7	0xbd9e8a26	-0.077411935
8	0xbced3906	-0.028957855
9	0x3d5cbaab	0.053888958
10	0xbda64950	-0.08119452
11	0x3d9a2874	0.07527247
12	0x3df3a161	0.11896015
13	0x3f51745d	0.8181818
14	0xbc1b75e4	-0.0094885565
15	0xbcc1eb35	-0.023671726
16	0xbd1a8369	-0.03772298
17	0x3f64a918	0.89320517
18	0x3db8f6eb	0.09031471
19	0x3d2e442e	0.04254549
20	0x3da2f514	0.07956901
21	0x3e9077cb	0.28216395
22	0xbbf42a34	-0.00745132
23	0xbd99b3e9	-0.07505018
24	0x3db42a55	0.08797137
25	0x3e335be2	0.1751552
26	0xbd3ae8d9	-0.045632217
27	0xbd60ceab	-0.054884594
28	0x3c8059fb	0.015667906
29	0x3b03798f	0.0020061468
30	0xbd46afb4	-0.048507407
31	0xbd655fe4	-0.05599965
32	0xbd6ccf6c	-0.057815
33	0x3f15b454	0.58478284
34	0x3e1fad3a	0.15593424
35	0x3d2aef5a	0.04173217
36	0x3cce8ed9	0.0252146
37	0xbd79cfc4	-0.060989156
38	0x3e41fec2	0.18944839
39	0xbdb9eb5d	-0.09078095
40	0x3eb6dc7f	0.357151
41	0xbd874073	-0.066040896
42	0xbeb5ca41	-0.3550587
43	0xbec56dee	-0.38560432
44	0xbe108b4e	-0.1411564
45	0x3dd08de6	0.10183315
46	0x3c9935aa	0.018702347
47	0xbdbc7777	-0.092024736
48	0x3ece510f	0.40296218
49	0xbdc087a9	-0.09400875
50	0xbe096539	-0.1341752
51	0x3c8539fa	0.016262997
52	0x3e5559c0	0.20835018
53	0x3e944398	0.2895782
54	0xbd34757c	-0.044057354
55	0x3c3a1256	0.011356911
56	0x3dbafb09	0.091299124
57	0x3d9367fa	0.07197566
58	0x3e3c35f0	0.1837995
59	0xbb2b3355	-0.0026123126
60	0xbdf993aa	-0.12186368
61	0x3d86576a	0.06559642
62	0x3d911bf2	0.07085408
63	0xbcf0101d	-0.029304558
64	0xbd6703cd	-0.05640011
65	0xbd9c5b97	-0.07634657
66	0x3e571c42	0.21006873
67	0x3e1a4de6	0.15068778
68	0x3d101585	0.035176773
69	0x3f3b32b2	0.7312423
70	0x3d5e5e7a	0.05428932
71	0xbda1a784	-0.07893279
72	0xbdee9274	-0.116490275
73	0xbd10398f	-0.035211142
74	0xbe0139d5	-0.12619717
75	0xbd6224a3	-0.05521072
76	0xbd2c4465	-0.042057414
77	0x3f76605d	0.9624079
78	0xbd2c28f5	-0.042031247
79	0x3cafbe18	0.021452948
80	0xbd0da652	-0.034582444
81	0x3e35ef83	0.17767148
82	0xbd9d07ca	-0.07667501
83	0xbe64532b	-0.22297351
84	0x3ddd845e	0.10816263
85	0x3d8b55b7	0.06803458
86	0x3db4f5d3	0.0883595
87	0x3d7d552b	0.0618488
88	0x3d412ab0	0.04715985
89	0xbd03ed4f	-0.032208737
90	0x3d1edfbb	0.038787585
91	0x3f366539	0.71248204
92	0x3e1fedae	0.15618011
93	0xbd0e2e02	-0.034711845
94	0x3c0b1f84	0.008491401
95	0x3c8e4135	0.017365078
96	0xbd48de49	-0.049040113
97	0xbe61b570	-0.22041869
98	0x3cb605dc	0.02221959
99	0x3e92b400	0.28652954
100	0xbe5b8f55	-0.21441396
101	0xbc8d929a	-0.01728182
102	0x3bfc2071	0.007694297
103	0x3e4ab7da	0.19796696
104	0x3d95ff52	0.07324089
105	0x3d8a399c	0.06749269
106	0xbe2bae79	-0.16765775
107	0xbd089c39	-0.03335211
108	0xbcebb303	-0.028771883
109	0xbd8b083f	-0.06788682
110	0x3c155ed4	0.009116847
111	0x3d1e4236	0.038637362
112	0xbd80081f	-0.06251549
113	0x3f467d57	0.77535003
114	0x3e3c926c	0.1841523
115	0x3cf7085c	0.030155353
116	0x3dd2dfe5	0.10296611
117	0x3c9897d6	0.018627089
118	0x3f30db9c	0.690851
119	0xbdca554d	-0.09879551
120	0xbc5aad5f	-0.013346999
121	0xbe52dbf9	-0.20591725
122	0xbf12742d	-0.5720852
123	0x3df0f887	0.11766153
124	0xbc84d883	-0.016216522
125	0xbd3a86a8	-0.045538574
126	0x3db720c0	0.089417934
127	0xbd81697a	-0.06318946
128	0xbd56bfff	-0.052429195
129	0xbcee6868	-0.02910252
130	0xbc601afa	-0.013678307
131	0xbd7761f2	-0.060396142
132	0xbc5107a1	-0.0127581665
133	0x3d287003	0.041122448
134	0xbd370622	-0.044683583
135	0x3d2dfee3	0.042479407
136	0xbd05c0d4	-0.0326546
137	0x3c9e4cde	0.019323763
138	0xbd0e2012	-0.034698553
139	0x3d2c1b56	0.042018257
140	0x3d39d454	0.045368508
141	0xbdc46849	-0.09590203
142	0xbd9ebe4c	-0.0775114
143	0x3d6a8bf0	0.05726236
144	0xbd8a3b2d	-0.06749568
145	0x3c94e8de	0.018177446
146	0xbd9de660	-0.07709956
147	0xbddfb624	-0.109234124
148	0xbd315b42	-0.04329992
149	0x3c16ec3a	0.009211594
150	0xbddbe541	-0.10737086
151	0xbce7c95f	-0.028294263
152	0x3ca29103	0.019844538
153	0x3d1b7943	0.03795744
154	0x3bb4ca34	0.0055172686
155	0x3c2efd61	0.010680527
156	0xbcf512d2	-0.0299162
157	0xbdb35a6a	-0.087574795
158	0x3cb8eda3	0.022574252
159	0x3c7e79ec	0.015531998
160	0x3d552ecc	0.052046582
161	0xbd1abf2b	-0.03777997
162	0xbdb4a839	-0.088211484
163	0xbd646f87	-0.055770423
164	0xbd0b5074	-0.034012273
165	0x38f5eb21	0.000117263065
166	0xbdd3628c	-0.10321531
167	0xbda32562	-0.079661146
168	0x3d6a2173	0.057160806
169	0x3d92ab15	0.071615376
170	0xbd10a893	-0.035317015
171	0x3c8fbef1	0.017547103
172	0x3adce99e	0.0016854291
173	0xbd06fc69	-0.03295556
174	0xbc652b97	-0.013987443
175	0xbdd5c0d3	-0.10437169
176	0xbc717e91	-0.014739648
177	0xbd505b5b	-0.050868373
178	0xbcb6a513	-0.02229551
179	0x3d4d7193	0.05015714
180	0xbce91adf	-0.028455196
181	0x3d619b43	0.05507971
182	0x3d84595a	0.06462355
183	0x3d112fcc	0.035445973
184	0x3d01058d	0.031499434
185	0x3d2ec8b1	0.042671863
186	0x3cccbef3	0.024993395
187	0x3d07761b	0.03307162
188	0xbc9726b8	-0.01845108
189	0xbcbbdd22	-0.022932593
190	0xbc7b2083	-0.015327576
191	0x3d72e4e2	0.05930031
192	0xbcf4c379	-0.029878365
193	0xbd8a8511	-0.06763662
194	0x3ce98c62	0.028509323
195	0x3c339c12	0.010962503
196	0xbd91cfc3	-0.071197055
197	0xbdccec3f	-0.10005998
198	0x3bf24330	0.0073932633
199	0xbcd2121f	-0.025643406
200	0x3bf72eec	0.0075434353
201	0x3d48d63d	0.04903244
202	0x3c5b7620	0.013394862
203	0x3d0f6926	0.035012387
204	0xbd5a9889	-0.053368125
205	0xbd86d319	-0.065832324
206	0x3cc96645	0.024584899
207	0x3d02a128	0.03189197
208	0x3d48e5ff	0.049047466
209	0xbd98fc0b	-0.074699484
210	0x3d8a0aba	0.06740327
211	0xbda1d144	-0.079012424
212	0xbd9969f2	-0.074909106
213	0x3c4402c5	0.011963551
214	0xbd0e14c3	-0.03468777
215	0xbb06589d	-0.0020499595
216	0x3d35725b	0.04429851
217	0x3d130f1b	0.035903078
218	0xbccb806c	-0.02484151
219	0xbd669a2d	-0.056299377
220	0xbdd76b2f	-0.105184905
221	0x3d00cf0a	0.031447448
222	0xbddea876	-0.10871975
223	0x3d93c81a	0.07215901
224	0x3d3caf9d	0.046065915
225	0xbd9144a7	-0.070931725
226	0xbd117444	-0.03551127
227	0xbde022aa	-0.10944112
228	0xbce060b9	-0.027389871
229	0xbc8aa561	-0.016924562
230	0xbabf9ba5	-0.0014618529
231	0x3d530e65	0.0515274
232	0x3db2c4f3	0.08728971
233	0x3d5b0eb1	0.053480808
234	0xbddcff18	-0.10790843
235	0x3cca9cff	0.024733065
236	0x3d7d8cbf	0.061901804
237	0xbd834c53	-0.06411042
238	0xbd651944	-0.0559323
239	0xbdb1fa9d	-0.08690379
240	0x3da6beb1	0.0814184
241	0xbd1b3ebc	-0.037901625
242	0x3c4ff690	0.012693062
243	0xbdad4011	-0.08459485
244	0x3b9fea2f	0.004880212
245	0x3d953e41	0.072872646
246	0xbae337b4	-0.0017335326
247	0xbd9b3007	-0.0757752
248	0x3d9d22d3	0.07672658
249	0x3cd189d2	0.025578413
250	0xbca50fa9	-0.020149069
251	0xbcb91d5d	-0.02259701
252	0x3d2c94bd	0.042134035
253	0xbdb2bd9c	-0.08727571
254	0xbdaa1b08	-0.08305937
255	0xbc368ecb	-0.011142443

fc2.bias f4 [128]
0	0xbd871210	-0.06595242
1	0xbd75bdc8	-0.059995443
2	0xbd7de27b	-0.061983567
3	0xbd997140	-0.07492304
4	0x3e0fa8b0	0.14029193
5	0xbd0945e7	-0.03351393
6	0xbb3ec290	-0.0029107668
7	0x3dd8d29b	0.10587045
8	0xbccf7acf	-0.025327114
9	0x3b4326f5	0.002977786
10	0x3d06342d	0.032764602
11	0x3d7a42bc	0.0610988
12	0xbdbd2223	-0.09235027
13	0xbdbe1aa4	-0.09282425
14	0xbda67fd2	-0.081298485
15	0x3d0ade0d	0.03390317
16	0x3dcaa2f4	0.09894362
17	0x3c4e04ea	0.012574414
18	0xbdaa1f96	-0.08306806
19	0xbc58fdb5	-0.013244082
20	0x3d5ee1fe	0.05441474
21	0xbd0e7dad	-0.034787823
22	0xbc702175	-0.014656414
23	0x3d9ce10e	0.07660113
24	0xbd98faea	-0.07469733
25	0xbcd30663	-0.025759881
26	0x3df89980	0.12138653
27	0x3dbe866c	0.09302983
28	0x3df29538	0.118448675
29	0xbcf382a5	-0.029725382
30	0xbd7e697b	-0.062112313
31	0x3dc8270e	0.09773074
32	0x3d9ee0cb	0.077577196
33	0xbd79f3f0	-0.061023653
34	0xbddb4246	-0.10706
35	0x3ccfa137	0.025345428
36	0x3cfb26dd	0.03065818
37	0x3e18f732	0.14938048
38	0xbda59a74	-0.080861
39	0xbd9ab0c1	-0.075532444
40	0xbc897071	-0.016777249
41	0xbd79c92e	-0.060982876
42	0xbd0d7d5c	-0.03454338
43	0xbdb233c4	-0.0870128
44	0x3daa7919	0.08323879
45	0x3e03345d	0.12812944
46	0x3c8377be	0.016048308
47	0xbd05ca16	-0.032663427
48	0xbdbcf596	-0.09226529
49	0x3b982f5f	0.004644319
50	0x3d1e9a8d	0.03872161
51	0xbd88053e	-0.06641625
52	0x3d42005c	0.047363624
53	0x3dac335c	0.084082335
54	0xbd8ef5aa	-0.069804505
55	0x3dd67ad5	0.10472647
56	0xbdb6d9cb	-0.089282595
57	0x3d6f476f	0.058417734
58	0x3d29c3ad	0.041446377
59	0x3cc41bd6	0.023939054
60	0x3dd1b8c3	0.102403186
61	0x3d24bc53	0.040218662
62	0xbdc7249e	-0.09723781
63	0x3c836702	0.016040329
64	0xbccd7f56	-0.025085133
65	0x3d7cafef	0.06169122
66	0xbd52735b	-0.051379543
67	0x3d27e4c8	0.040989667
68	0xbd88bed8	-0.066770256
69	0x3e0a6cad	0.13518019
70	0x3bf227b3	0.0073899864
71	0xbd154488	-0.03644231
72	0x3ad88823	0.0016520064
73	0xbdb5812e	-0.0886253
74	0x3e1eb66e	0.15499279
75	0x3dc9ae8c	0.09847745
76	0xbd98b7cc	-0.074569315
77	0x3e1ede74	0.15514547
78	0x3d934a15	0.071918644
79	0xbd807660	-0.06272578
80	0x3c020202	0.007935049
81	0x3cc03ee1	0.023467483
82	0xbdc0a166	-0.09405784
83	0x3d0908f3	0.0334558
84	0xbcb59a3a	-0.022168268
85	0xbdb156a6	-0.08659105
86	0xbd8b65c0	-0.06806517
87	0xbd5fdd6c	-0.054654524
88	0xbde655fc	-0.11246869
89	0xbd9833ba	-0.07431741
90	0x3d4b7ad5	0.04967769
91	0xbbb25ee2	-0.00544344
92	0x3d4c4a8e	0.04987579
93	0x3cef2022	0.029190127
94	0xbdaa56cf	-0.08317339
95	0x3d3dd5b1	0.04634637
96	0xbdad865c	-0.08472893
97	0xbc54249a	-0.01294818
98	0xbdc58ba8	-0.09645778
99	0xbda63614	-0.08115783
100	0x3db463a8	0.088080704
101	0x3d061b70	0.03274101
102	0xbd632838	-0.055458277
103	0x3db8a4f7	0.090158395
104	0xbcb8b83a	-0.022548784
105	0xbd7390a1	-0.0594641
106	0x3d82d731	0.06388701
107	0xbd49285e	-0.049110763
108	0x3d2ac594	0.04169233
109	0xbce61ddc	-0.02809041
110	0xbd60ae2d	-0.054853607
111	0x3d9b729f	0.075902216
112	0x3d88e773	0.066847704
113	0x3d99e37d	0.07514093
114	0xb8bd3d97	-9.023694e-05
115	0xbd8a4b29	-0.06752617
116	0x3e02b692	0.12764958
117	0xbc991513	-0.018686807
118	0xbc5c0278	-0.013428323
119	0xbd36c2fd	-0.04461955
120	0xbc2a3e29	-0.010390797
121	0xbd22686d	-0.03965037
122	0x3d77251b	0.06033812
123	0xbcb2b965	-0.021816919
124	0x3d759a9a	0.059961893
125	0xbc13257c	-0.008981105
126	0x3c6b21d0	0.014351323
127	0xbc82613b	-0.015915504

last_fc.weight f4 [6, 128]
0	0x3d415cb5	0.047207553
1	0x3c093280	0.008373857
2	0xbc5f2cdb	-0.013621534
3	0x3da118ab	0.07866033
4	0xbd2787cb	-0.040900987
5	0xbd6fc8ef	-0.058541235
6	0x3d674d2d	0.056470085
7	0x3d43722f	0.047716316
8	0x3d2d89f9	0.04236791
9	0xbcf872e3	-0.03032822
10	0xbcad575e	-0.021159824
11	0xbbacbdcb	-0.0052716485
12	0xbdb7212e	-0.089418754
13	0xbd3c38b1	-0.045952503
14	0x3d2e0b3d	0.042491186
15	0xbd29d441	-0.041462187
16	0x3d990a2b	0.074726425
17	0x3d03bc12	0.03216178
18	0xbdcf88f4	-0.101335436
19	0xbc8de59b	-0.017321398
20	0x3c9ebc9e	0.019377049
21	0xbca0bc2c	-0.019620977
22	0x3cc43158	0.02394931
23	0xbb160913	-0.0022893592
24	0xbd563cd4	-0.052304104
25	0x3d46187f	0.048363205
26	0x3d1245b2	0.035710998
27	0xbc2d5b31	-0.010580824
28	0x3c17c791	0.009263889
29	0xbcdb0679	-0.026736485
30	0x3c7d913a	0.015476519
31	0xbb268b44	-0.0025412599
32	0x3cd16977	0.025562985
33	0x3d63767a	0.05553291
34	0xbd246f33	-0.04014511
35	0xbc2d2f3e	-0.010570345
36	0xbd84ca51	-0.06483901
37	0x3d90e283	0.07074454
38	0x3d644166	0.05572643
39	0x3d8e6972	0.06953706
40	0xbd8aa95a	-0.067705825
41	0xbdb2775b	-0.087141715
42	0x3d3063f5	0.043064076
43	0x3d50c45b	0.05096851
44	0x3d064547	0.03278091
45	0xbca5724c	-0.020196103
46	0xbd54262d	-0.05179422
47	0xbcc273cf	-0.023736862
48	0x3d404a3e	0.046945803
49	0x3d2879f8	0.041131943
50	0x3d57d12c	0.052689716
51	0xbcab2921	-0.020893635
52	0x3c558ac7	0.013033575
53	0x3d0e4d9a	0.034741975
54	0x3d57d817	0.052696314
55	0x3b1bd6f2	0.002377924
56	0xbd99598a	-0.07487781
57	0xbc9d63a1	-0.019212546
58	0xbd887a95	-0.06664006
59	0x3b73eea1	0.0037221091
60	0xbd890bc5	-0.06691698
61	0x3c5dfa96	0.013548514
62	0xbd6724a9	-0.056431446
63	0x3d177f52	0.036986656
64	0x3cc4a522	0.024004523
65	0xbd4a6eb2	-0.049421974
66	0xbca6be8c	-0.020354532
67	0x3c9386a2	0.018008534
68	0xbd559cc9	-0.052151475
69	0x3da93484	0.0826197
70	0x3cb4de13	0.02207855
71	0x3d1984a9	0.03748003
72	0x3d2828ff	0.041054722
73	0x3d87a80a	0.06623848
74	0x3de30792	0.11085428
75	0x3dbc4cb6	0.09194319
76	0x3d26db97	0.04073676
77	0x3d515e76	0.051115476
78	0x3d324ceb	0.043530386
79	0xbd9e26bc	-0.07722232
80	0x3d20dd6b	0.03927366
81	0x3d4ab21b	0.04948626
82	0x3cc7e171	0.024399491
83	0x3cba77df	0.022762237
84	0xbce3ee26	-0.027823519
85	0x3dbeca45	0.093159236
86	0xbf2e7ad0	-0.68156147
87	0x3d88a2f3	0.06671705
88	0x3d527548	0.05138138
89	0x3d8caed9	0.06869287
90	0x3d51e850	0.05124694
91	0x3cf67f8f	0.030090122
92	0xbd457f93	-0.048217367
93	0x3ca6f9fa	0.02038287
94	0x3b9ca9f2	0.0047810012
95	0xbd9acd6c	-0.07558712
96	0x3dae967e	0.08524798
97	0x3d2ab22b	0.04167382
98	0xbd61e793	-0.055152487
99	0xbdad6a75	-0.08467571
100	0xba4324b0	-0.00074441265
101	0x3d16c330	0.03680724
102	0xbd1a24b3	-0.037632655
103	0x3dae6c40	0.08516741
104	0x3cfae650	0.0306274
105	0xbc3ea4d2	-0.011635976
106	0xbd1459ed	-0.036218572
107	0xbd966cf2	-0.073449984
108	0xbabeb2cd	-0.0014549136
109	0xbbdbda13	-0.006709346
110	0xbcfbec05	-0.030752191
111	0x3d8ffbc2	0.07030441
112	0xbcafdbcb	-0.02146711
113	0x3dd65415	0.10465256
114	0x3dc9a439	0.09845776
115	0x3b3b0715	0.0028538157
116	0x3dc9046b	0.09815296
117	0xbb41b35e	-0.0029556374
118	0xbd8756a8	-0.06608325
119	0x3d0d21a2	0.034455903
120	0xbd2b48b3	-0.04181738
121	0x3da08300	0.07837486
122	0x3b2a484f	0.002598304
123	0x3dba6697	0.09101599
124	0xbc114195	-0.008865734
125	0xbdaf897b	-0.08571144
126	0xbd91c1b7	-0.07117026
127	0x3daa9daa	0.08330853
128	0xbd36691e	-0.04453384
129	0xbcb4514c	-0.022011422
130	0x3da03064	0.0782173
131	0xbd279d16	-0.040921293
132	0x3d939409	0.0720597
133	0xbd3220d6	-0.043488346
134	0xbc44d539	-0.012013727
135	0x3d45d98a	0.048303165
136	0x3d982a76	0.07429974
137	0xbda3cbc6	-0.07997851
138	0x3cd646a8	0.026156738
139	0xbcf42504	-0.029802807
140	0xbb1417f7	-0.0022597292
141	0xbdaeb071	-0.08529747
142	0x3da5326d	0.080662586
143	0x3dbe1622	0.09281565
144	0xbc057142	-0.008144679
145	0x3db04bcc	0.08608207
146	0x3b82db7c	0.0039934497
147	0xbc7d0c56	-0.015444836
148	0x3c09aa2b	0.008402388
149	0xbccd8ecb	-0.025092503
150	0x3c3f158e	0.011662854
151	0x3ca3c751	0.019992502
152	0xbd6ae281	-0.057344917
153	0xbcff2447	-0.031145228
154	0xbc34d5aa	-0.01103727
155	0x3c2e6c54	0.010645945
156	0xb9a99a9a	-0.0003234938
157	0x3d385251	0.045000378
158	0x3c795d1e	0.015219955
159	0x3c138710	0.009004369
160	0xbc86c03e	-0.01644909
161	0x3db35eb3	0.08758297
162	0x3cd24acd	0.025670433
163	0xbda590a2	-0.08084227
164	0x3d9399a1	0.07207037
165	0x3d5c529a	0.053789712
166	0x3d1bff96	0.038085543
167	0x3d8659ef	0.06560122
168	0x3d17a16f	0.03701919
169	0x3c39901f	0.011325865
170	0xbba1d7fc	-0.0049390774
171	0x3d9807cc	0.07423362
172	0x3daa1d38	0.08306354
173	0x3d056bc9	0.032573495
174	0x3da7a04f	0.08184873
175	0xbd9b8578	-0.075938165
176	0xbd5b5f87	-0.0535579
177	0x3d5f2c08	0.05448535
178	0xbd4642a3	-0.048403393
179	0x3c558152	0.013031321
180	0xbce32808	-0.02772905
181	0x3d49882f	0.04920214
182	0x3d96845d	0.07349465
183	0x3c32fd0f	0.010924592
184	0xbd84f42e	-0.06491886
185	0x3da258f5	0.079271235
186	0xbd712e08	-0.05888179
187	0xbcfa8282	-0.03057981
188	0x3dc53e97	0.09631079
189	0xbd1ca756	-0.03824552
190	0x3c45b410	0.012066856
191	0xbd6a644c	-0.057224557
192	0x3c18855d	0.00930914
193	0x3b85aafd	0.0040792213
194	0x3d86d499	0.065835185
195	0xbb2e75fb	-0.0026620615
196	0xbd701e57	-0.058622684
197	0x3d20a3ce	0.039218716
198	0x3d962e05	0.07332996
199	0xbcabe92e	-0.020985212
200	0x3d3bf85d	0.045891155
201	0xbd52720e	-0.051378302
202	0x3cf450ac	0.029823624
203	0x3d87850f	0.06617176
204	0xbd1bd8ff	-0.03804874
205	0x3da84295	0.082158245
206	0xbd40851a	-0.047001936
207	0x3da9e14f	0.08294927
208	0x3c33e4da	0.010979855
209	0xbca4f160	-0.020134628
210	0x3d9c1d35	0.07622758
211	0x3da4e74f	0.08051931
212	0x3c46702b	0.012111704
213	0xbd9c5bc7	-0.07634693
214	0xbf2dae2b	-0.67843884
215	0x3dd34afa	0.10317035
216	0x39b773cd	0.00034990758
217	0xbd6deb67	-0.058085825
218	0x3d50eb78	0.05100581
219	0x3d95b321	0.07309557
220	0xbcab0641	-0.020877006
221	0xbb9999bc	-0.004687516
222	0x3da78d36	0.08181231
223	0x3dbd331f	0.09238266
224	0xbd9651c0	-0.07339811
225	0x3c9f38f4	0.019436337
226	0xbd420bb5	-0.047374446
227	0x3d6e5fec	0.058196947
228	0x3db124c6	0.08649592
229	0x3d9bb9e8	0.07603818
230	0x3c3c5d58	0.011496864
231	0xbd8b4833	-0.0680088
232	0xbd971b42	-0.07378246
233	0xbd539258	-0.051653236
234	0xba5e40e4	-0.00084782974
235	0xbbc19231	-0.00590732
236	0x3d334c02	0.04377366
237	0x3db4f2ff	0.0883541
238	0xbd4f15b9	-0.050557826
239	0xbcacc099	-0.021087931
240	0xbc96a6a3	-0.018390005
241	0x3d6fbd04	0.05852987
242	0x3c40cf63	0.011768195
243	0xbd365efd	-0.04452418
244	0x3d1dbee3	0.038512122
245	0xbd884312	-0.06653418
246	0xbda4ec50	-0.080528855
247	0xbd174f14	-0.03694065
248	0x3d812ab2	0.063069716
249	0x3ccf399b	0.025296023
250	0xbd5a0fb8	-0.053237647
251	0xbd3163a4	-0.043307915
252	0x3c941ce7	0.018080188
253	0xbd53c61f	-0.051702615
254	0x3d8af150	0.06784308
255	0xbd98d7be	-0.074630246

last_fc.bias f4 [6]
0	0x3cfbdb71	0.030744286
1	0x3cddeae0	0.027089536
2	0xbd20d5db	-0.03926645
3	0x3c7c3e22	0.015395673
4	0x3d307dab	0.043088596
5	0x3decca0f	0.11561977
