data/Fanuc_success/Behavior_cloning/BC_policy_GIC_itr_39_noforce.pt (torch, 141713 bytes, 8 tensors)

fc0.weight f4 [128, 6]
000000 bc ab b9 3c 2d 28 78 3e 51 3c ec 3d 54 e6 60 be
       0.022664897 0.24234076 0.11534942 -0.21962863
000010 30 be c5 3e d4 76 de bd 21 44 5b 3e c0 89 6f 3d
       0.38621664 -0.108625084 0.21412708 0.058480978
000020 96 28 b7 be 9c 67 f3 bd 4e ce 0c be 99 a0 c0 3e
       -0.35773152 -0.11884996 -0.13750574 0.37622526
000030 64 91 a6 3f ba 0b d2 3e 75 f9 81 3c 8d e1 af be
       1.301312 0.41024572 0.01586602 -0.3435177
000040 00 5e 8f be f1 8d 2b bf 2d f2 d2 bd 3f 50 72 3f
       -0.28001404 -0.6701346 -0.103000976 0.94653696
000050 bf 54 11 bf 6f 99 05 bd d2 5a 2a bc 68 70 64 bc
       -0.5676994 -0.03261703 -0.01039763 -0.013942815
000060 42 2b d2 3e bb e9 21 3f 7d de 1d bf da dc 0a 3d
       0.41048628 0.6324727 -0.61667615 0.033902027
000070 cb a0 04 bd b0 4d 24 3e 92 07 00 3f 9f 21 db 3e
       -0.032379907 0.1604526 0.5001155 0.42799088
000080 24 68 ab be 51 1f 53 3f cd 00 05 3f 7b bb ca 3d
       -0.3347789 0.8246966 0.51954347 0.0989904
000090 8e ef 2f bf b3 75 78 3e f7 2b 05 bf 36 4b 25 bf
       -0.68724906 0.24263649 -0.5202021 -0.6456789
0000a0 8c 96 14 3f 0f 6e 48 be 61 39 24 bf 6e b8 3c 40
       0.58042216 -0.19573234 -0.64150053 2.9487567
0000b0 ed 79 7b 3e de fd 9b ba 69 f4 e9 3d 98 d2 a8 3d
       0.2455823 -0.001190122 0.11423571 0.082432926
0000c0 02 72 04 bf 86 7e 7b 3f 5f e9 3c bf 98 1a 3a 3f
       -0.5173646 0.98239934 -0.73793596 0.7269683
0000d0 13 fc 49 3e db eb 84 3c 08 e7 a0 3f 85 82 b4 bc
       0.19725065 0.016225746 1.2570505 -0.022034893
0000e0 ef 87 20 3f a1 c4 d5 be cd 46 4d 3e 29 64 34 be
       0.6270742 -0.41751578 0.2004654 -0.17616333
0000f0 58 ba 51 3e ef 48 29 3d 53 21 c9 be 4a 48 50 3d
       0.20481241 0.04132932 -0.39283237 0.05085019
000100 84 22 15 bd 9a ad e6 3d 92 cc f6 3e 1b b3 88 bf
       -0.03640987 0.112635806 0.4820295 -1.0679659
000110 1b d4 3d 3f 67 15 89 3d d0 c7 90 3e 4e 3b 85 3e
       0.7415177 0.06693535 0.28277445 0.26021808
000120 90 b3 a5 bf 90 aa 6e bf db 4d 28 bf 7f 85 25 be
       -1.2945423 -0.9322901 -0.657438 -0.16164206
000130 f1 b7 80 3c aa 07 1f bd d2 07 07 40 75 27 f9 c0
       0.01571271 -0.03882567 2.1098523 -7.7860665
000140 dc 38 ca be e5 40 33 bd eb 73 42 be ea 44 6c bf
       -0.39496505 -0.04376306 -0.18989532 -0.92292655
000150 fd a4 4c 3f 29 82 e7 3e c0 ec bc be fa 2a 6a 3b
       0.7993925 0.45216492 -0.36899376 0.0035731182
000160 66 98 b6 3d 2c 00 3f be e3 f9 f0 3e b9 51 b1 3f
       0.089157864 -0.1865241 0.47065648 1.3853065
000170 08 b2 3d bf 62 ac e0 bd 21 1c 0b be a1 db fa 3d
       -0.7409978 -0.109703794 -0.13584949 0.12248922
000180 06 9e 6f 3f 2a ae df bf c5 4d 69 bf 07 55 31 be
       0.936005 -1.7475026 -0.9113429 -0.17317592
000190 6b 91 0e be 12 31 86 bd 47 0b 43 bf 6a 8a b2 bf
       -0.1392266 -0.06552328 -0.7618908 -1.3948491
0001a0 e1 69 44 3f dd 18 0b bf 6f 5b d2 3e ca 74 df be
       0.7672406 -0.54334813 0.41085383 -0.4364379
0001b0 d3 2a 51 3f 03 1b e2 3d a9 63 50 3f 28 c2 f3 be
       0.8170597 0.11040308 0.8140207 -0.47609067
0001c0 e6 22 67 3e d7 8f 0d be fc a5 78 bf 49 59 ed bf
       0.22571906 -0.13824402 -0.9712827 -1.8542873
0001d0 28 36 b9 3e c2 38 e9 3d af 7f 9f be de 61 5c bd
       0.3617413 0.11387779 -0.31152102 -0.05380427
0001e0 ac 92 c0 be 20 61 8e be 9b 0e 18 3f 8a 78 a3 bd
       -0.37611902 -0.27808475 0.59397286 -0.079819754
0001f0 54 a9 88 3e 02 fa be 3e 6f ec 98 3d c9 fe c4 be
       0.26691687 0.37300116 0.07466971 -0.38475636
000200 b4 85 98 be 70 4e 08 be 7a 91 32 3e 52 b1 64 3e
       -0.29789507 -0.13311172 0.17438307 0.22333267
000210 88 ba a6 3e ec c1 c6 3f e9 0a 9b be 66 02 94 be
       0.32564187 1.552793 -0.3028176 -0.2890808
000220 d8 22 91 be f2 d0 a0 be 07 0a cb 3e 2d ad a5 3f
       -0.28346896 -0.31409413 0.39656088 1.2943474
000230 12 da 61 be 9d a1 85 3c 9f ff 35 be 5c 8e 29 be
       -0.22055843 0.016312415 -0.17773293 -0.16558212
000240 d5 ee 1f bf 53 42 af bf f9 a4 dd 3e 0c 39 ec 3d
       -0.62473804 -1.3692116 0.43289927 0.11534318
000250 c5 34 4a be 1b 14 ad 3e c8 22 4c 3e 60 4c c9 3e
       -0.19746692 0.33804402 0.19935143 0.39316082
000260 c0 ce 40 3d 1a e3 b2 3d a2 d2 b5 3d f1 5c ad be
       0.047072172 0.087347224 0.08878066 -0.3385997
000270 ef 53 14 be a2 44 3e 3f 54 99 2d bf ca 6b 81 be
       -0.14485143 0.74323475 -0.67812085 -0.2527755
000280 02 ca ac be 71 a2 5e 3c 22 72 bd 3e 06 5c 3f 3e
       -0.3374787 0.013588534 0.3700114 0.18687448
000290 37 d6 e9 3d 18 d5 8d bd 93 49 f2 3d c1 d3 08 3e
       0.11417811 -0.0692541 0.118304394 0.13362028
0002a0 31 a0 fd be e1 77 42 bf 92 2e 0c 3f 74 c7 6a be
       -0.4953628 -0.7596417 0.5475856 -0.22927648
0002b0 e1 df 83 bc 1c d3 26 be e1 7a 85 bf f1 f7 12 3f
       -0.016097965 -0.1629147 -1.0428125 0.5740958
0002c0 26 ce e7 be 6e 64 d9 3e 72 11 9d 3e 53 3b 89 3d
       -0.45274466 0.42459434 0.30677372 0.06700768
0002d0 81 5c 00 40 26 2b fd bf 6e 9f f7 3e 7c 66 e8 3e
       2.005646 -1.9778793 0.48363823 0.4539069
0002e0 57 94 78 3e d5 d9 fc bd f4 14 82 3f a6 31 db be
       0.24275337 -0.12346236 1.0162644 -0.42811316
0002f0 37 75 2b 3f 6d 95 d6 3e bf ce ab 3d b4 15 42 bf
       0.6697573 0.41910878 0.08389043 -0.75814366
000300 15 2f 1a 3e 5c 8b a3 3f a5 ee 04 bf 7b 43 24 be
       0.15057023 1.2776904 -0.5192664 -0.16041367
000310 16 56 e5 bd 4f 84 dc 3d a9 ae 10 bf 50 bc de bf
       -0.1119806 0.10767423 -0.5651651 -1.7401218
000320 1e 7d eb 3d 06 64 5f 3f 72 57 80 bd 25 25 ad 3e
       0.114984736 0.87262 -0.06266679 0.33817402
000330 69 70 e4 3c e7 03 b9 3f e3 e2 dd be d5 20 3d 3d
       0.027885633 1.4454316 -0.43337163 0.04617389
000340 13 74 86 3d 56 c6 36 be 76 a2 c0 be 96 7c 49 3e
       0.06565108 -0.17849097 -0.37623948 0.19676432
000350 ef ba d9 3e 4c 08 b2 be 36 d6 44 be 89 4e a0 bc
       0.42525432 -0.34771955 -0.1922234 -0.019568698
000360 d0 da 38 bf 46 29 d6 bf d7 c4 a8 3e bd f2 38 bd
       -0.7220888 -1.6731346 0.32962677 -0.04515337
000370 ce f4 23 3d 73 0f ac 3d 35 97 c4 3d 17 16 0c 3f
       0.040028386 0.08401384 0.09599153 0.54721206
000380 e1 8d b8 be c9 6d 08 3e 64 4f a1 be 26 77 95 3e
       -0.36045745 0.1332313 -0.31505883 0.29192466
000390 fe c0 cc 3e 24 91 e9 3f 8c 1f ce be ed b5 d2 3c
       0.3999099 1.8247418 -0.40258443 0.025721515
0003a0 d9 69 c1 3e 8a cb a5 3d ca 01 6c be 3a 16 98 3e
       0.37776068 0.080954626 -0.23047557 0.29704458
0003b0 f9 66 a2 3e 8d 6f 8f be 6b 3e 14 3e 04 47 c4 be
       0.31719187 -0.28014794 0.14476936 -0.3833543
0003c0 8b d1 2e 3d f5 68 84 bf 2a 63 02 3f 97 2c a4 be
       0.042680304 -1.034453 0.5093256 -0.3206527
0003d0 cc ec 14 bf bd c7 96 3e 1e 24 7a be a5 61 d6 bf
       -0.58173823 0.29449263 -0.2442784 -1.6748549
0003e0 a7 f8 1e be 78 52 ba 3e d4 87 2a bf 4f c8 d3 be
       -0.15524541 0.36391044 -0.6661351 -0.4136376
0003f0 54 18 3f bf cd ca 5e 3f 27 52 13 bf 58 63 e8 3e
       -0.74646497 0.870282 -0.5754723 0.45388293

fc0.bias f4 [128]
000000 73 39 ac be 3b 92 9a be 4c 74 47 be ff ec b4 bc
       -0.3363758 -0.3018969 -0.19477957 -0.022085665
000010 44 4c 49 bc 3d 3e 63 3e c4 3f 1a be 50 18 bd 3b
       -0.01228625 0.22191711 -0.15063387 0.0057707205
000020 65 47 a1 3e f3 d5 da 3d cb c8 95 be b6 d9 0d 3e
       0.31499782 0.10685339 -0.29254755 0.13852581
000030 b2 60 61 bd 45 37 8b bc e9 66 66 3d 09 de f2 bc
       -0.055023856 -0.016994128 0.056250487 -0.02964689
000040 c8 69 75 bd 8b d4 9d 3d 7a c1 01 3e 7a 1b 12 3d
       -0.059915334 0.07706555 0.12671462 0.035670735
000050 10 63 b7 3d f5 14 ca be 8b 67 b6 3d 09 6b 23 3d
       0.089544415 -0.39469114 0.08906468 0.039897
000060 f9 62 0a 3d 45 e1 8c be 15 ab 3c bc cd 9f 83 be
       0.033785794 -0.27515617 -0.0115153985 -0.25707856
000070 47 49 a8 3d e8 d1 89 bb c2 a8 dc bc 4e cb 1a 3e
       0.082171015 -0.004205931 -0.026935939 0.15116617
000080 00 42 e0 3c aa d6 1f bc 33 83 b3 bb 58 70 3a 3d
       0.027375221 -0.00975577 -0.0054782867 0.045517296
000090 65 4f ec 3c f8 29 15 3e 4a 95 93 3e fd c9 ba be
       0.028846452 0.14566791 0.28824836 -0.3648223
0000a0 dc b0 4f 3d 12 0b 69 ba 83 58 1b 3e 5c 94 37 be
       0.050705776 -0.0008889894 0.15170483 -0.17927688
0000b0 3e d0 02 3e 24 ec 2f 3b 34 32 68 be 54 36 3a 3e
       0.1277475 0.0026843632 -0.22675401 0.18184787
0000c0 84 1c 33 3e 5b 27 04 bb 7c 2e a3 3d 7e 31 f4 bc
       0.17491347 -0.002016506 0.079678506 -0.029808756
0000d0 1e 29 d4 bc 2f b4 a5 be cd 28 46 3e 86 37 a8 3d
       -0.025898512 -0.32364032 0.19351502 0.08213715
0000e0 44 93 df bb ec 17 0a 3d 4f 72 b7 3c 05 06 cc be
       -0.0068229754 0.03371422 0.022393374 -0.39848343
0000f0 68 b3 7d 3d 30 2f 8e 3e 00 d7 71 bc fd 88 b4 3d
       0.061938673 0.27770376 -0.014760733 0.08815191
000100 ee 7a a2 bc 84 41 df 3d a4 50 a9 be 32 7b 76 be
       -0.019834008 0.10901168 -0.33069336 -0.24070433
000110 9e 8e 37 be ab 64 12 bd 13 b7 c0 3d cb 89 70 3e
       -0.17925498 -0.035740536 0.09409919 0.23490064
000120 76 ba 4e 3e af fa cd be 66 51 08 3e 24 6c a0 be
       0.20188317 -0.4023032 0.13312301 -0.31332505
000130 62 d7 03 bd 7d 19 99 3e fe c1 7c 3e de ac 22 3a
       -0.032187827 0.2990226 0.24683377 0.0006205569
000140 74 86 28 3e bf 21 cc be 69 65 0d bd 67 03 cd 3d
       0.1645754 -0.39869496 -0.03452054 0.100104146
000150 20 b5 47 bc d2 c2 7f 3c 46 3a 1a 3e 69 46 76 bc
       -0.01218918 0.015610414 0.15061292 -0.0150314355
000160 48 77 e1 bc a2 91 1f 3c 45 3a 01 3e c6 2c bf be
       -0.027522698 0.009739311 0.12619884 -0.37338847
000170 b3 f4 10 bd 52 ab e2 39 fd 15 b5 3d ae ae 56 3c
       -0.035389613 0.00043233723 0.088420846 0.01310317
000180 28 f6 96 bc 4a d6 33 bd b9 f7 ab 3e 69 0b d6 3d
       -0.018427923 -0.043905534 0.33587435 0.10451395
000190 a5 42 e3 39 88 ff 8b be 2f e7 81 3e 64 de 31 3e
       0.00043346468 -0.27343392 0.25371692 0.17369992
0001a0 3f 77 11 bd a3 e3 c2 be 21 d7 9f be d8 a8 98 3d
       -0.035514113 -0.38064298 -0.31218818 0.074540794
0001b0 45 57 0f 3e 25 ec 44 bd 73 f6 06 3e 11 3e ae 3d
       0.13998134 -0.048076767 0.1317995 0.08507932
0001c0 a3 44 ae 3d fb 14 e0 bc 25 6d 6c be 14 bb 9c 3e
       0.08509185 -0.027353754 -0.2308851 0.3061148
0001d0 30 9a 06 3e 00 99 5e bc 15 dc a7 be 0b 81 7b bc
       0.13144755 -0.013586283 -0.32785097 -0.01535059
0001e0 f6 91 ec 3d f0 ff c0 bb 78 fc 9a 3e cd 27 c6 be
       0.11551277 -0.005889885 0.30270743 -0.3870224
0001f0 99 8b 4d be bb f7 9b bd 48 df e1 bb 92 56 32 3e
       -0.20072784 -0.0761561 -0.0068930723 0.17415836

fc1.weight f4 [128, 128]
000000 0b 80 b0 bc 3d 7c 45 3d a4 f2 7d bd 17 27 93 3e
       -0.02154543 0.048214186 -0.06199898 0.2874076
000010 5d 30 27 bd d4 b0 79 bd b8 5f 48 bd 1c ad 25 3e
       -0.040817607 -0.060959652 -0.04891941 0.16179317
000020 ba 78 b2 bd 54 d1 83 bd 67 b2 a3 3d c1 71 41 bd
       -0.08714433 -0.064364105 0.07993012 -0.047227625
000030 58 cf 4d 3e a3 02 d7 3d cf 28 05 bd 5a a0 fb 3e
       0.20098627 0.1049855 -0.03250962 0.49145776
000040 63 9e 9b 3e 8a 0a 49 3d 07 68 b9 3b 22 e9 1f be
       0.30394277 0.049082316 0.005658153 -0.15616277
000050 24 6c bc 3c 96 39 90 3d af 15 0b 3d bd 73 9e 39
       0.023000784 0.07042234 0.033956226 0.0003022234
000060 eb 60 01 3c 89 1c 01 3d 4d 38 03 be 6d c6 89 3d
       0.007896642 0.031521354 -0.12814446 0.067273
000070 74 4e 18 bd 58 c0 ef bd 1e 47 c4 bd 47 4b 18 3c
       -0.037184194 -0.117066085 -0.09583877 0.009295291
000080 47 54 7e bc bf b7 dc 3c ee 90 10 3c 56 62 17 3c
       -0.015523023 0.026943086 0.008823616 0.009239754
000090 8f b0 07 be fb 42 88 bb f5 8f ce bc 46 fc a6 3c
       -0.13250946 -0.0041583753 -0.025215128 0.020383965
0000a0 7f 13 8a 3d cd ac d2 bd 38 18 10 3c c4 a7 ea bc
       0.06742 -0.102868654 0.008794837 -0.02864445
0000b0 2c ff 51 3c 0f 0a ec bd 48 53 b4 3d 53 03 d9 3b
       0.012817185 -0.11525356 0.08804947 0.0066227107
0000c0 68 d2 d1 bb 0a f1 36 be b5 9f 47 3d c3 01 7e 3e
       -0.006403256 -0.17865387 0.048736293 0.2480536
0000d0 39 c8 8e 3e f7 80 b4 bc 29 f5 a6 bd 40 b1 cd 3c
       0.27887133 -0.022034151 -0.08152229 0.025108933
0000e0 6d d4 81 be a9 c0 cb bd cd 51 9c bd a2 97 d2 3c
       -0.2535738 -0.099488564 -0.0763279 0.02570707
0000f0 fe 74 6a be 2f e5 1c 3c 3c 6d bf 3d 22 2e 91 bc
       -0.22896191 0.009576126 0.09347007 -0.017722193
000100 e9 09 07 3e 3f 27 ec 3d 19 e5 39 bc 1d 95 b1 3d
       0.13187374 0.11530923 -0.011346125 0.08671019
000110 b6 fa ee 3b cf f0 94 3e 63 5d d0 bd 45 50 74 3d
       0.0072930707 0.29089972 -0.10174062 0.059646863
000120 5a ca c3 3d 16 2d 86 bd ae de 2b bd 85 23 d9 bc
       0.0956008 -0.06551568 -0.04196041 -0.026506195
000130 12 ea cb 3d f7 80 85 3b 1d 95 c6 3d 62 1b 05 bd
       0.09956755 0.0040742117 0.0969641 -0.032496817
000140 a0 33 23 3d 38 0a 6c bd 9f a0 bf 3e 6a 04 a7 bd
       0.039844155 -0.057626933 0.37427232 -0.08155139
000150 2c b9 95 bb e8 de dc 3c 77 08 f1 bc e3 04 04 3c
       -0.0045691933 0.026961759 -0.029422982 0.008057806
000160 b2 ae 72 bc bd a4 17 bd 4d 8a 8d bd 7f 5e 9d 3d
       -0.014812158 -0.03702234 -0.069111444 0.07684039
000170 93 2f a0 3e bf 66 94 39 75 e3 2e 3d 37 49 96 3c
       0.31286296 0.00028305312 0.04269739 0.018345458
000180 45 16 2d 3e a3 73 6d be 9f f1 8a 3c 66 e8 90 bd
       0.16903026 -0.23188643 0.016960917 -0.070755765
000190 ec 45 d0 3c 3b a1 91 bd d8 ca 00 bd 15 09 de bc
       0.025423966 -0.071108304 -0.031443447 -0.02710394
0001a0 b6 d6 a4 3e d6 6a 2b bd 38 87 96 bc 78 62 a7 bc
       0.3219506 -0.041849934 -0.018375024 -0.020432696
0001b0 99 f3 b1 bd ef 2e d6 be 6c b7 8e 3d e0 04 c7 bd
       -0.08689041 -0.41832682 0.06968579 -0.09717727
0001c0 1b 26 82 bd 4e 9f 8d 3e cd f3 d2 bc a6 8f 33 bd
       -0.06354924 0.27660602 -0.025751019 -0.043838166
0001d0 26 79 ad bd 02 aa f8 ba be 7a 41 bd e6 6d ca 3e
       -0.08470373 -0.0018971565 -0.047236197 0.3953697
0001e0 4a 56 6e 3c 6b ba 30 3c 14 69 3c bd 5e b7 23 bd
       0.01454694 0.010786633 -0.045998648 -0.039969794
0001f0 f8 b6 0c 3d 09 6d 3a be 0d 57 43 bd 5c e4 8d bd
       0.03435418 -0.18205656 -0.04769044 -0.06928322
000200 ba 6e 10 bd 0b b0 f5 3b b1 8f 72 be a3 6b 7f 3d
       -0.035261847 0.0074977926 -0.23687626 0.06235851
000210 ce 40 d6 3c 42 86 7d bd 05 0d 33 bb 1a 53 82 3f
       0.026153948 -0.061895616 -0.0027320993 1.018161
000220 30 c7 80 bd 61 d5 e9 3d dc 94 87 bd b6 74 bd bc
       -0.06287992 0.11417652 -0.066201895 -0.023126941
000230 a7 e0 9c 3e cb e2 98 3e e3 a4 cf 3d cb c4 ed 3d
       0.30640146 0.2986053 0.101388715 0.11609801
000240 8d e0 df 3d 07 1f 07 be ee 6c 86 bd 30 24 d1 bd
       0.109315015 -0.1319543 -0.065637454 -0.1021198
000250 57 71 ab 3a 18 ee ec 3c 5a ee 88 bb 5b 6d 05 bb
       0.0013080043 0.028922126 -0.0041788043 -0.002035937
000260 87 36 f0 bd 91 46 c4 3b 52 77 56 bd d5 a4 f6 bb
       -0.1172915 0.0059898575 -0.052359886 -0.0075269737
000270 58 6e cb bd 30 1a 1f be 87 49 f2 3c 98 ea 10 bc
       -0.09933156 -0.15537333 0.029576076 -0.008844994
000280 cb bd 86 3c 2e 27 5b bd 97 c2 24 bb 30 42 97 bd
       0.016447922 -0.05350416 -0.0025140399 -0.07385671
000290 cd ba 12 be 24 32 f0 39 28 e3 cf bc b6 ba 80 bd
       -0.14329071 0.00045813725 -0.025376871 -0.06285612
0002a0 eb dd 1b 3d c1 24 3b bb a9 33 23 3c 35 77 2a 3f
       0.038053434 -0.0028555843 0.009961047 0.66588145
0002b0 ac 54 7b 3c 4b f1 1f 3d bc 7c b5 3c ce 64 92 3d
       0.015340012 0.039048474 0.022154205 0.07148133
0002c0 30 1a 98 3a 98 f3 68 3e 0f 23 c1 bd cc ac a4 3e
       0.0011604484 0.22749174 -0.09430515 0.32163084
0002d0 58 f0 77 be b5 b4 92 3d 36 f6 0d bd 24 55 3c 3d
       -0.24212778 0.071633734 -0.034658633 0.045979634
0002e0 95 24 23 be 0b 02 ad bd 4d 30 ac 3e 5e 7f 8b 3c
       -0.15931924 -0.08447655 0.336306 0.017028507
0002f0 97 01 bc bd d5 c0 6a 3c aa d3 01 be 1a 09 b9 be
       -0.09179991 0.014328201 -0.126784 -0.36139756
000300 e1 dc 97 3e 44 04 0a bd 39 b2 87 3c fc 87 2a 3d
       0.29660705 -0.033695474 0.016564475 0.04163359
000310 81 81 32 3d 57 1b 22 be e6 d4 18 be 88 77 6a 3d
       0.043580536 -0.15830742 -0.14924964 0.0572429
000320 da c8 3a bb 26 9b a6 bd 32 85 2c bd e7 96 0f 3c
       -0.0028501065 -0.08135061 -0.042119212 0.008764005
000330 9f f7 a0 3e da 3a 56 3d 11 cf 9a 3d f8 a9 e4 3d
       0.3143892 0.05230222 0.07559026 0.111652315
000340 fe 7d 6d 3d 04 06 8d 3c 99 4d 6d bb 90 64 8c 3d
       0.057981484 0.017214783 -0.0036209582 0.06855118
000350 c5 69 2f be fd d3 8c 3c 8a 0d a6 3d 51 1b bf bd
       -0.17130192 0.017190928 0.08108051 -0.09331382
000360 f4 bc 52 3e 8d aa 9a 3d 26 df 22 bd 29 dd 6b 3d
       0.20579892 0.07552061 -0.039763592 0.05758396
000370 f6 73 e8 bd 69 c7 0c bd 4a 95 2f bd ed a1 7e 3d
       -0.11350243 -0.03436986 -0.042866983 0.062166143
000380 c3 0f 04 3e e6 25 6a bc b7 7c 99 3c 96 93 ce bc
       0.12896638 -0.014291262 0.018736226 -0.025216859
000390 66 2c bc 3d ca 5a 7a bc 3c 87 d6 bd a0 75 87 bd
       0.09188156 -0.015280435 -0.10475013 -0.06614232
0003a0 c1 82 64 3d 83 dd 9b 3d c8 da 87 bc e4 23 35 bd
       0.05578876 0.076106094 -0.016583815 -0.04422368
0003b0 ca 91 99 bd 95 9f b3 be a3 37 9c bd 42 70 74 be
       -0.0749851 -0.3508269 -0.07627799 -0.23870948
0003c0 dd 2d 15 3e ed 64 3a 3e 39 f2 b2 bc 89 08 9a 3d
       0.14568277 0.18202563 -0.021844016 0.07521159
0003d0 df 91 1d 3d 9d 75 91 bd af 2f 20 3d 31 c4 55 3e
       0.03846919 -0.07102511 0.039107975 0.20875622
0003e0 ad 73 da 3d 87 93 db 3d 55 f5 42 bc 36 dd d3 3c
       0.10666595 0.10721498 -0.011899312 0.025862318
0003f0 2f 1e e3 3c 61 0b ad be 11 0f 53 3d 4e 53 8f bd
       0.027724354 -0.33797744 0.05152804 -0.06998311

fc1.bias f4 [128]
000000 84 08 a2 3d 62 d2 67 3c 9d 03 ce 3d f6 66 42 bd
       0.079117805 0.01414928 0.10059283 -0.047461472
000010 a5 12 a3 bd 0f 71 38 3d 4e e4 ac 3d 67 1c 41 bd
       -0.079625405 0.045029696 0.08441983 -0.047146227
000020 63 ef 53 3d f7 36 46 bd e1 fb a2 3d ef 57 fc bc
       0.05174197 -0.048392262 0.07958198 -0.030803649
000030 29 f0 39 3c da 8d c0 3c 15 60 9d bd f7 89 eb bc
       0.011348763 0.02350514 -0.07684342 -0.02875231
000040 77 11 35 3d 5f 56 49 bc e9 07 45 3d 0f 78 dd bd
       0.04420611 -0.012288659 0.048103247 -0.10813915
000050 a8 3b 72 3c 41 a6 b6 bd 6f 7e 02 3d f7 94 58 bd
       0.014784731 -0.08918429 0.031858858 -0.05287644
000060 9c 2e e1 3d f0 3e 63 bd af 01 cb bd ff b5 0f 3d
       0.10995218 -0.055479944 -0.099124305 0.035085674
000070 9f d2 96 3c d1 7e ee bb 16 d0 68 3d 5f 97 a2 3d
       0.018410979 -0.0072783013 0.05683907 0.07939028
000080 8b f5 d7 3c 77 b5 01 bd 53 99 ab bd f3 1f 10 3d
       0.026362201 -0.0316672 -0.08378854 0.03518672
000090 06 b1 8b 3d e4 8b 24 bd f8 78 26 3d 7d dd c4 3c
       0.06820874 -0.040172473 0.04064271 0.024031395
0000a0 e9 4e e6 3c 00 9e 71 3c bb 02 10 bd ec 2d 90 bd
       0.0281138 0.014747143 -0.035158854 -0.07040009
0000b0 3c f5 f8 bc ec f7 81 bd 84 cb 47 bd 96 48 45 bd
       -0.030390374 -0.063461155 -0.048778072 -0.048164926
0000c0 b2 19 b3 bd 78 5d 0b 3d bf df 04 3e d8 9d a5 bd
       -0.08745135 0.034024686 0.12975977 -0.08086747
0000d0 60 5b 96 3b 26 29 01 bc 1c 92 1a 3e e6 4c 0b bd
       0.0045885295 -0.007883346 0.15094799 -0.034008883
0000e0 86 1f 4c 3d 0d ba ac bd e3 54 11 3d 8a ce 45 bd
       0.04983475 -0.08433924 0.035481345 -0.048292674
0000f0 6b ba 4c bd 2c 6c b4 bd 1e 50 7c bd 8f 3e 0a 3c
       -0.04998247 -0.08809695 -0.061599843 0.008437767
000100 04 4e b6 3b 1b 7d 6d bd 15 d8 a5 bd 70 0b 04 bb
       0.0055634994 -0.057980638 -0.08097855 -0.002014842
000110 70 2d 9c 3c ae c6 b4 3d 44 e3 48 3c ea ed 54 bd
       0.019064635 0.08826958 0.012261216 -0.051984705
000120 14 b8 6a 3d 4f 50 01 bd 92 75 08 bd 11 fe 1b 3b
       0.057304457 -0.03157073 -0.03331525 0.0023802558
000130 e9 72 c8 bd ac 65 8e 3c bb ba 77 bd 84 64 68 3d
       -0.097875424 0.017382465 -0.060480814 0.056736484
000140 74 28 e6 bc f9 9f bf 3c 5c 0c c0 bd 60 df b7 3d
       -0.028095461 0.02339171 -0.09377357 0.08978152
000150 dd ba 38 bd 47 3e f4 3c f3 43 b7 bd 1d d4 95 3d
       -0.04510008 0.029814852 -0.08948507 0.07315848
000160 5d a5 28 3d 8a 72 71 bd eb 9d a3 bd 4e 16 99 bc
       0.041173328 -0.058947124 -0.07989105 -0.018687394
000170 9c 37 b5 3c 77 d0 e3 bc 2f 1d d8 3d 20 b3 d7 3c
       0.022121243 -0.027809365 0.10552441 0.02633053
000180 aa 0e 89 bd 4b 60 49 3d 3a 4a 6b 3d 9f 5b 7f bd
       -0.0669225 0.049164098 0.057443835 -0.062343236
000190 ba 02 78 bc fc e0 90 bd af b8 ad bc 52 39 dd 3d
       -0.015137369 -0.07074162 -0.021206228 0.108019486
0001a0 d8 52 0f bd 79 88 6c 3d de e3 dc bd fa 8b f5 3c
       -0.034991115 0.057747338 -0.1078565 0.029973973
0001b0 2a b7 e3 3c 07 b8 76 bd 13 cc 53 bd e8 9c ce bb
       0.0277973 -0.060234096 -0.051708292 -0.006305326
0001c0 d9 b7 a8 bc 9a ea 94 bd 74 25 d9 bc 01 c4 d1 bd
       -0.020595478 -0.07271309 -0.026507117 -0.10242463
0001d0 9b 2d 84 bd 1b 96 b2 3c 5f fd d8 3b 44 c2 9d bd
       -0.06454011 0.021800091 0.006622001 -0.07703069
0001e0 8e ad 93 bd 92 e0 2a 3d cf 2d bc bc 31 ee da bb
       -0.07210837 0.041718073 -0.022971062 -0.0066812267
0001f0 d9 fd 15 3d 79 4d 8f bd 6a a9 9b 3d 81 98 26 bd
       0.03661904 -0.069971986 0.076006725 -0.040672783

fc2.weight f4 [128, 128]
000000 6f e7 51 3d c4 65 ba bc b4 20 5e 3d 43 fa 93 bd
       0.051246103 -0.022753604 0.054230407 -0.07225468
000010 2e 4a e1 3d e6 50 1a 3d 98 fd 40 3d 87 83 a5 bc
       0.11000477 0.037674807 0.047116846 -0.020204319
000020 c5 dd 02 3d 5a d0 0d bc ba 1c 4c bd 77 09 a0 3d
       0.031949777 -0.008655632 -0.049832083 0.07814305
000030 5e cb 7e 3e 8b 13 a4 bd e5 09 28 3e 66 90 0a 3d
       0.24882266 -0.0801154 0.16410024 0.033829115
000040 6e b8 ad 3e 1a 85 52 3e 4b d3 4c bd 49 ef 27 3d
       0.3392977 0.20558587 -0.050006192 0.040999684
000050 19 3f fa 3e 8e 28 8f bd b5 a8 8f 3d fe dd 05 3f
       0.48876265 -0.06990157 0.070146 0.5229186
000060 ec 79 a6 bd b5 b9 b1 bd 70 c3 19 3d 85 36 c9 3c
       -0.081287235 -0.08677999 0.0375399 0.02456213
000070 3d b7 8e bd 8c 0e 4c bd a3 ce b6 3d fb ba ab 3c
       -0.06968544 -0.04981856 0.089261316 0.020963183
000080 11 f3 04 3d 50 2d fa 3c 47 ca 22 bd 92 e6 15 3e
       0.03245837 0.030539185 -0.039743688 0.14638737
000090 87 fd f3 3c 0f c0 16 bd 2e 7f e9 bb 22 6e 92 3c
       0.029783977 -0.036804255 -0.0071257567 0.017874781
0000a0 02 91 c8 3c 57 c2 23 bd 39 0a 03 3f f4 1d f1 3e
       0.024483208 -0.03998026 0.51187474 0.47093165
0000b0 62 e0 42 3d 91 34 3f 3d 44 16 8d bd bc 25 aa 3d
       0.04757727 0.04668099 -0.068890125 0.083079785
0000c0 ec f6 7b 3c 39 a2 0e 3c dd 29 8e 3d df 2d af 3c
       0.015378695 0.008705669 0.069415785 0.021384178
0000d0 86 5b a5 3d fd a4 88 be d4 65 05 3e 01 b9 2d bd
       0.08074097 -0.26688376 0.13027126 -0.04241276
0000e0 2d db 96 3d ae 27 00 3d bb 32 92 3d 92 02 09 3d
       0.07366023 0.03128784 0.07138582 0.033449717
0000f0 b5 52 ff bc 6b 3b 2d 3d 80 4a ad 3c f8 56 5c 3d
       -0.031167367 0.042292994 0.021153688 0.053793877
000100 0f 53 08 3c ed 0a 99 3d 0a ed 85 3d 8f ce 50 bd
       0.008320584 0.07472787 0.06539352 -0.05097824
000110 5d d7 8b 3b c3 ec 92 be 69 ed 9f 3d 2f c4 91 bd
       0.0042676167 -0.2869626 0.07808954 -0.07117497
000120 3f 8a 38 3d 26 4f c7 bd 94 8a a5 bd b7 9e 66 bd
       0.045053717 -0.09731893 -0.08083072 -0.056303706
000130 a2 68 2a bc 6e d2 96 3d 61 ab 91 be cb e6 8c 3c
       -0.010400923 0.07364355 -0.28451064 0.017199894
000140 50 bb 87 3d 1e e7 c2 3d 53 bb 4b 3d eb cb 54 bc
       0.06627524 0.09516738 0.049739193 -0.012988071
000150 c6 20 de 3c d4 e9 91 bd 16 6e 04 3d 0d 50 ff bc
       0.027115237 -0.07124677 0.03233155 -0.0311661
000160 5d 51 af 3d 41 cd e8 3c e0 fc 03 3d f8 97 5e 3d
       0.08560441 0.028418185 0.032223582 0.054344147
000170 c5 5f 8f 3d cf 1c 45 bd 90 62 24 3e 66 2e fe 3c
       0.070006885 -0.048123177 0.16053224 0.031027984
000180 df d1 5a bd 5a eb dd 3c 3d 15 03 bc ab d5 0a 3c
       -0.053422805 0.027089763 -0.008000669 0.008473794
000190 73 09 49 bd 68 b2 fc bd 25 55 a5 3d ff c2 42 3e
       -0.049081277 -0.12338716 0.08072881 0.19019698
0001a0 75 02 ad 3c 6e 25 9c 3d d0 b7 1b 3d 13 d8 25 3c
       0.021119336 0.07624327 0.038017094 0.010122317
0001b0 e6 9a 12 3d e4 a7 7a 3d 69 c2 8f 3d 20 a8 00 be
       0.035792254 0.06119527 0.07019503 -0.12564135
0001c0 e8 5b 10 bd e1 ce cd bb 51 db 7f 3b 31 67 87 bd
       -0.0352439 -0.0062807654 0.0039040635 -0.06611479
0001d0 db 60 46 be 65 f8 f3 3e bc f9 b5 3e 79 59 09 3c
       -0.19372885 0.47650447 0.35542095 0.008383148
0001e0 8b f6 74 3c 5d 9e 44 bc 7b ab 6a bd 56 2f a7 3d
       0.014951359 -0.012000647 -0.057292443 0.081633255
0001f0 cd 1a b1 3c 51 85 83 3d cb 2b 56 bd b5 a1 bd bc
       0.021619225 0.064219125 -0.052287858 -0.023148397
000200 d4 93 7b 3d 7d 8d 96 3d a1 55 72 3d 85 a6 79 bc
       0.061420277 0.073512055 0.059163693 -0.015237455
000210 27 d1 e7 3c 49 1f 7a bd 68 0f 2c bc 92 ae a1 bd
       0.028297974 -0.061064992 -0.01050172 -0.07894625
000220 8d 9e 61 3d dd a9 95 bd 7e cc 16 3b 44 86 08 bd
       0.055082846 -0.073077895 0.002301007 -0.03333117
000230 81 a4 6a bd 5a fe 95 3d 8c 54 38 3d 05 8e 86 3d
       -0.05728579 0.07323904 0.045002505 0.06570057
000240 cc 36 1f bd a0 6c 3a bd 6b f7 cf bc 74 56 31 3d
       -0.038870618 -0.04551375 -0.025386533 0.04329534
000250 62 7d a7 3c 85 37 39 bd 10 2a 0e 3d 72 f0 7b 3d
       0.02044553 -0.045218963 0.034708083 0.061508603
000260 65 80 09 bc d9 70 04 bd 7b 59 31 3d fb 70 62 bd
       -0.008392428 -0.032334182 0.043298226 -0.055283528
000270 16 d8 5b 3c 38 20 39 bd d0 0a c1 bd 6b 62 dc bc
       0.013418218 -0.04519674 -0.094258904 -0.026902398
000280 9e 4d 63 bd 66 63 da 3a 91 e0 aa bd 38 79 88 3d
       -0.055493943 0.0016661703 -0.08343614 0.06663746
000290 f6 91 9e bd fe 32 3d 3d fa 4d 18 bd 2e 06 aa bd
       -0.077426836 0.046191208 -0.03718374 -0.0830196
0002a0 6b c0 27 3d 96 a4 39 bc 16 da 7e 3d 0d 1c 3f 3d
       0.04095499 -0.011330744 0.0622197 0.04665761
0002b0 46 f8 3b bd 56 47 51 ba 27 fa 45 bd 9e 37 4e 3c
       -0.04589107 -0.0007983347 -0.048334267 0.012586502
0002c0 f6 c8 c4 bc d8 ab 36 bd 58 85 a0 bb e8 d1 78 3d
       -0.024021607 -0.044597477 -0.0048987083 0.060747057
0002d0 25 b4 88 3c 33 de 76 3b 29 4e c7 bd 31 85 ac 3d
       0.016687462 0.0037669062 -0.09731705 0.08423842
0002e0 07 13 a8 bc 4b 32 89 3d 6f 5f 35 3c 1c e4 70 bd
       -0.020516885 0.06699046 0.011070116 -0.058811292
0002f0 52 bd 49 bd 20 a4 98 3d 54 d5 3f 3d af f2 8b 3d
       -0.049252816 0.07453179 0.046834305 0.068333976
000300 7c bc 65 bd cb e4 5b bd 78 32 ae 3d c0 b4 cf 3b
       -0.056087956 -0.05368499 0.0850572 0.0063386858
000310 5e ec e5 bc 38 b3 4b bd 14 35 1b bd cd 25 13 bc
       -0.02806681 -0.049731463 -0.037892416 -0.00898118
000320 55 bf 82 3d 8e b9 30 3d 18 be 95 bc de 25 38 3d
       0.0638415 0.04314571 -0.01827912 0.044957988
000330 e4 bf 11 3d b8 8b 8b bd f5 79 9c bd 5f d5 c7 bd
       0.03558339 -0.068137586 -0.07640449 -0.09757494
000340 33 0a 92 bd c3 6a 61 bd ee 02 87 bd 06 3d c3 bd
       -0.071308516 -0.055033457 -0.06592356 -0.09533124
000350 d4 56 46 3d 91 c7 ae 3d 2d 8e eb bc ff 79 af bd
       0.04842265 0.08534158 -0.028754318 -0.08568191
000360 8f 0c c4 bd c1 39 0f 3c fe 4d ec bc 25 6f 56 bd
       -0.09572708 0.008741797 -0.028845783 -0.05235209
000370 85 c2 81 bd f2 5a 8e bc 17 44 6c 3d 38 80 5e bd
       -0.0633593 -0.01737735 0.057682123 -0.054321498
000380 3b a1 8b 3d 1d fd 43 bd ae 07 94 bd 0a 8c 1a 39
       0.06817862 -0.04784881 -0.07228027 0.00014738753
000390 9f 48 90 bd e1 32 8a bd 21 f3 0e bd b0 e9 d3 bc
       -0.070451014 -0.06747986 -0.034899835 -0.025868267
0003a0 77 c0 8c 3d 3a 4b 31 3d 70 9f 93 3d 4c 44 cd bc
       0.06872647 0.043284632 0.07208145 -0.02505698
0003b0 e8 1d 92 3d fb 55 e1 bc 37 47 0a bd 1d 00 28 3d
       0.071346104 -0.027506819 -0.033759322 0.041015733
0003c0 b6 9d 3f 3d 40 69 93 3c 59 e8 66 3d f6 0a 11 bd
       0.046781264 0.017994523 0.056373928 -0.035410844
0003d0 09 4d 0d bb 46 7c a9 bd 5c f5 16 bd fe 3b 03 3d
       -0.002156081 -0.082756564 -0.036855087 0.032039635
0003e0 d7 52 9f bd 84 d8 8b 3d cc 4a 03 3d 6d 57 f2 bc
       -0.07779472 0.068284065 0.032053754 -0.029582703
0003f0 20 c9 3e 3d d3 85 b0 bd 8c ab 4e 3d 2e a2 a2 bb
       0.046578526 -0.08619275 0.05045657 -0.004963181

fc2.bias f4 [128]
000000 f9 77 0a 3e df 0d f4 bc 06 8f 9a bd 72 a1 bb 3d
       0.13522328 -0.02979177 -0.07546811 0.091616526
000010 2c d1 e7 3d 06 5c b2 38 92 fe 18 bc af f6 1a 3e
       0.11319193 8.504842e-05 -0.009338038 0.15133165
000020 89 f7 bc bb 1a c6 35 bd 42 c3 82 3c 0c f5 24 bd
       -0.005766813 -0.044378377 0.015962247 -0.040272757
000030 29 e3 b3 3d e4 01 9d bd 6e c3 b3 3d 7a 93 1b 3d
       0.08783562 -0.07666376 0.0877751 0.03798244
000040 d9 92 08 3d 41 bb f6 3d f8 8a a0 bc 76 45 14 3e
       0.03334317 0.120474346 -0.019597515 0.14479622
000050 b8 95 83 3d d9 6c ce bc 32 1f e3 bd 24 60 51 3e
       0.06425041 -0.025198387 -0.110899344 0.20446831
000060 60 b8 39 3d c1 a8 c8 bd 4e e0 f3 3c 07 bd c7 3b
       0.04534185 -0.09797812 0.029770043 0.006095532
000070 a5 da c2 3d db 60 22 be 34 28 37 bd 52 76 36 3d
       0.095143594 -0.1585726 -0.044716075 0.044546433
000080 69 bc 3f 3e 0f 03 f8 bc 4d a4 aa 3c 44 67 e1 3d
       0.18724217 -0.030274896 0.020830298 0.110060245
000090 d3 a8 67 bd fd 46 36 3d fa 28 2e 3d ed 0e 86 bd
       -0.056557488 0.044501293 0.042519547 -0.065458156
0000a0 46 6b 03 3c df f0 6f 3e 36 ad 23 3c d8 58 4a 3d
       0.008021181 0.23431729 0.009990027 0.049401134
0000b0 a3 5d bb 3c 7d ea dc bd 2d 7b d1 bd f4 f9 68 3d
       0.022871798 -0.107869126 -0.10228572 0.056879
0000c0 cb e6 a4 3d 28 3b 3a 3e 45 ee 28 bd 8f 8b ea bb
       0.08051833 0.18186629 -0.041242857 -0.00715775
0000d0 5e c0 82 bd c4 ce 3e be 9a e6 19 3e 09 1c a2 bd
       -0.063843474 -0.18633562 0.15029374 -0.079155035
0000e0 95 99 99 bd af f2 1c 3d 1d 0a f7 3c 29 b5 a4 3c
       -0.074999966 0.03831738 0.03015619 0.020105915
0000f0 02 8c 8f bd c6 ff 73 bd f0 e6 9d bd 2a 78 98 bd
       -0.07009126 -0.059570096 -0.077100635 -0.074447945
000100 7b 29 63 bd f7 28 a5 3c 40 8d 95 bd 32 1d cc 3d
       -0.05545948 0.020161135 -0.07302332 0.09966506
000110 d4 09 e1 bc 0c 91 23 bb c4 b7 bf 3d eb 98 14 3c
       -0.027470507 -0.002495828 0.093612224 0.009069662
000120 10 e5 5e bd bf 69 5c bd a2 57 0b 3e 2d 96 fb 3c
       -0.05441767 -0.053811785 0.13607648 0.030711258
000130 ff 2b 8f 3b 2b de 3b bd 65 9c 6c ba c7 35 67 bc
       0.0043692584 -0.045866173 -0.000902599 -0.014111943
000140 ef 00 8f 3c 9f 51 88 3d 84 14 a3 bd 42 f5 5b bd
       0.0174565 0.06656193 -0.079628974 -0.053700693
000150 d3 a4 ff 3c 2b d4 f0 bc bd 6e 48 bd 35 bb 2c bd
       0.031206524 -0.029398045 -0.048933733 -0.042170722
000160 40 b1 33 3d 4a de 9c 3d 3c 80 4e 3c 5d 4f 59 bd
       0.04387021 0.07659586 0.012603816 -0.053054202
000170 4f 25 7e bd 5a b6 ac 3c b6 e8 22 3e d8 85 1f bd
       -0.0620473 0.021083046 0.15909085 -0.038946003
000180 88 3e 10 3d d6 8a 52 3d 20 49 75 bd 07 94 c6 bd
       0.035215884 0.051401936 -0.05988419 -0.09696203
000190 bf 9f de bd fd e0 95 3d 21 49 0e bd 54 d6 98 3d
       -0.10870313 0.07318304 -0.03473771 0.07462755
0001a0 59 64 7c 3d 75 c6 34 bd 1b 94 d0 b9 27 69 1c bc
       0.061619136 -0.044134576 -0.000397832 -0.009546555
0001b0 45 97 7e bd 8c 9d c4 3d e7 d6 24 3e 27 88 c4 bd
       -0.06215598 0.09600362 0.16097604 -0.095962815
0001c0 16 28 06 3e 7f 81 ba 3b ac bd b7 bd 6e 88 af 3d
       0.13101229 0.0056917067 -0.08971724 0.08570944
0001d0 64 39 47 3d 94 7e a8 bd 0f 3b 93 3c 39 85 65 bc
       0.048638716 -0.08227268 0.017972497 -0.014008814
0001e0 95 9f b0 3d 56 63 91 3d 20 30 9d bd 92 81 04 3b
       0.08624188 0.07099025 -0.07675195 0.0020218831
0001f0 80 bb cc bd 1e 2d b7 bd 1f 7b d8 3d 80 ac 53 3e
       -0.099967 -0.08944152 0.105703585 0.20671272

last_fc.weight f4 [6, 128]
000000 d3 7f 80 bd cb 4f 0e bd ef 0f 1f bd 4f 1f 4f bd
       -0.062743805 -0.034744065 -0.038833555 -0.050566968
000010 49 58 18 bd d0 4c 19 3d 40 13 22 3c 1c 07 36 3d
       -0.03719357 0.03742677 0.009892285 0.044440374
000020 38 c1 10 3c 99 19 af 3c 50 3e 73 3d 1b d6 07 3d
       0.008835129 0.02137451 0.059385598 0.03316317
000030 a6 63 e9 3b 4c 09 93 bd 28 2d 1c 3d b6 b9 37 bc
       0.0071224747 -0.071795076 0.038129 -0.0112137105
000040 da 2c c8 3c 1b 6e 88 bd e2 e0 fc bc 1d 28 89 3c
       0.02443545 -0.06661626 -0.030868951 0.01674276
000050 10 50 10 3d 54 37 5c bb dd ab 12 3d 41 c1 03 3d
       0.035232604 -0.0033602314 0.035808433 0.032166723
000060 7d 26 99 3d e3 0a 8d 3d 19 ce 92 3d e4 84 b4 3b
       0.07478044 0.06886842 0.07168216 0.005509006
000070 4d a5 89 bc fa 72 a2 3e 51 1c a6 3d 20 57 56 bd
       -0.016802454 0.31728345 0.0811087 -0.052329183
000080 c9 97 0a 3c a3 0c 88 bd 58 ae b2 bc 03 9b 84 3d
       0.00845904 -0.06643035 -0.02181165 0.06474879
000090 3e 42 e4 ba ff 90 ac 3c 43 62 d2 bc 25 7b 22 3d
       -0.0017414761 0.021065233 -0.02568162 0.03966822
0000a0 a0 23 78 bd ab 36 db 3d 45 a4 fb bc 02 d8 ab bb
       -0.06058085 0.107037865 -0.030717978 -0.005244256
0000b0 56 c6 89 bc 72 2e ec bb 97 ae bd 3c 10 89 29 3d
       -0.016818207 -0.007207685 0.02315454 0.04139048
0000c0 c1 55 96 3c fa 47 e0 3c 5f 1a ae 3d e4 f0 8e bd
       0.018351438 0.027378071 0.08501124 -0.0697954
0000d0 c0 b6 23 bd 97 af 73 be e7 8f 07 3d a0 9f 85 3d
       -0.039969206 -0.23797451 0.03309622 0.06524587
0000e0 74 07 c1 bc a0 ed 1c 3c 1c 97 66 3d e5 99 72 3d
       -0.023563124 0.009578139 0.056296453 0.059228797
0000f0 f6 5a d5 3b a9 63 04 3d 6e f9 26 bf 62 50 9a 3d
       0.0065110875 0.032321606 -0.6522435 0.07534863
000100 49 92 a8 3d 89 71 90 3c fe 22 41 bd 70 44 32 bd
       0.08231027 0.017632263 -0.04715251 -0.0435223
000110 65 30 54 3c 8f 32 c6 bb 92 4d 54 bc ac 05 1a bd
       0.012950991 -0.0060485075 -0.012957947 -0.037603065
000120 1f f9 f9 bb 4d b3 a5 bd 4a fd be 3d eb 51 a0 3d
       -0.0076285745 -0.080908395 0.09325655 0.078281246
000130 92 db 6d 3b 1e 85 85 bd 9a 92 72 bd 10 0a 15 bd
       0.0036294204 -0.06519531 -0.05922184 -0.03638655
000140 18 56 99 3d fa cc fc 3b 7a 8a 21 bd dd 1b da bd
       0.07487124 0.007714865 -0.039438702 -0.10649846
000150 cc 0b 82 bd d3 8e 56 3d 14 51 0a bd 1f ac 14 3c
       -0.06349906 0.0523823 -0.03376873 0.00907424
000160 fa 8c 69 3d 13 dd e5 bc d0 b5 35 bd 26 63 4a 3c
       0.05701921 -0.028059518 -0.044362843 0.01235274
000170 8d 69 8a 3d fa fa a2 3d 52 72 a2 3d 4a b9 ab bd
       0.067584135 0.07958026 0.07931961 -0.083849505
000180 f8 24 a7 3c 2f 3e 0b 3d 7c 53 b9 bc f8 7e 2d 3d
       0.02040337 0.03399485 -0.022622816 0.042357415
000190 e0 3e c5 bc ab 79 26 3d 8c 95 75 bd 4e f5 a8 bc
       -0.024077833 0.040643375 -0.059957072 -0.020624783
0001a0 40 b6 7d bd f5 b0 6b 3d 28 a7 8f bd df 97 1c 3d
       -0.061941385 0.057541806 -0.070143044 0.038230773
0001b0 37 75 f6 bc c3 44 16 3b d7 46 9e 3c d8 c0 a5 3c
       -0.03008519 0.0022929169 0.019320888 0.020233557
0001c0 5a 45 37 3d 9e 89 e7 3c ef 45 97 3d 0c 2a aa 3d
       0.044743873 0.028263863 0.07386386 0.08308801
0001d0 0c 63 62 bd c9 c1 41 3d fa af a2 bc 85 98 12 bd
       -0.05527024 0.04730395 -0.019859303 -0.035789985
0001e0 13 5b 03 3e 90 2f 03 bc 81 f6 84 3b 80 f8 44 3d
       0.12827711 -0.008006945 0.004057706 0.04808855
0001f0 88 27 4f bd 2e 43 bb 3d fc a2 ae 3c db bb 7a 3d
       -0.05057481 0.09143673 0.021317951 0.06121431
000200 03 c5 a7 3d 80 0b 17 bd 51 7d e8 3a 40 69 b7 3d
       0.08191874 -0.0368762 0.0017737543 0.08955622
000210 8c c7 ea 3c 0b 89 8d bc e5 4f 8b bd 25 74 93 3d
       0.028659604 -0.017277261 -0.06802348 0.07199887
000220 8f 95 df bc df f1 ba 3b b2 38 0b bd f4 e2 57 bd
       -0.027292995 0.005705103 -0.033989616 -0.052706674
000230 b1 d2 ea bc 98 f9 30 bd d3 84 0d 3d fe 1f 3d 3c
       -0.028664919 -0.04320678 0.0345505 0.011543272
000240 56 6b ef 3c cf c9 90 3d fd 90 35 3d 18 24 2e 3d
       0.029225986 0.07069742 0.044327725 0.04251489
000250 4d 9e 92 3d d7 1d 35 3d fc ed 80 3b 1e a0 47 3d
       0.071591 0.04421791 0.00393462 0.048736684
000260 1d b1 90 bd 4c dc 81 bd 13 c7 6f 3d 59 a1 69 bd
       -0.07065032 -0.063408464 0.05853946 -0.05703864
000270 e3 9b 25 3c 2a 4c 99 3e a2 d8 58 bd ce f6 36 3d
       0.010107967 0.2994092 -0.052940972 0.044668965
000280 0b f7 e9 3c d7 4e 44 bd b8 88 78 3c ff e1 ba 3d
       0.028560182 -0.04792675 0.015169315 0.091251366
000290 6f f6 a9 bd ae a8 31 3d b1 30 62 bd 95 38 25 3d
       -0.082989566 0.043373756 -0.055222217 0.040337164
0002a0 9a 91 99 bc 31 fb a9 3d 7d 43 26 3d e2 c2 75 3b
       -0.018746186 0.08299864 0.040591706 0.0037500192
0002b0 eb a3 d0 bc 90 2a 9d bd a2 c0 3b 3d 40 26 8d bd
       -0.025468787 -0.07674134 0.045838006 -0.06892061
0002c0 c3 68 37 3d 72 e2 4f bb cc b7 ae 3d b9 d9 af bc
       0.044777643 -0.0031720665 0.0853115 -0.021466123
0002d0 0d 80 fd 3c 73 6d 63 be 98 d9 3b 3d bc 71 78 bd
       0.030944848 -0.2220972 0.04586181 -0.06065534
0002e0 5e 60 a4 3d 41 ac 87 3d fc 4b 81 3d 38 23 83 3d
       0.08026193 0.06624652 0.06313321 0.06403202
0002f0 e7 a9 db bc e2 e3 95 bc b6 88 2a bf 46 6f e6 bb
       -0.026814414 -0.01829714 -0.66614854 -0.007032308
000300 81 d0 8f bd 4a a7 4c ba e8 bd a8 3d a1 cf 2b bd
       -0.07022191 -0.00078069104 0.08239347 -0.041946057
000310 64 bd 3a bc 21 aa 47 bd 08 ef d2 bc 37 fa 6c bd
       -0.011397693 -0.048746232 -0.025748745 -0.05785581
000320 79 47 2a bd df 01 a1 bd 43 a2 ab bc 0d 79 8c 3c
       -0.041572068 -0.07861685 -0.020951396 0.017147565
000330 81 d8 01 bd 31 e1 50 bd 72 a7 21 3a 74 ba 7d bc
       -0.031700615 -0.05099601 0.0006166614 -0.015486348
000340 a3 53 88 3d 63 ec bf 3d 7f 9d a2 ba 3b 25 69 3b
       0.066565774 0.09371259 -0.0012406557 0.003557517
000350 f6 fd 96 3c b5 a7 65 3c ea 9b 64 bd 16 27 b6 bc
       0.018431645 0.014017035 -0.055812754 -0.022235435
000360 9d cb 5c bd 24 e4 17 bd d1 8c 30 3d 13 ba c6 bc
       -0.05390512 -0.037082806 0.043103043 -0.024258649
000370 59 fe 15 bd 1d 74 6a bd e7 3e 1b 3d 3c 54 5e bd
       -0.036619518 -0.05723964 0.037901785 -0.05427955
000380 ab 4d 74 3c 8e 1c 2b 3c 9f fd 13 3d 45 3d d1 bc
       0.014911096 0.01044382 0.036130544 -0.02554191
000390 c3 fe 6c 3c 81 10 89 3c 1c e4 a4 3d 3c e1 20 3b
       0.014465037 0.016731502 0.08051321 0.0024548313
0003a0 07 36 0b 3d bc 07 f4 3c a4 1e 07 3d b8 48 56 bc
       0.03398707 0.029788844 0.032988206 -0.013078861
0003b0 61 97 b3 bd 0e a2 99 3a 7a 96 15 3d 3c 88 33 3d
       -0.087691076 0.001172127 0.03652046 0.043831095
0003c0 c2 f1 46 3d c8 c5 29 bc c8 29 01 bd de 71 6e bd
       0.048570402 -0.010362096 -0.031533986 -0.05821406
0003d0 a6 26 49 3d d4 15 bf bc 7f 69 f4 bb b1 a0 c4 3c
       0.049109124 -0.023325838 -0.007458865 0.024002405
0003e0 bd 10 f7 3d c8 26 c3 bc 4e bb 56 bd a8 3f 9b bd
       0.120637394 -0.023822203 -0.05242472 -0.07580501
0003f0 c2 74 ab bc 61 92 dc 3d 55 fc 42 3c ae a9 b6 3d
       -0.020929698 0.10770107 0.011900981 0.089190826

last_fc.bias f4 [6]
000000 f1 aa 0a 3e 31 91 68 3d fe 67 64 3c f0 e4 53 3e
       0.13541771 0.05677909 0.013940809 0.20692801
000010 9a 5a 94 3e 8a e5 c0 3e
       0.28975374 0.37675124
