data/Fanuc_success/Behavior_cloning/BC_policy_GIC_GCEV_300_itr_39.pt (torch, 141867 bytes, 8 tensors)

fc0.weight f4 [128, 6]
0	0xbe863200	-0.26210022
1	0x3e595b46	0.21226224
2	0x3e62b8f8	0.22140872
3	0x3a97b3d8	0.0011573983
4	0x3e141141	0.14459707
5	0xbdfd4470	-0.12366569
6	0x3fcb6f58	1.5893354
7	0xbf968f6e	-1.1762521
8	0xbdce01b7	-0.10058921
9	0x3de47a6a	0.11156161
10	0x3ebde431	0.3708816
11	0xbefa31ae	-0.48866028
12	0x3eefee8f	0.46861693
13	0xbf6c8cea	-0.9240252
14	0xbf11b376	-0.5691446
15	0xbdf32eed	-0.11874185
16	0xbe323569	-0.17403187
17	0xbd11000c	-0.035400435
18	0xbec9a31e	-0.3938226
19	0xc0553850	-3.331562
20	0xbe24af06	-0.16082391
21	0x3f3a58a9	0.72791535
22	0xbe0d0a56	-0.13773474
23	0xbed13d92	-0.40867287
24	0x3fa4f9b8	1.2888708
25	0x40003909	2.0034811
26	0x3e075336	0.13215336
27	0x3ee345d3	0.4438921
28	0x3dcfc8b7	0.10145705
29	0x3ce2840e	0.02765086
30	0xbe0e0653	-0.138696
31	0xbf8cbc06	-1.099488
32	0xbf128cb1	-0.5724593
33	0x3e131b78	0.14365947
34	0xbeb9f9c7	-0.36323377
35	0xbe125ccb	-0.1429321
36	0xbf6acb41	-0.9171639
37	0x3ed8a270	0.4231143
38	0x3e9c325a	0.30507165
39	0xbdebf515	-0.11521355
40	0x3d9d1af8	0.076711595
41	0x3e4593f0	0.19294715
42	0xbeb4660b	-0.35234103
43	0xbf97b360	-1.1851616
44	0xbe885c13	-0.26632747
45	0xbdd189ef	-0.10231387
46	0x3b9542f6	0.0045551015
47	0xbea15118	-0.31507182
48	0xbf1e35d1	-0.6180087
49	0x3fc49a74	1.5359635
50	0x3ee975ea	0.45597774
51	0x3c023140	0.007946312
52	0x3e108ee7	0.14117013
53	0x3f257af3	0.6464073
54	0x3f739a46	0.9515728
55	0xbf84436a	-1.0333073
56	0xbf0f8c01	-0.56073004
57	0x3e72df90	0.23718095
58	0xbd7cd028	-0.06172195
59	0x3ddc91d9	0.10770006
60	0xbf04f7ba	-0.519405
61	0xbe39da7a	-0.18149748
62	0x3f48de13	0.7846386
63	0x3e76e214	0.2410968
64	0x3e5c9d47	0.21544372
65	0x3d9b9903	0.07597544
66	0x3e09c581	0.13454248
67	0xbff2b755	-1.8962198
68	0xbea0750e	-0.31339306
69	0x3f1afd97	0.605432
70	0x3d85f6e1	0.06541229
71	0xbe8f0d0b	-0.27939638
72	0x3d1ba142	0.037995584
73	0xbd96679b	-0.0734398
74	0x3e3cb852	0.18429688
75	0xbec9c457	-0.39407608
76	0xbdc1fde0	-0.09472251
77	0xbdb74c85	-0.08950142
78	0x3f2bcf7d	0.67113477
79	0xbf9262c0	-1.1436386
80	0x3e4c5655	0.19954808
81	0x3e8a10b4	0.26965868
82	0xbe4d5622	-0.20052388
83	0x3eba031d	0.363305
84	0x3fac529d	1.3462712
85	0xbfe93ba7	-1.822133
86	0xbe2f650c	-0.1712839
87	0xbea3173b	-0.3185366
88	0x3ee34c47	0.44394132
89	0x3f71e225	0.94485694
90	0xbeaff93e	-0.34369844
91	0x3f1b2be6	0.6061386
92	0x3f114b4d	0.56755525
93	0xbe8fd94a	-0.28095466
94	0x3e2d8ae7	0.16947518
95	0xbd944e33	-0.07241478
96	0x3e167ab3	0.14695244
97	0xbf3b6615	-0.7320264
98	0x3ec51264	0.38490593
99	0x3eba2968	0.36359715
100	0xbe9fd5bc	-0.31217754
101	0x3e966c0e	0.29379314
102	0x3f8d5a04	1.1043096
103	0xbdb4d1c0	-0.08829069
104	0x3ec4903b	0.3839129
105	0xbd8c371a	-0.06846447
106	0xbf4ebc94	-0.807565
107	0x3f1c6c04	0.6110232
108	0xbee82def	-0.45347545
109	0x3fb0d9e7	1.3816499
110	0xbf19e6c7	-0.60117763
111	0xbeee0410	-0.46487474
112	0x3ed0a33d	0.4074954
113	0x3eb6d1cd	0.3570694
114	0xbffd61b1	-1.9795438
115	0xc09ad632	-4.838647
116	0xbe9c2612	-0.30497795
117	0x3f185e1c	0.595186
118	0xbdfb6cdb	-0.12276622
119	0x3ea994c5	0.33121315
120	0xbe50eb1e	-0.2040219
121	0xbcb3aac9	-0.021932023
122	0xbe9e8c0c	-0.30966222
123	0xbe6fa5cf	-0.23403095
124	0xbdd6f171	-0.1049527
125	0x3d91fff9	0.07128901
126	0x3e89859c	0.26859748
127	0xbf9d9bdc	-1.231319
128	0x3dbeefdc	0.09323093
129	0x3f182fd7	0.59448
130	0x3e0a09ad	0.13480254
131	0x3e8c4114	0.273934
132	0x3f06c0d3	0.52637976
133	0xbe5eceb2	-0.21758536
134	0xbed42507	-0.414345
135	0xbde8b915	-0.113634266
136	0x3e817987	0.2528803
137	0xbe935439	-0.28775194
138	0xbedd7681	-0.43254474
139	0x3dc4177e	0.09574793
140	0x3f1b2d9e	0.6061648
141	0x3eb57a3c	0.3544482
142	0xbeac5c5a	-0.3366421
143	0xbec8915c	-0.391734
144	0xbe93fe69	-0.28905037
145	0x3e904970	0.28181028
146	0xbe328523	-0.174336
147	0x3e940669	0.2891114
148	0x3eb9c4f1	0.36283067
149	0xbe8250fc	-0.2545241
150	0x3ee230ff	0.44178006
151	0xbea15905	-0.3151323
152	0x3e12d8d2	0.14340523
153	0xbcf23123	-0.029564446
154	0xbee2e7fd	-0.44317618
155	0x3e89b276	0.26893967
156	0x3dc648c3	0.09681847
157	0xbeff3b7f	-0.4985008
158	0xbf48c7fa	-0.7843014
159	0xbe96fb34	-0.29488528
160	0x3ed6a29b	0.41920933
161	0xbbcb4f4d	-0.0062045217
162	0x3e2caeb2	0.16863516
163	0x3ea5fdfe	0.32420343
164	0xbf1d0a53	-0.6134388
165	0xbe80e9ab	-0.25178275
166	0xbe2360ec	-0.15954942
167	0x3edd4504	0.43216717
168	0x3f0cef97	0.55053085
169	0xbef4685b	-0.47735867
170	0x3f17ed88	0.5934682
171	0x3e47b172	0.19501284
172	0xbdac9776	-0.084273264
173	0x3d85c589	0.065318175
174	0x3ef7d6ff	0.48406217
175	0xbf50ceef	-0.81565756
176	0xbf27f49c	-0.6560762
177	0x3f18aad6	0.59635675
178	0x3e4a0bac	0.19731015
179	0xbdf43636	-0.119244024
180	0x3f0c4dc0	0.5480614
181	0xbf1f39d2	-0.621976
182	0xbf084dbb	-0.5324361
183	0x3e9c19ab	0.30488333
184	0x3e9d7260	0.30751324
185	0x3ea78f83	0.32726678
186	0xbea3bb4f	-0.31978843
187	0xbf067bd8	-0.5253272
188	0x3f0cd43c	0.55011344
189	0x3a4f669c	0.00079117133
190	0x3e9086d0	0.28227854
191	0xbea17369	-0.31533363
192	0xbf63c7b2	-0.88976586
193	0xbfb6a32e	-1.4268548
194	0x3ef0bc18	0.47018504
195	0xbb3a2868	-0.0028405432
196	0xbf26d14a	-0.651631
197	0xbea6f888	-0.3261149
198	0x3dca3cec	0.09874901
199	0xc003e1ba	-2.0606523
200	0xbf26799d	-0.6502932
201	0x3ed6874f	0.41900107
202	0x3dff7882	0.12474157
203	0xbd417b67	-0.047236826
204	0x3e45db6a	0.19321981
205	0xbfb7b0c9	-1.4350826
206	0xbee376d8	-0.44426608
207	0x3de1752e	0.110086784
208	0xbe624bc3	-0.22099213
209	0x3e1bc656	0.15212378
210	0xbe750bc1	-0.23930265
211	0xc0656ba7	-3.5846956
212	0xbe065144	-0.13116938
213	0xbe0f042c	-0.13966435
214	0xbe619480	-0.22029305
215	0x3f1080c9	0.5644651
216	0x3e8bc4ea	0.2729867
217	0xbf50a58c	-0.81502604
218	0x3e9a1787	0.30096075
219	0xbd91e56a	-0.071238354
220	0x3ebfc410	0.3745427
221	0xbe27302a	-0.16326967
222	0xbc7dd62a	-0.015492955
223	0xbe806ac9	-0.2508147
224	0x3e4710dd	0.19440027
225	0xbda28d3f	-0.07937097
226	0x3de104a9	0.10987217
227	0xbe2cb347	-0.16865264
228	0xbeca562e	-0.39518875
229	0x3e905300	0.28188324
230	0x3e783004	0.24237067
231	0x3e95ffb0	0.29296637
232	0x3e264396	0.1623672
233	0xbd57bd84	-0.05267097
234	0x3f434257	0.762731
235	0xbfe6d8df	-1.8034934
236	0xbf29a9f3	-0.66274947
237	0x3f077bdb	0.52923363
238	0x3eae47d6	0.3403918
239	0xbdfc81c5	-0.12329439
240	0x3e785c57	0.24253975
241	0xbecc4681	-0.3989754
242	0xbf398611	-0.72470194
243	0x3d0bccea	0.03413097
244	0x3d12ef02	0.035872467
245	0xbb92fc3c	-0.004485635
246	0x3eb8f4ef	0.3612437
247	0x3ecb340c	0.39688146
248	0xbdc13209	-0.094333716
249	0xbe83cb84	-0.25741208
250	0xbe23063c	-0.15920347
251	0xbe1e01bd	-0.1543035
252	0x3f2efbcf	0.6835298
253	0xbfb24fc2	-1.393059
254	0xbf4fd79f	-0.81188387
255	0x3d588b50	0.052867234

fc0.bias f4 [128]
0	0xbea88bde	-0.3291921
1	0xbd3d4abd	-0.046213854
2	0x3dd95860	0.10612559
3	0xbc11c25a	-0.008896435
4	0x3b86c218	0.0041124932
5	0x3eb007ec	0.34381044
6	0x3df184c4	0.11792901
7	0x3c1be790	0.009515658
8	0x3c908d35	0.017645458
9	0x3c831d69	0.016005235
10	0x3dca8093	0.09887805
11	0x3e84e2ac	0.25954187
12	0xbeb5a76d	-0.35479298
13	0x3e8e8cd2	0.27841812
14	0xbd82fca7	-0.06395846
15	0x3eca934f	0.39565513
16	0x3e8fa278	0.2805364
17	0x3d98c0af	0.074586265
18	0xbc90176f	-0.017589299
19	0xbc515d55	-0.0127786
20	0xbe83a76b	-0.25713667
21	0x3eb265e1	0.34843352
22	0xbbfeffae	-0.0077819442
23	0x3e99c4c5	0.30032936
24	0xbec1b1a6	-0.37830848
25	0x3e964bdf	0.2935476
26	0x3c975a20	0.018475592
27	0xbccc06c9	-0.02490558
28	0x3e343000	0.17596436
29	0x3bb19bb8	0.0054201744
30	0x3e5e15b7	0.21687971
31	0x3e6d0536	0.23146519
32	0xbdc66bad	-0.09688506
33	0x3e63e8c7	0.22256766
34	0x3ec13741	0.37737468
35	0xbbfc37e0	-0.0076970905
36	0x3e5980ff	0.21240614
37	0xbe0bf28b	-0.13666742
38	0xbea439df	-0.32075402
39	0x3e556757	0.20840202
40	0xbcf30f4d	-0.029670382
41	0xbe84f959	-0.25971487
42	0xbd0671df	-0.03282344
43	0x3e29991c	0.16562313
44	0x3df7aad1	0.120931275
45	0xbc95e760	-0.018298805
46	0x3d66048c	0.05615668
47	0xbe9705e6	-0.29496688
48	0xbea2d15f	-0.31800362
49	0x3ebe602e	0.37182754
50	0x3da2cdf7	0.07949441
51	0xbc9db1e0	-0.019249856
52	0xbebf986d	-0.3742098
53	0xbe97ee54	-0.29674017
54	0x3db9f8ca	0.09080656
55	0x3df7c1b9	0.120974965
56	0x3ea2ae3d	0.31773558
57	0x3d9f6cd3	0.077844284
58	0x3e5156cb	0.20443265
59	0xbda5b7d9	-0.08091707
60	0xbd0cc885	-0.034370918
61	0x3d96ad1d	0.073572375
62	0xbbe7771f	-0.007063761
63	0x3e889f46	0.26684016
64	0xbeb99f03	-0.3625413
65	0x3e6ee4e8	0.23329508
66	0x3e2a3c52	0.16624573
67	0xbe7192d8	-0.23591173
68	0x3e12f610	0.14351678
69	0xbd147b17	-0.0362502
70	0xbece5f63	-0.4030715
71	0x3bd75e72	0.006572538
72	0xbed08e46	-0.40733546
73	0xbe39f1ed	-0.18158694
74	0x3dc80752	0.09767021
75	0x3eb5b5e8	0.35490346
76	0x3daee4ff	0.08539771
77	0xbcd7d4a2	-0.026346508
78	0xbce3fb86	-0.027829897
79	0xbe7cee5a	-0.24700299
80	0x3d2bf5b0	0.041982353
81	0xbe52eb5b	-0.20597593
82	0x3e4e13ef	0.20124792
83	0x3e0529b8	0.13004196
84	0xbd009883	-0.031395447
85	0x3c34e178	0.011040084
86	0xbd97430c	-0.07385835
87	0xbebcf30f	-0.3690419
88	0xbeb27c6f	-0.3486056
89	0xbc95171e	-0.0181995
90	0x3e405985	0.18784149
91	0xbe47e7ee	-0.19522068
92	0x3ec80896	0.3906905
93	0x3da72c3c	0.08162734
94	0x3d9bf381	0.07614804
95	0x3e6ce621	0.23134662
96	0xbc2c7964	-0.010526989
97	0xbd046402	-0.032321937
98	0x3b75624b	0.003744262
99	0x3e851b65	0.25997463
100	0x3d21e0d9	0.039521072
101	0xbea0456d	-0.31302968
102	0x3e988907	0.29792044
103	0xbe9000ca	-0.28125602
104	0x3d5a3079	0.053268883
105	0xbccefec4	-0.025267966
106	0xbce61d98	-0.028090283
107	0x3e7a2868	0.24429476
108	0xbcf3b92d	-0.029751385
109	0xbe917172	-0.28406864
110	0xbcaf6990	-0.02141264
111	0x3c5e4a00	0.013567448
112	0xbeb14048	-0.34619355
113	0x3e672b56	0.22575125
114	0xbc95f19e	-0.018303689
115	0xbe3f2582	-0.18666652
116	0x3e55e55a	0.20888272
117	0x3d888393	0.06665721
118	0x3eb0d019	0.34533766
119	0x3bbe8993	0.00581474
120	0x3c096b18	0.00838735
121	0xbc1ead65	-0.009684895
122	0xbd07aa78	-0.033121556
123	0x3cf5e712	0.03001741
124	0xbe7be77c	-0.24600023
125	0x3e6f086c	0.23343056
126	0x3e5bab65	0.214521
127	0x3e2acfc9	0.16680826

fc1.weight f4 [128, 128]
0	0xbc8fa60a	-0.017535228
1	0x3e16d99e	0.14731452
2	0x3d5b8b6c	0.05359976
3	0xbe1a65cb	-0.15077893
4	0xbd33247b	-0.043735962
5	0xbc9b3f1e	-0.018950995
6	0xbd4c0d06	-0.049817108
7	0x3d42e9a9	0.047586117
8	0xbe20da5b	-0.15708296
9	0xbd3ff13f	-0.04686093
10	0xbe640bd9	-0.22270145
11	0xbda1c0e2	-0.078981176
12	0xbd553267	-0.05205002
13	0x3d00c751	0.031440083
14	0x3c8c62b8	0.017136917
15	0xbc1c6ccb	-0.009547423
16	0x3c8f95e8	0.017527536
17	0xbdb42e5a	-0.08797903
18	0x3e825846	0.25457972
19	0xbc07e8eb	-0.008295278
20	0xbd6c69f4	-0.057718232
21	0xbcae886f	-0.021305291
22	0x3e883654	0.2660395
23	0xbdaf4e38	-0.08559841
24	0xbbbcdb0f	-0.0057634185
25	0x3d8b9cec	0.0681704
26	0x3dcb4eed	0.09927163
27	0x3e85e172	0.26148564
28	0xbddcdaed	-0.10783944
29	0x3d94135d	0.07230256
30	0x3d2ad66f	0.041708406
31	0x3d159493	0.036518645
32	0x3d939fa6	0.07208185
33	0xbdac9d5f	-0.08428454
34	0xbd61530e	-0.055010848
35	0xbde66ec1	-0.112515934
36	0x3cc77aa3	0.02435047
37	0xbd3b9ef4	-0.045805886
38	0xbca240fa	-0.019806374
39	0x3ca726cd	0.020404244
40	0x3ded167e	0.11576556
41	0x3d8c5c21	0.0685351
42	0x3e3a4973	0.18192081
43	0xbb5db854	-0.0033831792
44	0x3c39a460	0.011330694
45	0xbe202455	-0.1563886
46	0xbe463672	-0.19356707
47	0xbd4945f4	-0.049138978
48	0xbe0c1106	-0.13678369
49	0x3d602a2a	0.05472771
50	0xbe0c94a3	-0.13728575
51	0x3e648249	0.22315325
52	0xbda4e279	-0.08051009
53	0x3c4741d8	0.0121616945
54	0xbd8ea5c7	-0.06965213
55	0xbd986191	-0.07440484
56	0xbda8673e	-0.08222817
57	0x3d02773a	0.031851985
58	0x3d98d0b4	0.07461682
59	0x3b6d4651	0.0036205242
60	0xbd4cd08b	-0.05000357
61	0x3d0a17d3	0.033714127
62	0x3c83fd00	0.01611185
63	0x3cf52f6e	0.029929843
64	0x3adc032d	0.0016785614
65	0xbcbdcb8d	-0.02316835
66	0xbd7390ff	-0.05946445
67	0xbe8e9af3	-0.27852592
68	0x3c2dc128	0.010605134
69	0xbd425508	-0.047444373
70	0x3da9f74a	0.0829912
71	0xbd094249	-0.03351048
72	0x3d30c04e	0.043152146
73	0xbebcf1fe	-0.36903375
74	0xbd798afb	-0.060923558
75	0x3c961aa9	0.01832326
76	0xbc4a1828	-0.012334861
77	0xbb869a4c	-0.004107749
78	0x3d4cae60	0.049970984
79	0xbd5b5230	-0.053545177
80	0x3d9cd22d	0.07657275
81	0xbc3c26ca	-0.011483857
82	0x3960a712	0.00021424543
83	0xbb9645e6	-0.0045859693
84	0x3ec31729	0.38103607
85	0x3e2319b0	0.15927768
86	0x3e0ea773	0.13931064
87	0xbcb481a6	-0.022034477
88	0x3d4c2dbe	0.04984831
89	0x3c86e6f6	0.016467553
90	0x3cb04724	0.021518297
91	0xbf1f4e88	-0.62229204
92	0x3b599434	0.0033199908
93	0xbd5380db	-0.051636558
94	0x3d8337fd	0.06407163
95	0x3d2b1cba	0.041775443
96	0x3d02ab5f	0.031901713
97	0x3dba008d	0.09082136
98	0xbd129452	-0.03578598
99	0x3d2f8152	0.04284794
100	0xbd2411e4	-0.040056124
101	0xbc88a005	-0.016677866
102	0x3d336313	0.043795656
103	0x3da46818	0.08027667
104	0xbd564dd2	-0.05232031
105	0x3e90a2ca	0.28249198
106	0x3ddaaf2a	0.10677941
107	0xbd3e7157	-0.046494808
108	0x3e01b629	0.12667145
109	0xbc7f9f97	-0.015602014
110	0x3ddfeff4	0.10934439
111	0x3cb6aaae	0.022298183
112	0xbd857835	-0.06517068
113	0x3c880d21	0.016607823
114	0xbe129dea	-0.14318052
115	0x3c157f3a	0.009124571
116	0xbda2cab2	-0.07948817
117	0xbe597e7a	-0.21239653
118	0x3c666307	0.014061696
119	0x3cd50c4b	0.026006838
120	0xbb5c2fb8	-0.0033597779
121	0xbdda0c73	-0.10646906
122	0x3dca6757	0.09882992
123	0xbd5598c9	-0.05214766
124	0x3d496fed	0.049179006
125	0x3ccacf13	0.024756944
126	0xbd8d7942	-0.06907894
127	0xbc7d6802	-0.015466692
128	0xbc8a2981	-0.016865494
129	0x3f234999	0.63784176
130	0xbe5e760b	-0.21724717
131	0x3bb9d1da	0.005670768
132	0x3e15b185	0.146185
133	0xbe3d1105	-0.18463524
134	0xbe06f03b	-0.13177578
135	0xbe6b5924	-0.22983223
136	0x3e6c7d78	0.23094738
137	0x3e0a4ab5	0.13505061
138	0x3eaa6d4d	0.33286515
139	0x3d0460ab	0.032318752
140	0xbc9adb20	-0.018903315
141	0x3d61d703	0.05513669
142	0x3e34440e	0.17604086
143	0xbd63100f	-0.055435237
144	0x3cd91729	0.026500301
145	0xbdb84cdf	-0.08999037
146	0x3df539d2	0.11973919
147	0xbdea0cb9	-0.11428208
148	0xbcd3d766	-0.025859546
149	0x3d545476	0.05183836
150	0x3e9523d2	0.2912889
151	0x3c83723b	0.01604568
152	0xbd1d8855	-0.038460094
153	0x3db75b94	0.08953014
154	0xbe87eb3a	-0.2654665
155	0xbe8df090	-0.27722597
156	0x3e89c75d	0.26909915
157	0x3d34748c	0.04405646
158	0x3dbdfda5	0.092768945
159	0xbd86d5c2	-0.0658374
160	0xbf0ddd42	-0.5541574
161	0x3d463169	0.048386965
162	0x3c71dc6b	0.014762024
163	0x3e863e42	0.26219374
164	0x3bd44292	0.0064776624
165	0xbc936aee	-0.017995324
166	0x3cae18c3	0.021252042
167	0xbda1a74e	-0.07893239
168	0xbe5234f8	-0.20528018
169	0x3d644915	0.05573376
170	0x3f21026d	0.62894326
171	0xbde4ae61	-0.11166073
172	0x3eb9cb18	0.3628776
173	0xbe31811a	-0.17334405
174	0x3dfed4f0	0.12442958
175	0xbc3478b9	-0.011015111
176	0xbd9ab8b9	-0.07554764
177	0xbd85fff1	-0.065429576
178	0x3dfb09f2	0.12257756
179	0xbabb0365	-0.001426798
180	0xbbdfb204	-0.006826641
181	0xbd67d26f	-0.05659717
182	0xbda649ea	-0.08119567
183	0xbe40b9c7	-0.18820868
184	0xbe11a64a	-0.1422359
185	0xbd8332d5	-0.0640618
186	0x3d8a5e13	0.067562245
187	0x3eaebfab	0.34130606
188	0xbe13bc1a	-0.14427224
189	0xbdbdfeff	-0.09277152
190	0xbe90eca5	-0.28305545
191	0xbce2a5eb	-0.027667006
192	0xbd9370a6	-0.0719922
193	0xbcc1241f	-0.023576794
194	0xbe1d56da	-0.15365162
195	0xbf236151	-0.6382037
196	0x3cd2a442	0.02571309
197	0xbdcb3bc7	-0.09923511
198	0xbd30f4dd	-0.04320227
199	0xbdb4a61b	-0.088207446
200	0xbc9aa8b8	-0.01887928
201	0xbd9e203a	-0.077209905
202	0x3dd984c9	0.1062103
203	0xbe084782	-0.13308528
204	0xbe6d7125	-0.23187692
205	0x3e26c902	0.16287616
206	0x3c5c7ae5	0.013457035
207	0x3c7d8cd2	0.015475469
208	0xbc8a24e7	-0.0168633
209	0xbd7b345e	-0.061329238
210	0x3cd7f1e2	0.026360456
211	0xbd436c1b	-0.04771052
212	0xbefc8050	-0.49316645
213	0x3e33913d	0.17535873
214	0x3e98e859	0.29864767
215	0xbd7df8b6	-0.062004767
216	0xbcc84532	-0.024447057
217	0x3cb00ffb	0.021491995
218	0xbd26573f	-0.040610548
219	0xbea5dd11	-0.32395223
220	0xbd601d5e	-0.054715507
221	0xbe8f9a06	-0.28047198
222	0xbf944b72	-1.1585524
223	0x3ddd5481	0.108071335
224	0xbd3a97fc	-0.0455551
225	0x3e598121	0.21240665
226	0xbbff9f87	-0.0078009996
227	0xbd9708d1	-0.073747285
228	0x3e56d187	0.20978366
229	0x3d13fd50	0.03613025
230	0x3b3f58a8	0.002919713
231	0x3d82fbc8	0.0639568
232	0x3db50549	0.08838899
233	0xbf1e2868	-0.61780405
234	0x3b2ec864	0.0026669735
235	0xbc8ee56c	-0.017443381
236	0x3de21a9b	0.11040231
237	0x3d10e04d	0.03537016
238	0xbe3d6663	-0.18496089
239	0x3e9dc069	0.3081086
240	0xbb3d5448	-0.0028889347
241	0x3ddd0d14	0.1079351
242	0xbd6e5c5c	-0.05819355
243	0x3d8d3574	0.06894961
244	0x3ced6eae	0.02898344
245	0xbe687635	-0.22701342
246	0xbc8f26dc	-0.017474584
247	0xbe46f8f0	-0.194309
248	0xbf111821	-0.5667744
249	0x3d582f48	0.052779466
250	0x3ebc16ed	0.3673624
251	0xbe2ad2e3	-0.1668201
252	0xbcda56a0	-0.026652634
253	0xbdda81f0	-0.10669315
254	0xbd59dd32	-0.053189464
255	0xbe409072	-0.18805102

fc1.bias f4 [128]
0	0x3d7ea337	0.062167373
1	0x3d83df0c	0.06439027
2	0x3d0923c0	0.03348136
3	0x3d1ce14e	0.038300805
4	0xbd3826d6	-0.04495891
5	0xbd7872a6	-0.060656212
6	0xbd3f5457	-0.046711292
7	0xbd645fa6	-0.05575528
8	0x3d9fbb5c	0.07799408
9	0x3d322215	0.043489534
10	0x3dbea642	0.09309055
11	0x3dc5c6c5	0.09657053
12	0xbd238cfe	-0.039929383
13	0x3d4bc9e3	0.04975308
14	0x3bfb320f	0.0076658796
15	0x3d639940	0.055566072
16	0x3bc139dd	0.0058967904
17	0xbdc14c5f	-0.09438395
18	0x3c42ba36	0.011885216
19	0xbc273f58	-0.010207973
20	0xbd8cc4b9	-0.06873459
21	0xbbb52c8f	-0.0055289934
22	0x3d489c11	0.04897696
23	0x3d06fa39	0.032953475
24	0xbdab24c6	-0.08356623
25	0x3d9af63e	0.07566498
26	0x3ca9b94d	0.020718241
27	0xbd13161c	-0.035909757
28	0xbdac86be	-0.084241375
29	0xbc71bcc5	-0.014754479
30	0xbc9f8fcf	-0.019477753
31	0x3d11cf34	0.035597995
32	0x3d1da611	0.03848845
33	0xbc67f654	-0.01415785
34	0x3d4c2ed8	0.04984936
35	0xbd17a12c	-0.03701894
36	0x3d29c496	0.041447245
37	0x3d8ca760	0.06867862
38	0x3dd3fb52	0.1035067
39	0x3d820b7a	0.06349845
40	0xbd9e8d80	-0.07741833
41	0x3d0f3dd1	0.034971062
42	0xbd9ddf8d	-0.077086546
43	0x3d856c57	0.06514805
44	0xbdbf69c8	-0.09346348
45	0xbd274e32	-0.040846057
46	0xbd25d13c	-0.040482745
47	0xbc00dfe3	-0.007865879
48	0x3d480257	0.048830356
49	0xbbed9b14	-0.007251153
50	0xbdb55a0b	-0.08855065
51	0xbd2dcb7a	-0.04243038
52	0x3c2b7073	0.010463822
53	0x3d5ac6dc	0.053412303
54	0x3bd6ac3f	0.006551295
55	0xbca79d51	-0.020460756
56	0xbc75d0d0	-0.015003398
57	0xbd6f2cb6	-0.05839225
58	0xbb0e8522	-0.0021746834
59	0x3dd7a996	0.10530393
60	0x3d59481b	0.05304728
61	0xbd6d33ad	-0.05791061
62	0xbdafbbf1	-0.08580769
63	0x3ca40914	0.02002386
64	0xbba7eb67	-0.0051244977
65	0x3d9abc6b	0.07555469
66	0x3d14577e	0.03621625
67	0x3c3e1266	0.011601066
68	0x3d9f42c9	0.0777641
69	0xbdc51229	-0.096226044
70	0x3d373267	0.0447258
71	0x3d726472	0.059177823
72	0xbdb85759	-0.09001035
73	0x3c91af7c	0.017783873
74	0xbd4894ff	-0.04897022
75	0xbbed356d	-0.007239035
76	0x3de419a2	0.111377016
77	0xbdcf3c31	-0.101189025
78	0x3cacbd7e	0.02108645
79	0x3d3d6011	0.046234194
80	0x3d72139a	0.059100725
81	0xbde2ee52	-0.11080612
82	0x3dbc3b24	0.09190968
83	0xbd69ec55	-0.05711015
84	0x3c86c4e1	0.016451301
85	0x3d6c327c	0.057665333
86	0xbd22e132	-0.039765544
87	0x3be1d2af	0.0068915705
88	0x3d3adc7c	0.045620427
89	0x3b817db2	0.0039517516
90	0xbcc3e6bb	-0.023913732
91	0xbd17fa73	-0.03710408
92	0x3d77700b	0.060409587
93	0xbd200749	-0.039069448
94	0xbc9b71b5	-0.018975118
95	0xbba53b57	-0.0050424743
96	0xbc3107cf	-0.010805084
97	0x3c42a6e2	0.011880608
98	0x3dc4be5f	0.09606623
99	0x3dc056fb	0.0939159
100	0xbbc6bebc	-0.006065218
101	0xbd160543	-0.03662611
102	0xbd1698f1	-0.03676695
103	0xbc891b30	-0.016736597
104	0xbd59dd12	-0.053189345
105	0xbd846115	-0.064638294
106	0x3d8a26d0	0.06745684
107	0x3c4a79ff	0.012358188
108	0xbd549a81	-0.05190516
109	0x3b609a6e	0.0034271735
110	0xbaca8247	-0.0015450203
111	0x3da792f0	0.08182323
112	0x3d01de58	0.031706184
113	0x3cf7222e	0.030167665
114	0x3ccb1a19	0.024792718
115	0xbd077bb4	-0.033076957
116	0x3c7f820e	0.015594972
117	0xbd98f865	-0.074692525
118	0x3d800b13	0.06252112
119	0x3d8ab07a	0.067719415
120	0x3c048edf	0.008090704
121	0xbd0f3b62	-0.03496874
122	0xbdb58719	-0.088636585
123	0x3bd0777d	0.0063619004
124	0xbdb21a65	-0.086964406
125	0x3d9b7e44	0.07592443
126	0x3dba515e	0.09097551
127	0xbbf9f21e	-0.0076277396

fc2.weight f4 [128, 128]
0	0xbd2f902d	-0.042862106
1	0x3eb96dd6	0.3621661
2	0xbd4475e5	-0.047963995
3	0xbb87dbdd	-0.004146083
4	0xbdb2d816	-0.08732621
5	0xbce017fe	-0.02735519
6	0xbd5f7761	-0.054557208
7	0xbd8312f1	-0.06400097
8	0xbc907bd7	-0.017637176
9	0xbd906b0d	-0.07051668
10	0x3e10d853	0.14145021
11	0x3ceec047	0.02914442
12	0x3cae69b5	0.02129064
13	0xbcbb253f	-0.022844909
14	0x3df8bcb0	0.12145364
15	0xbcba9ee9	-0.022780852
16	0x3dcd3e85	0.1002169
17	0x3dc5f3a3	0.09665611
18	0x3d636d43	0.055524122
19	0x3e17251e	0.14760253
20	0x3db4c02b	0.08825716
21	0x3d2fa3c7	0.0428808
22	0xbc423968	-0.011854507
23	0x3d0cf08c	0.03440909
24	0xbda99b95	-0.08281628
25	0xbda8aad3	-0.08235707
26	0x3d1ddbbf	0.038539644
27	0x3db3145b	0.08744117
28	0x3d0192c2	0.0316341
29	0x3dbc7733	0.09202423
30	0x3d6b5f15	0.057463724
31	0x3cd6b461	0.026209058
32	0xbca2f263	-0.01989097
33	0xbce99154	-0.02851168
34	0xbc808589	-0.015688675
35	0xbc5b4a1c	-0.013384368
36	0x3d2f6c8a	0.04282812
37	0xbd053bbc	-0.03252767
38	0xbcecc6f4	-0.028903462
39	0x3d34e36b	0.044162195
40	0x3ea1361d	0.31486598
41	0xbe0fcc2d	-0.1404273
42	0xbc660752	-0.014039831
43	0xbd502c1b	-0.050823312
44	0x3ef16120	0.47144413
45	0x3d6c6003	0.05770875
46	0xbc4b27ee	-0.012399657
47	0xbb5ac441	-0.0033381137
48	0x3e87c4d4	0.26517355
49	0xbd72fb2c	-0.059321567
50	0x3eaf8bfd	0.3428649
51	0x3cf6a366	0.030107211
52	0xbc9776ac	-0.018489204
53	0x3d231c1b	0.039821725
54	0xbd13a97d	-0.03605031
55	0xbeae5166	-0.34046477
56	0x3dc41288	0.09573847
57	0xbd5cebb6	-0.05393573
58	0x3c8d8b55	0.017278353
59	0x3e1ac556	0.1511434
60	0x3d52cd73	0.051465463
61	0xbd18d767	-0.0373148
62	0x3f193b89	0.5985647
63	0x3d4bba1c	0.049738035
64	0x3cd4a25c	0.025956325
65	0xbc0b5c0e	-0.008505834
66	0x3f0946fb	0.5362393
67	0xbd8092da	-0.0627801
68	0xbd7a1043	-0.061050665
69	0xbbb15232	-0.00541141
70	0x3ddb9bf7	0.10723107
71	0xbd3a7469	-0.045521174
72	0xbd037e8a	-0.0321031
73	0xbd134442	-0.035953768
74	0x3d99dc21	0.075126894
75	0x3dc7c2c9	0.09753949
76	0xbcc36107	-0.023849977
77	0x3edf9127	0.4366543
78	0xbe608462	-0.219255
79	0x3d0893d2	0.033344097
80	0xbc6dbc87	-0.01451028
81	0x3d954f75	0.07290546
82	0x3ce16236	0.027512651
83	0x3d765380	0.060138226
84	0x3d68bf8c	0.0568233
85	0x3bd0991d	0.006365909
86	0x3d082f15	0.033248026
87	0x3d957e44	0.07299474
88	0xbd0718cf	-0.032982644
89	0x3d793ca8	0.060848862
90	0xbda478dc	-0.080308646
91	0xbca9731a	-0.020684768
92	0x3dc54ce7	0.096338086
93	0x3d6040bb	0.05474923
94	0x3caade2c	0.020857893
95	0x3cbf57a3	0.023357218
96	0x3d94a15b	0.072573386
97	0xbca4b88c	-0.02010753
98	0x3d38b55a	0.045094825
99	0x3df7c58c	0.12098226
100	0xbe05ee0f	-0.13079093
101	0x3cc72421	0.02430922
102	0xbc91eb31	-0.017812343
103	0xbd7261db	-0.059175353
104	0xbce88ccf	-0.028387455
105	0x3d7a580b	0.06111912
106	0x3d90f336	0.07077639
107	0x3d44f6b7	0.048086848
108	0xbcb6c852	-0.022312317
109	0x3d31118e	0.043229632
110	0x3ef2812c	0.47364175
111	0xbbac530f	-0.005258925
112	0xbce8ffd9	-0.02844231
113	0x3ea7c513	0.32767543
114	0xbc62c74e	-0.013841463
115	0xbe87e7fa	-0.26544172
116	0x3cec0297	0.028809829
117	0xbd8d245c	-0.068917006
118	0x3d83dfee	0.064391956
119	0xbce85d68	-0.028364852
120	0x3c9cca46	0.01913942
121	0xbd1c2c1b	-0.038128
122	0x3c642e4c	0.013927054
123	0xbe142a08	-0.14469159
124	0xbd542c57	-0.0518001
125	0x3c0d08bd	0.00860804
126	0x3da5d362	0.08096959
127	0xbd1d5c64	-0.03841819
128	0x3d8b3d3a	0.067987874
129	0x3da4813f	0.08032464
130	0x3d69fd15	0.057126123
131	0xbd39d68f	-0.045370635
132	0x3c503af8	0.012709372
133	0xbd897d2a	-0.06713326
134	0x3d931c15	0.071830906
135	0xbda3c80e	-0.07997142
136	0x3d8545db	0.065074645
137	0xbd4406ac	-0.047857925
138	0x3d8a3b14	0.067495495
139	0xbcbffb34	-0.023435213
140	0x3d9b5938	0.075853765
141	0xbdb3fa5a	-0.08787985
142	0x3d29c775	0.041449983
143	0xbd62c8df	-0.055367347
144	0x3d6b7fb6	0.05749484
145	0xbd398de3	-0.04530133
146	0xbd160b68	-0.03663197
147	0x3c24f88f	0.010069027
148	0x3c30f028	0.010799445
149	0xbdae735b	-0.08518096
150	0x3d0bd32c	0.034136936
151	0xbdbbf8e8	-0.091783345
152	0x3c67f5a2	0.0141576845
153	0xbc420f11	-0.011844412
154	0x3d88f6a9	0.06687672
155	0xbd0de19c	-0.034638986
156	0xbd4c9304	-0.049944893
157	0x3c1d3835	0.00959592
158	0xbd5aebe3	-0.053447615
159	0x3c6b24f3	0.014352071
160	0xbd825c69	-0.06365282
161	0xbd9bf739	-0.07615513
162	0x3d66bfb4	0.056335166
163	0xbcb197e0	-0.021678865
164	0x3d54013f	0.051759
165	0xbdaca267	-0.08429413
166	0x3c526eba	0.012843782
167	0x3c30a9e3	0.010782692
168	0xbd35f475	-0.044422586
169	0xbb400777	-0.0029301324
170	0xbdaa54a5	-0.08316926
171	0x3d87945f	0.066200964
172	0xbd246c74	-0.04014249
173	0xbd8328c0	-0.06404257
174	0x3d301057	0.042984333
175	0xbd85746d	-0.06516347
176	0x3ca69946	0.020336758
177	0x3c859f58	0.016311333
178	0xbd8235e6	-0.063579366
179	0xbd0bf870	-0.034172475
180	0xbd1ed029	-0.038772736
181	0x3c4c1cce	0.012458039
182	0x3d65982e	0.056053333
183	0x3b8f1230	0.004366182
184	0xbc98c0b3	-0.018646574
185	0x3d37b18e	0.044847064
186	0x3caa42ec	0.020783864
187	0x3cc02df8	0.02345942
188	0xbd516fe5	-0.0511321
189	0xbda91daf	-0.08257615
190	0x3c92a1c8	0.017899409
191	0xbd93e94f	-0.072222345
192	0x3d9a996e	0.07548796
193	0x3d237253	0.03990395
194	0xbd0402f1	-0.032229368
195	0xbdb35a67	-0.08757477
196	0xbbf95594	-0.0076090787
197	0x3d9ad454	0.075600296
198	0xbd935474	-0.071938425
199	0x3d1c7d62	0.038205512
200	0xbab21058	-0.0013585193
201	0x3cb4e8a5	0.02208359
202	0x3d559513	0.05214412
203	0xbd038da5	-0.032117505
204	0x3a870ce5	0.0010303525
205	0xbd72b126	-0.059250973
206	0x3bf41fdd	0.0074500875
207	0x3c66f3de	0.014096228
208	0xbd11c411	-0.035587374
209	0x3d8250f7	0.06363099
210	0x3d8c26af	0.06843316
211	0x3d627fca	0.05529765
212	0xbd94ff7a	-0.07275291
213	0x3d651ef8	0.055937737
214	0xbd65a1db	-0.05606256
215	0x3d251404	0.04030229
216	0x3bca71fa	0.006178138
217	0x3b3e6f1f	0.0029057933
218	0x3d0db17f	0.0345931
219	0x3d71e658	0.059057564
220	0x3d6d6298	0.057955354
221	0x3d87f89e	0.06639217
222	0xbc54158c	-0.01294459
223	0xbdb3b042	-0.08773853
224	0xbd72ba09	-0.05925945
225	0x3b7944da	0.0038035423
226	0x3d53cb06	0.05170729
227	0xbd555744	-0.052085176
228	0xbd19e711	-0.037573878
229	0xbd86cedc	-0.06582424
230	0xbb98481f	-0.0046472694
231	0xb9ea26db	-0.00044660908
232	0xbaa9cb9f	-0.001295436
233	0xbda36f5f	-0.07980227
234	0x39e89a4f	0.00044365457
235	0xbdc03935	-0.093859114
236	0xbc55a45a	-0.013039673
237	0x3d47026c	0.048586294
238	0xbd83851f	-0.06421875
239	0xbcfa1d64	-0.030531593
240	0x3ccf51e7	0.025307609
241	0x39f7c7b8	0.00047260313
242	0xbd960256	-0.07324664
243	0xbac1cc02	-0.001478553
244	0xbdafda9d	-0.08586619
245	0xbd1588dc	-0.036507472
246	0x3d1d90e8	0.03846827
247	0xbd99c9c1	-0.07509185
248	0x3d0830c9	0.03324965
249	0xbd901438	-0.070351064
250	0x3d1b4c29	0.03791443
251	0xbd9beea0	-0.076138735
252	0xbd237091	-0.039902274
253	0x3da2c382	0.079474464
254	0xbda3bb55	-0.07994715
255	0x3d5f25c5	0.05447938

fc2.bias f4 [128]
0	0x3de9905e	0.11404489
1	0xbdbd94e8	-0.09256917
2	0x3c235932	0.009969996
3	0xbd5df6c9	-0.05419043
4	0x3d48c98b	0.04902033
5	0xbdc3a89f	-0.09553646
6	0xbd3d295f	-0.046182033
7	0xbd071941	-0.03298307
8	0xbc1c06fa	-0.009523148
9	0xbd3bc844	-0.045845285
10	0x3dda8d26	0.10671453
11	0x3d043c77	0.032284226
12	0x3da69bdb	0.08135196
13	0xbce0e95d	-0.027455026
14	0xbd92893e	-0.07155083
15	0xbce8e662	-0.028430168
16	0xbc8b6d69	-0.017019944
17	0xbd53a1ad	-0.051667858
18	0xbd183d27	-0.037167694
19	0x3d4106a5	0.047125477
20	0xbdb01ebe	-0.085996136
21	0xbd956ce0	-0.07296157
22	0xbd6a4bd7	-0.057201233
23	0x3d962998	0.07332152
24	0x3e14f255	0.14545567
25	0xbe82415d	-0.25440493
26	0x3d23b6c7	0.039969232
27	0x3d2043cf	0.039127167
28	0x3c69ca17	0.014269373
29	0x3c8703b4	0.016481258
30	0x3cc19f50	0.023635536
31	0x3d83c7eb	0.06434616
32	0x3b4d9540	0.0031369478
33	0xbdc7e4c6	-0.09760432
34	0x3d33b376	0.04387232
35	0x3d626d90	0.05528027
36	0x3dce4811	0.10072339
37	0x3ccdc531	0.025118442
38	0x3d88f24c	0.066868395
39	0x3d250eef	0.040297445
40	0xbc265d01	-0.01015401
41	0x3da70e99	0.08157081
42	0x3deb71a4	0.114962846
43	0xbd90b801	-0.07066346
44	0x3c472f4c	0.012157273
45	0xbae0ddaf	-0.0017155911
46	0xbdb5573d	-0.0885453
47	0x3c100a83	0.008791569
48	0xbd9fd6e4	-0.07804659
49	0xbc5277d7	-0.012845955
50	0x3d98ada9	0.07454998
51	0x3da0af9c	0.07845995
52	0xbae056a3	-0.0017115664
53	0xbd38a8d0	-0.045082867
54	0xbdd2e220	-0.10297036
55	0x3d2bcf52	0.041945763
56	0xbd98e4c5	-0.07465509
57	0x3cd7f6a7	0.02636273
58	0x3bada104	0.0052987356
59	0xbd39634e	-0.04526072
60	0xbba399c1	-0.004992694
61	0x3d6cba74	0.057795003
62	0x3da35761	0.079756506
63	0xbccc128b	-0.024911186
64	0x3d60a9d6	0.05484947
65	0xbd8990e0	-0.06717086
66	0x3d6de43e	0.058078997
67	0x3bf95e66	0.00761013
68	0x3d4fe923	0.050759446
69	0xbc4bb1c7	-0.012432522
70	0xbda3b195	-0.079928555
71	0xbd990523	-0.07471683
72	0x3db55ac7	0.08855205
73	0x3ca4d2a0	0.020119965
74	0xbd84b201	-0.06479264
75	0x3e05bd5d	0.13060518
76	0x3d407119	0.04698286
77	0x3d94fb27	0.07274466
78	0xbd45128b	-0.048113387
79	0x3d52ddd9	0.0514811
80	0xbe5d19b0	-0.2159183
81	0xbd9691b0	-0.073520064
82	0x3d8dc284	0.069218665
83	0xbcade171	-0.021225663
84	0xbd6ab907	-0.057305362
85	0xbd1a50e4	-0.0376748
86	0x3e1ce364	0.15321118
87	0x3dfb9022	0.122833505
88	0xbdc57503	-0.09641459
89	0xbd1d54bc	-0.038410887
90	0x3cfc0e00	0.030768394
91	0x3d912a33	0.07088127
92	0x3caed823	0.021343296
93	0xbdb36024	-0.08758572
94	0xbb9d79b7	-0.0048057693
95	0xbd47608e	-0.048676066
96	0xbd502496	-0.05081614
97	0x3cb73de9	0.022368388
98	0x3db2c896	0.08729665
99	0xbc9723b9	-0.018449651
100	0x3d9bd10f	0.07608234
101	0xbd95a4d2	-0.073068276
102	0xbc1bcfea	-0.00951002
103	0xbd8ab0b4	-0.06771985
104	0xbcba6199	-0.022751616
105	0x3d46ef4a	0.048568048
106	0x3d3a443c	0.04547523
107	0x3d7de8ae	0.06198948
108	0xbd3239db	-0.043512207
109	0x3c13aa53	0.009012776
110	0xbd7bf595	-0.061513502
111	0xbdc48bdb	-0.09596988
112	0xbd9897ba	-0.074508145
113	0xbdc87d6c	-0.09789547
114	0x3d0a796a	0.033807196
115	0xbd2e3e30	-0.042539775
116	0xbab32097	-0.0013666329
117	0x3d292eb8	0.04130432
118	0x3d7b1a49	0.061304364
119	0x3df476fe	0.119367585
120	0xbd8bdcfd	-0.068292595
121	0xbd024d4f	-0.03181201
122	0x3d238205	0.03991892
123	0xbcc5c1a7	-0.024140192
124	0x3d26ca6a	0.04072038
125	0xbca6ed39	-0.020376788
126	0x3b9f582a	0.004862805
127	0xbd841859	-0.064499564

last_fc.weight f4 [6, 128]
0	0x3da38e46	0.07986121
1	0xbda03549	-0.07822663
2	0xbd048444	-0.0323527
3	0x3da8737a	0.082251504
4	0x3cb16024	0.021652289
5	0x3983c51e	0.0002513313
6	0x3bb9f1d8	0.005674582
7	0x3aa7827d	0.0012779977
8	0xbd96858c	-0.07349691
9	0x3d2e4dc2	0.042554624
10	0xbc148f34	-0.009067345
11	0xbd5811eb	-0.052751463
12	0xbd960bc8	-0.07326466
13	0xbd9d8cd6	-0.07692878
14	0xbd7c7286	-0.061632656
15	0x3d45fbc2	0.048335798
16	0x3d9084b4	0.07056561
17	0xbd9976f1	-0.074933894
18	0xbd04b311	-0.032397334
19	0xbced6122	-0.02897698
20	0x3da54ff8	0.080718935
21	0xbd996397	-0.074896984
22	0x3c9fb749	0.019496577
23	0xbd97f8f6	-0.074205324
24	0x3db55a48	0.088551104
25	0xbcf9162c	-0.03040608
26	0x3d43cf68	0.04780522
27	0xbbfe1d54	-0.007754961
28	0x3cc6ad05	0.024252424
29	0x3cc589b8	0.024113521
30	0xbd95c02a	-0.07312043
31	0x3d8a0700	0.067396164
32	0xbdb1da95	-0.08684269
33	0xbd026905	-0.031838436
34	0x3d1d227d	0.03836297
35	0x3da16143	0.07879879
36	0xbc444d8e	-0.011981381
37	0x3d922041	0.07135058
38	0xbd2bf872	-0.041984983
39	0x3d00b40a	0.0314217
40	0x3d78ed62	0.06077326
41	0x3d871ec9	0.06597669
42	0x3c9021d3	0.017594254
43	0xbc7807a7	-0.015138543
44	0xbc589069	-0.013218024
45	0x3d7bea97	0.06150302
46	0xbd834c90	-0.064110875
47	0x3d2090b7	0.03920051
48	0xbc7428ec	-0.014902335
49	0xbcd1d8b9	-0.025616037
50	0x3dac7422	0.08420588
51	0x3ca228b1	0.019794794
52	0x3d280bfd	0.041027058
53	0xbd47d048	-0.048782617
54	0x3c368be1	0.011141748
55	0x3d5e6184	0.054292217
56	0xbd984803	-0.0743561
57	0x3d29eb9f	0.04148447
58	0x3c2f678c	0.01070584
59	0x3c2dc920	0.010607034
60	0xbcf50390	-0.029908925
61	0x3d7febba	0.062480666
62	0x3d0f1800	0.034934998
63	0x3b7873db	0.0037910852
64	0x3d5a3d64	0.053281203
65	0xbcffb50c	-0.03121426
66	0xbcdee689	-0.027209537
67	0x3d018583	0.031621467
68	0x3d386c55	0.04502519
69	0x3c401827	0.011724508
70	0x3dafd22e	0.085850105
71	0xbce4a3a6	-0.027910065
72	0x3dc02392	0.093817845
73	0x3d71aa0a	0.059000053
74	0xbd21e324	-0.03952326
75	0x3cee5c86	0.029096853
76	0x3d8f39a1	0.06993414
77	0x3ccf1622	0.025279108
78	0xbd4244e8	-0.047428995
79	0x3d9bf03f	0.07614183
80	0x3e34bc6f	0.17650007
81	0xbd96478f	-0.073378675
82	0x3d92815a	0.07153578
83	0xbd858e6e	-0.06521307
84	0xbb6714e8	-0.0035260264
85	0x3cd6f8f6	0.02624176
86	0xbc17b505	-0.009259467
87	0x3c8ea67a	0.017413367
88	0x3d913335	0.07089845
89	0x3d079189	0.033097778
90	0xbc204464	-0.009781931
91	0x3d70fc4a	0.05883435
92	0xbcee48e2	-0.029087488
93	0xbcc2dc53	-0.0237867
94	0xbd30b3da	-0.04314027
95	0xbd6b165a	-0.057394363
96	0x3c524b82	0.012835385
97	0x3d847047	0.06466728
98	0x3ce1fb7c	0.027585737
99	0xbda727d2	-0.08161892
100	0x3cc8de4a	0.024520058
101	0xbd1054b8	-0.035237044
102	0xbd5b5163	-0.053544413
103	0x3db11311	0.08646215
104	0xbd86e164	-0.065859586
105	0xbd2a373b	-0.041556578
106	0x3d283dfd	0.04107474
107	0x3bd6b8d9	0.0065527973
108	0x3d3243e6	0.043521784
109	0xbc90d05f	-0.017677484
110	0xbcd427cf	-0.025897888
111	0x3dddb4e3	0.10825517
112	0xbbd4c785	-0.006493511
113	0xbf1eb1f4	-0.61990285
114	0x3da46f97	0.080290966
115	0xbc688fe4	-0.014194462
116	0xbd882b1f	-0.0664885
117	0x3d4d4c8e	0.050121836
118	0x3d954b5a	0.07289763
119	0x3cdcb45b	0.026941469
120	0x3d854440	0.06507158
121	0x3d49df4a	0.04928521
122	0x3cb374a8	0.021906212
123	0x3c28a36b	0.010292868
124	0xbcad8ac4	-0.021184333
125	0x3d2c6b9e	0.04209482
126	0x3d522d6e	0.051312856
127	0xbd219fdb	-0.03945909
128	0x3da9bc97	0.08287924
129	0xbd1e5027	-0.038650658
130	0xbc536fac	-0.012905043
131	0x3d96bcb1	0.07360209
132	0xbd3953ac	-0.04524581
133	0xbd2af28a	-0.04173521
134	0xbd07c393	-0.0331455
135	0x3d9cdc5f	0.0765922
136	0x3ca93ece	0.02065983
137	0x3c6cbfd9	0.014450037
138	0x3d5150ac	0.051102325
139	0xbc455a6c	-0.012045484
140	0x3dcdc614	0.10047546
141	0xbd34192a	-0.04396931
142	0x3c6ea92a	0.014566699
143	0x3d95f038	0.07321209
144	0xbd478791	-0.04871327
145	0x3d8b2b81	0.06795407
146	0xbd800ec9	-0.0625282
147	0xbd48198b	-0.048852485
148	0x3cb2d391	0.021829398
149	0xb9fa3a37	-0.0004772709
150	0xbd8fb392	-0.07016672
151	0xbd6f562a	-0.05843178
152	0x3dc778af	0.097398154
153	0xbca66333	-0.020310974
154	0x3d9cc151	0.0765406
155	0x3d204644	0.03912951
156	0xbc9689b2	-0.018376205
157	0xbd879f0c	-0.06622133
158	0x3b544adf	0.003239326
159	0xbd4c9e48	-0.049955636
160	0xbd272abb	-0.040812235
161	0x3c946213	0.018113172
162	0x3dabdab1	0.083913215
163	0xbd76b509	-0.060231242
164	0xbd77a6d5	-0.060461838
165	0x3d9eae36	0.07748072
166	0x3da1cd2f	0.07900464
167	0xbd056ced	-0.032574583
168	0x3b9cfe10	0.004791029
169	0x3c95c603	0.018282896
170	0x3d81461e	0.06312202
171	0x3d27a456	0.040928207
172	0xbca47c82	-0.020078901
173	0x3d855b45	0.06511549
174	0xbd3435a4	-0.04399647
175	0x3d44844c	0.04797773
176	0x3c81f693	0.015864646
177	0xbd4d3d3b	-0.050107222
178	0xbca5b9c8	-0.020230189
179	0x3d8b46bb	0.068006
180	0xbd181029	-0.037124787
181	0xbd9e5c68	-0.07732469
182	0x3d94a747	0.07258468
183	0x3d0469bc	0.0323274
184	0xbdaf33a4	-0.085547715
185	0x3d283b0a	0.04107193
186	0x3cb4a5de	0.022051748
187	0x3d4a4cc4	0.049389616
188	0x3cd4e923	0.025990075
189	0xbc156d6a	-0.009120325
190	0xbd7de100	-0.061982155
191	0x3d9f79ce	0.07786904
192	0xbc8a1786	-0.01685692
193	0xbc60e03a	-0.013725335
194	0xbcc5005b	-0.024048021
195	0xbcc81b6c	-0.024427138
196	0x3d48641c	0.048923597
197	0x3d2af6f3	0.041739415
198	0xbd1c4d7b	-0.03815983
199	0x3d04095f	0.0322355
200	0xbcb82bf0	-0.022481889
201	0x3d43e0fd	0.047821987
202	0x3dae48a0	0.08509946
203	0x3c794271	0.015213595
204	0xbd823187	-0.06357103
205	0x3c8c3fcb	0.017120263
206	0x3d929e74	0.07159129
207	0x3cbb8316	0.022889655
208	0x3e2685fa	0.16262046
209	0xbd967262	-0.073460355
210	0xbcb953f0	-0.022623032
211	0xbd6393b2	-0.055560775
212	0x3d407cf2	0.046994157
213	0xbd550724	-0.052008763
214	0x3daa8b34	0.08327332
215	0xbbbf324e	-0.005834854
216	0x3d11d118	0.035599798
217	0x3d03363d	0.032034148
218	0xbc864752	-0.01639143
219	0x3d6d6962	0.05796183
220	0x3d3353b8	0.043781012
221	0x3c9508e1	0.01819271
222	0xbcb7eea0	-0.022452652
223	0xbcc5657f	-0.024096249
224	0xbd1fcca7	-0.03901353
225	0x3c6052ac	0.0136915855
226	0x3cd587d0	0.026065737
227	0xbc3c4f42	-0.011493506
228	0xbc764535	-0.015031149
229	0x3b8a6cb4	0.004224384
230	0xbcf99cdc	-0.030470304
231	0x3c32899d	0.010897067
232	0x3d800e6b	0.0625275
233	0xbc9c1401	-0.019052507
234	0x3d309579	0.0431113
235	0x3d9658c0	0.073411465
236	0xbc4b9f58	-0.012428127
237	0x3d625aac	0.055262253
238	0xbcfbf1d1	-0.030754955
239	0xbd9e0d1d	-0.07717345
240	0x3cf3ce35	0.029761413
241	0xbf1d5def	-0.61471456
242	0xbd90d92e	-0.07072674
243	0x3c5fa3a6	0.013649857
244	0x3d3125a3	0.043248784
245	0x3d8ec6a2	0.0697148
246	0xbd21cf98	-0.039504617
247	0x3d76b394	0.060229853
248	0xbb932e5e	-0.0044916114
249	0x3c8f43ef	0.017488448
250	0xbc4d9c9f	-0.012549548
251	0x3d250f1c	0.040297613
252	0x3c5eed67	0.013606406
253	0xbc507c93	-0.012725013
254	0x3d7616aa	0.060080208
255	0xbd1161cb	-0.035493653

last_fc.bias f4 [6]
0	0x3e159e42	0.14611152
1	0x3e0c832c	0.13721913
2	0x3cab9379	0.020944344
3	0x3dc0403f	0.09387254
4	0x3db77f32	0.089598075
5	0x3d2a1c58	0.041530937
