data/Fanuc_success/Behavior_cloning/BC_policy_GIC_CEV_300_aug_45_itr_39.pt (torch, 141991 bytes, 8 tensors)

fc0.weight f4 [128, 6]
0.2793787 -0.31749508 -0.1510673 0.20287736 -0.041453373 -0.09252432 1.3485018 -0.35466823
0.53397876 -0.12393343 -0.033755623 0.056957334 0.37070373 -0.59398824 0.7481371 -0.09450085
-0.3233047 0.14359833 -0.0074221985 -0.2091483 0.6118788 -0.0121454755 -0.0043263845 0.0700539
0.14407833 0.02234068 -0.25520745 0.00050740206 -0.018998278 -0.066183895 -0.11043447 0.019997187
0.23586231 0.1277705 0.00618687 0.2680647 0.44276467 -0.5785395 -0.5675794 -0.37564683
0.60959655 -0.17957355 -0.32378036 0.20089178 -0.10685753 0.06417397 0.16721304 0.14804435
0.005526239 0.04256292 -0.046661466 -0.04802278 0.5361885 0.21691607 -3.7092788 -0.7925103
0.4175544 0.20235938 -0.32185698 0.38150778 0.1606761 0.34124586 0.2080454 0.08791102
0.36288407 -0.29748845 0.1570119 -0.1498733 0.43623897 -0.034925863 -0.2400035 0.043885626
0.32258865 0.35721436 0.25361758 0.3896996 -0.2818593 -0.32614177 0.6478143 -0.39942977
0.3487766 -0.11265224 0.12936693 0.28052157 -0.17735669 0.33646572 -0.52194786 0.2150013
0.26530543 0.22616981 0.24634768 0.24043903 -0.21647866 0.17304502 0.0541357 0.27522618
0.3634326 -0.77590096 0.55577314 -0.111932665 -0.3597574 0.136392 -5.9654784 -0.21958585
0.47230664 0.12673558 -0.025586726 0.22306943 -0.54074246 -0.013532028 -0.2747207 0.07815888
-0.1255838 -0.42669246 0.0966355 -0.4924901 0.72515285 0.24987105 -0.0993676 0.16066985
0.33185378 0.48713154 0.34153667 0.32622162 -0.15103886 0.3561159 -0.0291784 -0.26020035
0.964678 -0.2617188 -0.08057668 -0.10075297 -0.26838252 -0.5980136 -0.74566895 -0.3128222
0.4557437 -0.42090604 -3.828726 -0.6035864 0.35132968 0.33287963 0.38597593 -0.026932389
0.604668 -0.8153194 0.82007295 0.051493805 0.12128577 0.19767408 0.32272607 -0.83495283
0.4423835 0.18420222 0.017481728 0.09757643 0.4830112 -0.29303426 0.24331255 -0.27270257
-0.4245697 0.028215807 -5.831785 -0.67412794 0.25159883 0.066048436 -0.048136763 -0.65365714
-0.6804868 -0.22048904 -0.29670045 -0.13468632 0.23862062 -0.052753378 -2.1585355 -0.43145442
0.9028103 -0.106648885 0.5933408 0.014141806 -0.019340018 -0.35160255 0.3620739 0.07395032
-0.23089236 0.08781224 0.4435561 0.71393985 -0.6532841 0.02839892 -0.7141079 -0.4699767
0.0024917498 -0.23652065 -0.07124288 -0.030759338 0.041463107 -0.29881582 0.40556112 0.23927486
0.10357902 -0.39120564 0.51502055 0.5099633 -1.7281133 0.421598 0.622576 0.286632
0.43750933 0.30094188 -0.7586871 0.20262805 0.09345535 0.26004925 0.0881085 0.296155
-0.16193533 -0.36831012 0.35539445 0.039467033 0.090943225 -0.048233952 0.5034119 -0.39210227
0.7747498 0.23934978 -0.45305696 0.40318018 0.36971387 -0.8074552 0.08951407 0.12922996
0.04321772 -0.08656733 0.73408973 0.45319405 -0.24409892 0.5900213 -0.167847 -0.5892691
-0.092765905 0.32214618 -0.3185114 -0.23151001 0.016447697 0.23508614 -0.3724148 -0.13812275
-0.4560795 0.24932846 0.028545095 -0.2716992 0.39191568 -0.6620062 0.52782613 -0.3396428
00000000: ba0a 8f3e b78e a2be 63b1 1abe 15bf 4f3e
00000010: 03cb 29bd 647d bdbd b59b ac3f 1397 b5be
00000020: d5b2 083f cfd0 fdbd 5643 0abd 184c 693d
00000030: e1cc bd3e 9d0f 18bf ea85 3f3f a989 c1bd
00000040: 3288 a5be 710b 133e ea35 f3bb f92a 56be
00000050: 17a4 1c3f d1fd 46bc 58c4 8dbb 6b78 8f3d
00000060: 4589 133e cd03 b73c 8daa 82be 2d03 053a
00000070: 47a2 9bbc 6c8b 87bd 782b e2bd 24d1 a33c
00000080: e485 713e 45d6 023e 3abb ca3b c73f 893e
00000090: 0db2 e23e 2a1b 14bf e24c 11bf c854 c0be
000000a0: 850e 1c3f 21e2 37be 8ac6 a5be 93b6 4d3e
000000b0: 1fd8 dabd a46d 833d e539 2b3e f098 173e
000000c0: 7415 b53b 7556 2e3d 1820 3fbd 89b3 44bd
000000d0: a643 093f 3f1f 5e3e d364 6dc0 f4e1 4abf
000000e0: b1c9 d53e 4c37 4f3e 70ca a4be fd54 c33e
000000f0: 4788 243e c7b7 ae3e da09 553e b10a b43d
00000100: f1cb b93e 6850 98be bac7 203e 6378 19be
00000110: b75a df3e 6c0e 0fbd 7ac3 75be 6ac1 333d
00000120: 572a a53e cde4 b63e 2ada 813e b586 c73e
00000130: dd4f 90be 0efc a6be 28d7 253f 0f82 ccbe
00000140: d992 b23e 38b6 e6bd c478 043e 86a0 8f3e
00000150: fe9c 35be 3c45 ac3e 609e 05bf 4d29 5c3e
00000160: 1dd6 873e 0f99 673e 9142 7c3e a635 763e
00000170: 95ac 5dbe b732 313e 65bd 5d3d 72ea 8c3e
00000180: d613 ba3e 72a1 46bf 2647 0e3f f43c e5bd
00000190: 1f32 b8be 58aa 0b3e 33e5 bec0 1ddb 60be
000001a0: 2dd2 f13e f9c6 013e 419b d1bc 506c 643e
000001b0: 196e 0abf 70b5 5dbc 31a8 8cbe c311 a03d
000001c0: 0a99 00be 6f77 dabe d5e8 c53d aa27 fcbe
000001d0: 9ea3 393f 32de 7f3e 3e81 cbbd a386 243e
000001e0: bde8 a93e 4e69 f93e e5dd ae3e 8506 a73e
000001f0: eea9 1abe d354 b63e 8a07 efbc fb38 85be
00000200: 23f5 763f 0200 86be 6305 a5bd 9357 cebd
00000210: 6f69 89be 6b17 19bf 29e4 3ebf 3b2a a0be
00000220: 3d57 e93e ff80 d7be d909 75c0 a384 1abf
00000230: 7ce1 b33e 336f aa3e a39e c53e 50a1 dcbc
00000240: 86cb 1a3f c6b8 50bf 4df0 513f 2beb 523d
00000250: ac64 f83d 136b 4a3e 5a3c a53e 78bf 55bf
00000260: 1780 e23e 829f 3c3e d735 8f3c 27d6 c73d
00000270: 3e4d f73e 9608 96be ed26 793e ac9f 8bbe
00000280: 3361 d9be d624 e73c fc9d bac0 a693 2cbf
00000290: 90d1 803e 6744 873d 0e2b 45bd 1356 27bf
000002a0: 6234 2ebf e1c7 61be 1fe9 97be 36eb 09be
000002b0: f758 743e ed13 58bd 7225 0ac0 98e7 dcbe
000002c0: 931e 673f bb6a dabd 2fe5 173f 09b3 673c
000002d0: f56e 9ebc 4005 b4be c061 b93e 4473 973d
000002e0: 0c6f 6cbe e7d6 b33d c919 e33e c3c4 363f
000002f0: a03d 27bf daa4 e83c c6cf 36bf c9a0 f0be
00000300: a04c 233b 7832 72be c9e7 91bd 02fb fbbc
00000310: 38d5 293d 63fe 98be b5a5 cf3e 7804 753e
00000320: 3d21 d43d 1b4c c8be 63d8 033f f48c 023f
00000330: d132 ddbf b1db d73e 2461 1f3f 6ec1 923e
00000340: 3901 e03e 0e15 9a3e 5139 42bf ba7d 4f3e
00000350: 8565 bf3d 2d25 853e 3b72 b43d a1a1 973e
00000360: 60d2 25be 2593 bcbe 43f6 b53e 2fa8 213d
00000370: 7140 ba3d f790 45bd 9adf 003f a1c1 c8be
00000380: 0156 463f 1c18 753e 15f7 e7be a26d ce3e
00000390: 234b bd3e 62b5 4ebf 2753 b73d dc54 043e
000003a0: 1005 313d 364a b1bd 4eed 3b3f 0d09 e83e
000003b0: 11f5 79be a30b 173f 15e0 2bbe 57da 16bf
000003c0: 0dfc bdbd 58f0 a43e ed13 a3be f610 6dbe
000003d0: 52bd 863c 6cba 703e 27ad bebe 0d70 0dbe
000003e0: 4183 e9be f64f 7f3e 67d7 e93c 281c 8bbe
000003f0: 2ca9 c83e 3d79 29bf 9d1f 073f a9e5 adbe

fc0.bias f4 [128]
-0.33883452 0.06644139 -0.03343213 -0.019137843 -0.24529457 -0.24923635 -0.09994232 0.21060722
-0.12005295 -0.035874043 -0.27008212 0.12988655 -0.39491147 0.2026897 0.26041242 -0.37761676
-0.033500973 -0.020809425 0.009094526 -0.028120995 0.072143495 -0.03546974 -0.18985453 -0.028396951
-0.03146276 -0.032100078 0.37390906 -0.027754527 0.1639331 -0.043657992 -0.23794757 0.14496498
-0.34236324 0.008512655 -0.0745459 0.03404387 -0.28946903 -0.027302764 -0.022571152 0.038248207
0.2631322 0.28892803 -0.030040057 0.23119698 0.32144606 -0.29541534 -0.02070067 0.01840254
-0.008118462 -0.32403204 0.048415054 0.05345753 0.0038751026 -0.35114285 -0.30587393 -0.3393943
-0.08797302 -0.36864504 0.14833473 0.28626525 -0.23132344 -0.019009514 0.13699341 -0.27750036
0.1940962 0.008007288 -0.03617373 0.06502904 0.17469071 0.2272436 -0.3879732 0.034765393
0.15794429 -0.34584066 -0.03763506 0.020661414 0.2810439 -0.012132812 0.020029495 0.10560657
0.13065633 -0.3245948 -0.03574551 0.2291011 0.35180685 0.22641766 0.11211557 0.20810564
0.00060200226 -0.07263892 0.061737422 0.14548479 -0.07262419 0.052473124 -0.023652682 0.09328511
-0.36760953 -0.017641198 0.24953389 -0.1247516 -0.0056401845 0.13839431 -0.00080533803 0.059132107
-0.03733126 0.012182734 0.19342163 -0.023227846 -0.20466416 0.2586686 -0.04366053 0.27126905
-0.2902718 -0.11961827 -0.029960064 -0.024361717 0.11548768 0.27922764 0.021015087 0.14090076
0.16146922 -0.031664383 -0.21276955 -0.04249866 0.18969569 -0.078453906 -0.014353242 0.053787638
00000000: b87b adbe 6c12 883d 21f0 08bd f7c6 9cbc
00000010: 802e 7bbe d037 7fbe 8fae ccbd 6ba9 573e
00000020: 52de f5bd a9f0 12bd 3448 8abe fb00 053e
00000030: d631 cabe e48d 4f3e c754 853e fc56 c1be
00000040: 5138 09bd 8778 aabc 3501 153c 005e e6bc
00000050: f8bf 933d b848 11bd 3a69 42be b9a0 e8bc
00000060: 18df 00bd 5f7b 03bd 0271 bf3e 765d e3bc
00000070: 14de 273e b9d2 32bd 87a8 73be b371 143e
00000080: 3c4a afbe aa78 0b3c 85ab 98bd 9671 0b3d
00000090: 4935 94be 0caa dfbc 23e7 b8bc 27aa 1c3d
000000a0: 44b9 863e 60ee 933e 9116 f6bc e7be 6c3e
000000b0: 9494 a43e ae40 97be 7494 a9bc ecc0 963c
000000c0: 4c03 05bc 87e7 a5be dd4e 463d 48f6 5a3d
000000d0: 6ff5 7d3b ffc8 b3be 829b 9cbe 17c5 adbe
000000e0: 332b b4bd 0bbf bcbe 0fe5 173e 5c91 923e
000000f0: 0de0 6cbe d7b9 9bbc 0048 0c3e 8714 8ebe
00000100: 27c1 463e 0031 033c e82a 14bd f22d 853d
00000110: 1fe2 323e 8cb2 683e 6ca4 c6be 2866 0e3d
00000120: 26bc 213e 0712 b1be 3827 1abd 2042 a93c
00000130: fce4 8f3e b4c8 46bc e514 a43c 4248 d83d
00000140: c6ca 053e 4a31 a6be e269 12bd 7b99 6a3e
00000150: 0720 b43e 08da 673e d99c e53d a519 553e
00000160: b0cf 1d3a b7c3 94bd 61e0 7c3d f7f9 143e
00000170: febb 94bd 0fee 563d 45c3 c1bc 440c bf3d
00000180: 5137 bcbe 4684 90bc d085 7f3e c47d ffbd
00000190: 4cd1 b8bb 3db7 0d3e 521d 53ba 8234 723d
000001a0: aae8 18bd 179a 473c 5210 463e 5348 bebc
000001b0: 7b93 51be 3670 843e 62d5 32bd c7e3 8a3e
000001c0: 819e 94be 6cfa f4bd cf6e f5bc 3992 c7bc
000001d0: ce84 ec3d edf6 8e3e d527 ac3c 4a48 103e
000001e0: 3058 253e 83b2 01bd 43e0 59be 1313 2ebd
000001f0: 963f 423e 71ac a0bd dc29 6bbc 6d50 5c3d

fc1.weight f4 [128, 128]
-0.065772325 -0.17841448 0.11765868 0.27601358 -0.07061694 -0.0693642 0.15227251 0.054320768
-0.16916959 0.22235604 0.06327801 -0.11781549 -0.078384034 -0.08516431 0.01935671 -0.020702079
-0.09184867 0.053664252 -0.5038341 0.11168666 0.16407402 -0.1565293 0.3368981 -0.06668788
-0.076544255 -0.40280923 -0.13017185 0.393419 -0.023059776 0.14448881 0.007824689 -0.046714105
0.02225381 -0.09166212 0.5221207 0.08985548 0.08751657 0.1608058 -0.38383 -0.2770946
-0.031892776 -0.06736549 0.00767237 -0.0068344492 -0.05720789 0.0048401966 0.14569013 -0.044718176
-0.46870196 -0.0012406452 -0.03785429 0.016292496 0.009816649 -0.0053286683 -0.0047171144 0.066925116
0.23522869 -0.017159825 -0.06348899 0.065170124 0.042307638 -0.3094848 0.09483168 0.08196411
0.0045125135 0.05565255 -0.07499499 -0.1681574 -0.027691118 0.015706336 -0.0842684 0.047559198
0.054996036 0.044053085 -0.19799536 0.29601812 0.019787688 -0.18302776 -0.5743721 0.03291058
-0.033823084 -0.03900439 -0.11683047 -0.032395106 0.027501578 0.01904304 -0.09145392 -0.07418212
0.080832995 -0.13499835 -0.08707269 0.032948516 0.037896644 0.30209032 -0.23031412 0.035965458
0.009674061 -0.10049578 0.087364964 -0.034339514 -0.16361605 0.0840751 -0.14705713 -0.011757076
0.21777803 0.12009591 0.007998878 -0.038761567 0.5945964 0.023542847 -0.35110283 -0.01985177
0.018236699 -0.036021505 0.1829026 0.23218141 0.09936856 -0.10508135 -0.019452156 0.037609242
-0.06526908 0.2834509 0.19344278 -0.0766221 0.025404995 0.05556251 0.27657047 -0.32712346
-0.026423313 -0.062790506 0.10794637 -0.069199 0.08432886 -0.038388696 -0.21708597 0.044860657
-0.13250959 1.5054957 -0.055177584 0.002441431 0.022207897 0.090227164 0.0874135 0.07958773
0.21709393 1.2431481 0.071205564 0.09698377 0.014113652 0.4693125 0.050657894 0.7081242
0.25649413 -0.053783096 0.05374426 1.8157043 0.011652619 0.83751595 0.013026832 -0.059898257
-0.07575089 -0.033704955 -0.41758 0.016488254 0.05395393 0.051416498 -0.28176397 -0.023845691
0.0085493345 0.03410475 0.21177977 0.04314436 -0.026915377 -0.04116431 -0.24283563 -0.06549672
-0.018312214 0.047578566 0.07613993 0.001625187 0.08448708 0.034419794 0.061112676 0.07475108
-0.27229938 -0.012351713 -0.029038051 0.09095308 -0.06347293 -0.058639754 0.0046273945 -0.0068302867
0.064029224 0.042445492 0.42742482 0.08920798 -0.04635731 -0.049485434 -0.07527166 -0.05463129
-0.025923014 -0.078814134 0.14393449 0.021909617 0.07995371 0.030110626 0.034976143 0.09843278
0.06664901 -0.052918572 0.13987605 -0.05141315 -0.0028902653 -0.05743871 -0.0708998 0.033970736
0.0661165 -0.19538517 0.047567446 -0.060309272 0.027128914 0.6126887 0.062828265 -0.007918238
0.011635891 0.25041756 -0.071011305 -0.004932488 -0.051835015 0.036645126 -0.04248424 0.04947681
0.7976636 0.06256576 -0.014952133 -0.006792364 -0.320361 0.072253555 0.6312742 0.02785477
-0.00046083363 -0.21894877 -0.3715562 -0.26604143 -0.0030401372 -0.06903903 0.018431706 -0.04114105
0.047415353 -0.24332635 0.30820903 0.6750885 -0.052642185 -0.53056735 -0.16338705 0.042367723
00000000: a4b3 86bd 49b2 36be 09f7 f03d a751 8d3e
00000010: 9d9f 90bd d10e 8ebd 53ed 1b3e 747f 5e3d
00000020: cb3a 2dbe 4db1 633e e797 813d 3f49 f1bd
00000030: cf87 a0bd a06a aebd f791 9e3c 6897 a9bc
00000040: 281b bcbd 0ccf 5b3d 46fb 00bf fabb e43d
00000050: 0503 283e 3849 20be e87d ac3e a893 88bd
00000060: 3cc3 9cbd 033d cebe c54b 05be 376e c93e
00000070: dbe7 bcbc e0f4 133e 2033 003c 4a57 3fbd
00000080: 9f4d b63c 59b9 bbbd b4a9 053f 2606 b83d
00000090: e33b b33d 47aa 243e 5e85 c4be 58df 8dbe
000000a0: 00a2 02bd ebf6 89bd 8168 fb3b 84f3 dfbb
000000b0: d252 6abd 839a 9e3b cb2f 153e 682a 37bd
000000c0: b4f9 efbe 259d a2ba 1a0d 1bbd d777 853c
000000d0: 03d6 203c 1c9c aebb 0692 9abb 0910 893d
000000e0: cadf 703e c392 8cbc 8406 82bd ea77 853d
000000f0: c64a 2d3d cb74 9ebe 1d37 c23d cddc a73d
00000100: b5dd 933b eef3 633d f996 99bd 7431 2cbe
00000110: 7cd8 e2bc 93aa 803c e994 acbd 6fcd 423d
00000120: 8643 613d 0271 343d 4cbf 4abe b08f 973e
00000130: ca19 a23c a16b 3bbe 0d0a 13bf 3fcd 063d
00000140: 138a 0abd 11c3 1fbd d044 efbd bbb0 04bd
00000150: fd4a e13c 2600 9c3c 314c bbbd ccec 97bd
00000160: c58b a53d 023d 0abe 2b53 b2bd 06f5 063d
00000170: 8339 1b3d 95ab 9a3e 77d7 6bbe 8450 133d
00000180: f47f 1e3c bbd0 cdbd 67ec b23d 97a7 0cbd
00000190: f78a 27be 912f ac3d 2596 16be c0a0 40bc
000001a0: 3401 5f3e d8f4 f53d ba0d 033c 73c4 1ebd
000001b0: 7837 183f eedc c03c c0c3 b3be 2ea0 a2bc
000001c0: 2165 953c 498b 13bd d24a 3b3e f7c0 6d3e
000001d0: be81 cb3d e434 d7bd 215a 9fbc 260c 1a3d
000001e0: ccab 85bd 7a20 913e dd15 463e 0cec 9cbd
000001f0: 231e d03c 8495 633d a59a 8d3e ba7c a7be
00000200: b475 d8bc 4f98 80bd fd12 dd3d 35b8 8dbd
00000210: 9cb4 ac3d 773d 1dbd c94b 5ebe cfbf 373d
00000220: 98b0 07be 15b4 c03f e401 62bd 6a00 203b
00000230: 56ed b53c 05c9 b83d d905 b33d e4fe a23d
00000240: df4d 5e3e 7a1f 9f3f 39d4 913d 6d9f c63d
00000250: f23c 673c ba49 f03e a77e 4f3d a147 353f
00000260: 3353 833e aa4b 5cbd f122 5c3d 0069 e83f
00000270: a0ea 3e3c 7267 563f 7e6e 553c e057 75bd
00000280: 4823 9bbd 350e 0abd 0ccd d5be 6012 873c
00000290: ccfe 5c3d 1b9a 523d 5e43 90be 0a58 c3bc
000002a0: 8212 0c3c 6cb1 0b3d ccdc 583e 24b8 303d
000002b0: a37d dcbc e89b 28bd e7a9 78be 2523 86bd
000002c0: 7f03 96bc bee1 423d 40ef 9b3d 3a04 d53a
000002d0: 9007 ad3d c5fb 0c3d 4951 7a3d 1817 993d
000002e0: d36a 8bbe d75e 4abc 35e1 edbc 9c45 ba3d
000002f0: 18fe 81bd 3d30 70bd 66a1 973b 99d0 dfbb
00000300: c121 833d 53db 2d3d 6dd7 da3e acb2 b63d
00000310: 2ae1 3dbd 3db1 4abd 0728 9abd 0fc5 5fbd
00000320: 805c d4bc 4e69 a1bd 9063 133e cc7b b33c
00000330: c5be a33d 8faa f63c 2543 0f3d 2097 c93d
00000340: 477f 883d 25c1 58bd ab3b 0f3e 9896 52bd
00000350: 9b6a 3dbb da44 6bbd ea33 91bd e624 0b3d
00000360: 1668 873d 0d13 48be 15d6 423d db06 77bd
00000370: 753d de3c 2bd9 1c3f 1bac 803d 7fbb 01bc
00000380: 77a4 3e3c bb36 803e 606e 91bd b5a0 a1bb
00000390: f450 54bd 3319 163d f403 2ebd 32a8 4a3d
000003a0: af33 4c3f 7a22 803d cbf9 74bc 7b92 debb
000003b0: 5b06 a4be acf9 933d 309b 213f b02f e43c
000003c0: 0b9c f1b9 1b34 60be 9d3c bebe 9536 88be
000003d0: 0a3d 47bb 5664 8dbd 17fe 963c 8583 28bd
000003e0: 9a36 423d 8b2a 79be 93cd 9d3e 9ad2 2c3f
000003f0: 559f 57bd 43d3 07bf ef4e 27be c789 2d3d

fc1.bias f4 [128]
0.043357123 0.03877633 -0.04354744 -0.02504023 -0.04954386 0.035533477 0.0014415871 0.12091391
0.062117703 0.04740228 0.07456345 0.08982994 0.010612576 0.06456495 0.07736857 0.13787758
-0.0429009 0.07020392 -0.080066785 -0.05259774 0.05947876 -0.060504537 -0.009034956 -0.08055264
0.12161615 0.036937777 0.015428472 0.034930073 0.06769677 0.10432297 0.09521732 -0.10675194
-0.02265329 0.028391616 0.053286552 -0.017392416 -0.034628242 -0.0019182146 -0.048000667 -0.04108732
-0.0677349 -0.054438528 -0.06499588 -0.02512892 -0.07554862 0.0448792 0.018503746 -0.04856732
0.08542637 -0.0022652126 0.056433156 0.0671232 0.06926099 0.05645667 -0.015519445 -0.01787005
-0.008142497 0.05902264 0.023572858 -0.018452799 0.08869394 0.13471448 -0.0130577255 -0.055651233
0.062521525 0.052664347 -0.020103682 0.07875079 0.06845258 0.052891288 0.03772116 -0.047467835
0.0015406524 -0.018944316 0.088458024 -0.015665598 0.09134058 -0.06110493 0.04312159 -0.03782242
0.049972564 0.013108067 -0.010085548 0.0553139 0.055930417 -0.057685327 0.04722373 -0.064156346
0.06661889 -0.09492815 -0.035401497 -0.07388283 -0.05714921 0.0018859333 0.073378295 0.0151219275
-0.015356996 0.015657973 -0.026924722 0.022994364 0.054066643 -0.058570456 0.10262259 0.0404724
-0.074805036 0.028669951 -0.011030789 0.03851707 -0.0584618 -0.05015877 -0.031448882 -0.07412785
-0.007361846 -0.024078429 -0.0799362 0.029261118 -0.013061844 -0.010434225 -0.017666597 -0.055179283
-0.10670011 -0.00054958265 -0.003060274 0.07142272 -0.015949262 -0.080141865 0.08422411 -0.057185896
00000000: 3d97 313d eed3 1e3d cd5e 32bd 2b21 cdbc
00000010: 81ee 4abd 8d8b 113d a3f3 bc3a b6a1 f73d
00000020: 226f 7e3d e528 423d b9b4 983d c2f8 b73d
00000030: 5fe0 2d3c a13a 843d 6a73 9e3d c82f 0d3e
00000040: dbb8 2fbd 13c7 8f3d 0efa a3bd ba70 57bd
00000050: 00a0 733d 9bd3 77bd 5a07 14bc c8f8 a4bd
00000060: e311 f93d 114c 173d b4c7 7c3c d612 0f3d
00000070: 9ba4 8a3d 48a7 d53d 4c01 c33d c3a0 dabd
00000080: 6493 b9bc 8995 e83c 0043 5a3d 8a7a 8ebc
00000090: 58d6 0dbd 9a6c fbba 599c 44bd 2d4b 28bd
000000a0: 98b8 8abd effa 5ebd 8f1c 85bd 2adb cdbc
000000b0: 3cb9 9abd 41d3 373d 2b95 973c 87ee 46bd
000000c0: 05f4 ae3d f673 14bb 7426 673d e377 893d
000000d0: b5d8 8d3d 1c3f 673d 4545 7ebc 3664 92bc
000000e0: 1c68 05bc b9c1 713d de1b c13c 532a 97bc
000000f0: 2ba5 b53d 98f2 093e 12f0 55bc 8cf2 63bd
00000100: 490b 803d 92b6 573d 7ab0 a4bc 1848 a13d
00000110: de30 8c3d 89a4 583d 8181 1a3d a26d 42bd
00000120: b7ef c93a 1c31 9bbc 7b29 b53d 2455 80bc
00000130: c510 bb3d 2a49 7abd 44a0 303d afeb 1abd
00000140: 08b0 4c3d 38c3 563c db3d 25bc d490 623d
00000150: 4b17 653d 7347 6cbd ab6d 413d 6764 83bd
00000160: 7c6f 883d b169 c2bd 2901 11bd e24f 97bd
00000170: 4a15 6abd 6c31 f73a 5c47 963d f6c1 773c
00000180: e99b 7bbc 2645 803c 3c91 dcbc ad5e bc3c
00000190: fc74 5d3d 93e7 6fbd cb2b d23d 63c6 253d
000001a0: 6233 99bd 3fdd ea3c 7cba 34bc 13c4 1d3d
000001b0: a475 6fbd 4873 4dbd 8bd0 00bd 58d0 97bd
000001c0: a43b f1bb 2040 c5bc 97b5 a3bd 03b5 ef3c
000001d0: 5801 56bc 50f4 2abc 8ab9 90bc ac03 62bd
000001e0: 9685 dabd de11 10ba e18e 48bb 1346 923d
000001f0: 07a8 82bc 6b21 a4bd b17d ac3d c23b 6abd

fc2.weight f4 [128, 128]
0.10998927 0.07527683 0.070783705 0.059411827 0.11836625 0.045354042 0.06741361 -0.068780616
-0.044996858 0.05408871 0.029941577 -0.01087255 -0.043542795 0.041000806 0.0771927 0.028844073
-0.023835996 -0.032224443 -0.049069732 -0.00090908643 -0.07528763 -0.077025145 -0.043302733 -0.035309132
-0.025794424 0.011827372 0.04198646 0.03437378 0.025356432 -0.18488067 0.06595213 -0.0074906647
-0.024181647 0.03897689 0.013542131 0.05192171 -0.03854737 0.08835753 0.046853904 -0.07738602
-0.02503205 0.081506774 -0.02391645 0.070261344 0.1268952 0.0053532766 0.13687328 -0.005412765
-0.013137164 0.12646632 0.034184605 0.049526885 0.06442466 0.19752379 -0.04894353 -0.012508478
-0.027523061 0.47338265 -0.021344407 -0.018319206 0.031655677 -0.10285874 -0.055725634 0.30352166
0.043485012 0.08438621 0.08800133 0.004453239 -2.0154562 0.09648134 -0.05064286 -0.0058315727
0.023375304 -0.30585086 0.010769554 0.17243414 0.012880557 -0.04157515 0.019221107 0.0012277798
-0.022189068 0.13137962 0.028993657 0.17226525 0.06737349 -0.060075346 -0.06725231 -0.002317025
0.081890784 -0.13411132 -0.043684743 -0.20452493 0.015084883 -0.03714564 0.09744301 0.024143085
0.113285966 0.11996763 -0.007488246 0.007976367 0.05671729 -0.06801851 -0.08681866 0.047880925
0.407358 0.06564674 0.069157034 0.13144192 0.084829964 0.11261134 -0.061808113 0.06721564
0.0129059935 -0.04666046 0.048310928 0.060462635 0.09657871 -0.009762858 0.028193045 -0.043764923
-0.048137058 0.12971416 -0.026952622 -0.06982929 0.030470619 0.05167826 0.0374992 0.031877495
0.029767482 0.057971932 0.08382036 0.067815535 -0.05688455 -0.064791135 0.030147495 -0.069452874
-0.009951857 0.033624582 -0.09133841 0.045328695 0.046868056 -0.019837068 0.035437588 -0.08906356
0.053265523 0.005535229 0.010374331 0.08752038 0.017232718 0.030704703 0.005984129 -0.026630012
-0.08650115 -0.039012417 0.05570626 -0.000886402 -0.004006877 0.043463282 -0.043259677 0.07378988
-0.0672701 0.08063182 -0.057316825 0.012611211 -0.013969034 0.041561555 -0.03901185 -0.016649805
0.026992947 0.0038192654 0.07225198 0.071943015 0.031197483 -0.102831736 0.005300031 0.014755344
-0.041477032 -0.05906756 0.07061686 -0.013801641 -0.1000288 0.02957853 -0.041662414 -0.005820396
0.06247167 0.05117179 -0.021856302 0.04444782 -0.0617688 0.06409325 -0.08763409 -0.05150606
-0.075926855 -0.011430135 0.05173201 -0.021729408 -0.078435875 0.040452234 0.06919874 0.08432923
0.03763446 -0.060882933 0.02117126 -0.0034860855 -0.05606852 -0.023311084 0.03773397 0.059204552
-0.096929 -0.002788221 0.013084025 -0.0096506 -0.0046372665 0.056754775 -0.030829413 -0.06181183
-0.08297407 0.014402571 0.021337189 0.028808003 -0.084104374 -0.04586102 0.0143292155 0.07715864
0.028370656 -0.0847702 0.07948081 -0.010603307 -0.09733872 0.011909024 0.02764746 -0.012377203
-0.019849138 -0.07204764 -0.002407892 -0.031686313 -0.09664179 -0.084849715 -0.0427555 -0.06161671
-0.06028209 0.0053819977 0.029387448 -0.082634114 0.033461735 0.023089351 0.033597663 0.08236039
-0.07827702 0.015794119 -0.054651216 0.050580505 -0.053223554 -0.06569307 -0.048702374 0.086135566
00000000: 0e42 e13d bd2a 9a3d 0cf7 903d d159 733d
00000010: 016a f23d 29c5 393d 2610 8a3d dadc 8cbd
00000020: a04e 38bd 208c 5d3d 0a48 f53c c822 32bc
00000030: ee59 32bd 76f0 273d 3517 9e3d 684a ec3c
00000040: b543 c3bc c7fd 03bd 58fd 48bd c24f 6eba
00000050: 6730 9abd 5cbf 9dbd 355e 31bd 4fa0 10bd
00000060: d44e d3bc 98c7 413c fff9 2b3d 85cb 0c3d
00000070: 4bb8 cf3c 5c51 3dbe e911 873d 4074 f5bb
00000080: 9718 c6bc 3ba6 1f3d d0df 5d3c dcab 543d
00000090: d9e3 1dbd cbf4 b43d e1e9 3f3d 907c 9ebd
000000a0: 0410 cdbc 06ed a63d 6eec c3bc 2ee5 8f3d
000000b0: d1f0 013e 8a6a af3b 8228 0c3e 905d b1bb
000000c0: 423d 57bc 6380 013e 2805 0c3d b4dc 4a3d
000000d0: 13f1 833d ad43 4a3e 0379 48bd 5cf0 4cbc
000000e0: 0b78 e1bc 365f f23e 77da aebc 2912 96bc
000000f0: 62a9 013d 9aa7 d2bd 9040 64bd 3167 9b3e
00000100: 571d 323d add2 ac3d 0b3a b43d 7aec 913b
00000110: 3cfd 00c0 0298 c53d e36e 4fbd c716 bfbb
00000120: 917d bf3c 7c98 9cbe c972 303c 9392 303e
00000130: f908 533c b44a 2abd 9575 9d3c 74ed a03a
00000140: d9c5 b5bc 6188 063e 1b84 ed3c 4d66 303e
00000150: 1dfb 893d 9111 76bd 94bb 89bd 3bd9 17bb
00000160: 5bb6 a73d 7a54 09be c6ee 32bd fc6e 51be
00000170: 9626 773c 0726 18bd 3390 c73d b8c7 c53c
00000180: 7902 e83d 97b1 f53d f65f f5bb 4faf 023c
00000190: 6450 683d 4a4d 8bbd fbcd b1bd ca1e 443d
000001a0: 3a91 d03e cc71 863d 34a2 8d3d b698 063e
000001b0: 55bb ad3d c6a0 e63d 812a 7dbd 5aa8 893d
000001c0: a973 533c 0a1f 3fbd aee1 453d aba7 773d
000001d0: 0fcb c53d 65f4 1fbc 1af5 e63c d942 33bd
000001e0: 5d2b 45bd cad3 043e bfcb dcbc a902 8fbd
000001f0: 859d f93c 95ac 533d c398 193d fa91 023d
00000200: efda f33c fa73 6d3d 02aa ab3d dfe2 8a3d
00000210: c6ff 68bd 37b1 84bd e1f7 f63c 4f3d 8ebd
00000220: 1d0d 23bc eeb9 093d a20f bbbd 95aa 393d
00000230: b8f8 3f3d 5981 a2bc 0127 113d f566 b6bd
00000240: f32c 5a3d de60 b53b 19f9 293c e33d b33d
00000250: a12b 8d3c 6e88 fb3c 8316 c43b 2f27 dabc
00000260: 8427 b1bd 7ccb 1fbd 3f2c 643d 6e5d 68ba
00000270: 1f4c 83bb 8e06 323d 0f31 31bd 261f 973d
00000280: e8c4 89bd 4c22 a53d 0cc5 6abd 419f 4e3c
00000290: 60de 64bc 733c 2a3d e4ca 1fbd 2c65 88bc
000002a0: 5020 dd3c a44c 7a3b d9f8 933d dc56 933d
000002b0: dd91 ff3c 7299 d2bd e2ab ad3b 66c0 713c
000002c0: d2e3 29bd d3f0 71bd 939f 903d 4720 62bc
000002d0: e6db ccbd ac4e f23c 35a6 2abd 05b9 bebb
000002e0: 4be2 7f3d 8399 513d fd0b b3bc eb0e 363d
000002f0: 4801 7dbd 5243 833d 8079 b3bd 05f8 52bd
00000300: 8a7f 9bbd 7645 3bbc f2e4 533d df01 b2bc
00000310: fda2 a0bd 3eb1 253d 12b8 8d3d ceb4 ac3d
00000320: 9726 1a3d 6260 79bd 5a6f ad3c cf76 64bb
00000330: 1ba8 65bd e3f6 bebc ef8e 1a3d 7980 723d
00000340: b682 c6bd 96ba 36bb 615e 563c 8d1d 1ebc
00000350: 36f4 97bb b277 683d f78d fcbc 672e 7dbd
00000360: 4fee a9bd c3f8 6b3c 54cb ae3c c3fe eb3c
00000370: ea3e acbd c4d8 3bbd 16c5 6a3c 5905 9e3d
00000380: 9469 e83c 009c adbd d6c6 a23d 7eb9 2dbc
00000390: 8659 c7bd 111e 433c ed7c e23c c1c9 4abc
000003a0: a99a a2bc b78d 93bd b9cd 1dbb 82c9 01bd
000003b0: 21ec c5bd b0c5 adbd 6420 2fbd ce61 7cbd
000003c0: 5aea 76bd 785b b03b f2bd f03c 133c a9bd
000003d0: 2c0f 093d e125 bd3c b49d 093d 90ac a83d
000003e0: b44f a0bd ab62 813c f4d9 5fbd 812d 4f3d
000003f0: f100 5abd 178a 86bd 247c 47bd d867 b03d

fc2.bias f4 [128]
-0.0049649784 0.016371135 0.04109904 0.030760206 0.07081904 -0.098415926 0.033868637 0.016023979
0.021399722 0.112119235 -0.026531473 0.098970175 -0.01369506 -0.08623997 0.036344897 0.0799489
0.057989784 0.08728975 -0.07176201 0.10816471 0.061277695 0.016327376 0.007280794 0.07384871
-0.024861429 0.0017052739 0.03733822 -0.07013568 0.0013301515 -0.07197896 0.07268548 -0.050683953
-0.0932483 0.0105559295 -0.06520545 -0.027833957 -0.02115669 0.13578168 -0.04972816 0.014489372
0.006640184 -0.074943505 -0.031899232 0.05343921 0.015342885 -0.0034035887 0.015903352 -0.071515895
0.04823177 -0.030126508 -0.009645632 -0.0833923 -0.09453084 -0.04872357 0.012468134 0.07791055
-0.05784976 0.07949404 0.042932782 -0.06300915 -0.19245376 -0.052649327 0.0863513 -0.072938755
-0.030780038 0.06519308 -0.012754682 0.08524575 -0.04836152 -0.014879942 -0.023472635 0.0085390285
0.033640165 0.06758647 -0.061276875 0.02611309 -0.04504944 0.11396926 -0.04758785 0.069603294
-0.13471147 0.0974445 0.05178012 -0.04869711 -0.024454225 0.12560728 0.058102086 -0.08138641
0.035576954 -0.06498051 -0.048080098 0.017695038 0.03484248 -0.06306965 -0.09425115 0.1326681
-0.14507176 -0.07237805 0.057534523 0.08875165 -0.025785815 0.01801136 0.09969138 0.020873165
-0.012799551 0.11031614 0.027247766 0.031927932 -0.06736593 -0.060707793 0.10249938 -0.041555624
0.065917775 0.027089015 -0.05071711 -0.0723362 0.044341933 0.092084564 0.027395952 -0.072393805
-0.033890165 -0.053946167 -0.020591268 -0.053575944 -0.027524121 0.096341245 -0.06583755 0.0051313
00000000: 42b1 a2bb c21c 863c 7857 283d d4fc fb3c
00000010: 9309 913d 4a8e c9bd d7b9 0a3d b844 833c
00000020: 784e af3c c59e e53d 8858 d9bc e0b0 ca3d
00000030: 3f61 60bc 959e b0bd 63de 143d 40bc a33d
00000040: b286 6d3d f8c4 b23d f6f7 92bd 7685 dd3d
00000050: 52fe 7a3d fdc0 853c ba93 ee3b fe3d 973d
00000060: 32aa cbbc 7f83 df3a f6ef 183d 4ca3 8fbd
00000070: 7a58 ae3a b469 93bd 20dc 943d fa99 4fbd
00000080: f7f8 bebd c7f2 2c3c 6f8a 85bd 0a04 e4bc
00000090: cb50 adbc 5a0a 0b3e c1af 4bbd d564 6d3c
000000a0: e795 d93b fb7b 99bd c5a8 02bd 13e3 5a3d
000000b0: b960 7b3c be0e 5fbb bf47 823c ed76 92bd
000000c0: ad8e 453d decb f6bc b608 1ebc 95c9 aabd
000000d0: 6399 c1bd 5e92 47bd 2547 4c3c 918f 9f3d
000000e0: dff3 6cbd c5cd a23d 49da 2f3d f10a 81bd
000000f0: 9912 45be d2a6 57bd f3d8 b03d ea60 95bd
00000100: 6b26 fcbc f383 853d 04f9 50bc 5395 ae3d
00000110: bb16 46bd 00cb 73bc af49 c0bc 48e7 0b3c
00000120: 45ca 093d c66a 8a3d 76fd 7abd 1eeb d53c
00000130: c385 38bd b768 e93d 7aeb 42bd 2c8c 8e3d
00000140: cef1 09be fb90 c73d 6417 543d 9f76 47bd
00000150: 3a54 c8bc 329f 003e 74fc 6d3d ebad a6bd
00000160: 24b9 113d 8014 85bd a3ef 44bd 2ff5 903c
00000170: fdb6 0e3d a92a 81bd bf06 c1bd 25da 073e
00000180: b18d 14be f13a 94bd 52a9 6b3d 6dc3 b53d
00000190: c63c d3bc 8f8c 933c ff2a cc3d 33fe aa3c
000001a0: 35b5 51bc 6eed e13d b536 df3c ddc6 023d
000001b0: 26f7 89bd bca8 78bd 32eb d13d 3b36 2abd
000001c0: e6ff 863d c8e9 dd3c bfbc 4fbd 0025 94bd
000001d0: e39f 353d d596 bc3d 7a6d e03c 3443 94bd
000001e0: 6ad0 0abd a8f6 5cbd 05af a8bc 7372 5bbd
000001f0: 447a e1bc 8f4e c53d d6d5 86bd 7724 a83b

last_fc.weight f4 [6, 128]
0.07245079 0.004916251 0.06011823 -0.04548679 -0.00079788524 -0.063586265 -0.033480555 -0.06787586
0.022742264 0.010623894 0.0019024771 -0.039961975 0.0065218383 0.08173817 -3.9937877e-05 0.05628003
0.09792161 0.027602807 -0.023760255 0.08819616 0.029282408 0.029816348 -0.059087258 0.093150556
0.009783241 -0.06508378 -0.07777251 0.0010313127 0.0856096 -0.06536147 -0.051269755 -0.028754221
0.004988844 -0.013239203 -0.060836945 0.04289844 -0.0089022955 0.097744994 -0.00690064 0.08565363
-0.032881718 0.013349593 0.06329479 0.05079208 0.013390799 0.0824894 0.0012454981 -0.013618106
-0.058430664 0.08159521 -0.01096929 -0.066882454 0.011481368 -0.05970752 -0.0045628906 -0.03255944
-0.027378412 0.00048013983 -0.048915334 0.032028843 0.01996519 -0.07448923 0.040182073 -0.046040606
0.014316226 0.07900571 0.028595343 -0.043740813 -0.041903958 0.030090677 -0.03189005 0.0131353205
-0.01283971 -0.021083565 -0.06276178 -0.035927452 0.01328765 -0.0017427228 -0.04664319 0.08538989
-0.84914714 0.014541587 0.05297854 -0.11282305 -0.046424195 0.09962612 -0.071072556 -0.059295084
-0.05210454 -0.05128968 -0.0055186017 -0.013524386 0.034532424 -0.081501976 0.06266981 0.0043405825
-0.013314017 0.024378482 0.07752495 -0.01857839 0.09231899 0.06946244 0.06471269 -0.005748098
0.035343293 0.07247917 0.079563044 -0.00055129034 0.013168552 0.027711868 -0.05155209 -0.09746405
0.0015150825 -0.01302693 0.018866774 0.092254005 0.021569384 0.074947394 -0.055495393 -0.073764324
0.0022690855 0.05531186 -0.0046724286 0.011119413 0.028845167 0.021822266 -0.0708258 0.023039969
0.007448678 -0.023249416 0.010989286 -0.056286827 -0.045917936 0.017578198 -0.026924351 -0.008252068
-0.0513185 -0.04054538 -0.04694164 0.054356813 0.009046925 -0.082050934 0.02366488 0.02979895
-0.016325548 0.11488141 -0.0017280077 0.08182871 -0.0067348117 -0.013943616 -0.011979557 0.06692448
-0.014700877 -0.0557813 -0.042828448 -0.029980011 -0.052815046 -0.018052286 -0.027374856 -0.05386652
0.0030884247 -0.06594593 0.07458284 0.03617128 -0.06329024 -0.039496325 -0.06386214 0.06053685
-0.017466623 -0.0030012866 0.024204703 0.070293814 -0.022700688 -0.010915715 -0.047161117 -0.012764314
-0.08172085 -0.07037076 -0.078940906 -0.035674803 -0.0018692121 -0.08817914 0.056861117 0.09386302
0.044354986 0.038911235 0.034913685 -0.03182457 0.01236328 -0.044063672 0.038659208 -0.06116405
-0.032474678 0.10026371 0.04439999 0.069029756 -0.030258039 0.059554346 0.041537955 -0.006216638
0.03954393 -0.0233079 0.05703478 -0.06402256 -0.014558874 0.005708219 0.041587863 0.04889844
-0.8366984 0.08405689 0.0012777776 -0.1304476 -0.011971246 0.030407285 0.0024502263 0.028841482
-0.060128607 0.008650263 0.05386587 -0.02748869 -0.039800625 -0.07388609 -0.060138833 0.060204837
-0.013066698 -0.032320928 0.09313326 -0.005054806 -0.05864825 0.06053517 0.076715924 -0.052558377
0.07179622 0.009413409 0.06649037 0.08630261 0.081120946 0.0832575 0.0136923585 -0.14869952
0.013507016 -0.064662166 0.083080985 -0.05292299 0.06826252 0.051475544 0.044686507 0.07489852
0.04048696 -0.024649933 -0.0032573196 -0.038653538 -0.0421546 0.09963331 0.023840848 -0.06475957
00000000: 1461 943d 8118 a13b 883e 763d 5b50 3abd
00000010: 2c29 51ba 8439 82bd e822 09bd 8002 8bbd
00000020: fc4d ba3c d70f 2e3c 8a5c f93a 2baf 23bd
00000030: 25b5 d53b 5766 a73d f882 27b8 e485 663d
00000040: 208b c83d 481f e23c dea4 c2bc 30a0 b43d
00000050: a9e1 ef3c 6a41 f43c 7b05 72bd b8c5 be3d
00000060: e349 203c a54a 85bd 3247 9fbd 1d2d 873a
00000070: 1654 af3d 3cdc 85bd 3c00 52bd f98d ebbc
00000080: 7579 a33b 3ee9 58bc 2930 79bd 46b6 2f3d
00000090: efda 11bc 872e c83d c41e e2bb 2c6b af3d
000000a0: fbae 06bd 40b8 5a3c b3a0 813d 5b0b 503d
000000b0: 1565 5b3c 34f0 a83d fb3f a33a 7a1e 5fbc
000000c0: fe54 6fbd 641b a73d 89b8 33bc abf9 88bd
000000d0: 591c 3c3c df8f 74bd 4d84 95bb 0c5d 05bd
000000e0: b148 e0bc 47bb fb39 725b 48bd ad30 033d
000000f0: 0a8e a33c cf8d 98bd f595 243d 1395 3cbd
00000100: 9b8e 6a3c bfcd a13d c840 ea3c 9129 33bd
00000110: 7ca3 2bbd b980 f63c 249f 02bd 8735 573c
00000120: a65d 52bc 71b7 acbc 4089 80bd aa28 13bd
00000130: 72b4 593c 136c e4ba ee0c 3fbd e5e0 ae3d
00000140: b561 59bf d63f 6e3c 0700 593d c50f e7bd
00000150: 4c27 3ebd c708 cc3d 7d8e 91bd 67df 72bd
00000160: 926b 55bd 2115 52bd 63d5 b4bb 6395 5dbc
00000170: df71 0d3d 82ea a6bd 0859 803d 723b 8e3b
00000180: 0923 5abc 62b5 c73c 67c5 9e3d b531 98bc
00000190: bd11 bd3d 5342 8e3d 1688 843d 8a5a bcbb
000001a0: 21c4 103d f66f 943d f3f1 a23d 7884 10ba
000001b0: e9c0 573c 0004 e33c 4928 53bd 3b9b c7bd
000001c0: bc95 c63a e86e 55bc 7e8e 9a3c abef bc3d
000001d0: 47b2 b03c 057e 993d 234f 63bd c011 97bd
000001e0: f0b4 143b b08e 623d 2c1b 99bb 332e 363c
000001f0: b34c ec3c 9cc4 b23c 1e0d 91bd 51be bc3c
00000200: 0a14 f43b 8f75 bebc 680c 343c 048d 66bd
00000210: 7214 3cbd 2700 903c 7590 dcbc af33 07bc
00000220: 5933 52bd ea12 26bd e145 40bd 40a5 5e3d
00000230: 8e39 143c 520a a8bd dadc c13c ed1c f43c
00000240: 28bd 85bc f246 eb3d 517e e2ba d095 a73d
00000250: b2af dcbb c473 64bc e745 44bc b40f 893d
00000260: f2db 70bc ef7a 64bd e26c 2fbd a498 f5bc
00000270: 9754 58bd 63e2 93bc 3c41 e0bc 24a3 5cbd
00000280: 2b67 4a3b a90e 87bd e3be 983d 5628 143d
00000290: 509e 81bd e6c6 21bd 27ca 82bd 7df5 773d
000002a0: 2a16 8fbc 3cb1 44bb f148 c63c 34f6 8f3d
000002b0: cbf6 b9bc d4d7 32bc 042c 41bd 6a21 51bc
000002c0: 435d a7bd 8c1e 90bd c5ab a1bd be1f 12bd
000002d0: 5a00 f5ba 4497 b4bd 34e7 683d 413b c03d
000002e0: 93ad 353d 6361 1f3d a701 0f3d 7b5a 02bd
000002f0: 5b8f 4a3c 1c7c 34bd 1e59 1e3d 2887 7abd
00000300: 2b04 05bd 0f57 cd3d c4dc 353d 795f 8d3d
00000310: b5df f7bc 42ef 733d b423 2a3d f0b4 cbbb
00000320: d1f8 213d 36f0 bebc 4d9d 693d 431e 83bd
00000330: 5888 6ebc 030c bb3b 0958 2a3d bb49 483d
00000340: de31 56bf 0526 ac3d 1a7b a73a 0e94 05be
00000350: 0c23 44bc b318 f93c fa93 203b f944 ec3c
00000360: 6a49 76bd d5b9 0d3c 75a2 5c3d f62f e1bc
00000370: fb05 23bd 9751 97bd 2354 76bd 5999 763d
00000380: b415 56bc f362 04bd a7bc be3d c9a2 a5bb
00000390: 2639 70bd baf3 773d 3d1d 9d3d 7447 57bd
000003a0: e609 933d b33a 1a3c 1a2c 883d 6cbf b03d
000003b0: bd22 a63d e882 aa3d ea55 603c b044 18be
000003c0: 884c 5d3c 996d 84bd 5d26 aa3d c7c5 58bd
000003d0: 38cd 8b3d 05d8 523d 3309 373d 6564 993d
000003e0: a8d5 253d a8ee c9bc c178 55bb 2c53 1ebd
000003f0: 4daa 2cbd 8d0c cc3d e24d c33c aaa0 84bd

last_fc.bias f4 [6]
-0.019749377 0.03790972 0.042849768 0.08327129 0.007872808 0.056163784
00000000: 72c9 a1bc 3947 1b3d 3d83 2f3d 238a aa3d
00000010: f3fc 003c ff0b 663d
