data/Fanuc_success/Behavior_cloning/BC_policy_GIC_CEV_300_aug_9angles_itr_39.pt (torch, 408711 bytes, 16 tensors)

fc0.weight f4 [128, 6]
0	0xbe27412d	-0.16333456
1	0xbeedf510	-0.4647603
2	0xbeab4d80	-0.33457565
3	0xbde60db2	-0.11233081
4	0x3d8de62a	0.06928666
5	0x3eb9a8fb	0.36261734
6	0xbe36bc7e	-0.17845342
7	0xbe0c070e	-0.13674566
8	0x3e745c62	0.23863366
9	0x3e9e4602	0.30912787
10	0xbe92c4c0	-0.28665733
11	0xbe6dfee2	-0.23241761
12	0x3e914443	0.28372392
13	0x3e9dfab3	0.3085533
14	0xbe7f45f7	-0.24929033
15	0x3e1c046d	0.15236063
16	0x3eab874d	0.33501664
17	0xbe25549b	-0.16145556
18	0x3ecbad49	0.39780644
19	0x3cc846a0	0.02444774
20	0x3e273a27	0.16330777
21	0x3e4fe736	0.20303044
22	0xbd18d017	-0.037307825
23	0xbf093b55	-0.5360616
24	0x3ec811e5	0.39076152
25	0xbd50da97	-0.050989714
26	0xbd2e50ac	-0.042557403
27	0x3e6abdbc	0.2292394
28	0xbed4eaca	-0.4158538
29	0xbe2de070	-0.16980147
30	0xbd4fe48a	-0.05075506
31	0xbf1bb7bb	-0.60827225
32	0xbecca4d3	-0.399695
33	0x3d2cf307	0.042223956
34	0xbc1aac54	-0.0094405
35	0xbc3acd17	-0.011401436
36	0xbe31ee5f	-0.17376088
37	0x3ec4c5d3	0.38432178
38	0xbeb1fe28	-0.34764218
39	0xbd38e969	-0.045144472
40	0xbec69b6f	-0.3879046
41	0x3e1f71b8	0.15570724
42	0x3da28c92	0.07936968
43	0xbe2ba41f	-0.16761826
44	0xbe70f42a	-0.23530641
45	0x3cfe4802	0.031040195
46	0xbec4b59f	-0.38419816
47	0x3e0caa6c	0.13736886
48	0xbed3fbbf	-0.41403005
49	0xbec9c070	-0.3940463
50	0xbeadf3ed	-0.33975163
51	0xbdfe29fc	-0.12410352
52	0x3d80cf2d	0.06289516
53	0x3e8a5a92	0.27022225
54	0x3eb6c5c5	0.3569776
55	0xbeed5928	-0.46357083
56	0x3e607dfe	0.21923062
57	0x3d9f474f	0.07777273
58	0xbeac3ddb	-0.33640942
59	0x3e081338	0.13288581
60	0x3f3625d3	0.71151465
61	0xbe0d3ad8	-0.13791978
62	0xbd777153	-0.06041081
63	0xbe8acbc6	-0.27108592
64	0xbeabdb5d	-0.33565798
65	0x3e90dbb6	0.28292626
66	0xbd0c1650	-0.034200966
67	0x3e589ea5	0.21154268
68	0xbe2b4fea	-0.16729704
69	0xbf11e3eb	-0.569884
70	0x3de73e89	0.112912245
71	0xbe1a6539	-0.15077676
72	0xbf12150a	-0.57063353
73	0xbe1d8790	-0.15383744
74	0x3f3101f8	0.6914363
75	0x3e9ec037	0.31006023
76	0xbe9fae65	-0.3118774
77	0x3e687d2b	0.22703998
78	0xbe3a512a	-0.18195024
79	0xbf122189	-0.5708242
80	0x3cb2c590	0.02182272
81	0xbde73e6f	-0.11291205
82	0x3d9c6369	0.076361485
83	0x3ee3cfd4	0.44494498
84	0x3df849f0	0.121234775
85	0xbe4a1765	-0.19735487
86	0x3cf99c0c	0.030469917
87	0x3e401e28	0.18761504
88	0x3d2af07e	0.041733257
89	0xbe399ede	-0.1812701
90	0xbbfb56e2	-0.0076702693
91	0xbea485f4	-0.32133448
92	0xbe69c3dd	-0.22828622
93	0x3e2610a4	0.16217285
94	0xbedd0c21	-0.43173316
95	0x3e3047d8	0.17214906
96	0x3e8343f2	0.25637776
97	0xbec7a5b6	-0.38993615
98	0x3e58eadd	0.21183343
99	0xbe0789ad	-0.13236113
100	0xbed068a1	-0.40704826
101	0x3e050e28	0.12993681
102	0x3f1e3683	0.6180193
103	0x3dce3de1	0.10070396
104	0xbed73c97	-0.42038414
105	0xbe8d5f48	-0.27611756
106	0x3ebb39d8	0.3656757
107	0xbed6ecf6	-0.41977662
108	0x3dfd9553	0.12381997
109	0xbe485315	-0.19562943
110	0xbeb64ce4	-0.35605538
111	0xbead1a08	-0.33808923
112	0xbea2c937	-0.3179414
113	0x3e084691	0.13308169
114	0xbd83fe1f	-0.06444954
115	0xbef1bff0	-0.4721675
116	0x3e8575d2	0.26066452
117	0xbddc9a76	-0.107716486
118	0xbea26807	-0.31719992
119	0x3def8a2f	0.11696278
120	0x3dfe0822	0.12403895
121	0x3cc4b6c4	0.02401293
122	0x3c8ef5fc	0.017451279
123	0xbede6bc2	-0.43441588
124	0xbe9abdf5	-0.3022305
125	0xbeb755aa	-0.35807544
126	0x3ed0a4ca	0.40750724
127	0x3e2848bb	0.16433994
128	0xbec4e1d8	-0.38453555
129	0x3e609cda	0.21934834
130	0xbdbafb20	-0.091299295
131	0x3cfb94d8	0.030710623
132	0xbf57b279	-0.842567
133	0xbe279cc0	-0.16368389
134	0x3e20d9a7	0.15708028
135	0xbe701cff	-0.23448561
136	0x3e1afa5a	0.15134564
137	0xbe9c9750	-0.30584192
138	0x3f8515d6	1.0397289
139	0x3e2c4a6c	0.16825265
140	0x3ed38032	0.41308743
141	0xbbdd0baf	-0.0067457776
142	0xbe9a12e5	-0.3009254
143	0xbee717ee	-0.45135444
144	0x3e4df2d7	0.20112167
145	0x3e8d7120	0.2762537
146	0x3ca942ef	0.0206618
147	0xbd08563e	-0.033285372
148	0xbbf44846	-0.0074549047
149	0x3ea7ff5c	0.3281201
150	0x3e6b79de	0.22995707
151	0x3dcc4ec4	0.09975961
152	0x3e48e707	0.1961938
153	0xbe2b4078	-0.16723812
154	0x3e126a6b	0.14298408
155	0xbe9cd073	-0.30627784
156	0x3e418c24	0.18901116
157	0xbe04d81f	-0.12973069
158	0xbeac24c8	-0.33621812
159	0xbe086a61	-0.1332183
160	0xbd799cee	-0.060940675
161	0xbe538f64	-0.20660168
162	0xbf0ecaff	-0.557785
163	0xbf0b62a2	-0.54447377
164	0x3df69f76	0.120421335
165	0xbd764b87	-0.060130622
166	0xbded155c	-0.115763396
167	0xbea1a6a8	-0.3157246
168	0x3d251af5	0.04030891
169	0xbe785fcf	-0.24255298
170	0x3e99243b	0.29910454
171	0xbee7b57d	-0.45255652
172	0xbe47c02e	-0.19506904
173	0x3ecbd7ec	0.39813173
174	0xbf3e6ece	-0.74387825
175	0x3e421101	0.18951799
176	0xbed30ccd	-0.41220704
177	0x3e866837	0.26251385
178	0x3e6d0598	0.23146665
179	0xbeabd252	-0.335589
180	0xbe9c93e5	-0.30581585
181	0x3f651d23	0.89497584
182	0x3f3ff580	0.7498398
183	0x3e7dbdff	0.24779509
184	0x3ec1a048	0.37817597
185	0x3bf394f6	0.007433529
186	0x3d932a7b	0.07185837
187	0xbe00c7cc	-0.12576216
188	0x3c490cae	0.0122710895
189	0xbea9fbdf	-0.33199975
190	0x3e85f1ab	0.2616094
191	0x3e1c21c8	0.15247262
192	0x3e0bdc16	0.13658175
193	0xbdb78845	-0.08961538
194	0x3e140a52	0.14457062
195	0xbe530545	-0.20607479
196	0xbe52cb04	-0.20585257
197	0x3ea83876	0.32855576
198	0xbe781724	-0.24227577
199	0x3ea44175	0.3208119
200	0x3ef75bca	0.48312217
201	0x3e9f761e	0.31144804
202	0xbeabedb3	-0.33579788
203	0x3f04721c	0.5173662
204	0x3ebab8cb	0.3646911
205	0xbd63a0ef	-0.0555734
206	0xbec9bd0a	-0.39402038
207	0xbf07e558	-0.53084326
208	0x3e8b6631	0.27226403
209	0x3de5c32b	0.11218866
210	0xbf41c6e2	-0.75694096
211	0xbe6394ab	-0.22224681
212	0x3f1f3afa	0.62199366
213	0xbea75fac	-0.3269018
214	0x3e8c4ab3	0.2740074
215	0xbec69600	-0.38786316
216	0xbf0c9882	-0.5492021
217	0x3e4ddd3d	0.20103927
218	0x3f244ac5	0.6417659
219	0xbe7279a7	-0.23679219
220	0x3bf9b57a	0.0076205106
221	0xbf14c1ca	-0.581082
222	0x3e955c8e	0.29172176
223	0xbebc2c51	-0.3675256
224	0xbe099901	-0.13437273
225	0xbe92caf2	-0.2867046
226	0x3c37b45e	0.0112124365
227	0xbea87250	-0.32899714
228	0x3e4e2987	0.20133029
229	0xbe21497e	-0.15750691
230	0x3e41a93c	0.18912214
231	0xbea355c1	-0.31901363
232	0x3e9afa3a	0.30269033
233	0x3e1f1f24	0.15539223
234	0xbecd1413	-0.40054378
235	0x3e2a640f	0.16639732
236	0xbf26acbd	-0.6510733
237	0x3dc9a83d	0.09846542
238	0x3e9305a0	0.2871523
239	0xbd41b716	-0.047293745
240	0xbdace100	-0.08441353
241	0x3db19831	0.08671606
242	0xbe98c3d2	-0.298369
243	0x3dc12ccd	0.09432373
244	0xbd947c1a	-0.07250233
245	0x3eb48590	0.3525815
246	0xbd833c2c	-0.06407961
247	0xbe80ac07	-0.25131246
248	0xbd796b5d	-0.060893405
249	0x3ca50a79	0.020146595
250	0xbe15c47f	-0.14625739
251	0x3ecfbfc6	0.40576
252	0xbf2e0fc7	-0.67992824
253	0xbd9db4de	-0.07700513
254	0xbef538bf	-0.47894856
255	0xbe833008	-0.25622582

fc0.bias f4 [128]
0	0x3ddbb474	0.10727778
1	0x3e822e36	0.2542588
2	0xbed0d22c	-0.40785348
3	0x3db60c48	0.08889061
4	0x3e3f8953	0.18704729
5	0x3da5a7b8	0.080886304
6	0xbc977fcc	-0.018493555
7	0xbe8d4b32	-0.27596432
8	0x3e8153a2	0.2525912
9	0x3e483ffe	0.19555661
10	0xbdd826c9	-0.10554273
11	0xbca035f3	-0.019556975
12	0xbd849cfe	-0.064752564
13	0x3dc26ba5	0.09493188
14	0xbe98a094	-0.2981001
15	0x3ea1ec01	0.3162537
16	0x3dcc0e4e	0.09963666
17	0xbe85c81f	-0.26129243
18	0xbec4bb18	-0.3842399
19	0x3e8da55f	0.2766523
20	0xbc34ff93	-0.011047262
21	0xbe48bff4	-0.19604474
22	0x3dd9494a	0.10609682
23	0xbe29df91	-0.1658919
24	0x3d699257	0.057024326
25	0x3e247212	0.1605914
26	0x3ea2c4b0	0.31790686
27	0x3debe030	0.1151737
28	0xbd0ff221	-0.03514302
29	0x3b284971	0.002567854
30	0x3a5305d4	0.00080498797
31	0xbeb06b70	-0.34456968
32	0x3e25c3b5	0.16187938
33	0x3c8893f0	0.016672105
34	0x3d242668	0.04007569
35	0xbdea4a30	-0.114399314
36	0xbe111735	-0.14169009
37	0xbe8c6b83	-0.27425775
38	0x3e5a3413	0.21308927
39	0x3c56c39c	0.01310816
40	0xbe8ced7c	-0.27524936
41	0x3dcb503e	0.09927414
42	0x3e4def5b	0.20110838
43	0xbb93a81c	-0.004506124
44	0xbe93a9eb	-0.28840575
45	0x3c389d77	0.011268011
46	0x3dba7f44	0.09106305
47	0xbe9c1da9	-0.3049138
48	0xbe86f124	-0.2635585
49	0xbd5b7fc7	-0.053588655
50	0x3c074e1e	0.008258371
51	0x3e01436e	0.12623379
52	0xbcd29ca6	-0.025709461
53	0x3ebeb388	0.37246346
54	0x3eb8e66d	0.361133
55	0xbc7932fb	-0.015209909
56	0x3dcd4fe8	0.100250065
57	0x3e9d26bb	0.30693612
58	0xbeb7e2b1	-0.3591514
59	0x3e122baf	0.14274476
60	0xbe541cd9	-0.2071413
61	0x3e5a33c9	0.21308817
62	0xbd9f9188	-0.0779143
63	0xbd54ec07	-0.051982906
64	0xbecd7f7f	-0.40136334
65	0x3c73e535	0.01488619
66	0xbe4afdf7	-0.19823442
67	0x3b9f1bfb	0.0048556305
68	0xbadb6a52	-0.001674006
69	0x3dd37f4e	0.10327016
70	0x3e9f3571	0.3109546
71	0x3e52e2b3	0.20594291
72	0x3e18e3a6	0.14930591
73	0x3eadd050	0.33947992
74	0xbe804147	-0.25049803
75	0x3e41248e	0.18861601
76	0xbec1cd21	-0.37851813
77	0xbec9bef0	-0.39403486
78	0x3defae7d	0.11703203
79	0x3d4eb9d0	0.050470173
80	0xbdb61606	-0.088909194
81	0xbe54d323	-0.20783667
82	0x3d3cde23	0.046110284
83	0xbd087a3c	-0.033319697
84	0x3eaacad2	0.33357865
85	0x3d720e7c	0.059095845
86	0xbecce7ef	-0.400207
87	0xbe10e8d9	-0.14151324
88	0xbd987d35	-0.07445756
89	0xbb85a5dc	-0.00407861
90	0x3d6a56e7	0.057211783
91	0xbe847d19	-0.25876692
92	0x3d2ee462	0.04269827
93	0x3b927297	0.0044692266
94	0xbaadd9a3	-0.0013263713
95	0xbe6c1137	-0.23053442
96	0x3d5dfd78	0.054196805
97	0xbe8366ce	-0.2566437
98	0x3e307ffe	0.17236325
99	0xbdbd29d9	-0.092364974
100	0x3c005a36	0.007834008
101	0x3e3278d5	0.17428906
102	0xbe1d1b94	-0.15342551
103	0x3db895c2	0.09012939
104	0x3ce72e29	0.028220253
105	0xbcd7dc70	-0.02635023
106	0x3db12888	0.08650309
107	0x3e6fe65e	0.23427722
108	0x3dfa17bb	0.122115575
109	0xbeb1c36d	-0.3471941
110	0x3dcb25b4	0.09919301
111	0xbe774444	-0.24147135
112	0x3dd1ef67	0.102507405
113	0x3d21f8f9	0.03954408
114	0xbe895c30	-0.26828146
115	0x3e470284	0.19434553
116	0x3d4160bc	0.047211394
117	0x3d531f16	0.051543318
118	0xbe391825	-0.18075617
119	0xbc5a958e	-0.013341321
120	0x3dbb2ac0	0.09139013
121	0xbe15c62c	-0.14626378
122	0x3bf54197	0.0074846256
123	0x3dd476cb	0.103742205
124	0x3dfc9635	0.12333337
125	0x3ea8bb1c	0.32955253
126	0x3e0af557	0.13570152
127	0x3dffd2ad	0.12491355

fc1.weight f4 [128, 128]
0	0x3c3b8309	0.011444815
1	0x3cfbc208	0.03073217
2	0x3cc7950a	0.02436306
3	0x3d4b8f13	0.049696993
4	0xbdb1dc78	-0.08684629
5	0xbd858ecf	-0.06521379
6	0xbd9389d4	-0.07204023
7	0x3b7010f3	0.0036631196
8	0xbb7023d8	-0.0036642458
9	0x3c0f2777	0.0087374365
10	0xbc36e54c	-0.011163067
11	0xbd6136c7	-0.05498388
12	0xbd914d6b	-0.070948444
13	0xbd013fba	-0.031554915
14	0x3d98c6cf	0.07459795
15	0x3cb1f161	0.021721544
16	0xbd5a2c6e	-0.053265028
17	0x3dae4d1e	0.08510803
18	0xbcad3d02	-0.021147255
19	0xbd5de221	-0.05417073
20	0xbd7457ab	-0.05965392
21	0xbd605cfd	-0.05477618
22	0xbd1a67fe	-0.03769683
23	0xbc9b9479	-0.018991696
24	0xbda77370	-0.08176315
25	0x3bfb009e	0.0076599857
26	0x3d1fd325	0.039019722
27	0xbdaddd81	-0.08489514
28	0x3b7f8923	0.0038991652
29	0x3d80aa3e	0.06282471
30	0x3d209ce3	0.03921212
31	0xbd5569b0	-0.052102745
32	0x3d9f9823	0.0779269
33	0x3b704899	0.0036664365
34	0xbd4a0dc0	-0.04932952
35	0xbd1191ee	-0.03553956
36	0x3d6549e2	0.055978663
37	0x3da4277e	0.08015345
38	0xbbee7167	-0.007276702
39	0x3d45ed9c	0.048322305
40	0x3ba4761c	0.0050189625
41	0x3c016650	0.007897928
42	0xbd60be89	-0.05486921
43	0xbcf22581	-0.029558899
44	0x3db486cd	0.08814774
45	0x3da88f4b	0.08230456
46	0x3c9f31c7	0.019432915
47	0xbc85941a	-0.016305972
48	0x3d38b6c2	0.045096166
49	0xbc2c9b75	-0.010535111
50	0xbd296609	-0.041357074
51	0x3d6e4198	0.058168024
52	0xbc210362	-0.009827467
53	0x3d783610	0.060598433
54	0x3d177c10	0.03698355
55	0xbc213e83	-0.009841564
56	0xbd4ea7d4	-0.050453022
57	0x3c264663	0.010148617
58	0xbd10035b	-0.03515945
59	0xbd85ca03	-0.06532671
60	0xbcb34f4f	-0.021888403
61	0xbcf46214	-0.029831924
62	0xbccf9b73	-0.025342679
63	0xbd979122	-0.07400729
64	0x3cbad4e7	0.022806598
65	0x3d344e63	0.044020068
66	0xbd4e8520	-0.050419927
67	0xbcb803ec	-0.022462808
68	0xbdb1d975	-0.08684055
69	0x3da9a380	0.08283138
70	0xbd305647	-0.04305103
71	0xbd898436	-0.0671467
72	0xbba11b68	-0.004916597
73	0x3c84f07b	0.016227951
74	0x3d91720d	0.071018316
75	0xbb26426a	-0.0025369176
76	0xbd624ef6	-0.055251084
77	0x3d806c14	0.06270614
78	0xbd99d82b	-0.07511934
79	0xbcf1263b	-0.029437175
80	0xbd4acf23	-0.049513947
81	0x3b4e2bd0	0.003145922
82	0x3d99d85d	0.07511971
83	0x3d3aab8c	0.045573756
84	0xbd06ae68	-0.03288117
85	0x3d12d5fa	0.035848595
86	0x3db3477c	0.08753869
87	0x3d6cf7da	0.057853557
88	0x3c0dfbc3	0.008665982
89	0xbd932763	-0.07185247
90	0xbda5f0db	-0.0810258
91	0xbd03c6ed	-0.032172132
92	0xbce59d80	-0.028029203
93	0x3c93feb0	0.01806578
94	0xbd3d5d32	-0.046231456
95	0xbd2f6b97	-0.042827215
96	0xbda5a0b4	-0.08087292
97	0x3ccbb62f	0.024867145
98	0xbd0af4ff	-0.033925053
99	0xbb3c59ef	-0.0028740128
100	0xbd78866c	-0.06067507
101	0xbd9bb51b	-0.076029025
102	0xbd4ca593	-0.04996259
103	0xbc89a69b	-0.016803076
104	0x3c9fdde5	0.019514987
105	0xbd1a8455	-0.037723858
106	0x3d7ab38e	0.061206393
107	0xbbd54099	-0.006507945
108	0x3d94c69d	0.07264445
109	0xb9f63bbd	-0.00046965285
110	0x3c884502	0.016634468
111	0xbd88c84e	-0.0667883
112	0xbd6ff8eb	-0.058586996
113	0x3d6924ad	0.056919742
114	0xbb0fc652	-0.0021938276
115	0x3d486e78	0.048933476
116	0xbd8271ec	-0.06369385
117	0x3b1e6b66	0.0024172901
118	0xbd488750	-0.04895717
119	0x3d9ac12a	0.07556374
120	0x3c99986d	0.01874944
121	0xbcb4f8b2	-0.022091243
122	0xbd5df16b	-0.054185312
123	0x3d025ddb	0.03182779
124	0x3d51d3d8	0.05122742
125	0x3a97997b	0.0011566126
126	0xbc5caf79	-0.01346957
127	0xbd9c9386	-0.07645325
128	0xbd5da8f8	-0.05411622
129	0x3b8fca2b	0.004388114
130	0x3d2adbca	0.041713513
131	0xbdbc43f3	-0.09192648
132	0xbd75b7b5	-0.05998965
133	0xbda61199	-0.08108825
134	0x3d1805dd	0.037114967
135	0xbda21c03	-0.07915499
136	0xbc8ca2e6	-0.01716752
137	0x3c729ba5	0.014807616
138	0xbd5d81b0	-0.054078758
139	0x3d8c88a6	0.06862001
140	0x3b3d248d	0.0028860897
141	0xbdb20f77	-0.08694356
142	0x3ca341ec	0.019928895
143	0x3c08dabf	0.008352934
144	0xbcc5220e	-0.02406409
145	0x3d8dd0e5	0.06924609
146	0x3c4cd18f	0.012501135
147	0xbd3e251b	-0.046422105
148	0xbb6a8842	-0.0035786782
149	0xbd078c5c	-0.03309284
150	0x3be45356	0.006967942
151	0x3d4d2379	0.050082657
152	0xbd441639	-0.047872756
153	0xbc009763	-0.007848593
154	0xbd7348a7	-0.05939546
155	0xbd9d6f33	-0.07687225
156	0xbd1ec1fa	-0.03875921
157	0x3c203965	0.009779309
158	0x3af5eb87	0.0018762209
159	0x3d4b1a75	0.04958578
160	0x3cd92461	0.026506605
161	0xbdaae4bb	-0.08344408
162	0x3d8a60be	0.06756733
163	0xbd844212	-0.064579144
164	0x3d6ab8c6	0.05730512
165	0x3c1e1e48	0.009650774
166	0x3c8767c4	0.016528971
167	0x3d84cc58	0.06484288
168	0x3da52b3c	0.08064887
169	0xbda7591f	-0.081712954
170	0xbd5e6d18	-0.05430326
171	0x3d23dfc3	0.040008318
172	0x3d56699b	0.052346807
173	0xbd2e434a	-0.04254464
174	0xbd63652f	-0.055516418
175	0xbd9a8675	-0.07545177
176	0x3da2c3d4	0.079475075
177	0xbcb70c13	-0.022344625
178	0x3d60d7de	0.054893367
179	0xbd898085	-0.06713966
180	0x3d3e3cc8	0.046444684
181	0x3b596ccb	0.0033176418
182	0xbbac36eb	-0.00525557
183	0xbd624f6c	-0.055251524
184	0x3cc1726d	0.023614133
185	0x3d889417	0.06668871
186	0xbd8f67b5	-0.070022024
187	0xbd76ae3b	-0.060224753
188	0x3da19c9e	0.078912005
189	0xbdb50ad0	-0.08839953
190	0xbd39c6bb	-0.04535554
191	0x3d2d1216	0.042253576
192	0x3d7c3edb	0.06158338
193	0xbdba1095	-0.09085194
194	0xbd12fcd5	-0.03588565
195	0xbd578ab3	-0.05262251
196	0x3d97eec1	0.074185856
197	0xbd3d4c87	-0.04621556
198	0x3d7e9c2b	0.062160652
199	0x3c2181c7	0.0098576015
200	0x3d50a8be	0.050942175
201	0xbd4388d6	-0.04773792
202	0x3d34c045	0.044128675
203	0xbc98550e	-0.018595245
204	0xbd15efb9	-0.03660557
205	0xbb053083	-0.0020323105
206	0xbc8a3f59	-0.01687591
207	0xbd91ac27	-0.071129136
208	0xbcd15d6d	-0.025557244
209	0x3d8279b1	0.06370867
210	0xbd2f6950	-0.042825043
211	0xbcf25efc	-0.029586308
212	0x3d7b827a	0.06140373
213	0xbd636abd	-0.055521715
214	0xbd77a16a	-0.06045667
215	0x3d0078b2	0.031365104
216	0xbcd9d123	-0.026588982
217	0x3d2b3e86	0.041807674
218	0xbd5ba817	-0.0536271
219	0x3d507f91	0.050902907
220	0xbd9dbd85	-0.077021636
221	0xbc87757e	-0.016535517
222	0xbcbeed13	-0.023306405
223	0x3b4f2a99	0.0031611084
224	0xbca03edb	-0.019561222
225	0x3d3f3947	0.046685483
226	0x3d48663d	0.048925627
227	0x3b7628eb	0.003756101
228	0x3d925705	0.07145504
229	0xbc73ef65	-0.014888619
230	0x3d0319c9	0.032007013
231	0xbdb4edf0	-0.088344455
232	0xbcddf309	-0.027093427
233	0xbdad0cf2	-0.08449735
234	0xbd9b4b2e	-0.07582699
235	0x3da6d644	0.08146337
236	0x3d8b691a	0.06807156
237	0xbd9af7b0	-0.07566774
238	0x3da462d0	0.080266595
239	0xbcb504dc	-0.022097044
240	0xbc0ea22f	-0.00870566
241	0x3cfc8958	0.03082721
242	0xbd9cb141	-0.07650996
243	0xbdb68654	-0.0891234
244	0x3c25482c	0.010088008
245	0xbd1eca7d	-0.038767327
246	0xbcf627f7	-0.030048354
247	0x3d107320	0.03526604
248	0xbd933ca8	-0.07189304
249	0x3d61fb1a	0.05517111
250	0xbd04d04a	-0.032425202
251	0x3daa2fd0	0.08309901
252	0xbd492f67	-0.049117472
253	0xbd637712	-0.055533476
254	0xbd64b140	-0.0558331
255	0x3c14ee67	0.009090043

fc1.bias f4 [128]
0	0xbb65db32	-0.0035073278
1	0x3bfcdd43	0.007716806
2	0xbcee4fef	-0.02909085
3	0xbd3110ad	-0.043228794
4	0xba9697ca	-0.0011489328
5	0xbd9bc0f2	-0.07605161
6	0xbb118cab	-0.0022209089
7	0xbd73f8d3	-0.05956347
8	0x3dcd7b13	0.1003324
9	0xbd9e3921	-0.0772574
10	0xbd9115dc	-0.070842475
11	0xbc5607cc	-0.013063382
12	0xbd57b8b7	-0.052666392
13	0x3d9a29de	0.07527517
14	0xbd34673f	-0.044043776
15	0xbda4223d	-0.08014343
16	0x3bd9a509	0.006641988
17	0x3cd34e7d	0.025794262
18	0x3db4e0c7	0.088319354
19	0x3d487dd9	0.048948143
20	0x3d4a1750	0.04933864
21	0xbda69f54	-0.08135858
22	0xbd1b46f6	-0.03790947
23	0x3d40bfdf	0.047057983
24	0xbcc28c99	-0.023748683
25	0x3d618ddd	0.055066932
26	0x3dc02200	0.09381485
27	0x3d45abbe	0.04825949
28	0xbd3bbe9d	-0.04583608
29	0x3c0691ea	0.0082135
30	0xbda5296b	-0.080645405
31	0xbd8ccbb5	-0.068747915
32	0x3b519679	0.0031980558
33	0x3d08e7ce	0.03342419
34	0x3d828fa6	0.06375055
35	0xbce3f17c	-0.02782511
36	0xbcb7f537	-0.022455795
37	0x3da40282	0.08008291
38	0x3d902717	0.07038706
39	0xbc8195a7	-0.01581843
40	0x3ccb53b4	0.024820186
41	0x3caacace	0.020848658
42	0xbd7799d4	-0.060449436
43	0x3d1bfcad	0.038082767
44	0xbd073c99	-0.033016775
45	0x3cdb0887	0.026737465
46	0x3d38129a	0.044939615
47	0x3d8e6d55	0.06954447
48	0xbcfae77e	-0.030627962
49	0xbc0187f5	-0.00790595
50	0xbcbc75e2	-0.02300543
51	0x3d2d4ec4	0.042311445
52	0xbdb86e14	-0.09005371
53	0xbd9625f5	-0.073314585
54	0x394a07c1	0.0001926711
55	0x3da2dbff	0.07952117
56	0xbcbf20d5	-0.023331085
57	0x3d1e8895	0.038704474
58	0xbd82735e	-0.06369661
59	0xbd7c946b	-0.06166498
60	0xbd7a8786	-0.0611644
61	0x3d8e0d8b	0.06936177
62	0x3c3b522b	0.011433165
63	0xbc3983ad	-0.011322898
64	0xbdc71320	-0.09720445
65	0xbce14b9e	-0.027501877
66	0xbd1fb018	-0.038986295
67	0xbc99171c	-0.018687777
68	0x3d24f320	0.040270925
69	0xbc4d274c	-0.012521576
70	0xbdbc5ba5	-0.09197167
71	0xbcb8da58	-0.022565052
72	0x3c8f7e58	0.0175163
73	0xbc2934ca	-0.010327527
74	0xbd854ad6	-0.065084144
75	0x3cd88d5f	0.026434598
76	0x3c013088	0.007885106
77	0x3d16e9c7	0.03684404
78	0xbd69529a	-0.05696354
79	0x3d50d443	0.05098368
80	0x3b78cef1	0.0037965144
81	0xbd1e1765	-0.03859653
82	0xbbdc7e4b	-0.0067289225
83	0xbd4b7450	-0.04967147
84	0xbda170c8	-0.078828394
85	0x3d98d5a1	0.074626215
86	0xbd6010fa	-0.05470369
87	0xbd8dc6e4	-0.06922701
88	0x397c4068	0.00024056586
89	0x3d70a577	0.05875155
90	0xbc29814a	-0.010345766
91	0x3d3a3883	0.04546405
92	0x3c304956	0.010759672
93	0x3dbf6878	0.09346098
94	0x3d018aaa	0.03162638
95	0xbd2b6751	-0.041846577
96	0xbdb090e6	-0.08621387
97	0x3e0206e3	0.1269794
98	0xbd83d581	-0.06437207
99	0x3dbcff69	0.09228403
100	0x3c8697bf	0.01642978
101	0xbd95e71e	-0.07319473
102	0xbd7ab0ed	-0.061203886
103	0xbd1a0226	-0.037599705
104	0xbcb11951	-0.021618517
105	0xbcff08ea	-0.03113218
106	0x3dfa7788	0.1222983
107	0xbdab4e16	-0.08364503
108	0x3db2bb8b	0.08727177
109	0x3c592db7	0.013255528
110	0xbd82ffb5	-0.063964285
111	0xbc853839	-0.01626216
112	0x3d582e8e	0.052778773
113	0xbd32d29f	-0.043657895
114	0x3d823f04	0.063596755
115	0x3da34679	0.07972426
116	0x3d3c6e70	0.04600376
117	0xbcc7b6ab	-0.024379095
118	0xbcf8b753	-0.030360853
119	0xbd5f147a	-0.054462887
120	0x3c2bc9f5	0.010485162
121	0x3d016449	0.03158978
122	0x3bb45893	0.005503723
123	0xbd26d387	-0.040729072
124	0xbd7ed962	-0.06221903
125	0x3d1597fb	0.036521893
126	0xbd3d3e55	-0.046202023
127	0x3c0f6846	0.008752888

fc2.weight f4 [128, 128]
0	0x3d86dc7a	0.06585021
1	0xbca30705	-0.019900808
2	0xbdace701	-0.08442498
3	0xbcbfc9cd	-0.023411656
4	0xbd467fff	-0.04846191
5	0xbcb135d4	-0.021632113
6	0xbb2231e7	-0.0024748982
7	0x3c44eb25	0.012018953
8	0x3d01b268	0.031664282
9	0x3d6a2fdc	0.05717455
10	0xbd5c7f8a	-0.05383257
11	0x3d2388e3	0.039925467
12	0xbc9be230	-0.019028753
13	0x3db2546a	0.08707507
14	0xbc94eda1	-0.018179717
15	0x3c83273a	0.016009916
16	0x3c91a50c	0.017778896
17	0x3c9091f7	0.017647726
18	0xbd4f8aa3	-0.050669324
19	0x3dadd001	0.08486939
20	0xbc15f5c8	-0.009152837
21	0x3db135b2	0.0865282
22	0x3d752601	0.059850696
23	0xbc813ff5	-0.015777567
24	0xbbd8e833	-0.006619477
25	0xbc3dc05a	-0.011581505
26	0x3d344543	0.044011366
27	0xbd12e0c2	-0.035858877
28	0xbda62225	-0.08111981
29	0xbd09cd67	-0.033643153
30	0xbd820281	-0.06348134
31	0xbd4da86b	-0.050209444
32	0x3d40a107	0.047028568
33	0x3daa62af	0.08319604
34	0xbd7eaa4f	-0.062174138
35	0xbcb4ed03	-0.022085672
36	0xbcca9c67	-0.024732782
37	0x3ce16e70	0.027518481
38	0x3d4451bf	0.04792952
39	0xbcb61e11	-0.022231134
40	0x3ce3e634	0.02781973
41	0xbd7922b4	-0.06082411
42	0x3dab5b68	0.08367044
43	0x3b6c4eee	0.0036057788
44	0x3d87e91e	0.066362604
45	0x3e7c27e0	0.24624586
46	0xbc2f3b40	-0.010695279
47	0xbd8ee249	-0.06976754
48	0xbdaa3e35	-0.08312646
49	0xbd9f41cc	-0.07776222
50	0xbd8712a6	-0.06595354
51	0x3e0028b0	0.12515521
52	0xbd18c78b	-0.037299674
53	0x3c5456b6	0.012960127
54	0xbdba27c1	-0.09089614
55	0x3cc1786a	0.023616988
56	0xbda45242	-0.08023502
57	0xbd8950df	-0.06704878
58	0x3ca3a999	0.019978331
59	0x3da00d2a	0.07815011
60	0x3d79c38b	0.0609775
61	0x3d5eadf3	0.05436511
62	0xb9eb842a	-0.00044921163
63	0x3d11621c	0.035493955
64	0xbd8c23fc	-0.06842801
65	0x3d9a7efd	0.07543752
66	0xbc992770	-0.018695563
67	0xbd92af53	-0.07162347
68	0x3dd62df8	0.104579866
69	0x3e507da8	0.20360434
70	0xbc0fbb15	-0.008772631
71	0x3d73ac37	0.05949041
72	0x3dcb32d9	0.09921808
73	0x3e699eda	0.22814503
74	0x3d929a35	0.07158319
75	0x3d4f9afc	0.050684914
76	0xbd4ded21	-0.050274972
77	0xbd1978f8	-0.03746888
78	0x3bd40042	0.0064697573
79	0xbd49ce5e	-0.049269073
80	0x3d489e4e	0.048979096
81	0x3d240978	0.040048093
82	0x3db7da65	0.08977202
83	0xbced1210	-0.028939277
84	0x3db44501	0.08802224
85	0xbdac32e0	-0.08408141
86	0x3b9eff8b	0.0048522404
87	0xbd83a9a7	-0.06428843
88	0x3d67dce9	0.05660716
89	0x3da01ebc	0.07818362
90	0x3d1c53f2	0.038165994
91	0x3c9db6b3	0.019252157
92	0xbcbf4221	-0.023346962
93	0x3d0ac678	0.03388068
94	0xbc449738	-0.011998944
95	0xbd8f0dfa	-0.06985088
96	0xbd7199b9	-0.058984492
97	0x3d3540be	0.044251196
98	0xbd9a6f2b	-0.07540735
99	0xbd77d8c1	-0.060509447
100	0x3dd22cf0	0.102624774
101	0xbd4d499a	-0.05011902
102	0xbe8f7552	-0.28019196
103	0x3d19e41d	0.03757106
104	0x3d4eaa8b	0.05045561
105	0x3cc1e38a	0.02366807
106	0xbcf1766a	-0.02947541
107	0x3dc12c22	0.09432246
108	0x3d4cd44d	0.050007153
109	0xbc3b70ba	-0.01144045
110	0xbd4f8248	-0.050661355
111	0x3d2932c3	0.041308176
112	0x3deb3ef2	0.11486615
113	0x3da9d533	0.08292618
114	0x3d4a89b4	0.04944773
115	0xbde21cf5	-0.11040679
116	0xbd0effbc	-0.034911856
117	0x3c9ef20b	0.019402524
118	0x3d4872b2	0.048937507
119	0xbd9ff2f6	-0.07810013
120	0xbd15b510	-0.036549628
121	0x3d873c9c	0.06603357
122	0xbc191513	-0.009343403
123	0x3d5e2538	0.054234713
124	0xbcc0f03a	-0.023552049
125	0x3d170c64	0.03687705
126	0x3e4cfa1a	0.20017281
127	0x3d2de420	0.042453885
128	0xbd064462	-0.03278006
129	0x3d2a3a87	0.041559722
130	0xbd3fa72e	-0.046790294
131	0x3dba017d	0.09082315
132	0x39d25fc2	0.00040125666
133	0x3cfa0b70	0.030523032
134	0x3c71b861	0.014753432
135	0x3d2458e8	0.04012385
136	0x3cffed13	0.031240975
137	0x3ccc7a95	0.024960795
138	0x3d81c389	0.063361235
139	0xbd9ed065	-0.07754592
140	0xbdcb4594	-0.0992538
141	0xbdbdf45f	-0.09275126
142	0xbd64d2c3	-0.05586506
143	0x3cf51964	0.029919334
144	0x3d0d3407	0.034473445
145	0xbcfc8e0d	-0.030829454
146	0xba949c3a	-0.0011338063
147	0xbcae8aaa	-0.021306355
148	0xbc2a2733	-0.010385322
149	0xbd94e35c	-0.07269928
150	0x3e3318d8	0.17489946
151	0x3c9cf321	0.019158902
152	0x3d8cab84	0.068686515
153	0x3d283dd2	0.04107458
154	0x3897dca0	7.241336e-05
155	0xbd60d303	-0.054888736
156	0xbd8f8913	-0.07008567
157	0xbdd5728f	-0.10422241
158	0x3a83fd73	0.0010070041
159	0x3d7f5693	0.062338423
160	0x3ca39307	0.019967569
161	0xbdcb8d4b	-0.09939059
162	0xbd42f423	-0.04759611
163	0xbd0fd73e	-0.03511738
164	0x3d9d2428	0.07672912
165	0xba927d72	-0.0011176302
166	0xbcf89603	-0.030344969
167	0x3d8cb857	0.068710975
168	0xbb9119fd	-0.004428147
169	0x3b830e28	0.0039994903
170	0xbb5014d4	-0.0031750696
171	0x3da7859f	0.08179783
172	0x3d99145b	0.074745856
173	0x3c980372	0.01855633
174	0xbd6182cf	-0.05505639
175	0x3d8e5f1d	0.06951735
176	0xbd9b9dd1	-0.075984605
177	0x3bbf15a9	0.0058314395
178	0x3ce1fe94	0.027587213
179	0x3d86640d	0.06562052
180	0xbd5c6c5b	-0.053814273
181	0x3cd868d1	0.026417168
182	0xbd74b74d	-0.05974512
183	0xbd855854	-0.06510988
184	0x3cf02ded	0.029318774
185	0x3c848d3c	0.016180627
186	0xbd01a68e	-0.03165298
187	0xbd0955e9	-0.033529196
188	0x3d9fbaec	0.077993244
189	0xbddd603b	-0.1080937
190	0x3d1bd658	0.03804621
191	0xbd95bbec	-0.07311234
192	0x3d204168	0.039124876
193	0x3ce3a982	0.027790789
194	0xbd8949b6	-0.06703512
195	0xbdb473c5	-0.08811144
196	0x3cdb30f1	0.026756736
197	0x3e093842	0.13400367
198	0x3d6c6d7b	0.057721596
199	0xbd407c20	-0.046993375
200	0x3d8795d0	0.06620371
201	0x3c9edc49	0.01939215
202	0xbcc620dc	-0.02418559
203	0xbd1d7837	-0.038444724
204	0xbd569bfc	-0.052394852
205	0xbbec4323	-0.0072101518
206	0x3db00129	0.08593971
207	0x3d70b7e4	0.05876912
208	0xbd01c30a	-0.031680144
209	0xbc35315d	-0.011059132
210	0x3caf1afa	0.021375168
211	0xbdf7fe81	-0.1210909
212	0xbce14c41	-0.027502181
213	0x3db4162f	0.08793294
214	0x3d706547	0.058690336
215	0xbc8380a3	-0.01605255
216	0x3bd3ff7a	0.006469664
217	0x3c3ab4db	0.011395658
218	0x3b933fb2	0.004493677
219	0x3bd803f4	0.006592268
220	0xbc1174ed	-0.008877975
221	0x3d6fd06a	0.05854837
222	0xbdd1c8a9	-0.10243351
223	0xbd94b168	-0.072604
224	0x3ce48d3c	0.027899377
225	0x3d1b0bd1	0.037853066
226	0x3d92d647	0.071697764
227	0x3d659e16	0.056058966
228	0xbc463fc5	-0.012100165
229	0x3ca31368	0.019906715
230	0xbe0f7544	-0.14009577
231	0x3ccdd708	0.025126949
232	0xbdb63cf8	-0.088983476
233	0xbdb6dbcc	-0.08928642
234	0x3b9c1668	0.004763413
235	0x3e2a4955	0.16629536
236	0x3d656548	0.056004792
237	0xbd1c3204	-0.038133636
238	0x3da08aa8	0.078389466
239	0xbd8131bc	-0.06308314
240	0xbd252461	-0.040317897
241	0xbc973f4a	-0.018462796
242	0x3c8ad25e	0.016946014
243	0xbe03f4e1	-0.12886383
244	0x3c60ae20	0.01371339
245	0x3d58b60a	0.05290798
246	0xbcf6ff9c	-0.03015118
247	0x3c405bad	0.011740607
248	0xbcc001d3	-0.02343837
249	0xbd725173	-0.059159707
250	0xbdd71713	-0.10502448
251	0x3ce6b18a	0.02816083
252	0xbd5cf37e	-0.05394315
253	0xbdafe643	-0.08588841
254	0x3df36f32	0.11886443
255	0xbc565202	-0.013081076

fc2.bias f4 [128]
0	0xbdb418eb	-0.08793815
1	0x3a4c6f9c	0.00077986135
2	0xbcb314e5	-0.02186055
3	0xbd933376	-0.0718755
4	0x3d7e685e	0.06211125
5	0xbc909754	-0.017650284
6	0x3d7ee76a	0.062232412
7	0xbb0f7cdd	-0.0021894493
8	0xbd08087a	-0.03321121
9	0xbda4dd3c	-0.080500096
10	0x3d37ab47	0.044841077
11	0xbd2754d0	-0.040852368
12	0xbd351b18	-0.04421529
13	0xbca491bc	-0.020089023
14	0xbd975e91	-0.07391084
15	0xbcb06f68	-0.021537498
16	0xbc8bc058	-0.01705949
17	0xbd663f78	-0.056212872
18	0xbd21f66c	-0.039541647
19	0x3dc1cb30	0.09462583
20	0xbdb0108f	-0.08596908
21	0x3d5dea3e	0.05417847
22	0x3d1f92b3	0.038958263
23	0x3cf85427	0.030313564
24	0x3d6e8a69	0.058237467
25	0xbd92754f	-0.07151281
26	0x3d8aa37d	0.06769464
27	0x3d5bf582	0.05370093
28	0xbd3f0313	-0.04663379
29	0x3d8d3652	0.068951264
30	0x3c1e4f41	0.00966245
31	0xbd660a20	-0.056162
32	0x3ce57894	0.028011598
33	0xbd8f3788	-0.069930136
34	0xbc89ed5b	-0.016836813
35	0x3d8dac14	0.06917587
36	0xbd34887a	-0.044075467
37	0xbcb1c9a7	-0.0217026
38	0xbb449eb0	-0.0030001812
39	0x3db74f7e	0.08950709
40	0x3cdeba3b	0.027188411
41	0xbdb4db98	-0.08830947
42	0x3d44c17b	0.04803608
43	0x3df81e4d	0.121151544
44	0xbb6947df	-0.0035595817
45	0x3d346c50	0.044048607
46	0x3dacc92e	0.084368095
47	0xbda65550	-0.08121741
48	0xbdaded22	-0.08492495
49	0xbd27db85	-0.040980835
50	0x3cb6d292	0.022317205
51	0xbcef391f	-0.029202042
52	0xbc4a8d8c	-0.012362849
53	0xbba40704	-0.005005719
54	0x3da18968	0.07887536
55	0xbd2dd477	-0.04243895
56	0xbd23cfe9	-0.0399932
57	0x3cdfc042	0.027313355
58	0x3c1d6d5f	0.009608596
59	0xbcdd2c38	-0.026998624
60	0xbdae3513	-0.08506217
61	0xbcb224bb	-0.02174603
62	0xbc98e8c0	-0.018665671
63	0x3c53f185	0.012936001
64	0xbdc626c0	-0.0967536
65	0xbd4fb3f2	-0.05070872
66	0x3c9c851e	0.019106444
67	0xbdbc7918	-0.09202784
68	0x3d2fdf35	0.042937476
69	0xbd27cb0b	-0.04096512
70	0x3d9986c0	0.07496405
71	0xbc57c1a8	-0.01316873
72	0x3d3605d5	0.044439156
73	0x3cbf6aaf	0.0233663
74	0x3d43abf9	0.047771428
75	0xbd696c24	-0.056987897
76	0x3d98575d	0.07438538
77	0x3dada7f4	0.084793
78	0x3d210b69	0.039317522
79	0xbb441056	-0.0029916964
80	0x3e1317f8	0.14364612
81	0x3e6408b2	0.22268942
82	0x3b9bbdf1	0.0047528674
83	0xbd1ef6c9	-0.03880957
84	0x3dbdffd0	0.09277308
85	0x3c90b77a	0.017665613
86	0xbdb68e7b	-0.08913895
87	0x3d342c44	0.043987527
88	0x3db2b2ed	0.08725534
89	0x3da873bc	0.082251996
90	0x3c8dbf2e	0.017303076
91	0x3d2a058f	0.041509207
92	0x3d2e7e20	0.04260075
93	0xbc3aed49	-0.011409112
94	0xbc552c60	-0.013011068
95	0x3d1a3152	0.03764469
96	0x3ccbb715	0.024867574
97	0x3d2ebb61	0.042659167
98	0xbdea5f7a	-0.11443992
99	0x3e1309d5	0.1435922
100	0x3de8df02	0.1137066
101	0x3d36f981	0.04467154
102	0x3d11305d	0.035446513
103	0x3d99615d	0.07489274
104	0xbce452a1	-0.027871432
105	0x3e06a824	0.13150078
106	0xbc156b2c	-0.00911979
107	0x3db08f9d	0.08621142
108	0x3cdf4f8b	0.027259609
109	0x3d96e661	0.0736816
110	0x3ca2afaa	0.019859154
111	0x3d40b7d8	0.047050327
112	0x3d3b4d7c	0.04572819
113	0xbd8a0c22	-0.067405954
114	0x3d8d345d	0.06894753
115	0x3d38ecfe	0.04514789
116	0xbd5717bd	-0.052512873
117	0x3d72646e	0.05917781
118	0x3d5729aa	0.05252997
119	0xbdcc5678	-0.0997743
120	0x3cb7ec1c	0.022451453
121	0x3dc50e2c	0.09621844
122	0x3d78d2d2	0.06074793
123	0xbd09c2df	-0.03363311
124	0x3d742899	0.05960903
125	0xbc65d014	-0.0140266605
126	0x3dcaeb25	0.099081315
127	0x3cb1770e	0.021663215

fc3.weight f4 [128, 128]
0	0xbcff94fc	-0.031198971
1	0xbd7dbf72	-0.061950155
2	0xbb74ef0c	-0.0037373928
3	0xbd127147	-0.03575256
4	0xbcbdb7d4	-0.023158945
5	0xbd86dd7e	-0.06585215
6	0xbd35b305	-0.04436018
7	0x3d6f22c9	0.058382783
8	0xbd97c6d5	-0.07410971
9	0x3d16ff64	0.036864653
10	0x3d7b11bd	0.061296213
11	0x3d0ffd5d	0.035153735
12	0xbc27ab75	-0.01023375
13	0xbc8838de	-0.016628679
14	0x3d80855c	0.06275436
15	0x3ca39efc	0.01997327
16	0xbdc94005	-0.09826664
17	0xbd8d10ac	-0.068879455
18	0xbc8d7d8b	-0.017271778
19	0xbd8a54a7	-0.067544274
20	0xbd2fc68a	-0.04291395
21	0x3d847094	0.06466785
22	0xbcc48724	-0.023990221
23	0xbd990b89	-0.07472903
24	0xbca7dd28	-0.020491198
25	0x3d4ee4c1	0.050511125
26	0xbd68a0eb	-0.05679409
27	0xbd805cec	-0.062677234
28	0xbbda0463	-0.006653355
29	0x3cfad96b	0.030621251
30	0x3d837242	0.06418277
31	0xbd2a4b89	-0.041575942
32	0xbdcb5273	-0.09927835
33	0x3d22225a	0.03958354
34	0x3d32cc84	0.043652073
35	0x3d87c75e	0.06629823
36	0x3c928d37	0.017889602
37	0x3d87901f	0.06619286
38	0x3da0709a	0.07833977
39	0x3d5bb3c4	0.053638235
40	0xbc71967a	-0.014745349
41	0xbd61434c	-0.05499582
42	0x3cd23e83	0.025664574
43	0xbd5f4e01	-0.05451775
44	0xbd146397	-0.03622779
45	0x3d812c18	0.06307238
46	0x3cce5e72	0.02519152
47	0x3da8b5b8	0.08237785
48	0xbd899d54	-0.06719461
49	0x3d97e1b4	0.07416096
50	0x3d09a731	0.03360671
51	0x3da2d62b	0.079510055
52	0xbd741d96	-0.059598528
53	0xbb32c24e	-0.002727646
54	0xbccbaa46	-0.024861466
55	0xbcea0c2f	-0.028570263
56	0xbd9ba396	-0.07599561
57	0xbd42be3b	-0.0475447
58	0x3d49f3d1	0.049304787
59	0x3c8639ec	0.016385041
60	0xbc83858d	-0.016054893
61	0x3a825ad8	0.0009945286
62	0x3c3aea69	0.011408427
63	0xbd63f96e	-0.055657797
64	0xbd8cdde6	-0.06878261
65	0x3d32a2a7	0.04361215
66	0x3c746a63	0.014917943
67	0xbd27ea1a	-0.04099474
68	0x3b801131	0.0039082994
69	0x3c832378	0.016008124
70	0xbd9c0d14	-0.07619682
71	0xbda7d285	-0.0819445
72	0x3cfd8132	0.030945394
73	0x3cd80f5b	0.02637451
74	0xbc2039bc	-0.00977939
75	0x3d651c1f	0.05593502
76	0x3d65c797	0.056098547
77	0x3cc9fe12	0.024657283
78	0x3d969b13	0.07353797
79	0xbca20472	-0.01977751
80	0x3c448336	0.011994174
81	0xbd101243	-0.035173666
82	0x3dbea6f9	0.09309191
83	0x3cffef8a	0.03124215
84	0xbc5350c2	-0.012897672
85	0xbd5c2e83	-0.053755295
86	0xbcab1637	-0.020884616
87	0xbd854905	-0.06508068
88	0x3d0c8f0e	0.034316115
89	0xbd9a8b67	-0.0754612
90	0xbddd1b40	-0.10796213
91	0xbd4f5556	-0.050618492
92	0xbda5a095	-0.08087269
93	0x3cb5fb65	0.0222146
94	0xbda6a74e	-0.081373796
95	0x3d8d7912	0.06907858
96	0x3d3c8ba7	0.04603162
97	0x3d919a65	0.071095265
98	0xbc38835a	-0.011261785
99	0xbd18b56e	-0.0372824
100	0x3d823ad5	0.063588776
101	0x3d2473ff	0.040149685
102	0x3d8671bf	0.06564664
103	0xbd356445	-0.044285078
104	0x3d11431e	0.0354644
105	0xbdde51d6	-0.10855453
106	0xbd005110	-0.031327307
107	0xbdbeef55	-0.09322993
108	0xbd8ca04b	-0.06866511
109	0xbdc1874d	-0.09449635
110	0xbd851ed8	-0.065000236
111	0x3d80fc36	0.062981054
112	0x3d936f67	0.07198983
113	0xbd87c518	-0.066293895
114	0x3d5e8b34	0.054331973
115	0x3d3b2b4d	0.04569559
116	0xbcddbe55	-0.027068296
117	0x3d409b40	0.047023058
118	0xbdbc9476	-0.09208004
119	0xbd2ae877	-0.041725602
120	0x3ba7f3eb	0.005125513
121	0xbcafeaec	-0.021474324
122	0x3d7c8b48	0.061656266
123	0x3d33bb07	0.043879535
124	0x3d3c06f7	0.04590508
125	0xba839c39	-0.0010041065
126	0x3d575be6	0.052577876
127	0xbd265ac7	-0.040613916
128	0x3cf2fa87	0.029660476
129	0x3d19c40d	0.037540484
130	0x3d81b362	0.06333043
131	0x3d225e2d	0.039640594
132	0xbc1512ef	-0.009098752
133	0x3d4f179b	0.05055962
134	0xbe0441bd	-0.12915702
135	0xbd4e17a1	-0.050315503
136	0x3db05f26	0.08611898
137	0xba3740e1	-0.00069905637
138	0xbd869e13	-0.06573119
139	0xbecc1cd5	-0.39865747
140	0x3d8c47e6	0.06849651
141	0x3d18f800	0.037345886
142	0x3da1a139	0.07892079
143	0xbd7c25c3	-0.06155945
144	0xbc4948c1	-0.012285412
145	0xbd3444ea	-0.044011034
146	0xbdad3074	-0.08456507
147	0x3d61891c	0.0550624
148	0x3d88605a	0.066590026
149	0xbc84ffef	-0.01623532
150	0xbabf64ab	-0.0014602145
151	0x3dcd0e01	0.10012437
152	0x3d0fd190	0.035111964
153	0xbd371a62	-0.044702895
154	0xbe1b5214	-0.15168029
155	0x3e82da48	0.2555716
156	0x3c295a92	0.010336535
157	0xbce15932	-0.027508352
158	0x3d9a910f	0.07547199
159	0xbc68c2f1	-0.014206634
160	0xbcbc1daf	-0.022963373
161	0xbd8d6458	-0.06903905
162	0xbd9f87a4	-0.07789543
163	0x3b35a5c7	0.002771722
164	0xbd2c95e2	-0.042135127
165	0x3d7a63a2	0.061130174
166	0xbdaf3d92	-0.085566655
167	0x3e9a6376	0.30154008
168	0x3dc6f840	0.09715319
169	0xbe400800	-0.18753052
170	0x3d4ed356	0.050494514
171	0xbd72897f	-0.059213158
172	0x3cdf8af7	0.027287943
173	0xbc8a3aa5	-0.016873667
174	0x3d8a5648	0.06754738
175	0xba6685ed	-0.000879376
176	0xbd374787	-0.04474595
177	0x3988cdaf	0.00026093188
178	0xbcefd40b	-0.029275915
179	0x3d112ca3	0.03544296
180	0x3cbc4528	0.022982195
181	0x3c6ef0ae	0.01458375
182	0xbd79a96d	-0.060952593
183	0x3d0fe5bd	0.035131205
184	0xbd91a6f7	-0.07111924
185	0xbd3906f8	-0.04517266
186	0xbd9becfd	-0.07613561
187	0x3d22d085	0.03974964
188	0x3d374fa9	0.044753704
189	0xbcf68624	-0.03009326
190	0xbcaa4938	-0.020786867
191	0x3daa6035	0.08319131
192	0x3d83f867	0.06443863
193	0x3b3e424c	0.0029031215
194	0xbd078de6	-0.03309431
195	0x3d440c6e	0.047863416
196	0x3e0a45c2	0.13503173
197	0xbd7f5f05	-0.062346477
198	0xbdff9d31	-0.12481154
199	0x3dae3a40	0.08507204
200	0x3df9ea3f	0.12202882
201	0x3ddfff7d	0.109374024
202	0x3d62895c	0.055306777
203	0x3d7770dd	0.06041037
204	0xbd08b5a5	-0.033376355
205	0xbd4b250c	-0.049595878
206	0x3db08b1d	0.08620284
207	0xbdefe21c	-0.11713049
208	0x3d7ae159	0.061250065
209	0x3e963641	0.29338267
210	0x3d00469d	0.031317342
211	0x3c99deb1	0.018782945
212	0xbd823bfe	-0.06359099
213	0xbe00637e	-0.12537953
214	0xbd74baa4	-0.059748307
215	0xbd766915	-0.060158808
216	0xbde72a2a	-0.11287339
217	0xbc923d03	-0.017851358
218	0x3ce016cd	0.027354622
219	0x3c0ff78c	0.008787047
220	0x3d6fa10b	0.058503192
221	0xbe960450	-0.29300165
222	0xbdc5779a	-0.09641953
223	0x3c5ef970	0.013609275
224	0x3ea125ae	0.3147406
225	0x3e0dff24	0.1386686
226	0xbbda91aa	-0.0066701965
227	0x3e68a4ce	0.22719118
228	0x3d4a95aa	0.049459137
229	0xbd80d35b	-0.06290313
230	0x3bb01f49	0.005374823
231	0x3d36a105	0.044587154
232	0xbe4a7fee	-0.19775364
233	0x3cc895e0	0.024485528
234	0x3ce88a00	0.028386116
235	0x3d2ec5c8	0.042669088
236	0xbca408bd	-0.020023698
237	0x3d7b842d	0.06140535
238	0xbbf57841	-0.007491142
239	0xbc45af3f	-0.012065708
240	0xbe1e731e	-0.15473601
241	0xbf06e778	-0.52696943
242	0xbc923d7d	-0.017851586
243	0x3d95235f	0.07282137
244	0xbd96a206	-0.07355122
245	0xbd4307b9	-0.047614787
246	0xbd8bd770	-0.06828201
247	0xbd235767	-0.039878275
248	0x3da32898	0.07966727
249	0x3d31839c	0.043338403
250	0x3d379906	0.04482367
251	0xbccdde9e	-0.025130566
252	0x3c8543d5	0.016267696
253	0x3d698ee8	0.05702105
254	0x3d28baf6	0.041193925
255	0xbbb59506	-0.0055414466

fc3.bias f4 [128]
0	0x3c9eac28	0.0193692
1	0x3da6ff34	0.08154145
2	0x3dbdddb6	0.09270804
3	0xbd4ff686	-0.050772212
4	0xbcec29f1	-0.028828593
5	0x3e05a7d7	0.13052307
6	0x3d72cd3c	0.059277758
7	0x3d771365	0.06032123
8	0xbd81ec59	-0.06343908
9	0xbdcfdbbf	-0.10149335
10	0xbd41f9e2	-0.047357447
11	0x3e3fd58e	0.18733808
12	0xbd829452	-0.06375946
13	0xbcc4de93	-0.024031913
14	0x3dbf082a	0.09327729
15	0xbd36255c	-0.044469222
16	0x3e14434a	0.14478794
17	0xbd06fcd3	-0.032955956
18	0xbc9b19a4	-0.018933125
19	0xbd948aaf	-0.07253014
20	0x3d985fd9	0.074401565
21	0x3db45a48	0.08806282
22	0x3c801c3a	0.01563846
23	0xbd3c61d0	-0.04599172
24	0xbd78a5d7	-0.060705032
25	0xbd41f2fb	-0.047350865
26	0xbd60f3e0	-0.054920077
27	0xbd911d95	-0.070857204
28	0xbce3f098	-0.027824685
29	0xbd134e98	-0.035963625
30	0xbc9b8c6b	-0.018987855
31	0x3dbb9838	0.09159893
32	0xbd595806	-0.05306246
33	0xbdb26805	-0.087112464
34	0xbd0ec844	-0.034858957
35	0xbccee5cf	-0.025256066
36	0xbb4d31c2	-0.0031310176
37	0xbdbb2d7b	-0.09139534
38	0xbc88088a	-0.016605634
39	0x3d2dc81c	0.042427167
40	0xbdc930f1	-0.09823788
41	0xbc6ba536	-0.014382651
42	0xbb81d516	-0.0039621694
43	0x3b91e578	0.0044524036
44	0x3d86ebc0	0.065879345
45	0x3c91cd74	0.017798163
46	0xbda379e0	-0.0798223
47	0xbdac5f69	-0.084166355
48	0x3e0d125d	0.13776536
49	0xbdc04168	-0.09387475
50	0xbdbc0531	-0.09180678
51	0x3de825a4	0.113353044
52	0x3d8cdfc8	0.068786204
53	0xbdcafdcc	-0.09911689
54	0x3dacc41d	0.08435843
55	0x3c47c5ca	0.012193153
56	0x3d6f0ad2	0.05835993
57	0xbdbf7bb1	-0.09349764
58	0x3b05bd20	0.0020406917
59	0x3d305559	0.043050144
60	0xbc8c4b23	-0.017125672
61	0x3b8b6b13	0.0042547076
62	0x3d2979e3	0.041376006
63	0xbd47485b	-0.048652988
64	0x3d13b864	0.03606452
65	0x3d276890	0.040871203
66	0xbe191e3b	-0.14952938
67	0xbdd2d4d3	-0.10294499
68	0x3cdc8455	0.02691857
69	0xbd89c5c2	-0.067271724
70	0xbb469848	-0.003030317
71	0xbd23a9a3	-0.0399567
72	0x3d5d082e	0.05396288
73	0xbc67be38	-0.014144473
74	0x3b5dc182	0.0033837263
75	0x3e10e376	0.1414927
76	0x3d8bc722	0.06825091
77	0xbd812ed6	-0.06307761
78	0xbd9522c7	-0.07282024
79	0x3d0f702f	0.035019096
80	0x3da1114d	0.07864628
81	0xbc53ee44	-0.012935225
82	0x3d994656	0.07484119
83	0xbd15c5fe	-0.036565773
84	0x3d23fe30	0.040037334
85	0xbd05e022	-0.032684453
86	0x3d8770db	0.06613322
87	0x3de9921d	0.11404822
88	0x3d9b68d1	0.075883515
89	0x3d76c2a4	0.060244218
90	0xbc7aa31f	-0.01529768
91	0xbd7d9d79	-0.061917756
92	0x3e140631	0.14455487
93	0xbd5ce446	-0.053928636
94	0x3d9820bf	0.07428121
95	0x3db1831d	0.08667586
96	0xbce5b20c	-0.028039
97	0x3e1f106a	0.15533605
98	0x3e080cd2	0.1328614
99	0xbd487c1a	-0.048946477
100	0x3b7ed49c	0.003888405
101	0x3d5ff218	0.054674238
102	0x3e18c5fd	0.14919277
103	0x3c0d0a7d	0.008608458
104	0x3d06063d	0.032720793
105	0xbd6e9069	-0.05824319
106	0xbdb57910	-0.088609815
107	0x3d92dadd	0.07170651
108	0x3d84cf51	0.06484855
109	0x3de7cfa5	0.11318902
110	0xbd5919c9	-0.053003106
111	0xbd72ef13	-0.05931003
112	0x3d15562a	0.036459126
113	0x39833a92	0.00025029905
114	0xbc346e6f	-0.011012658
115	0x3d6f50d4	0.058426693
116	0x3c9de52c	0.019274317
117	0x3de3c10c	0.11120805
118	0x3e0749d6	0.1321176
119	0x3d8ba5b9	0.068187185
120	0x3cc65a6c	0.024213038
121	0xbd8dc228	-0.06921798
122	0x3e1470f3	0.14496212
123	0x3d923110	0.07138264
124	0xbd3328c2	-0.04374004
125	0x3d848d01	0.06472207
126	0xbaa2eb92	-0.0012429825
127	0xbcb51472	-0.022104476

fc4.weight f4 [128, 128]
0	0xbbdcc667	-0.0067375186
1	0x3d5470fe	0.05186557
2	0x3d17dffc	0.037078843
3	0xbd9cd1d6	-0.076572105
4	0x3c4e93b5	0.012608458
5	0xbc980797	-0.018558307
6	0xbb74cfee	-0.003735538
7	0xbd2c036c	-0.04199545
8	0xbcbda22c	-0.023148619
9	0xbd4710a5	-0.048599858
10	0xbd9bc17d	-0.07605264
11	0xbbea552a	-0.0071512656
12	0xbce7a4b7	-0.028276784
13	0x3da5a368	0.08087808
14	0xbd429015	-0.04750069
15	0xbcc944bb	-0.024568906
16	0xb8cc8af1	-9.753358e-05
17	0xbd919db8	-0.071101606
18	0xbc587dc6	-0.0132135805
19	0x3d5ba4ab	0.053623836
20	0x3ceaf39f	0.02868062
21	0x3bf9aafd	0.0076192603
22	0xbce39629	-0.027781563
23	0x3a5e194b	0.0008472397
24	0x3ccd6569	0.02507277
25	0xbd032535	-0.032017905
26	0x3d86e360	0.06586337
27	0xbd8e45e3	-0.069469236
28	0x3c93d9e7	0.01804824
29	0xbdb42046	-0.08795218
30	0xbd86669c	-0.0656254
31	0x3d30b536	0.043141566
32	0x3d904e9e	0.07046245
33	0xbd39ca71	-0.04535908
34	0x3c5e7267	0.01357708
35	0x3c56d5ec	0.013112526
36	0xbd4ee60f	-0.05051237
37	0xbdab39c9	-0.08360631
38	0xbc86fb90	-0.016477376
39	0xbd98d1aa	-0.07461865
40	0x3d60c917	0.054879274
41	0x3b1957ed	0.0023398355
42	0xbcb8b9ea	-0.022549588
43	0xbc19ef7b	-0.0093954755
44	0xbc246342	-0.0100334305
45	0x3d8823dd	0.066474654
46	0xbd872d03	-0.06600382
47	0x3d770155	0.060304005
48	0xbc061e2d	-0.008185905
49	0x3c006f24	0.007838998
50	0xbda811a3	-0.08206489
51	0xbc9ca09a	-0.01911955
52	0x3c820520	0.015871584
53	0x3d2de0d3	0.042450737
54	0xbb15845b	-0.0022814486
55	0x3da05a81	0.07829762
56	0x3d75c98c	0.060006663
57	0x3da1aa28	0.07893783
58	0xbd4a1512	-0.0493365
59	0xbd91b873	-0.07115259
60	0x3d718e03	0.058973324
61	0x3cafa78b	0.021442195
62	0x3bc2cb02	0.0059446106
63	0xbcaffa4d	-0.021481657
64	0x3d814304	0.0631161
65	0x3d3e8295	0.04651125
66	0xbd8fbea2	-0.07018782
67	0xbdbbf0b8	-0.09176773
68	0xbdc38e9c	-0.09548685
69	0xbdb8e94e	-0.09028874
70	0xbc014f5e	-0.007892458
71	0x3cf3b7b8	0.02975069
72	0xbd987b28	-0.07445365
73	0x3d9060ce	0.07049714
74	0xbd5c00bf	-0.05371165
75	0x3c80b9dd	0.015713627
76	0xbca2bf50	-0.019866616
77	0xbd629c3c	-0.055324778
78	0x3aa0dc7c	0.0012272741
79	0x3d63660b	0.055517238
80	0xbcd43ed9	-0.025908874
81	0x3ceb8d31	0.028753849
82	0xbc7af392	-0.015316861
83	0xbd4c7f59	-0.049926136
84	0x3daf26ca	0.0855232
85	0x3dad7db3	0.08471241
86	0xbd856ba9	-0.06514675
87	0xbbdd38bc	-0.006751148
88	0x3d3abd27	0.045590546
89	0x3c90067d	0.017581219
90	0xbcb5d41e	-0.022195872
91	0xbd917571	-0.07102478
92	0xbcd4f25a	-0.025994468
93	0xbb94c0df	-0.0045395936
94	0x3caccc5c	0.02109354
95	0x3b92719b	0.0044691092
96	0x3d9cd61f	0.07658028
97	0xbd9cb6da	-0.07652064
98	0xbc462737	-0.0120943105
99	0x3d32b2d8	0.04362759
100	0xbcbe052b	-0.023195824
101	0xbcd964cd	-0.026537323
102	0xbcc256fd	-0.02372312
103	0xbd2b24a7	-0.041783
104	0xbd811f75	-0.06304828
105	0x3a414224	0.00073722214
106	0x3a6f5344	0.0009129534
107	0xbd089f85	-0.033355255
108	0xbc5ea23e	-0.013588486
109	0xbcdc045f	-0.026857553
110	0xbd1821d4	-0.037141636
111	0x3d80c453	0.06287446
112	0xbd8291ae	-0.063754424
113	0xbd4d0bdf	-0.05006015
114	0xbd43c7d7	-0.047798004
115	0x3c5c2417	0.013436339
116	0x3d9f86f5	0.07789413
117	0xbd32280f	-0.043495234
118	0x3b907dad	0.004409513
119	0xbd82a8d8	-0.06379861
120	0x3ca8a247	0.020585192
121	0x3ab61e61	0.0013894552
122	0x3bd12609	0.006382708
123	0x3b93583c	0.0044966023
124	0x3d983da1	0.0743363
125	0xbd0bade3	-0.03410138
126	0xbcdecf26	-0.027198385
127	0x3d997277	0.074925356
128	0xbdbb0d2e	-0.09133373
129	0xbc19e1f4	-0.00939225
130	0xbd6d54e3	-0.057942282
131	0xbd974f4e	-0.07388173
132	0x3cbc6021	0.022995057
133	0xbd0aea8d	-0.03391509
134	0xbd21f970	-0.039544523
135	0x3d239011	0.039932314
136	0x3cf492f2	0.029855225
137	0xbd6f318f	-0.058396872
138	0x3b1601de	0.0022889297
139	0xbcef2a36	-0.029194932
140	0x3bcaafd9	0.0061855135
141	0x3cb29d9c	0.02180367
142	0xbdc28a64	-0.09499052
143	0xbd9e7ed2	-0.07739033
144	0xbb763893	-0.0037570342
145	0x3b2070b6	0.0024481243
146	0xbd81ca88	-0.06337458
147	0x3d84f20f	0.064914815
148	0x3d8da727	0.069166474
149	0x3cbfb256	0.023400467
150	0xbd6a0f4c	-0.057143494
151	0x3d990557	0.074717216
152	0xbda01e91	-0.0781833
153	0x3cf1f9b1	0.029538007
154	0x3d231940	0.039819002
155	0xb8e0436a	-0.00010693709
156	0x3c7c2d20	0.015391618
157	0x3d70a9ba	0.058755614
158	0x3d90e5ec	0.07075104
159	0x3b189106	0.00232798
160	0xbd451ee2	-0.048125155
161	0x3cc3a48d	0.023882175
162	0x3d99f7dc	0.075179785
163	0xbd38d63f	-0.045126196
164	0x3da00126	0.07812719
165	0xbd8bf7d4	-0.06834379
166	0xbd23a55c	-0.03995262
167	0xbd1b6a8e	-0.037943415
168	0xbd98e74e	-0.07465993
169	0xbcb6ff7f	-0.022338627
170	0x3d877b96	0.06615369
171	0xbca3f790	-0.020015508
172	0xbd56e9ef	-0.05246919
173	0x3bea8bf9	0.0071577993
174	0xbd958e87	-0.073025756
175	0x3b797275	0.0038062606
176	0x3d11f5e9	0.03563491
177	0x3c2d8703	0.010591271
178	0xbd397d07	-0.04528525
179	0xbdc64ec5	-0.09682993
180	0x3d655ce1	0.05599678
181	0x3d59e9d7	0.053201523
182	0xbd1db854	-0.038505867
183	0xbce0edc2	-0.027457122
184	0x3cf5ecb9	0.030020105
185	0xbda57f4c	-0.080809206
186	0xbc1e3b2b	-0.009657661
187	0xbcab4140	-0.020905137
188	0x3d8ff1ed	0.070285656
189	0xbda09442	-0.07840778
190	0x3c663d6a	0.014052728
191	0xbd0da63c	-0.03458236
192	0xbcf07e84	-0.029357202
193	0xbceadcdb	-0.028669765
194	0xbd935506	-0.07193951
195	0xbcfb28a0	-0.03065902
196	0x3d920137	0.07129138
197	0xbd0d34de	-0.034474246
198	0x3d80169e	0.06254314
199	0xbd9892de	-0.07449888
200	0xbca660d2	-0.02030984
201	0xbb66ce3d	-0.0035218142
202	0x3d97cfdb	0.07412692
203	0xbcf31230	-0.029671758
204	0xbcaeb81a	-0.02132802
205	0x3d0b9100	0.03407383
206	0x3cbea2a2	0.023270909
207	0x3d4f24e2	0.050572284
208	0xbd3f9fca	-0.046783246
209	0xbd16a6bb	-0.0367801
210	0xbd2052b7	-0.039141383
211	0x3d7a84f0	0.061161935
212	0xbbf2d41f	-0.0074105407
213	0x3d8e4d7a	0.06948371
214	0x3d6aa8dd	0.057289947
215	0xbda9b501	-0.08286477
216	0xbdc2ac53	-0.095055245
217	0xbce7b57a	-0.028284777
218	0xbc77501e	-0.015094785
219	0xbd4e6c82	-0.05039645
220	0xbbb2c283	-0.0054553165
221	0xbd3f7efc	-0.04675196
222	0xbcd74248	-0.026276723
223	0x3d22b1f8	0.039720505
224	0xbd9800df	-0.07422041
225	0x3d593d0c	0.053036734
226	0x3d96b9f6	0.07359688
227	0xbc5bebfd	-0.013422963
228	0x3d9c4b0d	0.07631502
229	0x3d8b40fc	0.06799504
230	0x3c6bacf7	0.0143845
231	0x3cd1eaac	0.025624596
232	0xbd11d59f	-0.035604116
233	0xbd7fa949	-0.062417302
234	0xbca9f0b9	-0.020744668
235	0xbdbaaf62	-0.09115483
236	0x3d329212	0.043596335
237	0xbcc1ef79	-0.02367376
238	0x3d9765d1	0.07392467
239	0xbc76e518	-0.015069269
240	0x3c5e0029	0.013549843
241	0x3d5d509c	0.054031953
242	0x3d9a6b48	0.075399935
243	0x3d0ea3cd	0.03482418
244	0xbd05183b	-0.03249381
245	0x3d7f5d3a	0.062344767
246	0xbc670267	-0.014099694
247	0xbdc99252	-0.098423615
248	0xbd950721	-0.0727675
249	0xbb09667f	-0.0020965633
250	0xbd4a816f	-0.049439844
251	0x3cf94b40	0.03043139
252	0xbbd55af6	-0.0065110875
253	0x3b202a1a	0.0024439157
254	0xbd970696	-0.07374303
255	0x3d540c74	0.05176969
