data/Fanuc_success/Behavior_cloning/BC_policy_GIC_GCEV_200_itr_39.pt (torch, 141887 bytes, 8 tensors)

fc0.weight f4 [128, 6]
-0.08815035 0.36488047 0.24390538 0.0047688372 0.27280542 0.118721455 0.19195074 -0.18759461
0.28691545 -0.23280619 -0.17291152 0.25397342 -0.8872852 -1.4194477 -0.22242232 0.41321623
-0.45624766 -0.20355554 1.2413157 -1.9423369 -0.37194586 0.33573613 0.73450655 0.87822694
0.77289724 3.8685439 -0.34425098 -0.48903918 0.19689749 -0.2971541 0.07518546 -0.6040379
-0.06313785 -0.0031281235 -0.3144544 0.06393886 -0.063711755 -0.31730866 0.2272165 0.14514896
-0.10917768 0.0057232985 -0.20412928 0.8667869 -0.46416914 0.045614053 -0.101644345 -0.006961171
-0.76698816 -0.29820552 -0.30709463 -0.2391059 -0.17965768 -0.07909023 -0.19666581 -0.09989283
0.065051705 -0.49318686 0.6599794 -0.02618251 -0.085493185 0.6112781 -0.54744446 -0.035240423
0.22153081 -0.038194075 -0.12965737 -0.1563814 -0.054806817 0.37588394 0.12289748 -0.31347314
0.24571107 -0.3405404 -0.03716484 -0.15064605 0.26074463 -0.07999909 0.36795893 -0.04919759
0.3165054 0.31602606 -0.14085849 0.23870677 -0.4281971 -0.06421527 -0.639259 -0.21318801
-0.27853012 0.07201167 -2.152368 -2.108188 -0.70992714 0.7000392 -0.8863733 -0.55439544
0.03503293 0.28352517 0.33695468 0.34223893 -0.07494989 0.06854259 0.028252611 -0.18267402
-0.21830784 -0.2054534 0.35873273 0.23368971 0.3973524 -0.95523214 0.24884477 0.301819
0.17869207 0.23118442 -0.20300885 0.121341035 -0.66143966 -0.06892552 -0.030359466 0.6561162
-0.1312649 -0.31575197 -0.18698227 -0.08388899 -0.045884162 0.36102274 -2.3353207 -1.4745523
-0.6802518 0.6848016 0.13939083 -0.15498357 0.17054366 0.3512634 -0.69117045 0.6275769
0.43967667 -0.1742314 0.3143093 -0.3482608 0.2729959 -0.24369387 0.21387643 -0.25111616
1.6113559 -1.6435481 -0.44798645 0.51554793 0.44998145 -0.20317282 0.5506623 -1.180198
-0.20715849 0.5791635 0.25585932 -0.06752797 -0.22380367 -0.027735528 -0.5696599 0.41889346
-0.16573532 0.49807328 -0.42465496 -0.34016913 -0.38307643 0.028215861 0.22143747 0.7853475
0.42114824 -0.15753551 0.37430575 -0.0342173 -0.015456772 -0.07509984 -0.010778676 -0.16294019
-0.06671207 0.024943074 0.39064965 -0.106957555 -0.15842973 0.26597443 0.067026824 0.097140074
0.119604416 0.38102445 0.59484553 -0.85690826 -0.617688 0.7808089 -0.092069864 0.0058398745
0.43564382 -0.4329996 -0.26903072 0.5095338 0.4529762 -0.38146034 -2.1951995 2.372985
-0.07332436 -0.3084613 -0.10073489 -0.33838847 -0.16826902 -2.4832644 -0.73909694 -0.11016152
0.37140095 0.17655292 -0.6778231 0.581782 -0.5118615 -0.29594246 0.0026550784 0.03000835
-1.5396111 -1.3707557 -0.29742137 0.02971407 -0.16243821 0.054256544 -0.009383448 -0.09036412
-0.7966949 -0.046889577 -0.07006776 0.17827772 -0.59290874 -0.35346878 -0.11955372 0.20471276
-0.5966612 0.37190172 -0.59987426 0.43756518 -0.78867805 0.32162973 -0.17715599 0.2735501
-0.53884894 -0.38099644 -0.34222513 0.11118413 0.087073795 0.45784506 -0.12374532 0.9759609
-0.44972438 -0.13442513 -0.02139708 -0.09465705 0.33616015 -0.09635392 0.4156682 -0.34274203
00000000: 2c88 b4bd 9dd1 ba3e 55c2 793e e843 9c3b
00000010: 27ad 8b3e 3c24 f33d bc8e 443e cd18 40be
00000020: 95e6 923e bf64 6ebe b80f 31be ce08 823e
00000030: 1f25 63bf 76b0 b5bf adc2 63be 1491 d33e
00000040: 4b99 e9be dd70 50be 6fe3 9e3f 7f9e f8bf
00000050: b06f bebe 9be5 ab3e 9f08 3c3f 7bd3 603f
00000060: 98dc 453f 3996 7740 aa41 b0be 5863 fabe
00000070: 7f9f 493e 9524 98be d6fa 993d 3aa2 1abf
00000080: 6b4e 81bd 3401 4dbb 2b00 a1be 61f2 823d
00000090: 4f7b 82bd 4876 a2be 71ab 683e eea1 143e
000000a0: 8c98 dfbd 828a bb3b 4407 51be bfe5 5d3f
000000b0: 94a7 edbe cdd5 3a3d e92a d0bd 891a e4bb
000000c0: 5659 44bf 65ae 98be 823b 9dbe 2dd8 74be
000000d0: 2ff8 37be 0ffa a1bd c362 49be 9d94 ccbd
000000e0: d439 853d fd82 fcbe 69f4 283f b47c d6bc
000000f0: 0d17 afbd b97c 1c3f 5225 0cbf 4358 10bd
00000100: f9d8 623e 6471 1cbd e7c4 04be 7222 20be
00000110: 1d7d 60bd dc73 c03e adb1 fb3d 8d7f a0be
00000120: af9b 7b3e 505b aebe 293a 18bd f542 1abe
00000130: 5280 853e 90d6 a3bd 1d65 bc3e 6a83 49bd
00000140: ff0c a23e 2bce a13e 353d 10be 8c6f 743e
00000150: a63c dbbe 4c83 83bd 7aa6 23bf f54d 5abe
00000160: 809b 8ebe db7a 933d 66c0 09c0 8dec 06c0
00000170: c9bd 35bf c535 333f 5ce9 62bf dcec 0dbf
00000180: b17e 0f3d 362a 913e 5385 ac3e f139 af3e
00000190: 547f 99bd 0f60 8c3d 0572 e73c e60e 3bbe
000001a0: 178c 5fbe 6062 52be d1ab b73e 5b4c 6f3e
000001b0: c671 cb3e 188a 74bf 2ad1 7e3e 0588 9a3e
000001c0: 0efb 363e 9cbb 6c3e 8de1 4fbe a681 f83d
000001d0: 1c54 29bf d328 8dbd 6ab4 f8bc 3bf7 273f
000001e0: 4e6a 06be 3eaa a1be 4878 3fbe fecd abbd
000001f0: 08f1 3bbd f9d7 b83e e575 15c0 21be bcbf
00000200: fb24 2ebf 284f 2f3f 78bc 0e3e 03b4 1ebe
00000210: ffa2 2e3e ccd8 b33e 8cf0 30bf e1a8 203f
00000220: 4d1d e13e b769 32be 26ed a03e 3d4f b2be
00000230: 1ec6 8b3e e38a 79be 6c02 5b3e 4c92 80be
00000240: e940 ce3f c95f d2bf 7b5e e5be f3fa 033f
00000250: f863 e63e 890c 50be 34f8 0c3f ba10 97bf
00000260: 5b21 54be 0f44 143f feff 823e 1b4c 8abd
00000270: ca2c 65be 9e35 e3bc 3bd5 11bf 3479 d63e
00000280: 85b6 29be 7603 ff3e 606c d9be a62a aebe
00000290: 9822 c4be f324 e73c 81c0 623e 890c 493f
000002a0: bea0 d73e fd50 21be 01a5 bf3e 7127 0cbd
000002b0: 673e 7dbc f2cd 99bd 0b99 30bc cbd9 26be
000002c0: 56a0 88bd 6b55 cc3c 3b03 c83e 900c dbbd
000002d0: 673b 22be cd2d 883e 5c45 893d 60f1 c63d
000002e0: 29f3 f43d a315 c33e cc47 183f 575e 5bbf
000002f0: cd20 1ebf 18e3 473f 208f bcbd 6b5c bf3b
00000300: b50c df3e 20b2 ddbe 65be 89be cf70 023f
00000310: 7fec e73e c54e c3be 267e 0cc0 fcde 1740
00000320: 152b 96bd a4ee 9dbe 184e cebd 4141 adbe
00000330: b74e 2cbe ceed 1ec0 7535 3dbf 5d9c e1bd
00000340: 4428 be3e 4aca 343e d185 2dbf aaef 143f
00000350: 5b09 03bf c585 97be d300 2e3b 12d4 f53c
00000360: fa11 c5bf ec74 afbf 9d47 98be ec6a f33c
00000370: 3456 26be 1c3c 5e3d 09bd 19bc d310 b9bd
00000380: 32f4 4bbf 490f 40bd b07f 8fbd 6f8e 363e
00000390: dec8 17bf dcf9 b4be 95d8 f4bd 39a0 513e
000003a0: cabe 18bf e769 be3e 5c91 19bf 8b08 e03e
000003b0: cee6 49bf a7ac a43e 6168 35be c20e 8c3e
000003c0: 01f2 09bf f711 c3be 2238 afbe 81b4 e33d
000003d0: bf53 b23d ab6a ea3e 306e fdbd 93d8 793f
000003e0: 4642 e6be bea6 09be ee48 afbc 8edb c1bd
000003f0: 2f1d ac3e 3455 c5bd 76d2 d43e e27b afbe

fc0.bias f4 [128]
-0.1685573 -0.3269612 -0.0006965967 -0.015498648 -0.0143402405 0.27889866 -0.10565952 -0.020440111
0.039425485 -0.10520682 -0.027601535 -0.39177492 -0.29980624 0.2734489 0.1555693 -0.029551897
-0.25491518 -0.0020352737 0.1626728 0.09051942 -0.24415018 -0.028229358 -0.008334482 -0.36819848
-0.02095503 -0.08702902 0.022119332 0.14171296 0.10421458 0.27805746 -0.24206865 -0.025317468
-0.029259823 -0.015924059 -0.031282686 0.065470815 -0.09432981 -0.03287954 -0.23807193 -0.008851614
0.08237385 -0.017169733 0.095386 0.00036461538 0.0044527375 -0.10977967 0.07394504 -0.022159062
-0.021513093 -0.0053455727 -0.2392864 -0.02658031 0.042050723 -0.033649325 0.25622618 -0.008896028
-0.33070204 -0.022429407 0.28570276 -0.32016325 -0.32090074 -0.20080888 -0.33744463 -0.03298628
-0.3175057 -0.21160248 0.10564484 0.13478918 0.20952523 -0.015543673 -0.028721513 0.27814782
0.3650572 0.0020343 0.053260982 0.284854 0.37377518 -0.35998672 0.2583327 -0.2560008
-0.30783755 0.25252944 -0.019740814 -0.34858224 0.17092492 0.23498887 0.16704707 -0.002094502
0.09560484 -0.0017354545 -0.025818372 -0.24618119 0.13813797 0.183217 -0.30788743 0.003324085
-0.029351408 0.35809276 -0.02808509 -0.014665599 -0.021214342 0.09623653 0.031854376 -0.28707173
0.015451141 -0.030914463 -0.21968357 0.17110509 0.084277 -0.32474616 -0.19640124 0.01812478
-0.031291325 -0.025317024 0.15169866 -0.39303607 -0.043263495 0.25720534 0.15303013 0.27081692
0.1861003 0.12221708 0.29262376 -0.21168384 -0.35539752 -0.3380736 0.26690057 -0.009548356
00000000: 499a 2cbe 7567 a7be d09b 36ba 0bee 7dbc
00000010: 54f3 6abc cecb 8e3e 0564 d8bd 0572 a7bc
00000020: 9e7c 213d ac76 d7bd 9d1c e2bc b996 c8be
00000030: 3480 99be 7f01 8c3e 8f4d 1f3e d216 f2bc
00000040: 3e84 82be 3a62 05bb b393 263e 3f62 b93d
00000050: 8102 7abe 4141 e7bc 5a8d 08bc 8384 bcbe
00000060: e2a9 abbc 453c b2bd 9a33 b53c 341d 113e
00000070: 746e d53d 8c5d 8e3e d8e0 77be 9466 cfbc
00000080: 4cb2 efbc 2c73 82bc 4622 00bd 9015 863d
00000090: fd2f c1bd b2ac 06bd 21c9 73be 5c06 11bc
000000a0: 9fb3 a83d 8aa7 8cbc bc59 c33d d929 bf39
000000b0: 45e8 913b 2ad4 e0bd 7f70 973d ec86 b5bc
000000c0: 3a3c b0bc ea29 afbb 7e07 75be f3be d9bc
000000d0: 613d 2c3d e0d3 09bd 1430 833e a5c0 11bc
000000e0: c751 a9be e0bd b7bc a247 923e 70ec a3be
000000f0: 1a4d a4be d8a0 4dbe 8bc5 acbe 9f1c 07bd
00000100: 1b90 a2be 52ae 58be 525c d83d 2d06 0a3e
00000110: c88d 563e e4aa 7ebc 6149 ebbc 6469 8e3e
00000120: c7e8 ba3e e451 053b 3028 5a3d 62d8 913e
00000130: 765f bf3e 2e50 b8be 2f44 843e 8912 83be
00000140: e29c 9dbe 8a4b 813e 7db7 a1bc 5f79 b2be
00000150: f106 2f3e eca0 703e 630e 2b3e ea43 09bb
00000160: 78cc c33d 3178 e3ba 0d81 d3bc ec16 7cbe
00000170: 0a74 0d3e 3d9d 3b3e 6ca3 9dbe e4d8 593b
00000180: 5d72 f0bc ef57 b73e b412 e6bc fb47 70bc
00000190: b3c9 adbc a817 c53d bc79 023d 11fb 92be
000001a0: c826 7d3c 5440 fdbc bbf4 60be 2c36 2f3e
000001b0: 6b99 ac3d 2145 a6be 681d 49be 6b7a 943c
000001c0: 552b 00bd a665 cfbc e556 1b3e 063c c9be
000001d0: 1035 31bd 6bb0 833e eeb3 1c3e 84a8 8a3e
000001e0: 1491 3e3e f34c fa3d c8d2 953e a6c3 58be
000001f0: aaf6 b5be fc17 adbe 31a7 883e b570 1cbc

fc1.weight f4 [128, 128]
-0.046167772 0.048154976 -0.06907121 -0.10406463 -0.058256134 -0.05994431 -0.017099395 0.059040558
-0.10499285 0.07201422 -0.014783892 -0.03725575 0.06924919 -0.023160327 -0.019208407 0.053825047
0.025472438 0.0076398114 -0.099432945 -0.020663582 0.061409906 -0.08249816 -0.04075472 -0.056134135
-0.014629347 -0.0929695 0.05476123 -0.040950492 -0.019022912 -0.08602814 -0.062279828 -0.07889334
-0.06340227 0.043672394 -0.028646171 0.07479933 -0.06912901 -0.068574555 0.08733267 0.012249141
-0.03231451 -0.014009973 -0.073341705 0.027022256 0.038387243 0.08564037 -0.0617193 -0.09155724
0.048698336 -0.07416277 0.014537164 0.04272987 -0.033646636 0.039726157 -0.050778247 0.025258945
0.074986584 0.03280115 -0.09738077 0.083061814 -0.08539509 -0.014920795 -0.025881242 0.0009384733
-0.03607511 0.07958563 -0.07873657 -0.032566074 0.023213508 -0.04773799 0.004484726 -0.08240747
0.04823234 -0.011288099 -0.0018387759 0.029477967 -0.10342898 0.060223904 0.012261939 0.053265125
0.026559785 0.051822472 0.085873306 -0.06074662 -0.0021056735 -0.088795654 -0.0504383 -0.061486077
-0.05159901 -0.06869798 0.04099459 -0.06919428 -0.007289514 0.03263061 -0.039146844 0.04493853
-0.0276214 0.054972783 -0.014730523 0.010833562 0.0061372155 -0.020274477 -0.060031615 -0.035922613
-0.0705981 -0.040846854 -0.084449194 0.016047843 0.046195507 0.029998366 0.045416337 -0.05350007
0.021570956 0.05733628 0.020970302 0.08328673 -0.035816096 0.006884552 0.0664958 -0.06272142
-0.05712209 -0.04968817 -0.08204244 0.012522682 -0.013313799 0.052302364 0.037117176 0.0017971022
-0.019535141 0.025741747 0.059526313 0.49650475 1.3757873 0.009264081 -0.07931491 0.7321405
0.0380359 0.24835238 0.3644757 -0.03787462 -0.05101725 -0.08392193 -0.016570901 1.0275254
0.058287438 0.1537132 0.07092223 0.102674566 -0.016465457 0.91917753 0.13472167 -0.085882835
0.9973733 0.0024109553 -0.034024242 0.031396527 -0.0041861846 0.04425573 0.03027806 0.7971497
-0.17003863 0.22216617 0.9046004 0.045069788 -0.22263911 0.9505267 -0.0033150273 0.35150957
0.023155717 0.52803826 -0.013805082 0.80063725 0.24679641 -0.07783212 -0.06928607 1.3894613
0.4814449 0.21685688 -0.028544638 0.04992982 0.03778749 -0.05008771 0.07974169 0.060722
-0.054764308 0.25749952 0.017161133 0.05635159 0.065175824 -0.07502201 -0.018303555 0.80095834
-0.055820875 -0.018914863 0.10558567 0.08490008 0.01584426 0.21194011 0.9557635 -0.035506196
-0.06440938 0.12150346 0.03601451 0.04042614 0.02244003 0.01314852 -0.019479439 -0.058158245
0.053911064 0.0013944746 0.29670495 -0.077144355 0.062707566 -0.03495874 -0.0541213 0.123223536
-0.015870761 0.20206597 0.91671 0.07261224 -0.023268135 0.108088374 0.022848144 0.10061487
0.17787126 -0.00021673227 -0.069997184 0.22235988 0.065792836 -0.0040671513 -0.03813031 -0.040534142
-0.03638802 0.78848857 0.07618605 0.058509547 -0.034861796 -0.017193384 -0.05599625 0.088104725
-0.24286863 1.2957559 0.03838835 -0.025493244 0.22479282 0.044481836 0.011912159 0.072870225
-0.055937167 0.028410412 0.012925722 0.028003894 -0.025010077 0.02036702 -0.0070077796 0.11143817
00000000: 6b1a 3dbd 273e 453d 3575 8dbd d61f d5bd
00000010: fc9d 6ebd 2a88 75bd 0814 8cbc 83d4 713d
00000020: 7e06 d7bd 317c 933d 2338 72bc 7c99 18bd
00000030: 85d2 8d3d baba bdbc f35a 9dbc a777 5c3d
00000040: 93ab d03c 6257 fa3b 80a3 cbbd ac46 a9bc
00000050: f488 7b3d ccf4 a8bd 6cee 26bd e8ec 65bd
00000060: eeaf 6fbc cb66 bebd 504d 603d b4bb 27bd
00000070: f0d5 9bbc 852f b0bd 2219 7fbd d592 a1bd
00000080: 0dd9 81bd d3e1 323d 60ab eabc 6430 993d
00000090: 8393 8dbd d170 8cbd 79db b23d 9fb0 483c
000000a0: 385c 04bd 168a 65bc 2d34 96bd c75d dd3c
000000b0: f13b 1d3d 3864 af3d 60cd 7cbd 5d82 bbbd
000000c0: e877 473d a6e2 97bd 492d 6e3c 8405 2f3d
000000d0: 0ed1 09bd e5b7 223d dafc 4fbd d9eb ce3c
000000e0: 9192 993d 805a 063d 926f c7bd 501c aa3d
000000f0: 9fe3 aebd 5a76 74bc e604 d4bc e103 763a
00000100: 7fc3 13bd cafd a23d a440 a1bd 0164 05bd
00000110: 412a be3c e988 43bd 9cf4 923b 3fc5 a8bd
00000120: 468f 453d b8f1 38bc 1503 f1ba c77b f13c
00000130: 93d2 d3bd 57ad 763d 4de6 483c 882c 5a3d
00000140: e893 d93c cd43 543d 58de af3d 73d1 78bd
00000150: 57ff 09bb 7fda b5bd 6498 4ebd d3d8 7bbd
00000160: 7c59 53bd 87b1 8cbd f1e9 273d bbb5 8dbd
00000170: e0dc eebb ada7 053d 7158 20bd 7711 383d
00000180: 4646 e2bc 242b 613d 4b58 71bc 417f 313c
00000190: b21a c93b a916 a6bc b6e3 75bd 9723 13bd
000001a0: bd95 90bd 084f 27bd b3f3 acbd c476 833c
000001b0: 8037 3d3d 22bf f53c 7b06 3a3d e422 5bbd
000001c0: 93b5 b03c 72d9 6a3d e9c9 ab3c 3c92 aa3d
000001d0: e6b3 12bd cf97 e13b f32e 883d 1674 80bd
000001e0: daf8 69bd d385 4bbd de05 a8bd ef2b 4d3c
000001f0: 1f22 5abc 013b 563d 2e08 183d be8c eb3a
00000200: 2908 a0bc 5be0 d23c ddd1 733d df35 fe3e
00000210: cc19 b03f 5fc8 173c db6f a2bd 8f6d 3b3f
00000220: 88cb 1b3d 1650 7e3e 8f9c ba3e 6b22 1bbd
00000230: 77f7 50bd 43df abbd b3bf 87bc f485 833f
00000240: cfbe 6e3d fe66 1d3e ad3f 913d 0b47 d23d
00000250: 91e2 86bc 384f 6b3f 7af4 093e 57e3 afbd
00000260: db53 7f3f 1e01 1e3b 015d 0bbd a599 003d
00000270: 432c 89bb 7f45 353d b209 f83c 0112 4c3f
00000280: 9b1e 2ebe 877f 633e e493 673f 199b 383d
00000290: 82fb 63be b855 733f ee40 59bb 10f9 b33e
000002a0: 0fb1 bd3c 842d 073f b62e 62bc 90f6 4c3f
000002b0: 33b8 7c3e 7266 9fbd dbe5 8dbd ded9 b13f
000002c0: f27f f63e bb0f 5e3e 72d6 e9bc 3683 4c3d
000002d0: 0ec7 1a3d c528 4dbd 9c4f a33d a2b7 783d
000002e0: 8a50 60bd fad6 833e 8195 8c3c edd0 663d
000002f0: e77a 853d 24a5 99bd 56f1 95bc 9b0b 4d3f
00000300: 6ea4 64bd 58f3 9abc 4d3d d83d 18e0 ad3d
00000310: d2cb 813c d406 593e ebac 743f f26e 11bd
00000320: 11e9 83bd ced6 f83d f383 133d e195 253d
00000330: 27d4 b73c e46c 573c 5893 9fbc 5737 6ebd
00000340: d9d1 5c3d cec6 b63a b6e9 973e dcfd 9dbd
00000350: d36c 803d e530 0fbd 4cae 5dbd 9f5c fc3d
00000360: 6603 82bc 62ea 4e3e 82ad 6a3f bab5 943d
00000370: d19c bebc 705d dd3d 082c bb3c 2b0f ce3d
00000380: e223 363e a042 63b9 af5a 8fbd 4fb2 633e
00000390: 65be 863d bd45 85bb 872e 1cbd 2107 26bd
000003a0: 9b0b 15bd 63da 493f 6f07 9c3d b5a7 6f3d
000003b0: 3ecb 0ebd 24d9 8cbc 535c 65bd 4070 b43d
000003c0: 8eb2 78be 54db a53f 1a3d 1d3d 35d7 d0bc
000003d0: 1730 663e 9632 363d 372b 433c fc3c 953d
000003e0: 5f1e 65bd f4bc e83c 68c6 533c 6c68 e53c
000003f0: efe1 ccbc bdd8 a63c 84a1 e5bb b239 e43d

fc1.bias f4 [128]
-0.06565359 0.02183132 -0.009312803 0.05564899 -0.018803952 -0.069459565 -0.046095077 0.008913349
0.07948697 0.029407836 -0.022821955 0.018860724 0.06517158 -0.04355628 -0.036311846 0.10782924
0.09530602 0.046737745 0.059002277 -0.023128532 0.13429564 0.054103885 -0.05555262 0.0034889162
-0.060985316 -0.019344488 0.07848388 -0.0050749783 0.033043634 -0.0325452 -0.039799027 -0.042812742
0.01016397 0.08818593 -0.072820544 0.09456026 0.06628354 -0.05038471 -0.05250784 -0.060172155
-0.057322413 -0.056327034 0.058151785 0.063570626 -0.025032165 -0.054295085 -0.01710091 0.023750547
0.06262281 0.034980025 0.08491326 0.07682319 0.10118448 0.066429615 -0.066025466 -0.012468864
-0.025376182 0.12536265 0.030940615 0.046407532 0.05988867 -0.0038792603 -0.01651377 -0.08753244
-0.008125019 -0.06307119 0.08875271 0.11949189 0.0017989338 -0.09385695 -0.06000447 0.06558376
0.035751265 0.06051435 -0.020807298 -0.07087485 0.093113996 -0.0059881965 0.029738547 -0.07763111
0.04392801 0.022648653 -0.02599313 0.08297162 -0.030449564 0.032090202 0.09879348 0.07729246
0.12927064 0.10424782 -0.04211418 -0.044266783 -0.050097924 -0.008376507 0.008548243 0.00021377906
-0.08642233 -0.031678103 -0.009266703 0.03516731 -0.0011992702 0.06956456 -0.029825196 -0.09145362
0.031185588 -0.094108276 -0.044451967 0.0757084 0.021911534 0.09002822 0.06786826 -0.06472661
-0.08644952 -0.0135567235 -0.008406083 -0.031031141 0.06557563 -0.057002302 -0.011419619 -0.038180135
0.02801895 0.03484272 -0.09135348 -0.026565846 0.06932413 0.039154205 0.06914996 -0.09534232
00000000: 6475 86bd 99d7 b23c ba94 18bc 32f0 633d
00000010: bf0a 9abc d140 8ebd 31ce 3cbd 4c09 123c
00000020: 11ca a23d b4e8 f03c 1cf5 babc ce81 9a3c
00000030: ad78 853d 1268 32bd bbbb 14bd 94d5 dc3d
00000040: cd2f c33d 1470 3f3d 5fac 713d 0c78 bdbc
00000050: cc84 093e 099c 5d3d 258b 63bd 4da6 643b
00000060: bdcb 79bd 5578 9ebc 28bc a03d 014c a6bb
00000070: c358 073d 1e4e 05bd 4e04 23bd 6a5c 2fbd
00000080: c886 263c d39a b43d f022 95bd cfa8 c13d
00000090: aabf 873d 3360 4ebd 7612 57bd 1477 76bd
000000a0: e8ca 6abd 2db7 66bd 9130 6e3d 5131 823d
000000b0: 4110 cdbc 8664 5ebd 3517 8cbc 8290 c23c
000000c0: 6340 803d 3747 0f3d 01e7 ad3d 7a55 9d3d
000000d0: cf39 cf3d 400c 883d 5c38 87bd 354a 4cbc
000000e0: b6e1 cfbc 115f 003e 2c77 fd3c d315 3e3d
000000f0: d24d 753d 303b 7ebb e347 87bc 3544 b3bd
00000100: cd1e 05bc 782b 81bd fbc3 b53d 2ab8 f43d
00000110: 34ca eb3a 1338 c0bd 3fc7 75bd c750 863d
00000120: eb6f 123d e5dd 773d 1174 aabc d526 91bd
00000130: 8db2 be3d a238 c4bb 419e f33c 0ffd 9ebd
00000140: dbed 333d ab89 b93c 8bef d4bc 06ed a93d
00000150: 5d71 f9bc 0471 033d 3c54 ca3d 824b 9e3d
00000160: 865f 043e e27f d53d eb7f 2cbd 1651 35bd
00000170: 7b33 4dbd 9e3d 09bc ee0d 0c3c e129 6039
00000180: 31fe b0bd e6c0 01bd 5fd3 17bc 990b 103d
00000190: d530 9dba dd77 8e3d f853 f4bc 094c bbbd
000001a0: eb78 ff3c d7bb c0bd 4413 36bd 010d 9b3d
000001b0: d17f b33c b760 b83d 84fe 8a3d 638f 84bd
000001c0: 720c b1bd 051d 5ebc abb9 09bc 0535 febc
000001d0: 844c 863d 3f7b 69bd 5b19 3bbc c662 1cbd
000001e0: ff87 e53c 3db7 0e3d 8917 bbbd 9ea0 d9bc
000001f0: cff9 8d3d 2960 203d 7f9e 8d3d d642 c3bd

fc2.weight f4 [128, 128]
0.058824945 -0.031641133 -0.08452416 0.04434763 0.036030043 0.056052454 0.032831065 0.0037603101
0.031519067 -0.04971384 -0.034134995 -0.024294518 -0.068083294 0.025666662 0.03560768 -0.02471668
0.03831004 0.04690747 0.015011243 -0.029386794 -0.05083835 0.065192215 0.022418194 0.06115354
0.08107638 -0.028619722 0.013765782 0.02528714 -0.04802728 0.059188914 -0.0016629144 0.06893392
0.040858977 0.015988218 -0.058076788 0.057493854 0.019468704 -0.05390979 -0.05848124 -0.04468765
0.04549062 -0.023400899 0.005364472 -0.085331075 -0.029556172 -0.030836688 -0.04195111 -0.026658766
-0.087243766 -0.015848596 0.004327259 0.0035634001 -0.075143486 -0.053038385 -0.047407217 0.08363587
-0.030357858 0.022962056 -0.07084803 0.0046912814 0.046882868 -0.08812143 -0.02861654 -0.084280126
-0.08533548 -0.007866962 0.024733003 0.01836983 0.07343383 -0.011617241 -0.08046015 -0.021116203
0.010213888 -0.01953006 -0.050682858 -0.085036784 0.040870063 0.05889375 -0.014847692 -0.0873257
-0.0659321 0.051760733 0.035033472 0.041964382 0.08174957 -0.0067998986 -0.055103324 -0.046490755
-0.019396864 -0.0011731049 -0.04338842 -0.07930133 0.06154095 -0.0079127755 -0.08147247 0.043118257
-0.043256786 0.02181526 0.047422644 0.0037072157 -0.012404292 -0.027531596 0.07343627 -0.04818198
-0.0722933 -0.04865797 0.06623002 -0.014164997 0.0774305 -0.013256764 -0.06666489 -0.05207316
-0.0017617382 -0.008421562 0.005409369 0.049736306 -0.054108586 -0.070957 -0.015348354 -0.023647849
0.0018513108 -0.05239436 -0.009856767 0.055689726 0.01973954 -0.0060882177 -0.037251964 0.026477776
0.001812039 -0.119425185 0.10868311 0.4582493 0.08494564 -0.035323806 0.026425174 0.050391916
0.12493093 -0.048461262 0.085216 -0.09152776 0.09056209 -0.04859269 0.039807238 0.0043530483
-0.034571704 0.054854978 -0.034068067 -0.032828685 -0.021113254 0.011590029 0.30818447 -0.034438103
-0.19238691 -0.06288902 0.0053473217 0.024338484 0.07191336 -0.07356358 0.035956684 0.4703174
-0.032868266 0.06022747 -0.062417507 0.07801757 0.012964862 -0.0120391 -0.016938591 -0.07039665
0.037476107 0.0056161466 0.009118418 0.060443103 -0.038447928 -0.037886024 -0.089521535 0.08970034
0.059045892 0.35992873 0.103834294 0.04940034 0.010443187 0.12559192 0.023113215 -0.06585696
-0.17722902 0.031548552 0.09074409 0.044151675 -0.009111734 0.03645991 -0.015164601 0.4645827
0.015779523 0.035507128 -0.009202351 0.047825467 0.03409442 -0.0743914 -0.080935985 -0.037916284
0.05406952 -0.024004843 0.02661802 0.067171656 0.027114173 0.10295089 0.015486645 -0.017589154
0.06909975 0.42399737 -0.030834107 0.044483453 -0.06023343 -0.021561842 0.08463014 0.03750785
0.0655679 0.0034124162 -0.046983894 0.06130519 0.0082439445 0.053742293 -0.08112028 0.0040575895
0.016757492 0.05945134 0.5834514 0.014827692 0.021128597 0.04185935 0.0909118 0.01609318
-0.054806568 0.5014217 0.17766722 -0.012613908 0.043482773 0.025595201 -0.07013755 -0.055589594
0.055111628 0.034362968 -0.041142605 0.014135408 -0.07891933 0.075262345 -0.060346838 -0.14885597
-0.008486188 0.053476654 0.08190723 0.04691815 -0.07158272 -0.0492456 0.01853439 0.49822992
00000000: 6df2 703d 229a 01bd 011b adbd dca5 353d
00000010: 3d94 133d 4297 653d de79 063d 896f 763b
00000020: 231a 013d bda0 4bbd 23d1 0bbd 4c05 c7bc
00000030: 416f 8bbd e442 d23c 5cd9 113d a37a cabc
00000040: fdea 1c3d 0c22 403d b7f1 753c 93bc f0bc
00000050: e03b 50bd 7f83 853d 5ca6 b73c 227c 7a3d
00000060: 600b a63d e873 eabc e089 613c fa26 cf3c
00000070: 41b8 44bd 1370 723d 26f6 d9ba 3a2d 8d3d
00000080: be5b 273d b9f9 823c ede1 6dbd ad7e 6b3d
00000090: d57c 9f3c 83d0 5cbd 068a 6fbd 660a 37bd
000000a0: 5f54 3a3d 3eb3 bfbc 74c8 af3b 0fc2 aebd
000000b0: c91f f2bc 399d fcbc edd4 2bbd 7c63 dabc
000000c0: dcac b2bd ead4 81bc aecb 8d3b ef87 693b
000000d0: d4e4 99bd c73e 59bd 122e 42bd 4849 ab3d
000000e0: 0bb1 f8bc ec1a bc3c c618 91bd 52b9 993b
000000f0: 4008 403d 0279 b4bd 3c6d eabc 0f9b acbd
00000100: 5ec4 aebd 6ee4 00bc de9c ca3c 537c 963c
00000110: 7a64 963d 3e56 3ebc 4bc8 a4bd e3fb acbc
00000120: 2758 273c 81fd 9fbc d498 4fbd c427 aebd
00000130: 5e67 273d 933a 713d bc43 73bc d1d7 b2bd
00000140: 6907 87bd 1003 543d 427f 0f3d d8e2 2b3d
00000150: 526c a73d afd1 debb 06b4 61bd 176d 3ebd
00000160: 2ce6 9ebc dec2 99ba 0eb8 31bd bc68 a2bd
00000170: 5d12 7c3d 96a4 01bc 0adb a6bd c59c 303d
00000180: 072e 31bd ebb5 b23c 3f3e 423d c2f4 723b
00000190: 5f3b 4bbc f189 e1bc c165 963d 785a 45bd
000001a0: 820e 94bd 944d 47bd 9ba3 873d 4e14 68bc
000001b0: e293 9e3d e632 59bc 9a87 88bd aa4a 55bd
000001c0: 20ea e6ba 97fa 09bc 1341 b13b 4cb8 4b3d
000001d0: f7a0 5dbd e751 91bd aa77 7bbc 22b9 c1bc
000001e0: afa7 f23a 789b 56bd 477e 21bc e91a 643d
000001f0: d1b4 a13c ac7f c7bb 8495 18bd ece7 d83c
00000200: f081 ed3a 3195 f4bd 4095 de3d a79f ea3e
00000210: fbf7 ad3d b2af 10bd 9b79 d83c c167 4e3d
00000220: cadb ff3d 517f 46bd ba85 ae3d e872 bbbd
00000230: 9e78 b93d 2109 47bd ea0c 233d 04a4 8e3b
00000240: 0f9b 0dbd 9daf 603d f58a 0bbd 5f77 06bd
00000250: b4f5 acbc 1be4 3d3c 5bca 9d3e f80e 0dbd
00000260: 1301 45be f5cb 80bd 9638 af3b 8061 c73c
00000270: 5047 933d 81a8 96bd 5147 133d 71cd f03e
00000280: e0a0 06bd 14b1 763d 80a9 7fbd adc7 9f3d
00000290: 936a 543c a53f 45bc cdc2 8abc 1e2c 90bd
000002a0: 8c80 193d a707 b83b 6b65 153c 3093 773d
000002b0: 937b 1dbd 602e 1bbd 1157 b7bd d0b4 b73d
000002c0: 1bda 713d 9448 b83e 13a7 d43d 0358 4a3d
000002d0: e719 2b3c 2b9b 003e ed57 bd3c 04e0 86bd
000002e0: 867b 35be 0e39 013d 0ad8 b93d 63d8 343d
000002f0: 6249 15bc fd56 153d f274 78bc c9dd ed3e
00000300: 0f44 813c ec6f 113d 75c5 16bc a3e4 433d
00000310: 97a6 0b3d 855a 98bd c4c1 a5bd 1b4e 1bbd
00000320: 0078 5d3d cea5 c4bc 090e da3c 4b91 893d
00000330: 8b1e de3c ebd7 d23d b2bb 7d3c 2117 90bc
00000340: 2b84 8d3d 2f16 d93e cf97 fcbc 4834 363d
00000350: 54b7 76bd 76a2 b0bc 9152 ad3d d5a1 193d
00000360: 7748 863d d8a2 5f3b 2f72 40bd 271b 7b3d
00000370: 9c11 073c e120 5c3d 6422 a6bd 87f5 843b
00000380: 0247 893c 4083 733d 125d 153f d9ef 723c
00000390: e115 ad3c b674 2b3d f72f ba3d d8d5 833c
000003a0: da7c 60bd 2c5d 003f 65ee 353e 91aa 4ebc
000003b0: fe1a 323d 07ad d13c 47a4 8fbd eab1 63bd
000003c0: bbbc 613d 2fc0 0c3d 2685 28bd 3398 673c
000003d0: 75a0 a1bd 2523 9a3d 3f2e 77bd b36d 18be
000003e0: a709 0bbc 560a 5b3d fabe a73d 3f2d 403d
000003f0: f699 92bd c1b5 49bd 6fd5 973c fe17 ff3e

fc2.bias f4 [128]
-0.023317628 0.05214257 0.05106013 -0.058405492 0.12701571 0.019649055 -0.007898467 0.050948925
-0.15367147 0.13329892 -0.01679083 0.02741299 -0.025893357 -0.019706888 0.053963512 0.012668285
0.08748446 -0.043799162 -0.073794894 -0.04411423 0.025240688 0.041594014 0.07738726 0.032866422
0.106796704 -0.028182818 -0.012601887 0.027570805 0.10112483 -0.07877256 0.08487448 -0.02713517
0.10220324 -0.02485338 0.08406829 0.005233202 -0.025506278 0.01735102 -0.045212317 -0.008543082
-0.043906834 0.058299292 0.036965262 -0.0803428 0.1330462 -0.029194761 -0.061539467 -0.056402862
-0.035293706 0.09884809 0.046817992 0.12553942 -0.026907984 0.0281266 0.039585527 -0.02867158
-0.06357121 0.019756215 -0.024547942 -0.042578496 -0.07075327 0.075811915 0.0068808678 -0.1707499
-0.07493718 0.10194499 0.054103274 0.045108967 -0.082117066 0.015789853 -0.037990373 -0.047338888
-0.017721806 -0.022493416 0.064780794 0.103305005 -0.040917706 0.0011913239 0.033513978 -0.008291604
0.016873654 -0.059758168 -0.087596506 0.09842692 0.061483532 0.0037713707 0.0050897477 0.051873274
0.075380445 0.065353885 0.0818129 0.06816504 0.10197768 -0.07848364 -0.18913919 -0.00081817055
0.12539905 0.047185898 0.08712328 -0.063321054 -0.018557584 -0.06882339 0.072046764 0.043866333
0.057501514 0.0732631 -0.08436057 -0.0034261742 0.06921376 0.013221214 0.06508826 0.096675
0.026071558 0.02978962 0.03203031 -0.057151172 -0.0947941 -0.052506816 0.052267976 -0.02420258
-0.008062711 -0.010309402 -0.02767196 0.06501749 0.047160193 -0.032809198 0.09285765 -0.08759984
00000000: 9c04 bfbc 7393 553d 6d24 513d 993a 6fbd
00000010: 6810 023e 0ef7 a03c 9268 01bc d2af 503d
00000020: 0e5c 1dbe 837f 083e ec8c 89bc 3591 e03c
00000030: 4e1e d4bc 5770 a1bc d808 5d3d a38e 4f3c
00000040: 0d2b b33d c066 33bd c721 97bd 1fb1 34bd
00000050: 8fc5 ce3c 7c5e 2a3d 367d 9e3d f19e 063d
00000060: 3bb8 da3d a7df e6bc 2578 4ebc 2bdc e13c
00000070: 891a cf3d 8253 a1bd acd2 ad3d 934a debc
00000080: ef4f d13d 5199 cbbc ff2b ac3d 487b ab3b
00000090: 8bf2 d0bc ba23 8e3c 8d30 39bd 48f8 0bbc
000000a0: a7d7 33bd 3dcb 6e3d e368 173d c48a a4bd
000000b0: 433d 083e da29 efbc cf10 7cbd b006 67bd
000000c0: 2290 10bd de70 ca3d 39c4 3f3d 688d 003e
000000d0: 226e dcbc c169 e63c 6f24 223d a9e0 eabc
000000e0: 9f31 82bd c9d7 a13c c418 c9bc ca66 2ebd
000000f0: 17e7 90bd 4743 9b3d e778 e13b 10d9 2ebe
00000100: aa78 99bd 89c8 d03d 659b 5d3d 2ec4 383d
00000110: fe2c a8bd b959 813c cb9b 1bbd 6ce6 41bd
00000120: 522d 91bc 1d44 b8bc cbab 843d 9391 d33d
00000130: 5399 27bd 3226 9c3a f445 093d 82d9 07bc
00000140: 9e3a 8a3c fbc4 74bd cc65 b3bd 0e94 c93d
00000150: 28d6 7b3d 1a29 773b e6c7 a63b 1279 543d
00000160: 1061 9a3d 42d8 853d 868d a73d 1d9a 8b3d
00000170: add9 d03d 08bc a0bd b4ad 41be 7f7a 56ba
00000180: 9c68 003e 0046 413d b16d b23d 78ae 81bd
00000190: 1306 98bc 47f3 8cbd 418d 933d 2fad 333d
000001a0: b586 6b3d f70a 963d 3cc5 acbd aa89 60bb
000001b0: f2bf 8d3d ca9d 583c fe4c 853d 8bfd c53d
000001c0: 0594 d53c 5c09 f43c 3732 033d 5917 6abd
000001d0: 6923 c2bd 6311 57bd f216 563d 7d44 c6bc
000001e0: 7619 04bc c4e8 28bc 4eb0 e2bc e427 853d
000001f0: 0c2b 413d f062 06bd 272c be3d 8b67 b3bd

last_fc.weight f4 [6, 128]
-0.016842112 0.015017529 -0.0083158035 -0.017040627 0.049465578 0.020479472 -0.030670874 0.041881036
-0.39136615 0.08982982 0.06862327 0.06565173 0.04744001 0.033307426 0.02190614 -0.22792524
0.06544512 -0.012567263 -0.48100865 0.06398088 0.08136142 -0.0057969736 -0.05876218 0.035043493
-0.011517751 -0.031231783 0.022068685 -0.059046015 0.09274864 0.05726719 -0.026639855 -0.020524465
-0.008295852 -0.036883064 0.067909285 0.035370618 0.06919981 -0.035706256 -0.032081038 0.02209539
-0.07389202 -0.066597 0.08301669 -0.08137837 0.08861584 0.046588343 -0.07659435 -0.067621395
-0.011025363 0.09540622 0.07226622 -0.0060553537 0.050211992 0.008940059 0.041018583 -0.043602396
-0.03624142 -0.043228973 -0.0077290307 0.076498 -0.019650063 0.04714086 -0.061005007 0.19178346
-0.072571695 -0.04429087 -0.015699983 -0.01774488 0.08452398 0.057624124 0.007523194 0.01294061
-0.06705874 0.022699384 0.001384755 0.0057366574 -0.041770954 0.007614451 0.05168838 0.031952992
0.032965884 -0.053179346 0.023504343 -0.058645703 -0.027204609 -0.05256638 0.092752 -0.0021418773
0.032577556 0.06465461 0.0054726703 -0.024531167 -0.0043957676 0.08249113 0.2718907 0.0034574298
-0.033834126 0.052044217 -0.06903374 0.058230806 -0.03334234 0.08675294 0.07616503 0.05542604
-0.0091416035 0.050756283 -0.09423322 0.08539098 -0.038390595 0.0637322 -0.0073567024 0.014353091
-0.07940264 0.055807993 0.066490546 0.026696404 0.044169433 -0.04738549 0.04977325 -0.069684766
0.0017842862 -0.048498537 0.02067631 -0.058475003 -0.0404261 -0.018857682 0.049904246 -0.066543676
-0.029799266 -0.012345984 -0.025336184 -0.079050876 0.071709365 0.028707322 0.095796175 0.052795455
-0.38363332 0.040681675 0.030676672 0.08871149 0.0071382597 -0.075107254 -0.009759927 -0.31405982
0.024188645 -0.04193402 -0.36899897 0.08206837 -0.054776285 0.006571047 0.09808869 -0.042980544
-0.0064997035 -0.050480112 -0.0536813 0.0036521582 0.063648015 0.06287107 0.101289436 0.012048818
0.021076208 0.069200985 -0.0046530073 0.025624195 -0.06699852 -0.010364458 0.07306721 0.084918566
-0.0362159 0.031596392 0.07186932 0.043104857 0.088058904 0.011574074 0.0112668425 -0.06953123
0.046509784 -0.025352152 0.0045853113 0.080275774 0.011007295 -0.061028153 0.07052131 -0.054093298
-0.018356796 -0.009020804 0.038311042 -0.063738085 0.085790604 0.088607825 0.020915056 0.24966356
-0.17341213 -0.024239216 0.050450955 0.0034827362 -0.004721648 0.070840806 0.06163284 0.01617319
-0.020787157 0.037561353 -0.057448957 0.008984669 0.027517004 0.025454145 0.006144687 -0.019002883
0.07449021 -0.018791586 -0.028379561 0.1014815 -0.04997945 0.009019365 -0.07423937 -0.07314957
0.034432754 -0.0387902 0.009416172 0.08369486 -0.020529205 -0.030997422 0.12737136 0.014244271
0.08065496 0.030372126 0.033577513 -0.030229408 0.07295893 0.11033069 0.05142035 0.042127673
0.005053084 0.104127474 0.002694278 -0.061419073 0.054093547 -0.00076814735 -0.07183208 0.054518156
0.06431971 -0.07224363 -0.010870307 -0.07680603 -0.050974146 0.020923909 0.03962238 -0.05113139
0.009560178 -0.013645015 -0.029064948 -0.08808117 0.080455706 -0.014119553 -0.050683424 -0.081835836
00000000: 78f8 89bc 150c 763c 023f 08bc c998 8bbc
00000010: 6b9c 4a3d 91c4 a73c 7c41 fbbc 738b 2b3d
00000020: 2561 c8be b2f8 b73d 5b8a 8c3d 6a74 863d
00000030: 7550 423d 5e6d 083d 8174 b33c 3c65 69be
00000040: 1708 863d ece6 4dbc c446 f6be 6808 833d
00000050: d1a0 a63d 8af4 bdbb 9db0 70bd c489 0f3d
00000060: f3b4 3cbc ccd9 ffbc 63c9 b43c 3cda 71bd
00000070: 00f3 bd3d 0091 6a3d d33b dabc ec22 a8bc
00000080: 53eb 07bc b212 17bd 0614 8b3d c8e0 103d
00000090: a1b8 8d3d b940 12bd 6867 03bd 6401 b53c
000000a0: b354 97bd 0264 88bd a804 aa3d b4a9 a6bd
000000b0: 397c b53d 6bd3 3e3d 80dd 9cbd 167d 8abd
000000c0: b9a3 34bc 5664 c33d 5000 943d fd6b c6bb
000000d0: 17ab 4d3d 5379 123c 1a03 283d 6d98 32bd
000000e0: e271 14bd dd10 31bd cf43 fdbb fcaa 9c3d
000000f0: 2bf9 a0bc c616 413d 63e0 79bd e262 443e
00000100: 78a0 94bd 586a 35bd 409d 80bc b65d 91bc
00000110: e91a ad3d 4607 6c3d 2085 f63b da04 543c
00000120: 1856 89bd 0ff4 b93c ab80 b53a 92fa bb3b
00000130: 0518 2bbd a582 f93b 32b7 533d 24e1 023d
00000140: 3c07 073d 96d2 59bd 2e8c c03c 7a36 70bd
00000150: 33dc debc d84f 57bd c3f4 bd3d bd5e 0cbb
00000160: 0b70 053d a369 843d 1654 b33b 96f5 c8bc
00000170: 5f0a 90bb 1cf1 a83d 4235 8b3e 0c96 623b
00000180: a795 0abd 512c 553d 9061 8dbd 6d83 6e3d
00000190: fa91 08bd 87ab b13d 69fc 9b3d 6a06 633d
000001a0: aac6 15bc d2e5 4f3d 59fd c0bd 77e1 ae3d
000001b0: 753f 1dbd 0786 823d 7e10 f1bb 3a29 6b3c
000001c0: da9d a2bd ec96 643d 322c 883d 6bb2 da3c
000001d0: 02eb 343d 4a17 42bd 09df 4b3d e3b6 8ebd
000001e0: b6de e93a 67a6 46bd 5d61 a93c 7c83 6fbd
000001f0: d795 25bd 6d7b 9abc 6568 4c3d 0d48 88bd
00000200: 971d f4bc cf46 4abc d48d cfbc 6de5 a1bd
00000210: 5cdc 923d 9e2b eb3c c930 c43d 0c40 583d
00000220: 966b c4be d4a1 263d a54d fb3c 5fae b53d
00000230: 10e8 e93b d5d1 99bd 1ae8 1fbc 73cc a0be
00000240: 4427 c63c 02c3 2bbd 6fed bcbe 7613 a83d
00000250: 195d 60bd f051 d73b b9e2 c83d 5e0c 30bd
00000260: 77fb d4bb 3cc4 4ebd ece0 5bbd 0c59 6f3b
00000270: e459 823d 8cc2 803d d670 cf3d 6868 453c
00000280: 03a8 ac3c 3fb9 8d3d 4178 98bb d5e9 d13c
00000290: 8536 89bd b0cf 29bc 43a4 953d c9e9 ad3d
000002a0: 2057 14bd 386b 013d 3930 933d b88e 303d
000002b0: 3a58 b43d 2fa1 3d3c 9098 383c 6466 8ebd
000002c0: 0b81 3e3d 51af cfbc 6140 963b a067 a43d
000002d0: f157 343c a8f8 79bd 7a6d 903d ef90 5dbd
000002e0: fe60 96bc ffcb 13bc 0aec 1c3d 1d89 82bd
000002f0: fcb2 af3d 0578 b53d 0d56 ab3c cea7 7f3e
00000300: f392 31be 5291 c6bc a9a5 4e3d 9e3e 643b
00000310: 0eb8 9abb fc14 913d b872 7c3d a37d 843c
00000320: d449 aabc efd9 193d 994f 6bbd 6f34 133c
00000330: 576b e13c 3685 d03c 5f59 c93b efab 9bbc
00000340: 538e 983d d0f0 99bc 417c e8bc 88d5 cf3d
00000350: 40b7 4cbd f5c5 133c d00a 98bd 71cf 95bd
00000360: 5c09 0d3d 79e2 1ebd 4a46 1a3c 3668 ab3d
00000370: dd2c a8bc 4eee fdbc a36d 023e ce60 693c
00000380: 6d2e a53d f7ce f83c 9388 093d aaa3 f7bc
00000390: 7e6b 953d 0ff5 e13d 259e 523d 118e 2c3d
000003a0: 5794 a53b c940 d53d 7c92 303b 9192 7bbd
000003b0: 3291 5d3d 7f5d 49ba b31c 93bd 6e4e 5f3d
000003c0: 0dba 833d 78f4 93bd 5f19 32bc 7b4c 9dbd
000003d0: 44ca 50bd 9e68 ab3c 144b 223d 266f 51bd
000003e0: 4ba2 1c3c 578f 5fbc 9d19 eebc e763 b4bd
000003f0: f6c5 a43d b355 67bc 6c99 4fbd 8c99 a7bd

last_fc.bias f4 [6]
0.07051387 -0.0074360636 -0.07699408 0.120848775 0.036892768 0.06358375
00000000: 9369 903d 39aa f3bb 12af 9dbd 907f f73d
00000010: df1c 173d 3238 823d
