data/Fanuc_success/Behavior_cloning/BC_policy_CIC_GCEV_300_default_39.pt (torch, 142456 bytes, 8 tensors)

fc0.weight f4 [128, 6]
000000 b7 9f 9a be 6d 5b d5 3e 8f 55 05 bf 3b 47 de be
       -0.30199978 0.41671315 -0.5208368 -0.4341372
000010 39 52 a9 3e c2 0f 48 3d 37 9d 3b 3e 69 f2 82 be
       0.33070543 0.048843153 0.18321691 -0.2557557
000020 8d d1 11 3e 38 ed 7a 3e 92 52 e3 3c 5b 8c c2 3e
       0.14240094 0.24504554 0.027749334 0.37997708
000030 bb 81 79 3e f5 81 4c bf 1f 7b 01 3d 89 d5 99 3e
       0.24365894 -0.798858 0.031611558 0.30045727
000040 9c 4d 80 3e 33 a1 4c bd 79 21 a1 3e 18 e8 8f 3f
       0.2505921 -0.04995842 0.3147085 1.1242704
000050 26 48 1c bf ba 3e ee bd b5 a8 85 3d 03 73 36 3d
       -0.6104759 -0.11633058 0.06526319 0.044543277
000060 0b f6 60 bc 43 f6 19 3e 1c de 88 3e 8a 4b 0d 3c
       -0.013730536 0.15035348 0.26731956 0.008623967
000070 c6 d1 09 3f 88 30 89 3d 8d 14 ae 3e ff c9 93 c0
       0.53835714 0.0669871 0.34000054 -4.6184077
000080 3d 01 9a be fa 83 03 3f 49 e4 5b 3f 06 f7 8a be
       -0.3007907 0.51373255 0.8589521 -0.2714159
000090 ca 4a 35 bf fe 50 23 be 11 0e 7c 3e 7c 84 d8 3e
       -0.70817244 -0.15948865 0.24614741 0.42288578
0000a0 1c 6f 04 3e 59 98 40 bc e3 ef 61 3f 0a dc a5 3f
       0.1293301 -0.0117550725 0.88256663 1.2957776
0000b0 df 37 64 be 9f 33 e7 3d 60 c6 aa be 7f 29 82 bd
       -0.22286938 0.11289143 -0.33354473 -0.06355571
0000c0 9d 81 9b 3e d8 c0 86 bd 91 9c dd 3e c2 a0 76 be
       0.30372325 -0.06579751 0.43283513 -0.24084762
0000d0 c0 80 0e 3f c8 81 c6 3e 96 f3 b4 bf d2 f3 8e c0
       0.55665207 0.3877089 -1.4136837 -4.467263
0000e0 a4 25 89 be 6c ad 33 3e d1 12 ea 3e dd 07 6a 3f
       -0.2678653 0.17546624 0.4571748 0.9141825
0000f0 9d d2 df 3e c5 bc 13 40 b4 68 32 be 94 48 df 3e
       0.43715373 2.3083966 -0.17422754 0.4361006
000100 ee 71 ad be b6 70 0b bf 5e 72 61 bd 00 5a 87 be
       -0.33875984 -0.5446886 -0.05504071 -0.26435852
000110 4c 0b 02 3e e7 bd 5a be 92 68 c6 bd e6 f2 e7 bd
       0.12699622 -0.21361504 -0.09687914 -0.11325626
000120 b7 46 fe 3f dd f3 63 c0 fa a0 cd be 4a d9 50 3f
       1.986533 -3.5617592 -0.40161878 0.81581557
000130 20 8c 7d 3c 4b 5a 67 bd 2d 65 c8 be 59 06 84 be
       0.015475303 -0.056482594 -0.3913969 -0.25786093
000140 88 45 5b bc 42 c7 79 3e c6 3b 7a 3d 7d f7 c4 bd
       -0.013383277 0.24392417 0.06109216 -0.09617517
000150 7c 41 82 3f fe 82 7b 3e 8e fa 81 bc 9f b5 ce 3e
       1.0176234 0.24561688 -0.015866544 0.4037294
000160 8a 4a 47 bf 1d 06 4e bd b1 79 41 be ab 25 cb 3e
       -0.7784811 -0.0502988 -0.18894078 0.39677176
000170 8e cb 79 3d b9 47 64 be 57 c3 30 be 6d c0 c1 be
       0.06098514 -0.22292985 -0.17262016 -0.37842122
000180 cc e4 17 bf 6b 9c 12 3f 5a 5a 23 bf 2f 4e a6 3e
       -0.5933349 0.57269925 -0.6380974 0.32481524
000190 84 96 56 be 3b aa de 3d df 70 5b bf 97 f6 e7 3c
       -0.20955855 0.10872313 -0.857191 0.028315825
0001a0 63 16 85 3e 02 49 26 be ef a5 24 bf b5 88 0c bf
       0.25993642 -0.16238788 -0.64315695 -0.548961
0001b0 53 0d 61 3f bd c4 b7 bf f0 ba 21 bf 96 9a b5 bd
       0.87910956 -1.4356915 -0.6317587 -0.088673756
0001c0 f4 9e 0a be 53 cf 3d bd b8 97 e5 3e d3 fb 20 bf
       -0.13537198 -0.046340298 0.44842315 -0.62884253
0001d0 b1 56 be bd 3d eb c4 bd ad 06 cb 3e 25 7b 97 be
       -0.09293879 -0.09615181 0.3965353 -0.2958614
0001e0 a1 34 50 3e 84 d0 a1 be 0b 2b 5d 3e 0a 6a c8 3d
       0.20332576 -0.31604397 0.21598451 0.0978585
0001f0 e6 b3 bb 3e 9a bc fc bd 3a e3 49 bf a6 26 a5 3f
       0.3666069 -0.123406604 -0.78862345 1.290242
000200 fe 6a 00 bf 49 e8 e9 be 97 31 05 bc a7 f2 f0 bb
       -0.5016326 -0.45685032 -0.008129499 -0.007353145
000210 33 a9 ea bf a5 e9 b3 c0 21 9e 03 be ed d9 9d 3e
       -1.8332886 -5.622271 -0.1285329 0.30830327
000220 a4 88 b7 3e cb 4d 19 3f 09 1f f3 3f 89 e5 96 bd
       0.35846436 0.5988433 1.8993846 -0.07367999
000230 4b f2 1b bf 5f 26 15 3f 47 7d 02 3f 88 cb e6 be
       -0.60916585 0.58261675 0.5097241 -0.45077157
000240 2c 68 b2 be 9b 92 f0 bd 28 13 a6 be 13 37 b0 be
       -0.34845102 -0.11746713 -0.3243649 -0.34417018
000250 f9 0b 02 be 1e 42 a0 3e 0f 0f 37 bf e7 92 22 be
       -0.1269988 0.31300443 -0.7150735 -0.15876351
000260 31 e5 62 bf 23 99 89 3b d5 9d 3f be 40 47 91 bc
       -0.8863097 0.0041991635 -0.18712552 -0.01773417
000270 55 57 b2 3d de fd 8b bf a8 a2 65 3e 72 ad 22 3f
       0.087080635 -1.0936849 0.2242533 0.63545907
000280 1b 69 61 bc c4 b8 cc be e9 b8 28 bc ee c7 1d 3f
       -0.013757969 -0.39984715 -0.010297992 0.61633193
000290 bc 43 39 bf f1 74 8d bd 47 50 96 3c 49 1a 57 bd
       -0.7236898 -0.069070704 0.018348826 -0.0525153
0002a0 ab 3e 59 3e 76 f3 5a bf 97 9b 2d 3f 70 e1 77 bd
       0.21215312 -0.8552774 0.67815536 -0.06051773
0002b0 78 60 c6 3e d6 ba dc be ef 8d 5a be f8 34 da 3e
       0.38745475 -0.43111295 -0.21343206 0.42618537
0002c0 d0 f3 08 be 95 55 2a be 7b 81 fd 3c b5 e6 84 3c
       -0.13374257 -0.1663421 0.03094553 0.016223291
0002d0 8e dc 15 3f 5f f7 99 be 12 51 bc bc 91 ba fc 3e
       0.58539665 -0.30071542 -0.022987876 0.4936109
0002e0 1e ad 89 3f e9 f7 e6 be 8e 05 44 3e 61 cc b4 bd
       1.0755956 -0.45111015 0.19142744 -0.08828045
0002f0 78 27 a5 3e 2d 20 48 be 82 29 71 be 61 bb e0 3e
       0.32256675 -0.19543524 -0.2355099 0.4389296
000300 26 72 9c be a4 ff d2 3d 41 c6 ee bd 60 29 56 3e
       -0.30555838 0.10302666 -0.11658908 0.20914221
000310 ca d1 c8 be 63 56 fa 3d a9 bd 24 be eb 21 14 bf
       -0.39222556 0.12223508 -0.16087975 -0.57864255
000320 1a 31 b8 3e 53 e6 a8 bd e9 31 9a 3a fb 8a 12 3e
       0.35974962 -0.08247056 0.0011764142 0.1431083
000330 9c 26 bc be d7 ff ae bd a3 b9 6d 3e 10 81 b0 3e
       -0.36748207 -0.08544891 0.23215346 0.34473467
000340 a4 6c cc 3d ad 05 8d 3e de d0 66 bf 23 e1 89 3f
       0.09981659 0.27543393 -0.90162456 1.0771831
000350 d9 71 0a bf a5 2c 9b bd c0 f0 b0 be 07 ce fe bc
       -0.5407997 -0.07576875 -0.34558678 -0.0311041
000360 4e de ad 3e f4 3c 13 3e c4 e6 31 3e 40 e0 54 bc
       0.33958668 0.1437872 0.17373186 -0.0129929185
000370 84 a9 e7 3c df 51 39 3e eb 3e 25 3e 33 c2 71 3e
       0.028279074 0.18097638 0.16137283 0.23609237
000380 25 3d 06 3e 8b f9 96 3e 89 9f 84 bd 1b 69 6b 3d
       0.13109262 0.2948726 -0.064757414 0.057473283
000390 85 b2 fb bd 4b b6 be be 19 83 45 3e fa 87 8a be
       -0.12289909 -0.37248453 0.19288291 -0.27056867
0003a0 2a 1f cc be 64 fa 0f 3d 6e d5 b4 bf ed cc 9c 3f
       -0.39867526 0.0351509 -1.4127634 1.2250038
0003b0 dd da ed be c1 65 9d 3d 7e 1e 25 be 40 1b fa bc
       -0.46456042 0.07685424 -0.16124913 -0.030530572
0003c0 70 95 27 bf 7a be c3 3f 3d 15 12 bf 1e 07 ba be
       -0.654624 1.5292504 -0.5706366 -0.36333555
0003d0 0e 32 c1 3e c3 54 99 be e1 e3 44 bf ec a6 42 3f
       0.377335 -0.2994748 -0.76910216 0.7603595
0003e0 be 7c 2d 3e c8 51 41 bf 35 57 8b be 99 5b 1b 3f
       0.16942117 -0.75515413 -0.2721497 0.6068664
0003f0 33 6c b3 3d 8a 6a 20 bf 74 22 c4 be 13 6b ed bc
       0.08760872 -0.62662566 -0.38307536 -0.028981721

fc0.bias f4 [128]
000000 43 3a a8 3e b5 24 cf be 9d a1 a9 bc d9 3d c8 bc
       0.3285695 -0.40457693 -0.020706946 -0.024443554
000010 cf 80 94 3d 3b c2 50 bc c8 38 be 3d 58 1c cf bb
       0.07251131 -0.012741621 0.09288174 -0.0063205175
000020 47 44 05 3e e3 2f 3f bc 8b 7c 5d bc 45 91 98 be
       0.13014327 -0.011669132 -0.013518463 -0.29798332
000030 2b 4d 8c bc e4 d2 92 be 01 bb 2a be e1 86 c8 be
       -0.01712664 -0.28676522 -0.16672899 -0.39165404
000040 b8 00 cd bc 4e 20 90 bc 35 97 f5 bc f4 2e 86 bc
       -0.025024757 -0.01759353 -0.029979328 -0.01637981
000050 ef 0a 71 be 1f 8c 1b 3e 01 ef c1 bb c3 a0 c9 bc
       -0.23539327 0.1519017 -0.005918384 -0.02461279
000060 aa c0 cc be dd ba 12 bd fb 64 b7 3e e4 7a ef bc
       -0.3999074 -0.035822738 0.3581923 -0.029233404
000070 40 30 c4 3d fd 30 38 3e 38 90 2c bb 0e e9 9c 3e
       0.095795155 0.17987438 -0.0026331078 0.30646557
000080 7e a4 b9 be f4 c4 89 3e 9b d9 8c 3e e1 3a 10 3e
       -0.3625831 0.26908076 0.2750977 0.1408496
000090 f5 40 cd be 8c 7b bf be b1 88 c5 be 80 cf 34 bb
       -0.4008862 -0.37398946 -0.3858085 -0.00275895
0000a0 45 55 45 3d 4d 81 e6 ba 17 5a 93 3d 78 ed e5 3d
       0.048177022 -0.0017586142 0.07194918 0.11226934
0000b0 e5 1e 30 3e cd 17 ed 3c fc 92 94 3d d9 f8 9a be
       0.17199285 0.028942013 0.072545975 -0.3026798
0000c0 0e 08 ad 3e 4d aa 6a be ab 32 95 bc 79 eb 5e bc
       0.33795208 -0.22916527 -0.018212637 -0.013605946
0000d0 51 be 4a be 38 66 0c 3d 24 71 1e 3d e0 9a 7b 3e
       -0.19799162 0.03427717 0.038682118 0.24570799
0000e0 78 29 4c 3e 6f 94 70 bc a7 e1 16 3e 4d f7 85 3d
       0.19937694 -0.014683827 0.14734517 0.065413095
0000f0 42 9b 88 be ed 0f c8 3e 21 1e 95 bd 4e d0 17 bc
       -0.26680952 0.3907465 -0.07281137 -0.009265972
000100 10 9e 2e 3e 58 1a 88 bc c3 d3 a0 bc d5 2e c2 bb
       0.17052484 -0.016614124 -0.019632226 -0.005925993
000110 47 9c d0 bc 5f 9d 2a 3e 01 c1 8d bc 3a 86 63 bc
       -0.025465144 0.16661595 -0.017303945 -0.013886983
000120 ae 89 02 be c2 90 ec 3d 4c 17 2a 3e b0 52 db bc
       -0.12747833 0.11551048 0.1661045 -0.026772827
000130 c7 c8 90 be c5 4a 85 3b 68 f8 83 3e d4 40 b3 3d
       -0.2827818 0.004067751 0.25775456 0.08752599
000140 22 fa 61 3d 9e 92 8a be 96 79 81 3e 10 a7 51 3e
       0.055170186 -0.27064985 0.25288075 0.20473886
000150 7e 1d 9d be 80 d4 35 ba f7 2c b2 3e e3 a9 c6 bb
       -0.30686563 -0.0006936267 0.3479993 -0.0060627325
000160 6c 55 c1 ba 2f 38 a6 3c 5f 06 a0 be b6 ea 11 3e
       -0.0014750189 0.020290462 -0.3125486 0.14249691
000170 d9 81 01 be f4 14 62 3e 97 1c 86 be 00 c0 b4 bb
       -0.12647189 0.22078305 -0.26193687 -0.0055160522
000180 2f 4b db bc 8f d3 8b 3b 81 a3 2f 3b 28 8e ef bc
       -0.026769249 0.004267163 0.0026800337 -0.02924259
000190 21 fc aa 3e cd 02 75 3e 7b fb d2 bc 11 db 61 3d
       0.33395484 0.2392685 -0.02575468 0.05514056
0001a0 5c 8a b6 bc 13 22 17 3d 4a 3d d1 bc d3 0b 6c 3e
       -0.022282772 0.03689773 -0.02554192 0.23051386
0001b0 1c e2 6f bd 90 33 45 3d ae 70 98 be d4 aa 57 3e
       -0.058565244 0.048144877 -0.29773468 0.2106126
0001c0 1c c5 83 bc a2 2b 2d 3e d7 f5 41 3e b6 87 97 be
       -0.0160852 0.16911176 0.18941437 -0.29595727
0001d0 14 0a 1d bc 17 78 cc bb 6b a6 38 3e f4 52 87 3d
       -0.009584922 -0.0062399018 0.18032233 0.06607619
0001e0 9e ce 2f 3e a2 50 b5 be 6e df 93 be e8 5a 3b be
       0.17168662 -0.3541308 -0.288814 -0.18296397
0001f0 0c 66 31 3e fc 5d b2 bb ce de 45 bc 01 8e aa bc
       0.17324084 -0.0054433327 -0.012077047 -0.020819666

fc1.weight f4 [128, 128]
000000 83 cc 16 bd 20 87 97 bd 3b 10 61 bd 12 4f 1f 3f
       -0.03681613 -0.0739882 -0.05494712 0.62230027
000010 22 d4 96 bd 1c 32 c7 3f ca 9a 2e 3d fe af 20 3e
       -0.0736468 1.5562167 0.042628087 0.15692136
000020 25 47 e6 3c a6 b7 b9 3f 7b a2 88 3e cb cb 7a bc
       0.028110096 1.450917 0.26686463 -0.015307377
000030 d8 74 84 3f d1 25 c4 bc 95 6f b8 3d 1f ed 7d bd
       1.0348158 -0.023943814 0.090056576 -0.061993714
000040 c8 c5 38 3f cb 3c 75 3e ba 99 1b 3f e8 8b 9a 3d
       0.7217679 0.23948972 0.60781443 0.07546216
000050 fa 44 27 3d 48 f1 a6 bc 59 59 ac 3f 11 c7 37 3f
       0.040837266 -0.020378724 1.3464767 0.71788126
000060 32 1a 5b bd f3 64 60 3f b8 c9 3b bd 9a 12 53 3f
       -0.05349178 0.87654036 -0.04584667 0.8245026
000070 ad 9b 3d be 06 a6 33 bc 76 99 77 bc fe 7c 48 bd
       -0.18516417 -0.010964876 -0.0151122715 -0.048947327
000080 12 78 4d bd 2a 9d 7d 3d aa f4 4b bd d1 60 37 3d
       -0.050163336 0.06191746 -0.049793877 0.044770066
000090 59 d3 3b 3c 35 48 4f 3c 5d 22 67 3d 75 71 a7 3d
       0.011463963 0.012651493 0.056429256 0.08175937
0000a0 6f e3 2f 3e e5 ce 84 3d 9d 77 ae bc 79 77 1b bd
       0.17176603 0.064847745 -0.02129727 -0.037955735
0000b0 60 9f 82 bd 45 97 b9 3d 66 85 b4 ba 7d 45 88 bc
       -0.063780546 0.090620555 -0.0013772666 -0.016634697
0000c0 e4 69 b7 3d 48 40 df bc 03 66 ca 3e e8 85 df 3e
       0.08955744 -0.027252331 0.39530954 0.4365685
0000d0 86 a6 3d bc 3e e7 61 3d ef 4c b1 3d c1 b8 e6 3c
       -0.011575347 0.05515217 0.08657252 0.02816427
0000e0 92 81 9d bc 99 92 61 3e 39 95 c6 3d 97 91 64 bd
       -0.019226823 0.22028579 0.09696431 -0.055802908
0000f0 51 b1 b1 bd 30 fa 9c bd 8d fa 25 3d 44 e7 a7 3e
       -0.086763985 -0.07664907 0.040522147 0.3279363
000100 a0 a3 a7 3b 07 b2 51 3f e5 04 42 3f f5 90 b5 3e
       0.005115941 0.81912273 0.7578872 0.35462156
000110 47 b3 3a 3f 73 41 73 3d e5 4e 99 3f 0b e7 c5 3f
       0.72929806 0.05938859 1.1977202 1.5461134
000120 55 9f 7a 3e 90 59 f8 bd aa b5 db bd 41 1b 59 3f
       0.24474843 -0.12126458 -0.10728009 0.8480721
000130 e1 16 90 3d 6b b8 8f bd 6f c9 09 3d d4 54 0a 3e
       0.07035614 -0.07017597 0.033639368 0.13508922
000140 54 2d ba bd c3 19 29 3d e4 61 a0 bd 1f 77 01 bc
       -0.09090677 0.041284334 -0.07831171 -0.007901936
000150 a2 16 3a bd 68 56 65 bd 41 c3 75 3d 91 6c 4e 3e
       -0.04543174 -0.055990607 0.06000066 0.20158602
000160 f9 a1 5b 3d 91 3c 45 3e d6 80 99 3d 60 2d b2 bd
       0.053621266 0.19261386 0.07495277 -0.08700061
000170 b9 a3 25 3e 89 96 5a bd a1 7f a3 bd 96 25 e5 3e
       0.16175736 -0.053366218 -0.07983328 0.44755238
000180 b5 00 4f 3f 80 6f bd 3c 5b ef 48 3e c5 2d 13 3f
       0.80860454 0.023124456 0.19622557 0.57491714
000190 0f 46 8c 3c da d6 87 3d 09 5d 50 3f 33 e8 a5 3d
       0.01712325 0.066327766 0.8139196 0.08100929
0001a0 4d bc 8b 3f 0d 5e 82 3b 4b 19 44 3f 48 02 27 3d
       1.091684 0.003978497 0.76601094 0.04077366
0001b0 71 67 e3 3c b5 37 71 3d 5a 4c 55 bd 9c 26 87 bd
       0.027759286 0.058891017 -0.052074768 -0.06599161
0001c0 b3 9d 03 3e 7d ae 01 be c4 6d 3d bb e7 02 d1 3c
       0.12853126 -0.12664218 -0.0028904537 0.02551408
0001d0 97 92 e6 3e 1b 75 e3 3c 19 31 e1 bc ce cf 8e bd
       0.45033714 0.027765801 -0.027489232 -0.06973229
0001e0 7e c3 c7 3d 47 7b 6a bd 4c 26 78 3b 54 9d a6 bd
       0.09754084 -0.057246473 0.0037864624 -0.08135477
0001f0 bd bf bf bc 64 fa cf 3e de 5f 0d 3e 7d bd 17 3f
       -0.023406858 0.4062072 0.13806102 0.5927351
000200 eb 55 54 bc f6 16 02 3c 92 d8 b0 bd a7 43 29 bc
       -0.012959938 0.007940045 -0.086350575 -0.010331071
000210 e9 5d 34 3d fa 78 e0 3b 50 83 42 bb bd 1c c7 39
       0.044034872 0.006850359 -0.002968032 0.0003797765
000220 c8 41 23 bd 31 6e ae bd c4 b5 a1 3c 4e 65 a0 3d
       -0.039857656 -0.08517111 0.019739993 0.07831822
000230 23 7a 7b bd 83 ff 6f 3d 59 e4 ba 3c bd 64 9c bc
       -0.061395776 0.058593284 0.022813963 -0.019091005
000240 4c 23 10 3b 48 d1 bf 3c 89 24 60 3d e5 a1 e2 3b
       0.0021993695 0.023415223 0.054722343 0.006916272
000250 25 ae 1e 3d 13 49 6f 3d 1d fb 81 3d 48 6e e4 3c
       0.038740296 0.0584193 0.06346724 0.027884617
000260 e1 6e 81 3d 81 13 7c 3d 2e de 85 bd 2f dd 0a bd
       0.063199766 0.061542038 -0.06536518 -0.033902343
000270 03 7d 6c bc 2b bf 08 bd b9 6f 1c 3d 62 54 52 bc
       -0.014434102 -0.033385437 0.038192485 -0.012837501
000280 d0 2a a4 3d 00 b5 cc 3c d0 a9 cd bc 7d 08 c6 bd
       0.08015978 0.024988651 -0.025105387 -0.09669588
000290 8d 07 7e bb bb 2b a8 bd 7a 5b 92 bd da 34 00 3d
       -0.0038761825 -0.08211466 -0.07146354 0.031300403
0002a0 69 20 8a bd f9 7e 98 bd 2f 20 6d 3d 6b 90 ab bd
       -0.06744463 -0.07446093 0.05789202 -0.08377155
0002b0 8e 16 a1 bd 52 a3 b3 bd a1 ea cb bc 44 b4 7f 3d
       -0.0786563 -0.08771385 -0.024892153 0.062427774
0002c0 76 f4 96 bc b8 e3 1a 3a de 14 2d 3d 48 08 29 bc
       -0.018427115 0.00059085665 0.04225623 -0.010316916
0002d0 39 86 62 3d 57 5e bf bc 99 9f 0e 3d 37 f8 6b bd
       0.055303786 -0.023360414 0.034820173 -0.057609763
0002e0 91 fe 37 3d eb 48 66 bd d4 b7 b9 3b 3a da 27 bd
       0.044920508 -0.056221884 0.005667666 -0.0409796
0002f0 70 97 0e bd ae 2f 79 bd 0e 4c 57 bc 37 6b b3 3d
       -0.03481239 -0.060836487 -0.013140691 0.08760684
000300 bb d2 14 bc ca f8 0a 3c 6e cf 56 3d 6f 11 9c bd
       -0.009083445 0.0084821675 0.052443914 -0.07620513
000310 b1 6a c1 bd d8 15 52 3d 45 8d 0b 3d 22 df bc bd
       -0.09444178 0.051290363 0.034070272 -0.09222247
000320 64 be 06 bd 84 eb ab bc 93 4f 84 bd c9 9c 89 3d
       -0.032896414 -0.020986326 -0.0646049 0.067193575
000330 37 63 18 bc 24 4b a1 bd 33 ce 03 3d 3f 8c 9f 3d
       -0.009300998 -0.0787566 0.03217907 0.07790422
000340 05 f5 18 bd 48 14 85 3d 44 09 40 3d 66 c5 9c bd
       -0.037343044 0.06498009 0.046883836 -0.07654838
000350 3d c8 71 3c ce fb a8 bd 41 f8 42 3d e5 d2 85 bd
       0.014757213 -0.08251153 0.047600035 -0.065343656
000360 d8 3b c3 bd 3c a5 2b bd 61 66 d2 3c 24 9b 30 3d
       -0.09532899 -0.041905627 0.025683584 0.043116704
000370 61 b2 5d bc 80 a0 83 bd 3e 06 5f 3d 16 46 31 bd
       -0.013531298 -0.06427097 0.054449312 -0.04327973
000380 ef 96 99 bd cd b9 ab 3d 12 5d a4 3d 64 f7 bc 3a
       -0.074994914 0.08385048 0.08025564 0.001441699
000390 8d 26 2d bb 0d cd ab bd ae 8b f3 bb dd ed af bd
       -0.0026420683 -0.0838872 -0.0074324226 -0.08590291
0003a0 e5 82 ed 3c 25 e3 91 bd 2e 92 21 3c 60 cb 94 bd
       0.02899308 -0.071234025 0.009861512 -0.07265353
0003b0 77 d2 92 bd 97 6d c5 3c eb 5c 9f bd c1 5b d8 3c
       -0.07169049 0.024100108 -0.077813946 0.02641094
0003c0 e4 e9 d8 3c 35 f3 81 39 fc 4e bb bc 3f 31 08 bd
       0.026478715 0.00024786 -0.022864811 -0.03325009
0003d0 29 ca 88 3d 96 b6 a8 bd 26 9b 9b 3d 59 df 48 3d
       0.06679184 -0.082379505 0.075979516 0.049041126
0003e0 e8 ff 80 3d 82 de 17 bd c6 ad 06 3c d6 b4 8a 3d
       0.0629881 -0.037077434 0.008220142 0.06772773
0003f0 23 20 5f 3c cf 15 ae bd 9a 20 92 3c 56 b2 52 bd
       0.013618502 -0.085002534 0.017837811 -0.051439606

fc1.bias f4 [128]
000000 81 db 2e 3d ee 90 83 3d 7a 25 b4 bd 51 a7 4d bd
       0.042689804 0.064241275 -0.087962106 -0.050208393
000010 98 52 bd bd e9 5d d4 3d bc 0b b7 bb c7 21 a5 3d
       -0.09244269 0.103694744 -0.0055861156 0.08063083
000020 9b e9 20 3b 75 7f 3e bd 7e ef 11 3d ed 7f 6e bd
       0.0024553302 -0.04650827 0.03562879 -0.05822747
000030 e9 f4 65 bc e8 58 d3 3d 58 b1 fa 3d b6 dc a4 3d
       -0.014035442 0.10319692 0.12240857 0.0804991
000040 f3 d2 61 bd 9d 83 c1 bd e6 6d 8f 3d b8 d7 44 bc
       -0.055132817 -0.09448931 0.07003383 -0.012014322
000050 92 f7 05 3e fb 6b 15 bd a8 0d 19 3d 5d 53 89 bb
       0.13082722 -0.03647993 0.03736654 -0.004190846
000060 45 b2 8d 3d 0a 5e ca bd de 36 9b 3d 53 b3 b3 3c
       0.06918768 -0.09881218 0.075788245 0.021936094
000070 4e ea 1f bd bf f1 d7 bd f9 34 b9 3d d8 77 67 3b
       -0.03904181 -0.10544156 0.09043307 0.0035319235
000080 95 c6 b7 bc 81 b7 c2 bc 21 75 9e bd d6 94 9b 3c
       -0.022433558 -0.023769142 -0.07737184 0.018991869
000090 40 45 0b bd 65 f3 1c 3c 2f a0 88 3c ac 2a 89 bd
       -0.03400159 0.009579514 0.016677944 -0.06697592
0000a0 d9 bb 0e bd 81 a6 87 3d b0 5c a9 bd 0e 17 9c bd
       -0.034847114 0.06623555 -0.08269632 -0.07621585
0000b0 12 34 23 bd 40 0e ab bd a2 b1 f7 3d ba 41 50 bc
       -0.03984458 -0.08352327 0.12094428 -0.012710983
0000c0 48 88 8b bd 4e e6 55 3d fc c0 a2 bd 8b 60 81 bd
       -0.06813103 0.05222159 -0.07946965 -0.06317242
0000d0 62 94 e4 3d ef 8f 4e 3d 0d cc 8c 3d f8 78 cc 3c
       0.11161114 0.050430235 0.06874857 0.024960026
0000e0 20 10 7d bd e0 49 bd bb 50 c3 1b 3c 95 0b 2c bd
       -0.061782956 -0.005776629 0.009507015 -0.042003233
0000f0 6a 53 82 3d ff 15 07 3d f2 aa c5 3d 92 f6 96 3d
       0.06363566 0.03297996 0.09651746 0.07371248
000100 af 8d a8 bd 21 ca 40 bd 08 18 a1 bc 2e 7d d9 3b
       -0.08230149 -0.047067765 -0.01966478 0.006637237
000110 8a 95 c3 3d 5c 74 ae bd 38 39 a4 bd 98 0b 86 3d
       0.09550007 -0.085182875 -0.08018726 0.0654518
000120 64 1b b4 bd 20 60 79 3d 5e 52 8c 3c cd 01 70 bb
       -0.08794287 0.060882688 0.01712912 -0.0036622167
000130 ae e3 9c bd 86 6e a8 bd f2 45 99 bd 6f 1c c6 bd
       -0.07660614 -0.08224206 -0.07484044 -0.09673392
000140 08 d7 9a 3d de fb fd bc 75 ba 83 3d 1c b3 64 3d
       0.07560545 -0.031003889 0.06432048 0.055834875
000150 5e 79 c8 bd d3 6f ac 3d 19 27 36 be 2f 1a f3 3c
       -0.09788774 0.08419766 -0.17788352 0.029675571
000160 d2 bc 93 bd 3e e5 93 bd 88 b7 d8 3d 58 7d c3 bc
       -0.07213749 -0.07221459 0.10581881 -0.02386348
000170 8f a1 89 3d 59 d7 a5 bd ea 9e 98 3d 2c cf 1b 3d
       0.06720268 -0.08097715 0.074521855 0.03803937
000180 2e 3a 5b bd 1e ad 77 bb 1d 86 d9 3d fd b9 dd 3c
       -0.05352228 -0.0037792395 0.10621283 0.027066225
000190 f6 c8 eb bc 06 3f a0 3c 1f db 95 3d a4 be a0 3d
       -0.02878235 0.019561302 0.07317185 0.07848862
0001a0 fd ef 9e bd 66 ae 9e 3d 32 f5 ab bd b0 6f 6a ba
       -0.07760618 0.077481076 -0.08396377 -0.00089430343
0001b0 e0 15 b6 bd 56 8b 42 bd b0 d7 be 3c 2c 20 6a 3c
       -0.08890891 -0.047496162 0.023296207 0.014289897
0001c0 f4 a3 da ba 59 2e 97 3d e3 76 de 3a b9 83 13 bb
       -0.0016680942 0.07381887 0.0016972687 -0.0022508933
0001d0 c8 17 25 bd b4 8b 8c bc 8e 2a 7b bd 72 5c 9f 3d
       -0.040305883 -0.01715646 -0.06131988 0.077813044
0001e0 82 84 6d bd 65 bd 06 3d b5 d6 87 bd 53 b8 c4 3c
       -0.057987697 0.032895464 -0.06632749 0.024013674
0001f0 96 10 43 ba bb 32 dd 3d 92 ba be bd 2e 38 b5 bd
       -0.0007441131 0.10800692 -0.09312929 -0.08848606

fc2.weight f4 [128, 128]
000000 51 95 56 bc b5 92 4d bd b1 79 94 3d 5b 2b 9f bd
       -0.013097123 -0.05018874 0.07249773 -0.07771941
000010 28 1e 15 3c be 87 11 bd ba 1a c7 bd d6 ba 99 3c
       0.009101428 -0.035529844 -0.097218946 0.018765848
000020 df aa 72 bc 53 d6 94 3e 48 21 a7 3e fb 05 bb 3c
       -0.014811247 0.29069766 0.3264258 0.02283
000030 88 ca 9a 3c 80 06 90 b8 25 a5 ad 3d 4d a1 4a bc
       0.018895403 -6.867666e-05 0.084787644 -0.012367559
000040 23 9a f2 bc bc 6c b9 3d d9 ea bd 3d 53 c6 91 bd
       -0.029614514 0.090539426 0.09273309 -0.071179055
000050 5a af 3f bd e6 e0 ec bc f9 90 4f 3d b2 78 9f 3c
       -0.046798088 -0.028915834 0.050675366 0.019466732
000060 38 8c dd bb b5 5b 1f 3b ab de 66 bd 4f 02 e4 3c
       -0.0067611 0.0024316136 -0.056364696 0.027833132
000070 a3 bb 61 3d 6b a6 ad 3d bd a2 04 3d 66 13 3b 3d
       0.055110585 0.08479007 0.03238176 0.045672797
000080 6e 2f cc ba 92 21 ca 3b 97 4b 92 3d 6f 1d ba 3b
       -0.00155781 0.0061685527 0.07143324 0.0056797783
000090 37 74 f7 3a 87 17 49 3c a2 9a ce 3c 3b de 4a 3d
       0.0018879239 0.012273676 0.025220219 0.04952834
0000a0 1e 6f 95 bd 92 cf 01 bd 0b 5b 2e bd d1 a3 70 be
       -0.072965845 -0.031692095 -0.042567294 -0.23499991
0000b0 0d 4f 9e 3d 21 58 26 bc 3f e6 44 bc 83 32 8a bd
       0.077299215 -0.0101528475 -0.012017786 -0.067479156
0000c0 ca 04 e8 3d ab fd 32 bd 6f 84 34 3d af 1a cb bc
       0.113290384 -0.043698948 0.04407161 -0.024792997
0000d0 e0 4d e1 3c 1f 71 77 3d 9d 80 61 3d eb d5 e5 bc
       0.027502954 0.060410615 0.055054296 -0.028056106
0000e0 b6 0b d3 3e 71 82 de 3d 0f f1 49 bd 4a 89 db bc
       0.41219872 0.108647235 -0.049302157 -0.026798863
0000f0 57 3f 96 bd 9e 5b 7f 3d e8 6a a5 3b 3a ab 94 bd
       -0.073363 0.062343232 0.0050481446 -0.072592214
000100 aa cf 1e bd ec 20 01 3d 50 8c 28 bb 1d ba b9 3d
       -0.038772263 0.031525537 -0.0025718398 0.090687014
000110 39 b5 b1 bc 59 37 8c bd 07 17 4f bd 5e 63 90 3c
       -0.021692859 -0.06846494 -0.05055907 0.017625507
000120 2c 59 0c 3d d4 ea 00 bc c2 36 ea 3e b2 dc 75 bd
       0.03426473 -0.007868487 0.45744902 -0.060024925
000130 2d 23 b8 3d 40 50 b4 3d 19 9c a0 bd bc b7 29 3c
       0.08991084 0.08804369 -0.07842273 0.010358747
000140 45 74 b4 3b f9 a0 1d 3d 05 86 8c 3d c5 95 c9 3d
       0.0055070245 0.038483594 0.068615 0.098430194
000150 ed bc f6 b9 08 12 97 3d cc 76 21 be 97 c1 a5 3b
       -0.00047061537 0.07376486 -0.15767974 0.005058478
000160 85 b7 d2 bc 09 be 74 3c 7a 81 19 bc 96 4b 4b bd
       -0.025722275 0.014937886 -0.0093692485 -0.04963263
000170 92 3f 96 bd d0 07 ee bc 81 78 48 bc 2c 0a e1 3b
       -0.07336344 -0.02905646 -0.012235762 0.0068676677
000180 0a 8a 72 3d 79 80 9e 3d 27 e9 03 3d d2 49 8f bd
       0.059213676 0.07739348 0.032204773 -0.06996502
000190 72 ac 23 bd f1 23 ce 3c eb 8e 4c bd ad 25 6b 3d
       -0.03995938 0.025163623 -0.049940985 0.057408977
0001a0 05 6b fb 3e a9 40 32 bd bf 33 b1 bd 5c a2 bf ba
       0.49105087 -0.043518696 -0.08652448 -0.001462053
0001b0 7a 24 9c bc e5 d0 d1 bd eb 17 06 3e 53 fd 2c 3c
       -0.019060362 -0.102449216 0.13095061 0.010558444
0001c0 f3 9c c3 3b 3f 21 8f bd b0 8d 60 3d 03 1d a6 bd
       0.0059696375 -0.06988763 0.054822624 -0.08111002
0001d0 d0 7f 81 bd db 99 ff 3c df a7 22 3d ce da 93 3c
       -0.063232064 0.031201294 0.039710876 0.01804867
0001e0 a7 a6 68 3d ec f7 aa 3d f5 59 19 3d ca fc b9 be
       0.056799557 0.083480686 0.037439305 -0.36325675
0001f0 74 f1 4e 3d ac 1d 9f 3d 13 a9 4e 3d 03 80 9b 3e
       0.050523236 0.07769331 0.05045421 0.30371103
000200 de c1 ad bd 26 6d 1d 3d ac fa 9b 3d b4 71 83 3d
       -0.08484243 0.03843417 0.07616171 0.064181715
000210 90 75 77 3c 5c d9 6a 3c 18 fd f3 bb eb 94 8c bd
       0.015103713 0.014334049 -0.0074459426 -0.06864341
000220 dd c6 8a 3c 6f 50 9c 3e 56 8a c5 3e bc c1 87 3d
       0.016940529 0.30530116 0.38582104 0.06628749
000230 e2 99 d1 bc 2b af 66 3d 13 23 83 bd d0 2a b1 3c
       -0.025586072 0.056319397 -0.06403174 0.02162686
000240 4a f0 77 bc 82 08 86 3e d8 54 5a 3d d2 ef 12 3d
       -0.015132973 0.26178366 0.05330357 0.03587324
000250 a4 88 a8 bd 12 fb 45 3d b3 e3 2d bd 72 ed 9b bd
       -0.08229187 0.048335142 -0.04245348 -0.076136485
000260 c4 3a 90 ba e9 22 55 bd 35 fc 2e bd 43 3f 51 bb
       -0.0011003842 -0.052035246 -0.042720992 -0.0031928576
000270 f7 3f 91 bd 61 b2 21 bd f9 c4 a9 bd 28 1c 9d bd
       -0.070922785 -0.039476756 -0.08289523 -0.07671386
000280 6c e1 68 3d 7b 31 cc bc 30 fd 8a bc 83 a1 51 3c
       0.056855604 -0.024925938 -0.016966432 0.012794855
000290 c9 30 a7 3d 6d 65 3d 39 1d 49 97 3d cf b8 89 bd
       0.08163602 0.00018062229 0.07386992 -0.067247026
0002a0 f1 2b 59 3b 28 6d 89 bd 54 ad 3e bd 55 5e 30 be
       0.0033137763 -0.06710273 -0.046552017 -0.17223485
0002b0 19 74 fd 3c 50 b4 21 be 81 3b ae bc 92 6b 78 bd
       0.030939149 -0.1579144 -0.021268608 -0.060649462
0002c0 9a e8 e0 3d b0 ef 9e 3c 29 16 3e bd 8d 77 65 3c
       0.10981865 0.019401401 -0.046407852 0.014005554
0002d0 ff f6 7a 3c 74 b0 b1 bd 29 be ef 3c a5 ab c6 bc
       0.0153176775 -0.08676234 0.02926548 -0.024251768
0002e0 2f 02 e7 3e 0f 69 08 3e 37 fe 9b 3d 91 8f 19 3d
       0.45118853 0.13321327 0.07616847 0.03749043
0002f0 f6 3f f2 bb 72 34 43 bd ae dc 5c 3d 2b 51 a1 bc
       -0.0073928786 -0.047657438 0.053921394 -0.019692024
000300 fd 2a 67 bb fe 30 fd 3b 84 90 ef 3c f5 95 96 3d
       -0.0035273426 0.0077267876 0.029243715 0.07352821
000310 84 6c af 3c d8 c3 14 3d c3 08 08 3e 62 2a 1f bd
       0.021414049 0.036319584 0.13284592 -0.03885878
000320 6d 05 9f 3c eb 5c 93 bc 7d cb ef 3e 58 2a cc bd
       0.019411767 -0.017988643 0.46834937 -0.09969014
000330 47 9d 91 bd fc e7 91 bb a8 9b 47 bd ba 71 25 bd
       -0.071100764 -0.0044527035 -0.04873243 -0.04039166
000340 6e 62 e2 bc e8 9e 5b 3d 50 c3 a8 bd 6f 36 05 3d
       -0.027634826 0.05361834 -0.08240378 0.032522615
000350 75 da df 3c a1 99 ad 3c 60 c5 0b be c0 64 3b bd
       0.027325848 0.02119142 -0.13649511 -0.04575038
000360 56 bc 8a bd 7a d2 17 bc a2 bd 88 3d e0 23 29 3c
       -0.067742035 -0.00926649 0.066767946 0.010323495
000370 0f 14 b3 3d 75 e0 27 bc b2 d6 c9 3d fb 3e e1 bc
       0.0874406 -0.010246386 0.09855403 -0.027495852
000380 3b 03 26 3d 40 d3 9c bd 78 dd 61 3d 44 07 8a 3d
       0.040530425 -0.0765748 0.05514285 0.06739667
000390 d6 dc 8a 3c 4c d8 b7 bd b7 cb 30 bb 30 34 d0 3c
       0.016951006 -0.08976802 -0.0026976892 0.02541551
0003a0 f8 48 dd 3e 3d 8e 69 bd 28 f7 90 3c 76 4f 5b bd
       0.43219733 -0.057020415 0.017695978 -0.053542577
0003b0 4f 1b 05 be 64 ae 15 bd cc 38 ef 3d 4b b8 a4 bc
       -0.12998699 -0.036543265 0.11680755 -0.020107409
0003c0 b2 19 8b bd 39 fc a9 3c 4b 7a 2c bd de 27 70 bd
       -0.0679201 0.020750152 -0.042108815 -0.05863177
0003d0 c4 35 b7 3c c9 dc 0c 3d f9 2d f6 bc 02 c1 26 3d
       0.022364505 0.034390245 -0.030051218 0.04071141
0003e0 07 34 95 bd 2c c5 23 3c aa 00 ae 3d dd 5d 8f be
       -0.07285314 0.00999574 0.084962204 -0.280013
0003f0 0b bb 2f 3e 00 7a 29 bd 6a 86 93 3d 59 8b aa 3e
       0.17161195 -0.041376114 0.07203372 0.3330944

fc2.bias f4 [128]
000000 84 4b 66 3c fa be 84 3d 1c 1e 04 3d c8 97 b5 bd
       0.01405609 0.064817384 0.032255277 -0.088668406
000010 9a 13 13 bd 92 f6 80 bd 45 21 23 3d 97 f1 db 3b
       -0.035907365 -0.062970296 0.03982665 0.0067121494
000020 4b c6 22 bc c2 77 4f 3d 82 9e a8 bd 1c 33 f9 3d
       -0.009934972 0.05065132 -0.08233358 0.121679515
000030 2e 7d 4a 3d f8 a0 86 be ab e7 60 3d 9b 59 b1 3d
       0.049435787 -0.26294684 0.054908436 0.08659669
000040 7a ba c7 3d 43 37 dc bd cc 08 b4 bd 10 05 cc bc
       0.097523645 -0.10752728 -0.0879074 -0.024904758
000050 a8 0b e4 3d 59 8f 4a 3d 1f 21 c5 3c 75 a9 f2 3c
       0.11135036 0.049453113 0.024063645 0.029621819
000060 fe c1 a5 bd 11 7a 82 bd 3c 42 df bd 40 31 b6 3d
       -0.08093642 -0.063709386 -0.10901305 0.088961124
000070 48 bd 86 bd c0 ba 18 3c b7 bb 89 bd ca 4c 4c 3c
       -0.06579071 0.009321868 -0.06725257 0.01246948
000080 e6 0d 10 3d 89 36 59 3d 65 94 b7 3d 31 4c 48 3d
       0.035169505 0.053030524 0.08963851 0.048900787
000090 16 cd 0b 3e 9c d9 60 3c 89 be 43 bd 6e a2 6c 3d
       0.13652453 0.013723757 -0.04778913 0.057772093
0000a0 e7 20 3f bd b4 62 11 bc 36 52 7d bd 08 36 5a bd
       -0.046662237 -0.00887363 -0.06184598 -0.053274184
0000b0 49 28 34 3d 68 94 a7 bd 4c 63 84 3d 22 89 c8 3d
       0.04398373 -0.08182603 0.06464252 0.09791781
0000c0 cd 67 b8 3d 5f 7b 16 be 2a ff 73 bc ef 3a f1 3d
       0.090041734 -0.146955 -0.014892379 0.11778819
0000d0 8c 7b c0 bd bd 8c a4 bd f7 67 ef 3c ec 4f 7b bc
       -0.09398565 -0.08034656 0.029224379 -0.015338879
0000e0 e3 ee 8e 3d 32 f2 12 bd 51 67 f6 3b 1b 7e 8b 3d
       0.06979158 -0.035875507 0.0075196405 0.06811162
0000f0 cf f7 7b 3d 4c 34 00 3e 82 ee 3c 3d 8a df b4 bd
       0.061515626 0.1251995 0.046125896 -0.08831699
000100 f8 10 0b 3d 3c 69 8c 3d 03 ce ca bb f9 c9 85 3d
       0.03395173 0.06856009 -0.0061891093 0.06532664
000110 3f f4 47 3c fc 1e b1 3c 66 ef c4 3d ba 44 6f 3c
       0.012204229 0.02162122 0.09615974 0.014603788
000120 40 4e e9 3d 20 51 f3 3c 04 63 db 3b 40 e7 37 bc
       0.11391878 0.02970177 0.006695153 -0.011224568
000130 f1 c6 f4 3c c4 59 93 3d f8 d7 89 bd 0b fe 8d bd
       0.029880019 0.07194856 -0.06730646 -0.069332205
000140 bc ce 5d bc 75 d1 a1 bd 9d 94 08 bd 52 8d 98 3d
       -0.013538059 -0.07901279 -0.033344854 0.0744883
000150 bd 90 5a 3d 96 40 18 3d 2f f9 42 bd 1e c5 63 be
       0.05336069 0.03717097 -0.04760092 -0.22243163
000160 6d 0a 14 3d 47 2d 00 3d 99 7d a3 bc 6a 3f 6b bd
       0.036142755 0.03129318 -0.01995735 -0.057433523
000170 4e 27 0f bd e6 12 91 bd ce fc f7 3c 5f af 33 3d
       -0.034949593 -0.07083683 0.030271914 0.04386842
000180 b3 1c dd 3d 14 3c 05 3e 01 20 95 3c 95 a4 2c 3d
       0.107964896 0.13011199 0.018203737 0.042149145
000190 71 35 91 3d 0b 23 a0 3b 51 0a a2 bd 22 49 1d 3b
       0.07090271 0.00488699 -0.07912124 0.002399989
0001a0 fb 72 18 3e 13 0c d8 bd ab 35 41 bd 1d 43 b0 3c
       0.14887612 -0.10549178 -0.047170322 0.021516377
0001b0 d3 e4 93 bc 3b 85 be 3d 6a 65 5e bc 96 2c 94 bd
       -0.018053448 0.093027554 -0.013573984 -0.072350666
0001c0 b4 ab a6 3c 78 87 1e 3d 35 a7 07 bd a2 03 d5 bb
       0.020345546 0.03870341 -0.033118445 -0.006500677
0001d0 29 f2 43 bd 4c b8 a2 bd b7 3e b6 bc b1 81 38 3d
       -0.047838364 -0.07945308 -0.022246702 0.04504556
0001e0 bb 46 1a bd 8e 13 37 3d a5 a1 9b 3c 75 42 7f bd
       -0.03766511 0.044696383 0.018997977 -0.062319238
0001f0 01 30 c4 3c e3 8f cc 3c 66 22 66 bc f9 40 69 bd
       0.023948671 0.024970954 -0.014046287 -0.05694673

last_fc.weight f4 [6, 128]
000000 84 c9 9d 3d 61 fd 40 3d 3f 87 8d bd 7c 04 c7 3d
       0.07704452 0.04711664 -0.06910562 0.09717652
000010 3c 05 45 bf 62 9d 89 3d 79 bd 78 3b 4d 0a 9b 3d
       -0.7696111 0.067194715 0.0037954731 0.07570324
000020 bf 0d c5 bc 79 83 d2 3a ac b0 4b 3d f4 0b b9 3d
       -0.024054406 0.001606091 0.049729034 0.09035483
000030 ee 71 98 3d 33 71 45 3e fc 7b 93 3d e0 eb 17 bc
       0.07443605 0.19281463 0.072013825 -0.009272546
000040 98 6e 90 bd 1a 38 87 3c 64 0d 47 3d 15 83 9b 3d
       -0.07052344 0.016506243 0.048596755 0.07593361
000050 eb 93 8b 3d e5 03 a3 3d c5 73 b9 3d e2 24 3f bd
       0.068153225 0.07959727 0.090552844 -0.046666034
000060 98 81 0a bd b0 bb 6a bd e5 ec 2a bd b5 18 e9 3c
       -0.033814996 -0.0573079 -0.041729826 0.028454164
000070 a2 68 ac bd 34 aa ce bc a9 e6 55 3d b6 69 59 bc
       -0.084183946 -0.025227644 0.052221928 -0.013269832
000080 ac 31 3c 3d a7 ee 85 bd 87 06 8c bd 17 7d e7 3c
       0.04594581 -0.0653966 -0.068371825 0.02825789
000090 fb 1d 4b 3d 99 41 ce bc 9d b4 df 3d 04 85 bc bc
       0.04958914 -0.025177764 0.10923121 -0.023012646
0000a0 db 39 b2 3c b6 c7 a2 bb f9 1b 33 bd ae 0f d4 3c
       0.021756103 -0.004967655 -0.04372785 0.025886383
0000b0 5f 0e 4d bc 83 fd 66 bc a0 4f 17 bd f8 66 96 3d
       -0.012515633 -0.014098528 -0.03694117 0.073438585
0000c0 96 3b 45 bb 95 df cf be bd 7e 48 bc 1c c9 0a 3b
       -0.003009533 -0.40600267 -0.012237248 0.0021177
0000d0 a4 e2 81 3d fe af 26 3c 62 fd 8a 3d 39 a2 75 bd
       0.063420564 0.010173796 0.0678661 -0.05996916
0000e0 16 64 0c bb 2a f9 07 bd 86 04 99 3d e5 0c 80 bd
       -0.002142196 -0.033196606 0.07471566 -0.062524594
0000f0 e2 dd 5c bd 44 33 0e 3c 8a b2 d8 bc f6 73 cf ba
       -0.05392254 0.008679215 -0.026452322 -0.0015827406
000100 e9 8b 91 3d 7b ff 89 bc 4b 75 c7 bc 98 a9 98 3d
       0.07106764 -0.016845455 -0.024347922 0.074542224
000110 12 9e 19 3c 29 24 8f 3d 9a 18 9f 3d ab ae 91 3d
       0.009376066 0.06989319 0.07768364 0.071133934
000120 c4 b3 b8 3d 76 f6 47 3d 75 af 0c bd 31 a3 71 3d
       0.090186626 0.048819028 -0.034347016 0.058993522
000130 bb ce b6 3b 18 ba 23 3d 5f 1f 23 bd e8 ed 98 3d
       0.0055788434 0.039972395 -0.03982484 0.07467252
000140 59 11 3f bc 49 b7 91 bc 15 89 34 3d a5 c7 a9 bd
       -0.011661851 -0.017787592 0.044076044 -0.08290032
000150 a3 29 a1 3b 32 42 15 3d 07 ab 1e bd 90 3a 09 bd
       0.0049182936 0.036440082 -0.038737323 -0.033503115
000160 2e eb 70 bb 4b 85 99 3d 82 b7 78 3d 6d 01 9b bd
       -0.0036761272 0.07496127 0.06072188 -0.07568631
000170 5a 83 3d bc 0c e0 85 bc c2 d8 5f bd eb 97 4d bd
       -0.011566961 -0.016342185 -0.054650076 -0.05019371
000180 56 3f 97 3d 13 53 60 3c 66 d2 92 3d 10 51 cc 3c
       0.07385127 0.013691681 0.071690366 0.024940997
000190 91 a6 b5 3d 4f 9e 36 bc 22 41 58 bd 47 58 a2 bd
       0.08869661 -0.011146142 -0.05279649 -0.07926994
0001a0 8c 3a 86 3c d4 3c db 3c 0c 81 18 bc 5e d5 8c bd
       0.01638534 0.026762404 -0.009308111 -0.06876634
0001b0 20 df 09 bd 35 4d c9 3d 81 d9 c7 3d a4 59 84 3d
       -0.033660054 0.09829179 0.097582825 0.0646241
0001c0 d6 2f f9 bb 2c 2a 9b 3d e2 e6 89 3d 1a ca 5b bd
       -0.0076045794 0.07576403 0.067334905 -0.053659536
0001d0 1f ea 9c bb 91 1c 43 bd eb c2 30 bd 1c 09 a3 3d
       -0.0047886516 -0.047634665 -0.04315464 0.07960722
0001e0 33 02 24 bd ef 73 43 bd 5b 76 9c 3d cb 1e d6 bb
       -0.04004116 -0.047717985 0.07639762 -0.0065344325
0001f0 49 c9 9f bc e5 dd 86 bc 8c 9c 91 bd e6 38 b2 bc
       -0.01950516 -0.01646323 -0.07109937 -0.021755647
000200 0d f1 94 bc 2e a9 7a bc 34 13 ab 3c 8b 1a c4 3d
       -0.018181348 -0.015299125 0.02088318 0.09575375
000210 5d 4b 45 bf c0 b7 b1 3c c2 63 22 bd b4 56 89 bc
       -0.7706812 0.021694064 -0.039645918 -0.016764976
000220 4b 0a 8e 3d 64 f3 81 bc 74 1b 89 bd 73 6d 78 bd
       0.06935557 -0.015863128 -0.066946894 -0.060651254
000230 5c 79 69 bd 2b ea 54 3e 18 96 96 bc 14 2f 66 3b
       -0.057000503 0.20792453 -0.018382117 0.0035123276
000240 f1 32 81 bd 03 02 d9 bd ad 93 0c bd b7 99 7c 3d
       -0.063085444 -0.10596087 -0.034320522 0.06167003
000250 61 40 a9 3d 59 5e 2b bc 44 96 27 3c 76 30 35 3d
       0.082642324 -0.010459506 0.010228697 0.04423567
000260 00 11 1a 3d b2 ab 10 3c 0f cf 02 3d 6d 68 f6 3b
       0.03761387 0.008829998 0.031935748 0.0075197727
000270 9e 34 19 bd 7b 10 81 3c f1 26 b0 bc 1b c7 b7 3d
       -0.037403695 0.015754929 -0.021502944 0.08973523
000280 2f b1 96 bd 38 44 89 bd 67 84 b5 3d 85 b9 e6 3c
       -0.07358014 -0.06702465 0.08863144 0.028164634
000290 ba 37 cf 3c f7 2f 8e 3d 02 48 91 3d 19 fd e1 bc
       0.025295127 0.06942742 0.070938125 -0.027586507
0002a0 90 b1 ac bd 7d 06 29 3d fc 0d 82 3d 98 31 b1 bd
       -0.08432305 0.041265953 0.063503236 -0.086520374
0002b0 17 8d 35 3b a0 97 23 3d 69 94 96 bc e7 de 98 3c
       0.0027702504 0.039939523 -0.018381314 0.018660976
0002c0 2d 7f bd bc 1c e7 ce be a6 88 0c bd 72 d1 c0 3d
       -0.023131931 -0.40410697 -0.034310006 0.094149485
0002d0 bc 0d 4a bd 44 be 8d 3c 39 5c 58 bd 03 7e 81 bd
       -0.049329504 0.01730264 -0.052822325 -0.06322863
0002e0 12 a6 18 3d 77 18 75 bd 32 c5 df bc 02 6b 50 bc
       0.037267752 -0.059837785 -0.02731571 -0.012720825
0002f0 67 90 bb 3d 3c ef d9 bb dc 44 77 3d cc 55 90 bd
       0.09158402 -0.0066508334 0.060368404 -0.070476145
000300 9c 5e 7c 3d 68 d7 21 3d 35 98 8a 3c f7 25 4e 3d
       0.061613664 0.039512068 0.016918281 0.050329175
000310 93 ef 26 bc 9d bc 33 3d 14 7f 7f 3d 61 9c 81 bd
       -0.010188955 0.043881048 0.06237705 -0.06328655
000320 9c e9 52 bc b0 22 46 bc cc 57 1d 3d 9b d3 c2 bc
       -0.01287308 -0.012093231 0.038413808 -0.023782542
000330 cd 57 6f bd 03 10 44 bd 64 24 1c bc 99 14 58 3d
       -0.058433343 -0.047866832 -0.009530161 0.05275402
000340 ca ec 8e 3d db 6b 5b 3b f5 ba 4c 3d 6f b8 8b bb
       0.06978758 0.0033481035 0.049982984 -0.0042639296
000350 57 61 77 bd 98 97 d2 3c 8f 67 7b 3d bc 88 71 bd
       -0.060395565 0.025707051 0.061378058 -0.05896829
000360 b9 9d ec 3c 01 97 95 3d 55 a4 8f 3c be 33 b1 bd
       0.028883802 0.07304192 0.017534414 -0.08652447
000370 a2 9f 11 bd 83 73 fb 3c c5 2f 6b 3d 95 70 b8 bc
       -0.03555263 0.030694729 0.057418603 -0.02251462
000380 c4 1b a6 3d 02 93 02 3d d5 92 bc bc db da 36 bd
       0.081107646 0.03187848 -0.023019234 -0.04464231
000390 f7 32 5f bd 63 b0 c9 3d a5 dc 03 bd e6 60 41 3b
       -0.054491963 0.09848096 -0.032192845 0.002950722
0003a0 62 e7 be 3d 39 78 d5 3c 2b 87 09 3d f6 74 b9 3d
       0.093214765 0.026058303 0.03357617 0.09055512
0003b0 50 5f 55 3d 27 d1 86 3d 5d 31 2e 3c ff 6c 54 bd
       0.05209285 0.065828614 0.010631886 -0.05186176
0003c0 25 3f f9 3c 32 c2 68 3d b4 9e 90 bd 45 f7 75 bd
       0.030425617 0.056825824 -0.0706152 -0.060050268
0003d0 7c e6 9f 3d 01 46 93 3d 5c ca 2e bc 11 0c 5a bd
       0.07807633 0.071910866 -0.010668363 -0.053234164
0003e0 ff ee ba bc 53 75 3c 3d 6c be aa 3b 6a 1d 56 3d
       -0.02281904 0.046010327 0.0052106883 0.052274145
0003f0 ad 8b 63 3c 4a 48 c3 3d 0b a1 a7 bb c3 eb 76 bd
       0.013888282 0.095352724 -0.0051156334 -0.060283434

last_fc.bias f4 [6]
000000 a9 75 c9 3b e1 d0 91 3c ff 81 8f bd 9c 12 00 3e
       0.0061480594 0.017799797 -0.07007217 0.12507099
000010 fd df 22 3e d5 65 53 3d
       0.15905757 0.051610786
