data/Fanuc_success/Behavior_cloning/BC_policy_GIC_CEV_300_aug_3angles_itr_39.pt (torch, 142051 bytes, 8 tensors)

fc0.weight f4 [128, 6]
00000000: 015e e33e 71be 0cbe 0031 37bf 5c4f 263f
00000010: d5fc a03e f930 883f ef72 9bbe 7914 bb3e
00000020: 3ef3 1fbf 8095 c73e ee23 b9be 0a3b d23d
00000030: e495 093f 520c 58be 1d12 d13e 7db1 0dbe
00000040: 61bc 303e f352 b1be 8df6 41be 817d 8dbe
00000050: a80e 0bbf 2599 83be df16 b6be 24d3 e4bd
00000060: 50f0 5fbe ddeb c2bd 8783 37bf 4253 063f
00000070: 1a4b 9bbe 5e31 b33e 7bec 5fbe 4e48 943e
00000080: e5f8 513e b0b0 1ebd 4107 e1bd 5cc6 ec3d
00000090: 7294 183e 38b9 cfbe 83ab c6be 23be 4f3e
000000a0: eef8 943e a3e7 a23e e161 60bf fdde 953e
000000b0: 4932 1f3f 5711 27be be9b 1abc e1eb 74be
000000c0: 8a58 1dbd ece2 00be 55b3 c93e bc64 36bf
000000d0: ee64 6c3f cfc1 a33e 228f 04be 8d67 53be
000000e0: 955f b5be b758 993d 40db 41be 9441 ad3d
000000f0: 0954 03c0 49a4 8dbf 0be2 d2bd daa9 81be
00000100: 14a9 553f 33c4 18bc 682c ec3e d6d8 8e3e
00000110: 75f5 0fbf bc43 fbbd 9e3b 07bf 91c3 e53e
00000120: 8087 77bc d58f ccbd b18f 22bf a56c 9d3d
00000130: 402e 24be e90d 65be 4b21 e53f 8aa5 573d
00000140: cbb8 fdbd 3910 c9bd 5c53 c2be 7848 d8bc
00000150: 7b2f 1d3e 2e8f cebe 6240 89be 8f7c 3a3e
00000160: 3f97 cc3d d381 a23e a8dc 133e 5271 9bbe
00000170: b203 5d3e 81d3 62bd 8512 91be 495a 203d
00000180: 7020 7abf 5ece 6ebe dd00 dd3e 97d8 e3be
00000190: 02ce b33e cc66 c2be 5dc0 a5c0 8b23 5e3f
000001a0: b85a 643e deb2 ddbd d1d9 ad3e 2381 d13e
000001b0: 72b1 a33e c24a b8be 31e2 11bf 8ef3 b63d
000001c0: 78da 2bbf 1a18 f73d d6bc 783d 2924 aebe
000001d0: 52ae 4a3c 51ab ecba 219d 113e 40dc 373e
000001e0: 0a62 17bf 0049 2fbe 5002 02bf 7f9a 83be
000001f0: d116 99be ec7d 58be 0775 8d3d 6fa7 90be
00000200: 077a c4bc 8510 e93d c5c9 8cbd dd49 a6bd
00000210: 0c81 40bf f106 d53e 6d4c bbbe 9cf9 643e
00000220: f086 cfbd aa78 903c 1bed b2bf 5ade d3be
00000230: 4a5a a33e 421d e53c 8803 0fbe a80a 95be
00000240: 79aa 47bd a3cf 2bbe aa2e 023f f2cf 3bbd
00000250: 6f2a f93d 222d 55be 3da9 0bbf 1773 cebe
00000260: 4b51 e13e 2b29 4abc 8af4 6f3e dceb dabe
00000270: 5b52 bb3e 1a58 acbd ec87 52be 1e55 6d3e
00000280: 51fc 963d 7502 eb3d bf58 4e3f f1bd 483f
00000290: 955d c93e f9e5 5f3e fcfc b6be 10ae c4be
000002a0: f5ae 823b 17fa 92bd 348c c5be aa0e 0ebd
000002b0: 6c58 b4be 4723 b6bd fa82 82c0 faa4 233f
000002c0: b1a0 7c3e 1e19 ebbe a1ed 583e c0cf c4bf
000002d0: e488 91be 259d 25bd 6017 f03d 1b9c e3bd
000002e0: 88c6 a5be f34f 25be 0b1d f23e f463 8e3d
000002f0: 2b5d 233f fe05 cfbd 2a54 40bb fdd0 523e
00000300: c738 b1bf 0bc9 cf3d eeae a63e 750a e1be
00000310: 042e 8fbc 4eaf d8be 8068 dc3e 33bf c23c
00000320: 1f25 593f b677 bb3e 91de 8abd d66e 713e
00000330: 5b19 9dbb e619 f63c 7e9a 0fbe dbb5 50bd
00000340: 17e6 633e dee6 3f3e 351d b53e da78 a23f
00000350: c1ca 0bbd 963b dd3e 3d91 423f 5429 b23d
00000360: e457 27bf 186a 9a3e 0449 e03e ff88 75bf
00000370: e665 0c3f 1e74 7ebf ec87 70be 95c6 693e
00000380: 3aa8 593f 7789 0ebe bc49 7fbe 8f5f d93d
00000390: fa62 c7bf b055 8cbe 8e87 9a3e b536 1f3e
000003a0: eaf1 843d a575 efbb ec52 053f eeac 23be
000003b0: f088 c93e cc8b 63bd fa07 82bf f9a0 8bbd
000003c0: 3894 5bbd f483 203e 5d19 a43c e08f e73d
000003d0: c90e 49be 56d7 6a3e 08b3 dcbe 4285 80be
000003e0: 86f6 12bf dd11 e4bd c96d 8abe c868 53be
000003f0: c6d3 34be 8548 99be 15b9 a73d 7b80 97bd
0.44407657 -0.13744523 -0.71559143 0.6496484 0.31442896 1.0639945 -0.30361125 0.36539057
-0.62480533 0.38981247 -0.36160225 0.10265167 0.5374434 -0.2109845 0.40834132 -0.13837238
0.17259361 -0.34633598 -0.18941708 -0.27634814 -0.5431924 -0.25702778 -0.35564324 -0.111730844
-0.21869016 -0.095176436 -0.7168507 0.5247079 -0.30330735 0.34998602 -0.21867554 0.28961414
0.20505102 -0.03874272 -0.10987712 0.115612715 0.14900377 -0.40570998 -0.38802728 0.20287375
0.29096168 0.3181735 -0.8764935 0.2927169 0.62186104 -0.16315208 -0.009436546 -0.23918106
-0.038414516 -0.12586564 0.39394632 -0.7124746 0.92341506 0.31983802 -0.12945226 -0.2064497
-0.35424486 0.07487624 -0.18931293 0.08459774 -2.052004 -1.1065761 -0.102970205 -0.253249
0.8346112 -0.009324121 0.4612763 0.27899808 -0.5623391 -0.12268779 -0.52825344 0.44875768
-0.015107989 -0.09988371 -0.63500506 0.07686738 -0.16033268 -0.22368588 1.7900785 0.052648105
-0.12388762 -0.09817547 -0.37954223 -0.026401743 0.15350144 -0.40343612 -0.26806933 0.18211578
0.099897854 0.31739673 0.14439642 -0.30359894 0.21583441 -0.055377487 -0.28334442 0.039148603
-0.97705746 -0.2332091 0.4316472 -0.44501182 0.3511811 -0.37969053 -5.179732 0.86772984
0.22300231 -0.10825132 0.33955243 0.40918836 0.31971318 -0.35994536 -0.56985766 0.08933173
-0.6713023 0.12065144 0.060726963 -0.34011963 0.012370663 -0.0018056427 0.14220096 0.17955112
-0.5913397 -0.17117691 -0.5078478 -0.2570381 -0.2990022 -0.21141785 0.06907087 -0.28252742
-0.023983968 0.11380104 -0.06874422 -0.08119557 -0.7519691 0.41606858 -0.36581746 0.22360843
-0.10133159 0.017635662 -1.3978609 -0.41380578 0.31904823 0.027968053 -0.13966191 -0.29109693
-0.04874656 -0.16778426 0.50852454 -0.04585261 0.12166297 -0.20817998 -0.5455511 -0.40322182
0.44007334 -0.012338917 0.23433128 -0.4275807 0.3658627 -0.084152415 -0.20559663 0.23177001
0.07372344 0.11475078 0.80604166 0.7841483 0.3932921 0.21865071 -0.35739887 -0.3841405
0.0039881417 -0.07176607 -0.3858353 -0.034681953 -0.3522371 -0.08893447 -4.0784883 0.6392361
0.24670674 -0.459176 0.21184398 -1.53759 -0.28424752 -0.040433068 0.117232084 -0.11113759
-0.3237803 -0.1614378 0.47287783 0.06952658 0.6381404 -0.10108565 -0.002934704 0.20587535
-1.3845452 0.10145768 0.32555336 -0.4395329 -0.017477997 -0.42321247 0.43048477 0.023772812
0.8482227 0.3661477 -0.067807324 0.23577437 -0.0047942824 0.030041646 -0.14023778 -0.05095468
0.22255741 0.18740413 0.35373846 1.2693131 -0.034128908 0.43209523 0.76002866 0.08699289
-0.65368485 0.30159068 0.43805707 -0.95912164 0.54842985 -0.9939593 -0.2348935 0.2282966
0.8502232 -0.13919626 -0.24930471 0.106139295 -1.557708 -0.27409124 0.30181545 0.15548213
0.06491454 -0.0073077255 0.52079654 -0.15983936 0.39362288 -0.055553243 -1.0158684 -0.068178125
-0.05360815 0.15675336 0.020031625 0.11306739 -0.19634546 0.22933707 -0.4310534 -0.25101668
-0.57407415 -0.1113622 -0.27036884 -0.2064544 -0.1765891 -0.2993814 0.081895985 -0.073975526

fc0.bias f4 [128]
00000000: 3b39 b73d 64ec 073e dfd0 153e d042 7b3e
00000010: 2420 753e f618 6bbe 7c77 afbe d750 f23d
00000020: a555 3bbd 881b 2f3e 6e0a 883a 54bb 4a3e
00000030: 0c71 253e 29b7 983b 407a 90be 7368 84be
00000040: d027 783e d4f3 9abc ff14 f83d 738d 9ebe
00000050: 56ef 8c3e 2729 6abe af1f 153e 42a0 783e
00000060: dc75 033d d8be 823e 9ad1 3c3e 078e babc
00000070: a093 b53e 7f0a 8cbc 4a0c 9f3e af52 1fbc
00000080: 6063 823e b113 6cbc e6e4 bbbe 3157 91bd
00000090: 824c 5dbd fc91 f2bb 2c08 1f3d 62b3 e4bc
000000a0: c96e a3be 0322 933e 1cb7 45be c3b9 efbc
000000b0: 2b62 713b ec1b 6f3d 49e7 eb3d 9691 d9bb
000000c0: a3b4 a7bc 39cc 6fbe 6bad 6cbe 4806 a43e
000000d0: 58fa 8c3e 2f17 0cbd 6704 d1bc 9aa3 9b3e
000000e0: 97d8 87bc 88f1 fd3d 015c 13bd a9dd c83d
000000f0: 0f34 c9be 00bf 273e 1248 0f3e 38d7 2dbe
00000100: c915 a73d be18 8abe 4c8b 18bc 2496 abbe
00000110: e9a6 04bd 6553 3ebc e453 09be d15f acbe
00000120: ab71 763e 6d21 b6be d461 32bc b135 c2bc
00000130: 8409 4ebe 41fa 8d3d 596b 453e 4a20 a0be
00000140: a13b 76be 1f27 0a3d e287 3e3d 2e76 d73c
00000150: 46f4 173e 9990 273e fa1d 0c3d bdb4 aabd
00000160: 60f4 1bbc 5e86 adbb 5716 d2bb 1c60 a5be
00000170: 4865 af3e 51d7 df3d 1af7 b3be c710 07be
00000180: 9de2 bf3e 7684 53bc 22ec 823e 3093 e1bc
00000190: 54e4 ac3d 15ff 963e da4f 133e 02a0 a6bc
000001a0: 8fa9 6b3e d1ff 8f3e baed a7be 7a8c 5d3e
000001b0: 5a83 6ebe 4130 9ebe 986f 33bc c223 97be
000001c0: 5d9c 893d a837 b4be 0ce9 723e 6e74 96bc
000001d0: 408c b0be 7f74 a9be 67a3 52be a462 03bd
000001e0: a5d4 27bc 1611 a3be 4026 6f3e e753 0abe
000001f0: 3b63 773c 0cbf 8ebc aa1c 85bd 2d32 7f3e
0.08946463 0.1327377 0.14630459 0.24537206 0.23938042 -0.2295874 -0.34270847 0.11831825
-0.045735974 0.17100346 0.0010379085 0.19798023 0.16156405 0.0046605063 -0.2821827 -0.25860938
0.24233937 -0.018915094 0.1211338 -0.30967292 0.2752635 -0.22867261 0.14562868 0.24279884
0.03209482 0.25536227 0.18439332 -0.022772802 0.3546419 -0.017094849 0.31064063 -0.009724303
0.25466442 -0.014408992 -0.36698073 -0.070967086 -0.05402804 -0.0074026566 0.038826153 -0.027917568
-0.3192046 0.28736886 -0.19308132 -0.029263383 0.0036832194 0.058376238 0.115187235 -0.0066396696
-0.020471876 -0.23417749 -0.23113029 0.32036042 0.27534747 -0.034201797 -0.025514795 0.30398256
-0.01658277 0.12399584 -0.035976414 0.09807903 -0.3929753 0.16381454 0.13992336 -0.1697663
0.08158452 -0.26972002 -0.009310555 -0.33512986 -0.03238574 -0.0116165625 -0.13410908 -0.33666852
0.24066798 -0.35572377 -0.010887582 -0.023707243 -0.20120817 0.06932498 0.19279231 -0.31274635
-0.24046184 0.033728715 0.046516307 0.02630147 0.14839277 0.16363753 0.034208275 -0.08335254
-0.009518713 -0.005295559 -0.0064113545 -0.32299888 0.3425696 0.1092974 -0.3514946 -0.13189994
0.3747758 -0.012909999 0.2557078 -0.027536005 0.08441988 0.29491487 0.1438593 -0.02033997
0.230139 0.2812486 -0.32798558 0.21635619 -0.23292294 -0.3089619 -0.010951899 -0.2951947
0.06719277 -0.35198712 0.23721713 -0.018366065 -0.34482002 -0.33096692 -0.20570146 -0.032076493
-0.0102435695 -0.31848973 0.23354435 -0.13508569 0.015099342 -0.017425083 -0.06499608 0.24921484

fc1.weight f4 [128, 128]
00000000: c14f 66bd 8744 413c 6e8d afbc cdba 883c
00000010: 372a 5dbc 3226 353d 1f68 f83c d55f 46bd
00000020: e491 62bd b5dd f7bc 898a 27bc 4f77 f73c
00000030: 3437 cdba a106 283c ef98 373d 126c ae3d
00000040: 8ba3 54bd 58c6 263d 205e a53d 4c88 563d
00000050: c369 c9bc 862e 89bd 23c3 a6bd cd92 8cbd
00000060: 5592 873d ed14 93bc e9a1 92bb 0cf3 ac3d
00000070: 70a2 4cbd 4af1 a5bd da87 8b3c c72f 863d
00000080: 6c23 63bc 9189 98bd 6518 aebd 8b43 193c
00000090: 0a54 213d f443 56bd 69e5 833c 756e af3d
000000a0: 35d5 bf3c 7f62 c0bc a5be 28bd e1fd 233d
000000b0: ec82 90bd 1875 82bb d5f4 98bd f029 8bbd
000000c0: afc1 93bc 8681 97bd e33c 9cbd 263a b03d
000000d0: 008f 1e3d 72c6 7a3d fef6 6138 a9de 113b
000000e0: 092d 7c3d f886 c63c 6129 7c3d 2767 823c
000000f0: 8af9 4d3d 621a 1ebd 7197 0b3d 3899 d73b
00000100: fcee a4bd c713 0f3d 7f5c a9bc 14dd f93c
00000110: 7961 813d 0c43 903d fb82 483d 1fe3 55bd
00000120: 2d44 a53d 4017 99bd 88a8 53bb e524 08bc
00000130: da14 843d 9dc5 483d 2cb5 fdbc 6835 a7bd
00000140: c79d 9f3c cae1 93bc d8a8 90bd d84a 393b
00000150: 982e 6dbc 7b58 52bd 8056 74bd 1c91 183d
00000160: 7341 5b3d ad07 123c 8ab0 6dbd d88d 7cbd
00000170: 3d75 3f3d 7da8 5f3d 6de6 e4bc 5374 a8bd
00000180: be3c 9fbd cf1c 1fbd 6e59 04bd a02e 8f3d
00000190: 4651 dbbc aaef 843d 73d2 7bbd d23a 48bd
000001a0: 1853 443d 836a 7c3c 085a 82bd 5458 0ebd
000001b0: eb8c 38bd 0fbb 7fbd 67fc 99bd dcb3 9cbd
000001c0: ec59 40bd 0eae 7dbd d574 8fbd a411 6cbd
000001d0: 1f33 11bd da3e b8bc f523 b3bd ee58 59bd
000001e0: 9244 adbd 17f3 3b3d 802d 3f3d e35d 55bd
000001f0: 3c99 99bc e8dc 80bd 8c6f 8a3d 6d11 00bd
00000200: 51f2 0c3e ef93 153d 12cb 35bc 7f57 103e
00000210: f7c6 053e acc6 adbc e1c1 0bbd a9b1 183d
00000220: 55bf da3e bd42 cd3d ee42 953d a359 ac3d
00000230: 78b0 8f3c db0f c53d f51b 973b 46ff 62bc
00000240: 874e c53d b0ec a8be 133d 823d 34cb 2bbd
00000250: c4d1 443d b822 2c3b eb0c 023d adaf de3d
00000260: c8df ec3c 72db e2bc 96ed b8bc 4a2c 19bf
00000270: 9fe4 ca3d 431f 40bd df04 fb3c 87b1 d2be
00000280: 136d 8d3d 4c0b e4be adab 5e3d 93ee 05be
00000290: 6b0f 5b3f e353 8ebe 345d e63d 9408 08c0
000002a0: 937c d83c fd2a dcbb 90f3 c43c c1e1 39bf
000002b0: 62bc a6bf 56cc 24bd 1a28 043d f5ee b3be
000002c0: 9104 7abe fcea 883d 2179 54bb 3e5a c63d
000002d0: a7e6 b63c 93e6 1abf 0d74 06bf dca3 093d
000002e0: 8de5 ddbe 56e7 0d3e 96da 2abf 3a8f 813d
000002f0: 63a3 a33d 9499 b03d 35bd a03d 05c1 a8bd
00000300: 43f3 41bd 09c1 14bd 5050 b8be aeaa 2cbd
00000310: f019 1dbf 0eff 9abf d53d febe 7482 953d
00000320: 1624 b13d 253d 17bd 6b59 bbbe ec02 f2be
00000330: f86b 973d 160c 023e b66c 033d e988 253b
00000340: 63b9 afbd 2065 5c3d 6200 40bd feee 02bd
00000350: 74d9 5cbd 93fa 943d 20fc 1c3e f987 38bf
00000360: e365 84be 4d68 6ebd c3d9 5e3f a96a 96bd
00000370: 6b01 ca3d a403 433e a500 de3c 26c1 dd3c
00000380: 07c7 9e3b f1d9 b9be b3a7 c23d df8b 9cbe
00000390: 8517 783e ff83 123d dae8 703d ebff 14bf
000003a0: c71e ef3d 6eb5 0e3e bb74 afbd 32fd a63d
000003b0: 0ea8 acbd a0c9 483d 7326 03bf a1e3 7bbc
000003c0: 714e 963d 6610 97bc 1544 c93d 561b c0be
000003d0: 16e2 8bbd e1c4 90bc 2da8 98bd 39ed 19bf
000003e0: 72a7 d43e c696 86bd cd34 c63d f22b 463d
000003f0: 0a9a 17be 147c d0be ab12 643d 6c04 d7ba
-0.056228403 0.011796123 -0.021429744 0.016690636 -0.013498834 0.04422588 0.030323086 -0.048431236
-0.055314913 -0.030257085 -0.0102259 0.030208258 -0.0015656711 0.010255487 0.044823583 0.085167065
-0.05191378 0.0407165 0.080745935 0.052376077 -0.024586564 -0.06698327 -0.08142688 -0.068639375
0.066197075 -0.017954314 -0.0044748676 0.08444795 -0.0499596 -0.08102663 0.017032553 0.065520816
-0.013863426 -0.07448114 -0.08500747 0.009354482 0.039386787 -0.0523109 0.016100602 0.0856599
0.023417095 -0.023484467 -0.041197438 0.04003704 -0.07056221 -0.003981244 -0.07468573 -0.06795108
-0.018036691 -0.073977515 -0.07628801 0.08604841 0.038710594 0.06122441 5.387421e-05 0.002225796
0.061566386 0.02423428 0.0615629 0.015918327 0.050286807 -0.03859938 0.034079973 0.0065795444
-0.08053395 0.03493097 -0.020673988 0.030500926 0.063174196 0.07044038 0.048953038 -0.052218553
0.08069644 -0.07475138 -0.0032296497 -0.008309578 0.064492896 0.049016584 -0.030970179 -0.08164483
0.019484414 -0.018052 -0.070634544 0.002827337 -0.014476441 -0.051353913 -0.059652805 0.037247762
0.053529214 0.008912963 -0.05802969 -0.06165871 0.046742667 0.054604042 -0.027941907 -0.08225312
-0.077752575 -0.038845833 -0.03231185 0.06991315 -0.026772153 0.06491025 -0.061479997 -0.04888422
0.047930807 0.015406254 -0.06364828 -0.034752205 -0.045056265 -0.062434252 -0.07518845 -0.07651493
-0.046960756 -0.06193357 -0.07004706 -0.05763401 -0.035449143 -0.022490907 -0.08747093 -0.053063326
-0.084603444 0.045886125 0.04667425 -0.05209149 -0.018749826 -0.062921345 0.06759557 -0.03126662
0.13764311 0.036518034 -0.011095779 0.14095877 0.1306418 -0.021212898 -0.034120444 0.037278805
0.427241 0.10022495 0.072881564 0.08415534 0.017540202 0.09622165 0.004611487 -0.013854807
0.096341185 -0.32993078 0.06359305 -0.041941836 0.04805161 0.0026265811 0.0317506 0.10873351
0.028915301 -0.02769253 -0.022574227 -0.59833205 0.09906887 -0.046904813 0.030641971 -0.41151068
0.0690557 -0.4453987 0.05436294 -0.1307929 0.855704 -0.27798375 0.11248246 -2.1255236
0.02642659 -0.006718992 0.02404192 -0.726101 -1.302624 -0.040233932 0.032264806 -0.35143247
-0.24415804 0.06685445 -0.0032420831 0.09685181 0.02232678 -0.6050808 -0.5252083 0.033603534
-0.43339196 0.13857779 -0.66739786 0.063261464 0.07990148 0.08623043 0.078485884 -0.082399406
-0.047351133 -0.036316905 -0.35998774 -0.04215496 -0.613677 -1.2109087 -0.4965655 0.073002726
0.08649461 -0.036923546 -0.36591658 -0.47267854 0.0739364 0.12699923 0.032086097 0.0025258607
-0.085802816 0.053807378 -0.046875365 -0.031966202 -0.053918317 0.07274356 0.15330553 -0.7208248
-0.25858983 -0.058204938 0.8705103 -0.073445626 0.09863552 0.19044358 0.027099917 0.02706964
0.0048455033 -0.3629909 0.09504642 -0.30575463 0.24227722 0.035770413 0.058815815 -0.58203
0.11675792 0.13936397 -0.085671864 0.08153762 -0.084304914 0.04902041 -0.51230544 -0.015374095
0.0733918 -0.018440437 0.09827439 -0.37520856 -0.06830232 -0.017672004 -0.07453952 -0.601276
0.41534 -0.065717265 0.0967804 0.048381753 -0.14804855 -0.40719664 0.055681866 -0.0016404516

fc1.bias f4 [128]
00000000: 858a e0bc 4821 ac3c a1fa a9bd 0a7e aa3d
00000010: 8286 9d3d 7696 9fbc 2359 7abc a6f5 12bd
00000020: 03a6 9dbd dbf8 bc3d 806a 8e3b 9450 433c
00000030: d7d2 f6bc fd14 52bc c66a 89bd 0099 a9bc
00000040: fb7d 023d 8eeb 62bc 8ec7 6fbd 8c8a 7d3d
00000050: 6b7a b53d c7d7 873d 4449 21bd d8a5 83bd
00000060: 5d98 ebbc e40f 98bc 15f4 333c 923c ceba
00000070: 5c2d 793d 34df afbd a301 aebc 28fd 3cbc
00000080: 4be7 883c 2007 37bd d43b 9ebb 66a5 1abb
00000090: 9e97 e4bc 287e ae3d ece5 a53d 6e2a 043e
000000a0: e114 8abd 363b b13b 76b1 cebc edad 75bd
000000b0: 251c 0dbd f122 653c 0281 573d c723 3dbc
000000c0: 71a9 543c a5a4 0e3e a757 3a3d 3e38 023c
000000d0: f355 a0bc 0487 84bd d133 cebc aa94 86bd
000000e0: dece 9fbc db73 0c3d 7f12 823d d351 8cbd
000000f0: f164 87bd edb9 ad3d 52d4 c7bb f044 823d
00000100: 48e8 0ebd b24a 82bd 0bd0 453d 6dd4 72bd
00000110: f28f 8fbd c226 9abd 3f60 90bc 8688 103d
00000120: c539 7fbd e192 563c d094 85bd 1add b13d
00000130: 8c95 bc3d eee4 2a3d 2a60 b0bd 3f6e 813c
00000140: 0c5d 98bd 8fc7 d3bc 16cc 6a3d 8a07 5a3d
00000150: f7f9 9b3a 5fc9 1c3c 414b a23d 7d1c 953d
00000160: 14d6 28bb f561 02bd 161c d73d 9fbb 19bd
00000170: bd41 bbbc 4de3 b1bc f7b4 03be 71ed 52bd
00000180: 7231 ad3d 7908 b0bd d769 f5bc 54af 253d
00000190: 3275 42ba 177e 973c e462 60bd 3c07 03bd
000001a0: 4922 013d 8f41 8f3d a51e 303c d52f 023c
000001b0: 3ab5 ae3c c179 593d d18b bfbd 940a 2cbd
000001c0: 5792 d0bd 5eda 713d 950c 80bd 7e29 d6bc
000001d0: 0a28 e43b 44f3 9f3d 66f3 db3d 8182 813d
000001e0: f338 55bd 060c 0ebd f292 2bbc 867d 653c
000001f0: b582 54bd e140 963d db3d c93d 6d1e 003d
-0.027409801 0.021011963 -0.08299757 0.08324821 0.07691671 -0.019480925 -0.015280041 -0.0358788
-0.0769768 0.09227153 0.004346192 0.011921067 -0.030129833 -0.012822387 -0.067098185 -0.020702839
0.031858426 -0.013850106 -0.05853992 0.061899707 0.0886124 0.06632953 -0.039376512 -0.064281166
-0.028759176 -0.018562265 0.010983487 -0.0015734604 0.060834274 -0.085874945 -0.021241015 -0.0115349665
0.016711852 -0.04468453 -0.0048289094 -0.002359712 -0.027904328 0.08520156 0.08100495 0.1290681
-0.067422636 0.00540867 -0.025231104 -0.05998032 -0.03445067 0.013985381 0.052613266 -0.0115441745
0.012979851 0.13929994 0.045493748 0.0079479795 -0.019572234 -0.06471065 -0.025171192 -0.06571324
-0.019507822 0.034290176 0.06351184 -0.06851544 -0.0661105 0.08482728 -0.0060983086 0.06360805
-0.03488949 -0.06361903 0.04829411 -0.059284616 -0.07009877 -0.07526924 -0.017624019 0.03528645
-0.062310953 0.013096542 -0.06522524 0.0868475 0.09208211 0.04172223 -0.08612092 0.01579964
-0.07439622 -0.025851993 0.057323538 0.053229846 0.0011900057 0.009569495 0.0792451 0.07280824
-0.0025762366 -0.0318317 0.10503404 -0.037532445 -0.022858495 -0.02171483 -0.12862001 -0.051495973
0.084566966 -0.08595366 -0.029957695 0.04045041 -0.0007417976 0.018492742 -0.05478181 -0.03198932
0.031526837 0.06994926 0.010749494 0.007945974 0.02132665 0.05309463 -0.0935284 -0.042002276
-0.10184162 0.05904614 -0.062524 -0.026142832 0.006962781 0.07810071 0.10739784 0.0632372
-0.052056264 -0.034679435 -0.010472046 0.014006978 -0.051882464 0.073365934 0.09826251 0.031279016

fc2.weight f4 [128, 128]
00000000: f797 523d 33ea 3abd 3ed6 b3bd 7e81 87bc
00000010: 21b7 d13d 9265 513d 1795 03bd 017d a73e
00000020: 43c5 8c3d 6156 743d 2666 083d e0cf 4dbd
00000030: e6cf 883d 50d6 623d 0ceb 80bd c44e 153e
00000040: 1f07 033d 5098 96bc ce82 0d3f bdcf 13bd
00000050: 5a2a 13bc 82b4 1c3c a7b1 b3bd fc4e 813d
00000060: 8703 133e affe 1d3b 7513 143d 107a ee3e
00000070: c5ff 61bd f758 8a3d e001 003c 8f3c 9b3d
00000080: 0521 2bbd b6db 173f 1351 f93e ede6 54bd
00000090: ec19 10bd 4c2a c23d 687f f53d f4fa d43d
000000a0: 6d24 843d e520 bd3d ead2 583d 5dfa 88bd
000000b0: 4324 a33c 1c3c 9bbd 7256 953d c4da 8abd
000000c0: 7148 7f3d 8246 1abe 3539 b8bd 8ac5 9e3d
000000d0: 6b1a 0f3d 8918 bb3c d4d6 f1bc fcc0 713d
000000e0: ee97 b63c 5084 a3bc 5d25 d2bc b4b9 ca3c
000000f0: 033f 80bd d1fb 8eba 8f8c 15bd e8f6 34bc
00000100: 52a8 8a3d 34c9 9e3d c0de 8cbd 2c72 92bd
00000110: 6454 b4bc 364a 02be 623d 893b 3d44 1cbd
00000120: 87d1 0abd fd9f ccbd 306e 87bd 9c46 db3a
00000130: 0f27 4cbd b76a 66bd 8939 d4bc 0166 c23b
00000140: 05d8 4cbd 8f11 ae3d 977e a9be 7bbf 3dbb
00000150: 00a3 333c 8951 88bb 6000 b73b 0916 9c3d
00000160: 9ec4 a23d 33a7 7e3d 33b4 edbc ce01 fa3e
00000170: fe21 22bd 78bf 54bd ef82 64be a561 c83d
00000180: 8f72 983c d267 89bd 8934 f93d 8468 a23d
00000190: 1138 0d3d d366 9d3d eb57 49bd 2d54 4dbd
000001a0: 4503 a2bd 42e6 623d 5897 b13d 553a dcbd
000001b0: 42f3 8abc 894a 12bd 0f35 57b9 19ba 4fbd
000001c0: 9366 023d 4974 8d3d b2c3 feba 0f85 c63d
000001d0: 2189 783c 23a4 753d e16a ab3d 2b56 dabd
000001e0: 4bf3 13be 035b 0fbd eb0f e83c 18e0 a23d
000001f0: f1d2 8dbd ef4b 9a3d c179 51bd 9514 67bd
00000200: 7716 5ebd 58f9 2bbc 456b 8bbd 31c1 84bd
00000210: 3a9f 41bd 00e8 1a3d 83ce 4b3d 8853 2cbc
00000220: 96b9 6d3c 9c55 7c3d c243 883d 2fcb b7bc
00000230: 3f3b 2e3d 4d94 0b3d a902 d13c 8a88 363d
00000240: 43d6 80bd 86a8 92bd 13d0 a63c b5d0 b4bd
00000250: 9ff3 74bd 93f3 103d a3d3 763c b235 07bd
00000260: 3fe6 09bd f38d 80bd fba6 493d 0de7 36bd
00000270: b075 973c 0034 9dbd f937 973a d79c 16bd
00000280: fc22 913d 1175 5e3c e5e7 903d e899 74bd
00000290: 94c1 75bd bda4 84bc 3ceb 5e3c be37 c0bd
000002a0: cb19 683d 5ac7 a63d 3937 cebd fc25 a5bd
000002b0: 6d6c 963d 58a2 8b3d b8ca 6fbd 47eb 08bd
000002c0: 1d07 7cbd f104 833d a419 19bb ca4f 29bd
000002d0: c179 87bd 69d7 793d db19 61bd 92b0 99bd
000002e0: ff86 a7bb b687 313d d66c bbbd a446 6abd
000002f0: 98a7 343d adf2 96bd 50f8 353d 3e2c 8f3d
00000300: f7b2 a0bd 6a1f 953c aee5 aabd 3643 833d
00000310: c1e8 64bd 4405 123d d7fb 97bb 5713 afbd
00000320: 2b47 98bd c57a 1ebc 9dc5 98bc 7006 9ebd
00000330: 6edc 84bd 0f82 0ebd aaf1 8dbc 48ec 7f3d
00000340: 5cf8 8dbd a0a8 01bc cff5 f73c f6bf 973c
00000350: d03a 203d 000a 973d dbec 6dbd 2303 6abc
00000360: f729 b2bd 56bf 2a3d 437c 89bd 443d c6bd
00000370: 859e 253d c245 91bd 8283 973d fc35 b93a
00000380: 79e0 f23b 2162 c23c 5550 173c 0b1b 94bd
00000390: e9cc febb eb36 723d b484 6ebd 4d22 22bd
000003a0: 17e6 aabd b95d 7fbb 7ae4 3c3d 9f58 81bc
000003b0: e9ad 213d ec9d 4f3d 5dd9 f5bc 6f4b 30bd
000003c0: e23a 93bd a182 51bd 2e96 93bd 1370 513d
000003d0: cf93 983d a29d c03c b802 0ebc 284b 0a3c
000003e0: 54af 46bd b6fd ae3c 16ad 543d 8d0b 9d3d
000003f0: e049 94bd ec6e d43b cf10 53bd 5ca5 4fbc
0.051414456 -0.045633506 -0.08781098 -0.016541239 0.10240007 0.051122256 -0.032124605 0.32712558
0.06873562 0.05965269 0.03330054 -0.050247073 0.066802785 0.055380166 -0.06294832 0.14580828
0.031989213 -0.018383175 0.5527772 -0.036086787 -0.008982265 0.009564521 -0.08774119 0.06313893
0.14356814 0.0024108102 0.03615137 0.465775 -0.05517556 0.0675525 0.007812947 0.0757991
-0.041779537 0.5931963 0.48694667 -0.05197804 -0.03518097 0.09480724 0.119871914 0.10399428
0.0645226 0.0923479 0.05293552 -0.06688378 0.019914752 -0.07579824 0.07291879 -0.067800075
0.062324945 -0.15065959 -0.089952864 0.07752521 0.034937304 0.022838848 -0.029521383 0.059021935
0.022289243 -0.019960552 -0.025652582 0.024746753 -0.062620185 -0.0010908787 -0.036511 -0.011045195
0.06770386 0.0775322 -0.06878424 -0.07150683 -0.022012897 -0.12723622 0.0041882256 -0.038151015
-0.033891227 -0.09991453 -0.066128135 0.0016729417 -0.049841937 -0.056254115 -0.025906341 0.00593257
-0.0500107 0.08499443 -0.33104393 -0.0028953243 0.010964155 -0.0041601104 0.0055847615 0.0762139
0.07947658 0.062171172 -0.02901659 0.48829502 -0.0395832 -0.05194041 -0.22315572 0.09784249
0.018609313 -0.06709255 0.121682234 0.07930091 0.034477297 0.07685628 -0.04915611 -0.050129104
-0.0791078 0.055395372 0.08671445 -0.107533135 -0.016961697 -0.035715614 -0.00020523764 -0.050714586
0.031836104 0.06906945 -0.0019436984 0.09693348 0.015169413 0.059970986 0.08369995 -0.106609665
-0.14448278 -0.034998905 0.028327903 0.07952899 -0.069249995 0.075340144 -0.051141504 -0.056416113
-0.054220643 -0.01049646 -0.068075694 -0.06482161 -0.04727099 0.03781891 0.04975749 -0.010517962
0.014509579 0.06160508 0.06653549 -0.022435753 0.04253697 0.034076978 0.025513964 0.044563808
-0.06290867 -0.071610495 0.02036289 -0.0882887 -0.059802648 0.03538854 0.015065107 -0.033010192
-0.033666845 -0.06277075 0.04923151 -0.04465394 0.018488735 -0.07675934 0.0011537067 -0.036770668
0.07086751 0.0135777155 0.0707548 -0.05971709 -0.059999064 -0.016191835 0.013605889 -0.09385632
0.056665223 0.08143492 -0.10069127 -0.080638856 0.07344899 0.06818074 -0.058542937 -0.033427503
-0.06153022 0.06397427 -0.002336123 -0.04133586 -0.066150196 0.060996447 -0.0549563 -0.07504381
-0.0051125283 0.043342315 -0.09151618 -0.057196274 0.044105142 -0.073705055 0.044426262 0.069908604
-0.07846635 0.018203456 -0.08344589 0.06409304 -0.055886034 0.035649553 -0.004638176 -0.08548611
-0.07435449 -0.009672825 -0.018648917 -0.077160716 -0.06487356 -0.034792002 -0.017327148 0.062481195
-0.069321364 -0.0079137385 0.030268578 0.018524151 0.039118588 0.07374954 -0.05808721 -0.014282974
-0.086994104 0.04168638 -0.06713154 -0.09679654 0.04043438 -0.07093383 0.0739813 0.0014130468
0.007412013 0.023728432 0.009235461 -0.072317205 -0.007775892 0.059134405 -0.058232024 -0.039583493
-0.083446674 -0.0038965775 0.04611633 -0.015789328 0.039472494 0.050687715 -0.030010873 -0.04304069
-0.071889654 -0.051149968 -0.07206379 0.051132273 0.07450067 0.023512665 -0.00866764 0.00844077
-0.04850705 0.021361213 0.05192288 0.07668219 -0.07240653 0.0064829495 -0.0515297 -0.012673702

fc2.bias f4 [128]
00000000: 9ae6 3bbb 25c8 5abc ef95 fc3c a253 86bc
00000010: f088 85bd 7c6d 6c3d b75c be3d 3933 023d
00000020: 4973 1bbd c6d5 823d 12aa c2bd bceb db3d
00000030: 76ae 983c 4b04 03bc a3f4 7e3d 60c9 de3d
00000040: c09c 26bd 5287 783c 4083 57bd 8a59 87bd
00000050: f900 253d 1124 8abb 446d 09bd dcb2 b6bd
00000060: 49fc 083c 80df 24bd 2484 bd3d a46c c33d
00000070: d8dc 773d 5b1e d83d df73 f03d a50f 95bd
00000080: 1f0e 683c ecd5 2fbd d696 0d3d 92e2 23bd
00000090: 0a97 8fbd 662e 9cbd 66c3 6abd 6fc8 a4bd
000000a0: 353d b73c a4a7 873d 36dc 2c3a 2e4c 203d
000000b0: 15e6 d53b 641f e13d 5019 ce3c a81c 09bd
000000c0: 0764 d6bc 6ecc 843d d167 413b a2b0 18be
000000d0: b4d0 353d 94cb d63c 2318 96bd b596 62bd
000000e0: 84d8 a5bb 25ef adbd fe25 9a3d 1642 a9bc
000000f0: 2f6f b53d 481e 873c 047d e33d 7635 2f3d
00000100: d55c 82bc 974f 06bc a00b 08bd ecb0 78bd
00000110: d48a c33d 898e 2dbd 72e2 183d 24c4 c3bd
00000120: 9fc2 cebc 74ea 31bc 52ff 6bbd 1a11 823d
00000130: 22a2 903c 0ab0 70bd 4a22 413d a8a2 b0bd
00000140: 1597 083d 9d86 92bd f3ee 233d f78b 09bc
00000150: d110 023e 4dbc 9fbd dc95 93bc 4a58 523d
00000160: 794f 7a39 15a6 0f3d 9bb1 8abd d2d2 063e
00000170: 1326 8ebd 7f7c d13d 0a0a af3d 76ce 78bd
00000180: 5444 033e 00c9 183c 48c1 8cbb 6383 843d
00000190: 5136 a6bd 746c 0f3d 3549 c13d 8a04 9dbd
000001a0: 7a73 9ebd baa0 6f3c 1793 9c3d eb7c 49bd
000001b0: bb12 7d3d 692d c03c 664b 45bd 6000 82bd
000001c0: b1ba 9a3d 3455 b23d 0647 05bd 0612 7cbd
000001d0: cdb5 64bd d906 c5bd 7440 8c3d 3967 4c3d
000001e0: a860 a2bd b939 34bd bfaa 923b f240 db3c
000001f0: 741e 9c3d 760e 0bbd a024 a9bc c54a e83c
-0.0028671385 -0.013353382 0.030833213 -0.016397301 -0.065202594 0.0577216 0.09295028 0.03178713
-0.03795174 0.0638843 -0.095050946 0.10738322 0.018637877 -0.007996629 0.062245023 0.10878253
-0.040676832 0.015168982 -0.052615404 -0.06608875 0.04028413 -0.004215725 -0.03355147 -0.089208335
0.008360931 -0.04025221 0.092537194 0.09542206 0.060513347 0.10552665 0.11740851 -0.072783746
0.014163523 -0.04292862 0.034567676 -0.040010996 -0.0701123 -0.07626037 -0.057315253 -0.08046042
0.022368053 0.06623772 0.0006594093 0.03913515 0.006527672 0.109923154 0.025158554 -0.033474594
-0.026170744 0.06484304 0.0029511342 -0.1491113 0.044388488 0.02622012 -0.073288225 -0.055319507
-0.005061211 -0.08492879 0.07526778 -0.020661395 0.08859097 0.016493931 0.11107829 0.042775594
-0.015913406 -0.008197687 -0.03321421 -0.0607156 0.09547964 -0.04237226 0.03732533 -0.09558895
-0.025239287 -0.010859121 -0.05761654 0.06350918 0.017655436 -0.058761634 0.04715184 -0.08624774
0.033347208 -0.07154582 0.0400228 -0.008395187 0.12701727 -0.077995874 -0.018015794 0.05135373
0.00023871464 0.035070498 -0.06772157 0.13166359 -0.06940856 0.10228824 0.08546837 -0.06074377
0.12819034 0.009325266 -0.004295502 0.064703725 -0.08115829 0.03501554 0.09437791 -0.076668814
-0.07736869 0.014625723 0.07645243 -0.049191397 0.06178544 0.023459153 -0.04816761 -0.06347728
0.0755514 0.087076575 -0.032538436 -0.061540626 -0.05583744 -0.09620447 0.06848231 0.04990313
-0.07928592 -0.04400036 0.004475921 0.026764367 0.07622996 -0.033949338 -0.020647347 0.028355965

last_fc.weight f4 [6, 128]
00000000: 3773 85bd 3b7c 603d 6abf 6dbc b258 86bd
00000010: 80d3 53bd 94a2 fbbb fc1b 783b 1644 8abd
00000020: fc2f 54bd 7b82 debc 93c1 c7bc 845a 8d3d
00000030: 0fe6 6fbe 2bd5 9fbd ee82 843c 2532 fdbd
00000040: 912e a73c 4585 84bd 299a 38bd 3bb5 d7bd
00000050: fe41 d93c 4568 d6bb 2c25 613d 10d1 8cbd
00000060: ef0a 8bbd bd4e 98bd c594 9f3d 744b 0e3e
00000070: eda1 9b3d b9eb 573d 990c b13d 108e f4bc
00000080: f173 a83d 54be bd3c 6d38 aabd afb6 0c3d
00000090: db08 9dbd a44a 9dbc a3b9 8d3e 2975 52bc
000000a0: 73d8 ab3d 094a 203d d500 44bb ff64 bd3d
000000b0: bffa 8abd c73c 693d 2d0a c7ba 2eaf 48bd
000000c0: b4be 8f3d dfa5 50bc c6ce 65bc 9dcc 09bf
000000d0: 6378 89bd 3b43 6ebd b3d3 a13d d8b9 bd3d
000000e0: 644a 76bd a4eb 923d 1878 55bd 18b5 313d
000000f0: 07fa 953a 835f a1bb c56d af3d 48a7 f13d
00000100: fe18 70bc ef21 e2bc fb0c b63d a46c c8bc
00000110: 6736 833d e1ec 1f3d 3296 633d e9ab e93b
00000120: 02aa 3d3c 61f9 c5bc 59cc a0bc 7bba e1bb
00000130: bc50 5bbd 3b15 773d 5031 e4bc 9216 5d3d
00000140: e051 be3d 19fc 243d 636a b23b e8af cbbd
00000150: 052a 323d c25a f3bc 39c7 97bc fb78 363d
00000160: 0404 2a3d d9e2 58bd b6b2 693d 67b7 033e
00000170: 2bea a33d deac 99bc 09f0 ac3c bb3f 8ebd
00000180: 3aed 763d 2fec 93bc 97fa 83bd da96 9e3b
00000190: 8936 763d ce92 a3bc ca81 a3bc 780d 863d
000001a0: 8fe1 80bd 8424 7dbb f39c 063d 3013 d43c
000001b0: bc21 73bd 7f1e 1bbd f92d 363d a88c 7dbd
000001c0: 191c df3b 610f 793d 3ab4 8d3d 8b83 023d
000001d0: ad47 56bd 7518 9ebd 5a84 e7ba 0930 ae3d
000001e0: 0fd3 f2bc 2c48 a03d 3f7c 3cbc eaf1 423d
000001f0: 36be a2b8 ef01 c83c 57bd fd3b c4c7 113c
00000200: 2153 923d ea12 65bd 08d3 f2bd 2cd5 b33c
00000210: c79b a23d 3b12 8dbb 3336 f93c 62c0 a73d
00000220: 9f17 6ebd 476c 783d dc3f 153d bb91 74bd
00000230: 6b8a 4bbe 3fd5 c13c 535c 99bc a8cb ccbd
00000240: 788f 65bd b029 efbc fdc9 253d 02aa d4b9
00000250: 8e82 913c 64c7 bc39 0433 63bd 3f80 523d
00000260: 3340 1e3c b373 9e3d 1c8c f0bc 11f1 e93d
00000270: fee0 c03d 736e 94bc 7749 ab3d 0cc9 10bc
00000280: 285b e13c a199 43bd 7ff7 833d ac81 853d
00000290: e5c9 1e3d f249 0d3d e169 863e 1beb 49bd
000002a0: dfe4 423c 386d 69bc 4587 033c ff69 9dbc
000002b0: b216 37bd d911 13bb 5c59 6f3d 9b4d 97bb
000002c0: 174a e93b 321b 9e3d d144 b23d bb5d 08bf
000002d0: 6171 1e3d 6d12 c9bc ea8a 69bd 941b f0bc
000002e0: 5e6d 7abd 175e 86bd 9709 91bc 88aa c2bd
000002f0: 6e74 5fbd 4574 99bd 2e5f 8d3d 1b32 db3d
00000300: 786b 1c3d 8469 85bd c90f 643c 79e7 a23d
00000310: 516a 3c3d ba49 613d d69e 763c ed6d 1f3d
00000320: 1998 113c 1eef 96bd 33a3 45bd 701d c43c
00000330: edb8 4fbc 32d9 8ebd be77 b93c cbce ea3a
00000340: f234 613b ad89 aaba bf06 4b3d 41bc 2fbd
00000350: 211e fe3d 0cba f2bc fabd 4f3d 3bfb 4bbc
00000360: 11e9 bc3d b60f 863d 0afa 113d ddf7 6c3d
00000370: eee7 993d 4604 b73d 6f81 f7b9 b8be 18bd
00000380: a323 633d b82e 7e3d b55c 6dbd 6a8d aa3d
00000390: ce18 a83d a53b 8e3c b174 f5bd 2870 023d
000003a0: 3fd0 fcbc 987a f6bb d73f be3d 855b a03d
000003b0: e51f 723d b2eb 7bbc e46b bb3d ed7c 233c
000003c0: 0ea1 40bc 5af8 1f3d 2df9 23bd 7b19 2bbd
000003d0: d6d6 3cbd bfe5 6e3d 99c0 8d3d f4fe 753d
000003e0: 25cf 743d cb4f 5e3b 0726 36bd 5386 883d
000003f0: a674 c9bc eaa9 853d 4c6b 723d 8d4a 8bbd
-0.06516116 0.054805975 -0.014510969 -0.06559886 -0.051715374 -0.007679293 0.0037858477 -0.067512676
-0.051803574 -0.027161827 -0.024384296 0.0690203 -0.23427604 -0.078043304 0.016175713 -0.1236308
0.020407947 -0.06470732 -0.045068894 -0.10532614 0.026520725 -0.0065431916 0.05496709 -0.06875813
-0.06789195 -0.07436893 0.077920474 0.1389597 0.07599244 0.052715037 0.08644981 -0.029852897
0.08225239 0.023162045 -0.083115436 0.03435391 -0.07667705 -0.01920063 0.27680692 -0.012845316
0.08390894 0.039133105 -0.0029907722 0.09247779 -0.06786107 0.056942727 -0.0015185528 -0.04899519
0.070187956 -0.012734859 -0.014026349 -0.5382784 -0.06712415 -0.058169585 0.079017065 0.092639625
-0.06012954 0.07173851 -0.052116483 0.043385595 0.0011442312 -0.004924716 0.08565859 0.117994845
-0.014654396 -0.027604071 0.088891946 -0.024465866 0.06406861 0.039044265 0.05556316 0.007131089
0.011576178 -0.024166765 -0.01962869 -0.0068886853 -0.05354379 0.06032298 -0.027855545 0.053976603
0.0929296 0.04027948 0.005444811 -0.09945661 0.043497104 -0.029706363 -0.018527614 0.04454897
0.041507736 -0.052950714 0.057055198 0.12862931 0.08003648 -0.018759187 0.021110551 -0.06945749
0.06028483 -0.018056957 -0.064442806 0.0048397603 0.060110603 -0.019967463 -0.01995935 0.06545538
-0.06293022 -0.0038626501 0.032864522 0.025888056 -0.059358343 -0.03787088 0.044477437 -0.06190172
0.0068087694 0.060805682 0.06919141 0.03186373 -0.05231445 -0.077195086 -0.0017663345 0.08505256
-0.029641656 0.07826266 -0.011504232 0.04759399 -7.7601915e-05 0.024414985 0.0077435183 0.0088977255
0.07144762 -0.05592624 -0.11856657 0.021952234 0.079398684 -0.0043051518 0.030421352 0.08190991
-0.058127996 0.060650136 0.036437854 -0.059709292 -0.19877021 0.023661254 -0.018720781 -0.09999782
-0.056045026 -0.029194683 0.040475834 -0.00040562457 0.017762449 0.00036006712 -0.055468574 0.051391836
0.009658861 0.077369116 -0.029363684 0.11422933 0.09417914 -0.018119073 0.08363622 -0.008836996
0.027509287 -0.047753934 0.064436905 0.065188736 0.03876676 0.034494348 0.26252654 -0.04929648
0.011895387 -0.014247231 0.008027856 -0.019215582 -0.04469938 -0.0022441058 0.05843483 -0.0046174056
0.007119428 0.07720031 0.08704532 -0.5326802 0.038682345 -0.024544919 -0.057017244 -0.029310025
-0.061139457 -0.06560915 -0.017704768 -0.095051825 -0.054554395 -0.0749288 0.0690292 0.10702916
0.038188428 -0.06514266 0.013919779 0.07954306 0.04599983 0.05500195 0.015052518 0.038923193
0.008886361 -0.07369827 -0.048251342 0.023939818 -0.012678367 -0.069750205 0.022640105 0.0017914412
0.0034363833 -0.0013011001 0.04956698 -0.042904142 0.124080904 -0.02962973 0.050718285 -0.012450035
0.092241414 0.065459654 0.035638846 0.05785357 0.0751494 0.08936362 -0.00047207947 -0.03729126
0.055453908 0.062056273 -0.05794974 0.08327754 0.08207856 0.017362425 -0.11985148 0.03184524
-0.030861018 -0.0075219385 0.0928952 0.07829956 0.05911245 -0.015376018 0.09151438 0.009978515
-0.011757148 0.039055206 -0.040032554 -0.041772347 -0.04610332 0.05832457 0.06921501 0.060057595
0.05976786 0.0033922072 -0.04446986 0.06666245 -0.024591755 0.06526549 0.059184358 -0.06801329

last_fc.bias f4 [6]
00000000: abe8 fb3c bd55 c13d a24b 86bd a663 043e
00000010: 67a9 733d a6d4 363e
0.030750593 0.094401814 -0.065573946 0.12928638 0.059487727 0.17854556
