data/Fanuc_success/Behavior_cloning/BC_policy_GIC_CEV_300_aug_11angles_itr_39.pt (torch, 275357 bytes, 12 tensors)

fc0.weight f4 [128, 6]
0	0xbe491d7d	-0.19640155
1	0x3ead2e96	0.33824605
2	0x3e3d6dfb	0.18498985
3	0xbecb3f97	-0.39696953
4	0x3e3600ff	0.17773817
5	0x3f16f975	0.5897439
6	0xbe890f3f	-0.26769444
7	0x3dd40625	0.103527345
8	0xbe92c767	-0.28667757
9	0x3e397e62	0.18114617
10	0x3ea692af	0.32533786
11	0xbe6fd4fc	-0.23421091
12	0xbf33a21b	-0.7016923
13	0x3dde362e	0.10850178
14	0x3d9a212f	0.075258605
15	0xbe96c4a1	-0.2944689
16	0x3ec5dc30	0.38644552
17	0xbef9395e	-0.4867658
18	0x3d9aa50d	0.07551012
19	0x3e8907a0	0.2676363
20	0x3ed717ff	0.42010495
21	0x3dd27ca9	0.10277683
22	0xbddb2b41	-0.107016094
23	0xbda793f6	-0.08182518
24	0xbec87f1a	-0.3915947
25	0x3e15ef2d	0.1464202
26	0xbdb6d2e8	-0.08926946
27	0xbdd218b1	-0.10258616
28	0xbec00aca	-0.3750823
29	0xbde32fb9	-0.11093087
30	0x3db8bb62	0.090201154
31	0xbe1c979c	-0.1529221
32	0xbe86d397	-0.26333305
33	0xbe172789	-0.14761175
34	0x3ec4bdf3	0.3842617
35	0x3dd9c86e	0.10633932
36	0x3f6df644	0.92953897
37	0x3ee534e9	0.4476693
38	0xbf15d0b8	-0.58521605
39	0xbe81b8d1	-0.25336316
40	0xbe6d7935	-0.23190768
41	0xbe0425b7	-0.12905012
42	0xbcdcce68	-0.02695389
43	0xbe88cd98	-0.26719356
44	0xbe8aaaee	-0.27083534
45	0xbe6427de	-0.22280833
46	0xbcf4bac8	-0.02987422
47	0xbea45ab4	-0.3210045
48	0xbe1ee4c7	-0.15516959
49	0xbecd733b	-0.40126976
50	0xbd2e4af0	-0.042551935
51	0xbe02e6b1	-0.12783314
52	0xbc185f1b	-0.009300019
53	0xbe8a30a6	-0.2699024
54	0x3d9733be	0.07382916
55	0xbe2641b5	-0.16236003
56	0x3e5bf92f	0.21481775
57	0x3e5f9631	0.21834637
58	0xbe8723b0	-0.26394415
59	0x3ec87b74	0.39156687
60	0xbe294f6b	-0.16534202
61	0x3e072ff3	0.13201885
62	0x3e858546	0.26078242
63	0x3c490d4b	0.012271236
64	0xbec10d3a	-0.37705404
65	0xbe0c0a29	-0.13675751
66	0x3f056f0e	0.5212258
67	0x3e5e5ae1	0.21714355
68	0xbe8cb6ce	-0.2748322
69	0x3e9e3016	0.30896062
70	0xbe0abb7d	-0.13548084
71	0x3eab82f3	0.33498344
72	0xbe20a0f7	-0.15686403
73	0x3eb66175	0.3562123
74	0x3e3e54d4	0.18587047
75	0xbdf9fa66	-0.12205963
76	0xbea2e716	-0.3181693
77	0xbd0ac2fa	-0.03387735
78	0x3e59d6a3	0.21273284
79	0x3e7dfe45	0.24804027
80	0xbe85a688	-0.26103616
81	0x3ea4417d	0.32081214
82	0xbd928980	-0.07155132
83	0xbe192b44	-0.14957911
84	0xbec4161b	-0.38298115
85	0xbd2e483a	-0.04254935
86	0xbe54d30d	-0.20783634
87	0xbed20347	-0.41018125
88	0xbda60824	-0.081070215
89	0xbd1da581	-0.038487915
90	0xbedd86b9	-0.43266848
91	0x3f2b2fb5	0.6686967
92	0xbf8db8d3	-1.1072029
93	0xbeb44bee	-0.3521418
94	0x3e9e5fce	0.30932468
95	0xbc0eddc1	-0.008719862
96	0x3e7ca3bf	0.24671839
97	0x3eaa6777	0.33282062
98	0xbe7ce3fa	-0.24696341
99	0x3c8ebd3f	0.017424224
100	0xbe42f02a	-0.19036928
101	0x3f0369ab	0.5133311
102	0xbd00e9d3	-0.031472992
103	0xbe9b03a6	-0.3027622
104	0x3e0a2e17	0.13494144
105	0x3e4eae76	0.20183739
106	0xbdeacdeb	-0.11465057
107	0x3e515867	0.20443879
108	0xbdf12114	-0.11773887
109	0xbc486ce8	-0.0122329965
110	0x3e2856a3	0.164393
111	0x3e141dc5	0.14464481
112	0xbea15b9c	-0.31515205
113	0xbd38d719	-0.045127008
114	0x3e81d99b	0.25361332
115	0x3eda6ce0	0.4266119
116	0xbf63f232	-0.89041436
117	0x3e86ea89	0.2635081
118	0x3d8fa247	0.07013374
119	0x3ea683fb	0.32522568
120	0x3e03d2ea	0.12873426
121	0xbe2f4943	-0.17117791
122	0xbe4abd25	-0.19798715
123	0x3dd779bf	0.10521268
124	0xbe9f90fb	-0.311653
125	0x3e24189f	0.16025017
126	0x3f0f0b1c	0.55876327
127	0x3ecfc239	0.40577868
128	0xbe806941	-0.25080302
129	0x3e49b3e0	0.19697523
130	0xbd917eb0	-0.07104242
131	0xbd541988	-0.05178216
132	0x3ede3ed8	0.4340732
133	0xbe02bef4	-0.12768155
134	0xbdd7f994	-0.1054565
135	0xbe71ef18	-0.23626363
136	0x3e60f5da	0.21968785
137	0x3e931d06	0.2873308
138	0x3e6aa4a6	0.22914371
139	0xbde2e5ce	-0.11078988
140	0x3ee1a441	0.44070628
141	0x3eb0d87d	0.34540167
142	0xbea0e9a9	-0.3142827
143	0xbe57a5fe	-0.21059415
144	0x3e0b5454	0.13606387
145	0xbf40b865	-0.75281364
146	0xbeb9c90c	-0.362862
147	0x3b28c66a	0.002575303
148	0xbd1ec17a	-0.038758732
149	0x3d92440f	0.071418874
150	0xbf194aeb	-0.5987994
151	0xbed9f4e2	-0.42569643
152	0xbdf64d19	-0.12026424
153	0x3ed74573	0.42045173
154	0x3e8cda38	0.27510238
155	0x3d55c6a2	0.052191384
156	0xbdebd42f	-0.1151508
157	0x3e16f050	0.1474011
158	0xbe77851e	-0.24171874
159	0xbeb17c96	-0.34665364
160	0xbe94662a	-0.28984195
161	0x3e4bce9d	0.19903035
162	0x3d60942f	0.05482882
163	0xbec8e11d	-0.39234248
164	0xbe54ce5f	-0.2078185
165	0x3e9bea40	0.30452156
166	0xbeb4c1e5	-0.3530418
167	0xbe9b9d01	-0.30393222
168	0xbebc855e	-0.368205
169	0x3e1ae885	0.15127762
170	0xbe01411b	-0.12622492
171	0x3cc2c483	0.023775345
172	0xbddf0f96	-0.10891645
173	0x3e4ea7e2	0.2018123
174	0x3e5fc4ad	0.2185237
175	0xbe76fccf	-0.24119876
176	0x3e281d5f	0.16417454
177	0xbe99df96	-0.30053395
178	0x3d270c6b	0.040783327
179	0x3e843b1f	0.25826356
180	0x3ecabd85	0.39597717
181	0x3eca0f6f	0.394649
182	0xbf3f2cb1	-0.7467757
183	0x3f0c181a	0.54724276
184	0xbd357919	-0.04430494
185	0x3e01b1cf	0.12665485
186	0x3e78e790	0.24307084
187	0x3e96d7c7	0.294615
188	0xbe95d78a	-0.29266006
189	0x3e27837b	0.1635875
190	0xbef51c5b	-0.47873196
191	0xbe80b67b	-0.25139222
192	0x3e329aad	0.17441817
193	0x3e831c24	0.25607407
194	0x3e3dc6e3	0.185329
195	0xbeb2a657	-0.34892532
196	0xbd89b628	-0.06724197
197	0xbe990d2c	-0.29892862
198	0xbe9118bd	-0.28339186
199	0x3e14fd44	0.14549738
200	0xbe8392fa	-0.25698072
201	0xbec7c703	-0.3901902
202	0x3e2e3955	0.17014058
203	0x3ea13fea	0.31494075
204	0xbebf0c18	-0.37313914
205	0x3eac1318	0.33608317
206	0x3eee4467	0.46536562
207	0xba682d31	-0.00088568317
208	0xbee5a832	-0.44854885
209	0x3e881eeb	0.2658609
210	0xbf01bdc8	-0.5068021
211	0xbe798a35	-0.24369128
212	0x3f0138fa	0.50477564
213	0xbcde5cfc	-0.027143948
214	0x3dc49ec5	0.096005954
215	0xbe8122ab	-0.25221762
216	0xbeaf5c66	-0.34250182
217	0xbcb4f839	-0.022091018
218	0x3e57fea5	0.21093233
219	0xbe8a7c13	-0.27047786
220	0xbb63bdf1	-0.0034750665
221	0x3ebf027a	0.37306577
222	0xbe39b357	-0.18134819
223	0x3e99e953	0.30060825
224	0x3d8981fa	0.06714244
225	0xbdabd702	-0.08390619
226	0x3d567da2	0.052365907
227	0x3dceeca8	0.10103732
228	0x3e1432cf	0.14472507
229	0xbd7b6482	-0.06137515
230	0xbecf6de3	-0.40513524
231	0x3eba7d9b	0.36423954
232	0xbedd8c5a	-0.43271142
233	0x3decf0dd	0.115693785
234	0x3ee47875	0.4462315
235	0xbec2b32b	-0.3802732
236	0x3e677d92	0.22606495
237	0x3e672469	0.22572483
238	0xbe48e3f2	-0.19618204
239	0x3e3fbef8	0.18725193
240	0x3e78b6a6	0.24288425
241	0xbeb4a217	-0.35279915
242	0xbeb4c798	-0.35308528
243	0x3ebc993e	0.36835665
244	0x3dc8e529	0.09809334
245	0xbe044c33	-0.12919693
246	0xbc404768	-0.011735775
247	0xbd81a756	-0.06330745
248	0x3e13d9d5	0.14438565
249	0xbea68618	-0.3252418
250	0x3ecf0fb1	0.4044166
251	0xbe82022e	-0.25392288
252	0xbe0b95b5	-0.13631327
253	0x3eb4b154	0.3529154
254	0x3d1980b1	0.037476245
255	0xbec4697a	-0.38361722

fc0.bias f4 [128]
0	0xbc8356ea	-0.016032655
1	0xbeb64015	-0.35595766
2	0x3d26cf09	0.040724788
3	0x3e6e8165	0.23291548
4	0xbb04628e	-0.0020200345
5	0xbe8113c4	-0.25210392
6	0xbd8b1964	-0.06791952
7	0x3e0bd614	0.13655883
8	0xbe88fd9c	-0.2675599
9	0x3e5446a4	0.20730072
10	0xbe936ad1	-0.28792432
11	0x3e445cd6	0.19176039
12	0x3eadc5cd	0.33939973
13	0x3e5259e5	0.20542105
14	0x3daf28d5	0.0855271
15	0xbdee580a	-0.11637886
16	0x3e707200	0.23480988
17	0xbe8cdda2	-0.27512842
18	0x3e4f65e3	0.2025371
19	0xbe0bdb48	-0.13657868
20	0xbeb2fda0	-0.34959126
21	0x3d2b6b57	0.041850414
22	0x3e91cadc	0.28475082
23	0x3e8fad98	0.2806213
24	0x3db73f40	0.08947611
25	0x3d7323b4	0.05936022
26	0x3e69db74	0.22837621
27	0x3ebaba24	0.3647014
28	0x3e31f192	0.17377308
29	0xbebafad9	-0.36519507
30	0xbdbe5d62	-0.09295155
31	0x3ea90266	0.33009642
32	0xbece162d	-0.40251294
33	0xbda1f814	-0.07908645
34	0x3dc4e6e0	0.096143484
35	0xbd9d9c8f	-0.07695877
36	0xbec235af	-0.37931582
37	0x3ecf0f80	0.40441513
38	0x3ec9d833	0.3942276
39	0x3d305bab	0.04305617
40	0x3dc436b0	0.09580743
41	0xbc4f26b0	-0.012643501
42	0x3e831132	0.25599056
43	0xbdaba124	-0.083803445
44	0xbdc6423b	-0.09680601
45	0xbea6c89c	-0.32574928
46	0xbdd77c63	-0.10521772
47	0x3d30787a	0.043083645
48	0xbd82fca0	-0.06395841
49	0x3c0ed980	0.008718848
50	0xbdf5ee17	-0.12008303
51	0xbdefbcec	-0.11705956
52	0x3deb9c97	0.115044765
53	0x3e63eedf	0.22259091
54	0x3e37e88c	0.17959803
55	0xbddfa062	-0.109192625
56	0xbcab38e1	-0.020901145
57	0x3dc0abe9	0.09407789
58	0x3db4b4cb	0.08823546
59	0x3e0aa9ac	0.13541287
60	0x3db9590a	0.09050186
61	0x3e732b36	0.23746952
62	0x3e7c6321	0.2464719
63	0xbd9720d5	-0.07379309
64	0xbc732a42	-0.014841618
65	0x3e2269a9	0.15860619
66	0xbe321f2b	-0.17394702
67	0xbe005f99	-0.12536468
68	0xbd898187	-0.067141585
69	0xbc07a093	-0.00827803
70	0xbceac921	-0.028660359
71	0x3b037b66	0.0020062565
72	0x3ea02ca4	0.31284058
73	0x3ea5f196	0.32410878
74	0xbe884e97	-0.2662246
75	0x3c816bfd	0.015798563
76	0x3e90e579	0.28300074
77	0x3da41507	0.08011823
78	0x3c49bfe1	0.012313814
79	0x3ea91c48	0.3302939
80	0x3e94bd2e	0.29050583
81	0xbe87c795	-0.26519457
82	0xbe2d42d3	-0.16920023
83	0x3ebb3e62	0.36571032
84	0xbd80ee70	-0.06295478
85	0x3e2f2364	0.17103344
86	0x3d93a535	0.07209245
87	0xbd7e48f4	-0.062081292
88	0xbda06256	-0.07831256
89	0xbe196282	-0.14978984
90	0xbe3bbfde	-0.1833491
91	0x3daf1914	0.08549705
92	0xbdd96751	-0.10615409
93	0x3d33ec1a	0.043926336
94	0xbec606c1	-0.38677028
95	0xbdc0d451	-0.09415496
96	0x3e83a15b	0.25709042
97	0xbe80d590	-0.25162935
98	0x3d895aba	0.06706758
99	0x3e664bd9	0.22489871
100	0xbdb00df4	-0.08596411
101	0xbe9b9a12	-0.30390984
102	0x3eaab25f	0.3333921
103	0x3ea5ddca	0.32395774
104	0x3e881c0e	0.26583904
105	0xbe52fc32	-0.20604017
106	0x3e9303d9	0.28713873
107	0x3dcbcb31	0.09950865
108	0x3e1b750d	0.1518137
109	0x3eadbc98	0.33932948
110	0x3e72e0dc	0.2371859
111	0x3ec9f2bb	0.39443
112	0x3e97dc32	0.29660183
113	0x3db482fb	0.08814045
114	0x3da2616d	0.07928739
115	0x3d8bd7ee	0.06828295
116	0x3e45fefe	0.19335553
117	0xbe3a2802	-0.18179324
118	0x3c97c4d3	0.01852647
119	0x3de5f35e	0.11228059
120	0x3da84818	0.08216876
121	0x3d9d8c02	0.0769272
122	0x3dffc141	0.12488032
123	0x3ec955c2	0.3932324
124	0xbd98bf6b	-0.07458385
125	0x3d75d09c	0.0600134
126	0x3e899b30	0.2687621
127	0x3e47eedf	0.19524716

fc1.weight f4 [128, 128]
0	0x3d96f7c3	0.073714755
1	0x3d843f92	0.064574376
2	0x3dd6b0a5	0.10482911
3	0xbb81570d	-0.003947145
4	0xbd066c59	-0.032818172
5	0xbc77285b	-0.015085305
6	0x3d5cc1aa	0.05389563
7	0x3dbc6580	0.09199047
8	0xbd7654cc	-0.060139462
9	0x3c8e9e1b	0.017409375
10	0x3d0c67e5	0.03427877
11	0x3d9035a3	0.070414804
12	0xbd378df7	-0.044813123
13	0x3b9549fc	0.0045559388
14	0xbc9accf9	-0.018896567
15	0xbd4734c0	-0.04863429
16	0x3dc20c38	0.09474987
17	0xbd25cd2b	-0.040478867
18	0x3db8a9fd	0.09016798
19	0x3db7cb10	0.08974278
20	0x3d13508e	0.035965495
21	0xbd7ad0a6	-0.06123414
22	0x3daa76bd	0.08323429
23	0x3d86ea24	0.065876275
24	0x3f24ce5d	0.64377385
25	0x3d9559d0	0.07292521
26	0x3d6b4185	0.05743553
27	0x3d888ab6	0.06667082
28	0x3d13956f	0.036031183
29	0xbd4ce5e9	-0.050023947
30	0x3d6b3bf5	0.057430226
31	0xbce35d46	-0.027754437
32	0xbc8f6c25	-0.017507622
33	0x3d81d6dd	0.0633981
34	0xbd9823cf	-0.07428705
35	0x3d8e4c37	0.069481306
36	0xbb160ed0	-0.0022897013
37	0x3d4dc0b3	0.0502326
38	0x3d2ede4e	0.042692475
39	0xbc209fe5	-0.009803747
40	0xbd77125a	-0.060320236
41	0xbd62c99c	-0.05536805
42	0x3c3cbf57	0.011520228
43	0x3c704251	0.014664249
44	0x3d5b10b6	0.053482734
45	0x3d851585	0.06498245
46	0x3d4a2e6f	0.04936069
47	0x3e4425f2	0.191551
48	0xbe3d4aca	-0.18485561
49	0xbe9ec036	-0.3100602
50	0xbd9a9f4a	-0.07549913
51	0x3c314a43	0.010820928
52	0x3da4a972	0.08040132
53	0xbd952fe2	-0.072845235
54	0x3d63fccf	0.05566102
55	0x3dac1e9d	0.084042765
56	0xbd4e65bb	-0.050389986
57	0x3adc6bfa	0.0016816847
58	0xbc2ce063	-0.010551545
59	0x3d8d520c	0.06900415
60	0xbd1c6fb3	-0.038192462
61	0x3da3e1b3	0.08002033
62	0x3d80683b	0.062698804
63	0x3d913a83	0.07091238
64	0xbc2d5338	-0.010578923
65	0xbd859586	-0.0652266
66	0xbe053ffe	-0.13012692
67	0x3bc5a427	0.0060315314
68	0xbdc8708d	-0.09787092
69	0xbd222873	-0.039589357
70	0x3c81cd44	0.015844949
71	0x3ddb91ed	0.107211925
72	0x3d3f4caf	0.04670399
73	0x3a66890e	0.00087942265
74	0x3d88cb59	0.066794105
75	0x3d74c916	0.059762083
76	0xbd897b24	-0.0671294
77	0x3d5f80e1	0.054566268
78	0x3d1a4255	0.037660915
79	0x3b1b432d	0.0023691163
80	0xbcf7bf21	-0.030242505
81	0x3c10c4b4	0.00883596
82	0x3d02b94d	0.031914998
83	0xbd31bcc8	-0.043392926
84	0xbd8f8b36	-0.07008974
85	0x3d4ace44	0.049513116
86	0x3d921bc7	0.07134204
87	0xbd9557f1	-0.07292164
88	0xbd21bd48	-0.039487153
89	0xbc34e046	-0.011039799
90	0x3dbf7fc9	0.09350545
91	0xbbf6c36a	-0.0075306194
92	0xbc768ed7	-0.015048704
93	0x3da61147	0.08108764
94	0xbb4c2674	-0.003115085
95	0xbcc27904	-0.023739345
96	0x3daba20a	0.08380516
97	0xbbc1456f	-0.0058981697
98	0x3ddb7ab2	0.10716762
99	0x3d28adaf	0.041181263
100	0x3cd3acea	0.025839288
101	0xbd9353a5	-0.07193688
102	0xbcc06ae0	-0.023488462
103	0xbcae4f8e	-0.021278169
104	0xbd9ea31d	-0.07745955
105	0x3d0bf2e7	0.034167197
106	0x3d18cabc	0.037302718
107	0x3dc8f667	0.098126225
108	0x3d63ae54	0.055586174
109	0xbd264fbd	-0.040603388
110	0x3d001e64	0.031278983
111	0xbd0634e6	-0.03276529
112	0xbd33369c	-0.04375325
113	0x3eb9d155	0.3629252
114	0x3e228bef	0.15873693
115	0x3cd98977	0.026554806
116	0x3db451b8	0.08804649
117	0xbdd2c0d4	-0.10290685
118	0x3dc033e6	0.09384899
119	0x3cfd732f	0.030938713
120	0xbd95dfca	-0.07318075
121	0xbd683978	-0.05669543
122	0x3d79ea15	0.061014254
123	0x3d1df5d0	0.038564503
124	0x3e0dcd93	0.13847952
125	0x3cfc07b8	0.0307654
126	0x3d0384c3	0.032109033
127	0x3d5633b3	0.052295398
128	0xbd7f9c92	-0.062405176
129	0xbd91e954	-0.07124582
130	0x3de96832	0.11396827
131	0x3d783e39	0.060606215
132	0x3dc9b984	0.098498374
133	0x3bdc558e	0.006724066
134	0xbdc8d15e	-0.098055586
135	0x3d7ab582	0.061208256
136	0xbda39057	-0.07986515
137	0xbc1f4bc7	-0.009722657
138	0x3d619d11	0.05508143
139	0x3d7536b8	0.059866637
140	0x3d9730b1	0.07382334
141	0x3d80b828	0.06285125
142	0xbd124e92	-0.03571946
143	0xbdcd86be	-0.10035466
144	0x3d9dc788	0.07704073
145	0xbd59d8fe	-0.053185456
146	0x3d3f9336	0.04677125
147	0x3e591083	0.21197705
148	0xbd064dbe	-0.032788984
149	0xbd46fa6b	-0.04857866
150	0xbd034716	-0.032050215
151	0x3cab3441	0.02089894
152	0x3f42135d	0.75810796
153	0xbd8140ae	-0.06311165
154	0xbda09496	-0.078408405
155	0xbd95ba34	-0.07310906
156	0xbd8955ce	-0.06705819
157	0xbd7812a4	-0.060564652
158	0x3e7d92db	0.24763052
159	0xbda1d797	-0.079024486
160	0x3d53b64c	0.051687524
161	0x3d84b8e8	0.064805806
162	0xbd7f6552	-0.062352486
163	0x3d138147	0.03601196
164	0x3d3a0e26	0.04542365
165	0xbda2011f	-0.0791037
166	0x3d451d49	0.04812363
167	0x3c54f399	0.012997531
168	0xbd859130	-0.06521833
169	0xbe1573d2	-0.14594963
170	0x3c32af71	0.010906086
171	0x3e0811be	0.13288018
172	0xbe2bad4f	-0.1676533
173	0x3d98d38b	0.074622236
174	0x3db42fd8	0.08798188
175	0x3df675c3	0.1203418
176	0xbe98ab30	-0.29818106
177	0xbedd1bf1	-0.4318538
178	0x3d200c65	0.03907432
179	0xbdf1a481	-0.11798955
180	0xbd29822f	-0.04138392
181	0x3da7f38f	0.08200752
182	0xbb144bfa	-0.0022628293
183	0x3d9df491	0.07712663
184	0xbdc89df5	-0.09795753
185	0x3b5cc209	0.003368499
186	0x3da8900b	0.08230599
187	0xbd4fac9f	-0.050701734
188	0x3e008f10	0.12554574
189	0x3db209c8	0.08693272
190	0xbd3a61cc	-0.045503423
191	0x3d2b822b	0.041872185
192	0xbd47e4ab	-0.04880206
193	0xbc529c0f	-0.01285459
194	0xbe4cf085	-0.20013626
195	0xbd499ae0	-0.049219966
196	0xbc21b555	-0.009869893
197	0xbc11e760	-0.008905262
198	0xbc524eb6	-0.012836149
199	0x3e45ad21	0.19304325
200	0xbd55a6ba	-0.052160956
201	0x3c837a9e	0.01604968
202	0x3a7acb2c	0.0009567018
203	0x3d09d8ec	0.03365414
204	0xbc3744d6	-0.011185845
205	0x3d7ea3e2	0.06216801
206	0xbd99b116	-0.075044796
207	0x3d874532	0.06604995
208	0x3d6a42e0	0.057192683
209	0xbda647b6	-0.081191465
210	0x3de02682	0.10944845
211	0x3995db1f	0.00028582753
212	0x3d30b0ab	0.043137234
213	0x3d89db33	0.06731262
214	0x3d5fb0e6	0.054612063
215	0xbe28f30d	-0.16498967
216	0x3a9d8ce5	0.0012020139
217	0xbd02786c	-0.031853124
218	0x3e0c8ae4	0.13724858
219	0xbd8de0f2	-0.069276705
220	0x3dee89e8	0.11647397
221	0x3daac569	0.08338434
222	0xbd953d70	-0.07287109
223	0x3de97a70	0.11400306
224	0x3d8e265d	0.06940911
225	0xbd8dbc3a	-0.06920667
226	0x3df0ae1c	0.11751959
227	0xbd6c8470	-0.05774349
228	0x3dbe8f5a	0.09304686
229	0x3cdd7575	0.027033547
230	0xbd627afb	-0.055293065
231	0xbd845c99	-0.06462974
232	0x3c252314	0.010079164
233	0x3d7d22db	0.06180082
234	0x3c30da4a	0.010794232
235	0xbc979c04	-0.018507011
236	0x3d98cf2e	0.074613914
237	0x3d7caca8	0.061688095
238	0x3be5bb94	0.0070108864
239	0xbbd67063	-0.0065441593
240	0x3c9de201	0.019272806
241	0x3ea9e048	0.33178926
242	0x3da522a4	0.08063248
243	0x3de62484	0.112374336
244	0x3d20b079	0.039230797
245	0xbdde9a08	-0.10869223
246	0x3ddfa851	0.10920776
247	0x3dcd5a22	0.10026957
248	0xbd6d3d4e	-0.057919793
249	0x3d61b310	0.055102408
250	0xbd6214c5	-0.05519559
251	0xbbc52b06	-0.0060170917
252	0x3dab1060	0.08352733
253	0xbd8a9de8	-0.067683995
254	0x3d4b952c	0.04970281
255	0x3d0068ec	0.03135006

fc1.bias f4 [128]
0	0xbd8890a0	-0.0666821
1	0x3db2e7f2	0.08735646
2	0xbda3936d	-0.079871036
3	0xbd350925	-0.044198174
4	0x3c230063	0.009948823
5	0x3d3d52c1	0.0462215
6	0x3d626e63	0.055281054
7	0x3d2c5fb2	0.04208345
8	0xbdb1d07f	-0.086823456
9	0x39462f78	0.00018900435
10	0x3d8beb42	0.06831981
11	0x3d98e023	0.07464626
12	0x3c3e1844	0.011602465
13	0xbc571be9	-0.013129213
14	0xbdb42306	-0.08795743
15	0x3d8888b8	0.06666702
16	0xbdb56be7	-0.08858471
17	0x3ceac345	0.028657565
18	0xbca89a83	-0.02058149
19	0xbda075f0	-0.07834995
20	0x3c414828	0.011796989
21	0xbc1c03e6	-0.009522414
22	0xbd2ccd9d	-0.042188276
23	0x3c9cd373	0.019143796
24	0x3cc373aa	0.023858864
25	0xbc74fa12	-0.0149521995
26	0x3d34b7cd	0.0441206
27	0xbc11dd94	-0.008902926
28	0xbd8705f8	-0.06592935
29	0xbc308c10	-0.010775581
30	0x3c8b26e1	0.016986312
31	0x3af4243b	0.001862652
32	0xbd1ec614	-0.03876312
33	0xbdc6f800	-0.09715271
34	0x3cb715ea	0.022349317
35	0x3cf3e32c	0.02977141
36	0xbd824463	-0.063607
37	0x3d82fc70	0.06395805
38	0xbbd19001	-0.0063953404
39	0x3da53fa3	0.08068778
40	0xbd3392e0	-0.043841243
41	0xbd0d55cb	-0.034505647
42	0x3d91a9f2	0.071124926
43	0xbae6abea	-0.0017598842
44	0xbcd9d383	-0.026590114
45	0xbb6dce3b	-0.0036286253
46	0xbcc5220d	-0.024064088
47	0xbce3d91b	-0.027813485
48	0x3c8e93e0	0.017404497
49	0xbd9e5706	-0.07731442
50	0x3cd380fc	0.02581834
51	0xbda47aba	-0.08031221
52	0x3d368a59	0.044565532
53	0xbd4e24d6	-0.0503281
54	0x3c190e55	0.009341796
55	0xbc31fb41	-0.010863126
56	0x3c3028cb	0.010751913
57	0xbd21da54	-0.039514855
58	0x3d8a2967	0.06746178
59	0x3d12a4b6	0.03580161
60	0x3c9e112a	0.019295294
61	0xbda96569	-0.082712956
62	0xbd837ae2	-0.064199224
63	0xbd6d2545	-0.05789687
64	0xbc880f89	-0.01660897
65	0x3d6f85b5	0.058477122
66	0x3a41e765	0.0007396846
67	0xbc9f2263	-0.019425577
68	0x3da591d3	0.080844544
69	0x3d2d3b48	0.042292863
70	0xbdabde7a	-0.083920434
71	0xbcb15199	-0.021645354
72	0xbbb3f3eb	-0.005491724
73	0x3d7e274c	0.062049195
74	0x3c5c05d4	0.013429124
75	0xbd03d862	-0.03218878
76	0xbcff153e	-0.031138059
77	0x3c8b8ab1	0.017033907
78	0x3db4ce4e	0.08828412
79	0xbd441b04	-0.047877327
80	0x3c90d62a	0.017680246
81	0x3cadc616	0.021212619
82	0x3d055c96	0.032559
83	0xbd41fed4	-0.047362164
84	0x3da553ff	0.080726616
85	0x3bb821ef	0.0056192796
86	0xbdc9c0f1	-0.09851254
87	0xbd750d02	-0.05982686
88	0x3d99d16b	0.075106464
89	0x3c98007e	0.018554922
90	0x3d558b78	0.05213496
91	0xbd53d60e	-0.05171781
92	0xbd6cc389	-0.057803664
93	0xbd3924b7	-0.04520103
94	0xbd45831b	-0.048220735
95	0xbca7a416	-0.020463984
96	0xbd9d8d36	-0.076929495
97	0x3d644523	0.055729996
98	0xbc388215	-0.011261483
99	0xbd71ab97	-0.05900153
100	0x3d1e4d4d	0.03864794
101	0x3d501f0c	0.05081086
102	0xbd808efe	-0.062772736
103	0xbd5c39c3	-0.053766023
104	0xbdbc2e90	-0.091885686
105	0xbc2dd503	-0.010609868
106	0x3d92f013	0.07174697
107	0x3c2942b5	0.010330846
108	0xba4c1f85	-0.0007786679
109	0xbcce68a9	-0.02519639
110	0x3da898da	0.08232279
111	0x3d97d9ac	0.074145645
112	0xbd72c546	-0.059270166
113	0xbd8db01d	-0.069183566
114	0xbd088adf	-0.033335563
115	0xbd182105	-0.037140865
116	0x3d2cea3f	0.042215582
117	0xbdbb1c81	-0.09136296
118	0x3d8afcdd	0.06786511
119	0xbd90aec4	-0.07064584
120	0xbd923e66	-0.07140808
121	0x3d8095ba	0.06278558
122	0xbd4fb5d4	-0.050710514
123	0x3a791576	0.0009501794
124	0x3d1a4340	0.03766179
125	0xbd7d65d0	-0.061864674
126	0x3db0229c	0.08600351
127	0x3d6dd146	0.058060907

fc2.weight f4 [128, 128]
0	0xbd8f1a09	-0.06987388
1	0xb7b2a38a	-2.1295407e-05
2	0x3d5a499b	0.053292852
3	0x3d0e423c	0.034731135
4	0x3bead07e	0.0071659675
5	0xbdac6d2b	-0.0841926
6	0x3d422319	0.047396753
7	0xbbdf0d7d	-0.006807028
8	0x3d8fe5f8	0.07026285
9	0xbc39fb85	-0.011351471
10	0xbdc6c0e8	-0.09704763
11	0xbd86696a	-0.06563075
12	0x3b228438	0.0024798047
13	0x3a1be892	0.00059474364
14	0xbd896a5b	-0.06709739
15	0xbc4b7a74	-0.012419332
16	0xbda652ff	-0.08121299
17	0xbdb8316d	-0.08993802
18	0xbdad74c8	-0.0846954
19	0x3d8e3236	0.06943171
20	0x3c254f0b	0.010089646
21	0xba083e0b	-0.00051972334
22	0x3d7d1b6e	0.061793737
23	0xbc935fc5	-0.017990002
24	0xbd3323a0	-0.043735147
25	0xbbb59999	-0.005541992
26	0xbc1932ff	-0.009350537
27	0xbd41971a	-0.047263242
28	0x3d81878a	0.0632468
29	0x3d49cd9e	0.049268357
30	0xbc1e6a9a	-0.0096689705
31	0xbd17c861	-0.03705633
32	0x3bcc8f39	0.0062426594
33	0xbdaf122e	-0.085483894
34	0xbd84ceb3	-0.06484737
35	0xbba41231	-0.0050070514
36	0xbd1f25c8	-0.03885439
37	0xbd4965dd	-0.04916941
38	0xbd46134d	-0.04835825
39	0xbc06b9ae	-0.00822298
40	0x3d1e81b0	0.0386979
41	0xbd8d565e	-0.06901239
42	0x3c5c9eaf	0.0134655675
43	0xbd810d77	-0.06301396
44	0x3cc7b065	0.024376104
45	0xbd4aa072	-0.04946942
46	0x3c28268a	0.010263095
47	0x3d908862	0.07057263
48	0x3c85adc8	0.016318217
49	0xbcd34967	-0.025791837
50	0x3cda151a	0.02662139
51	0x3d9431e7	0.072360806
52	0xbd884aeb	-0.066549145
53	0xbd95fd8f	-0.07323753
54	0xbd92767e	-0.07151507
55	0x3c445aba	0.0119845215
56	0xbd3930d3	-0.045212578
57	0xbbb99435	-0.0056634196
58	0x3da975a4	0.08274391
59	0xbc7adf1b	-0.015311982
60	0xbcd63dad	-0.026152456
61	0xbcef51b2	-0.02921376
62	0xbd4b6e61	-0.049665812
63	0x3d864709	0.06556518
64	0xbc173f83	-0.009231451
65	0x3d1abb83	0.03777648
66	0x3b931c3e	0.0044894507
67	0x3d190463	0.0373577
68	0x3c65db59	0.014029347
69	0x3d9d2b84	0.076743156
70	0xbcb9169b	-0.022593787
71	0xbd11720b	-0.03550915
72	0xbc83fa07	-0.016110433
73	0xbd4cf16f	-0.050034937
74	0xbd5eb0a6	-0.054367684
75	0x3d924ca9	0.07143528
76	0xbc9a7a00	-0.018857002
77	0x3ce8614d	0.02836671
78	0xbc045003	-0.008075717
79	0x3c4b52eb	0.012409906
80	0x3ca66da7	0.020315958
81	0xbbbcc0a8	-0.005760271
82	0x3d34f3cd	0.04417782
83	0x3d654ff9	0.05598447
84	0x3b8d8bc4	0.00431964
85	0xbcbfed1f	-0.023428498
86	0x3d96829b	0.0734913
87	0x3d36599e	0.04451906
88	0xbd286414	-0.041111067
89	0xba74ddba	-0.0009340901
90	0xbda38675	-0.0798463
91	0xbd2ed058	-0.04267916
92	0x3d6600e8	0.056153208
93	0x3882103e	6.2019084e-05
94	0x3daf3171	0.08554352
95	0xbd56b223	-0.05241598
96	0x3daa0ea4	0.08303574
97	0xbcbdc2b8	-0.023164138
98	0x3c6d33e2	0.014477702
99	0x3d24d143	0.04023863
100	0x3c56f181	0.013119102
101	0x3db18332	0.08667602
102	0x3d10e886	0.035378
103	0x3d914086	0.07092385
104	0x3d907a16	0.07054536
105	0x3c8a122b	0.016854366
106	0x3cb5e58a	0.02220418
107	0x3d1a0942	0.037606485
108	0x3d42fa93	0.047602247
109	0x3d702da7	0.058637287
110	0xbdb2a9ea	-0.08723815
111	0x3d78d69c	0.060751542
112	0xbd12f38d	-0.0358768
113	0xbdb4b51a	-0.08823605
114	0x3d0cc081	0.034363274
115	0xbd47b142	-0.04875303
116	0xbd5bb28f	-0.053637084
117	0x3d9de136	0.07708971
118	0xbd704be2	-0.058666117
119	0xba4f1059	-0.00078988593
120	0xbd737252	-0.059435196
121	0x3c232085	0.009956484
122	0xbd9a2176	-0.075259134
123	0xbdb67e1f	-0.089107744
124	0xbd9d7079	-0.07687468
125	0x3d538879	0.051643822
126	0x3b83ca08	0.0040218867
127	0xbd61aa91	-0.055094305
128	0x3c3f351e	0.011670379
129	0x3c40c618	0.011765979
130	0x3cb57699	0.022151278
131	0xbdac31e8	-0.08407956
132	0xbd2b92fc	-0.041888222
133	0xbdba5263	-0.09097745
134	0xbd469ba7	-0.048488285
135	0x3a107c40	0.0005511679
136	0x3d892dc2	0.06698181
137	0x3c854260	0.016267002
138	0x3d340fd1	0.043960396
139	0xbd17085d	-0.03687321
140	0xbbfb019d	-0.0076601044
141	0x3b896d20	0.004193917
142	0x3da45688	0.08024317
143	0xbb1a55fd	-0.0023549788
144	0xbdc1c376	-0.09461109
145	0xbdb81990	-0.08989251
146	0xbc77c2e3	-0.015122148
147	0x3d2bb68d	0.04192214
148	0x3ced002e	0.02893075
149	0xbbe0a13f	-0.0068551595
150	0x3d363c8a	0.04449133
151	0xbdc9dcc8	-0.09856564
152	0xbccc30f7	-0.024925692
153	0x3cb0bdb5	0.021574834
154	0x3b5dccdf	0.0033844037
155	0x3cd91c51	0.02650276
156	0x3d610351	0.054934803
157	0x3bdb1065	0.006685304
158	0x3d4ac792	0.04950673
159	0xbdc0007b	-0.09375092
160	0xbd86f2c1	-0.065892704
161	0x3d281569	0.041036043
162	0x3d4e6526	0.05038943
163	0xbc629e8f	-0.013831749
164	0x3d8ee35d	0.0697696
165	0x3d87d2cd	0.06632004
166	0x3bcff78e	0.0063466495
167	0xbd902aa3	-0.07039382
168	0xbd4c32b4	-0.04985304
169	0x3d549b58	0.05190596
170	0x3d629116	0.055314146
171	0x3d2806f9	0.041022275
172	0xbd17003a	-0.03686545
173	0x3d7e1517	0.06203183
174	0xbce2c523	-0.027681893
175	0xbc5f08c0	-0.013612926
176	0x3d11e4d4	0.035618618
177	0x3d4ef416	0.050525747
178	0xbd1f4c16	-0.03889092
179	0xbc9e39e2	-0.01931471
180	0x3d77a4d2	0.06045992
181	0x3d84420d	0.06457911
182	0xbdaf876b	-0.08570751
183	0xbd8ed832	-0.0697483
184	0xbd946be8	-0.07247144
185	0xbd57b526	-0.05266299
186	0xbcab9000	-0.020942688
187	0x3dad4352	0.08460106
188	0x3d4c2f9e	0.0498501
189	0xbc75c4ba	-0.015000517
190	0x3d4d9b6a	0.050197043
191	0xbda249a1	-0.079242
192	0xbdc8c4a9	-0.09803135
193	0xbda1c37a	-0.07898612
194	0x3c149ab4	0.009070087
195	0xbd541979	-0.051782105
196	0xbd5c6bc0	-0.053813696
197	0xbdb3b2cc	-0.08774337
198	0xbdc9adac	-0.098475784
199	0xbc8af2c9	-0.016961472
200	0xbd843d1a	-0.06456967
201	0x3d8fb943	0.07017758
202	0xbd8d1d2f	-0.06890332
203	0x3cdfc97b	0.027317753
204	0x3c080cb2	0.008303808
205	0x3a36c75e	0.0006972457
206	0xbc4cde04	-0.0125041045
207	0x3ce0c67f	0.0274384
208	0x3d600b50	0.05469829
209	0xbccf0af6	-0.025273781
210	0xbbd0f26b	-0.0063765547
211	0xbdb73406	-0.089454696
212	0x3d222cc8	0.039593488
213	0xb9569661	-0.00020464651
214	0xbd483f68	-0.048888594
215	0xbdcc9cc4	-0.09990838
216	0xbc525ede	-0.012840001
217	0x3d315034	0.04328938
218	0x3d246f62	0.040145285
219	0xbdac7544	-0.08420804
220	0xbcc55c8e	-0.024091985
221	0x3d766d2c	0.06016271
222	0x3d9f56e1	0.07780243
223	0xbb8649bb	-0.004098145
224	0x3d200c52	0.03907425
225	0xbd6e2d7b	-0.058148842
226	0x3cd581f0	0.026062936
227	0x3b9fc1d1	0.0048753996
228	0xbcf3790c	-0.029720806
229	0xbd989560	-0.07450366
230	0x3cd58e6d	0.02606889
231	0x3d33e3fa	0.043918587
232	0x3c90300a	0.017601032
233	0x3c830c59	0.015997099
234	0xbdb9019d	-0.09033511
235	0xbce9961e	-0.028513964
236	0xbd383add	-0.04497801
237	0xbd93e6f4	-0.07221785
238	0x3d7d78e4	0.06188287
239	0xbc038ce2	-0.008029195
240	0x3d9d5629	0.07682449
241	0x3c8ed9b5	0.017437795
242	0x3c2db0dd	0.0106012495
243	0x3db327e2	0.087478414
244	0xbc2b05be	-0.010438381
245	0x3cc9869d	0.024600321
246	0x3c5eefeb	0.013607006
247	0x3cd1a940	0.0255934
248	0xbd8ab17b	-0.06772133
249	0xbd659302	-0.0560484
250	0x3c4b93fa	0.012425417
251	0xbdaf4f77	-0.085600786
252	0xbd903600	-0.0704155
253	0xbda70491	-0.08155168
254	0xbdb17250	-0.086643815
255	0xbc858c7b	-0.016302338

fc2.bias f4 [128]
0	0xbd2905e0	-0.04126537
1	0x3cd9de13	0.026595151
2	0x3d922a92	0.07137026
3	0x3d998b47	0.07497268
4	0xbd80dad2	-0.06291737
5	0x3d2e1c33	0.04250736
6	0xbd2449de	-0.040109508
7	0xbca85272	-0.020547125
8	0xbd7a0cc5	-0.061047334
9	0xbdb15fae	-0.086608276
10	0xbb3c7f40	-0.002876237
11	0xbd9d0645	-0.076672114
12	0xbd584e3a	-0.052808978
13	0x3d83d5b6	0.064372465
14	0xbce1ea4e	-0.027577545
15	0xbdb7f490	-0.089821935
16	0x3c947baf	0.018125383
17	0xbdb5a1b3	-0.08868732
18	0x3cf152c1	0.029458405
19	0x39970666	0.00028805732
20	0x3afacb56	0.0019134085
21	0xbdacee9c	-0.084439486
22	0x3d176ec3	0.036970865
23	0xbd0ed475	-0.034870584
24	0xbd55364e	-0.052053742
25	0x3d92c8a1	0.07167173
26	0xbd85df7b	-0.06536766
27	0x3dc3844c	0.09546718
28	0xbd792da9	-0.06083456
29	0xba621839	-0.0008624825
30	0x3b2d5de4	0.0026453668
31	0x3d34e70b	0.044165652
32	0xbc57bc93	-0.013167518
33	0x3cb201b7	0.021729333
34	0x3db9df62	0.0907581
35	0xbc164204	-0.009171013
36	0x3d8804d1	0.06641544
37	0xbd57d4c2	-0.052693136
38	0x3be1bfd8	0.0068893246
39	0x3a9493a8	0.0011335509
40	0x3ccafa72	0.024777625
41	0x3d47757e	0.048696034
42	0x3c95b2e1	0.018273773
43	0x3d65c4a6	0.05609574
44	0xbd9540ad	-0.072877266
45	0xbcc0615b	-0.023483923
46	0x39fe9bcc	0.00048562733
47	0x3d1672c7	0.036730554
48	0xbd314064	-0.0432743
49	0x390ce16a	0.00013435414
50	0x3c8d4d3b	0.01724874
51	0x3d3a4b86	0.04548218
52	0xbc469c60	-0.012122244
53	0x3cf4d197	0.029885096
54	0x3daaad42	0.083338276
55	0xbc811839	-0.01575862
56	0xb9e33f11	-0.00043343802
57	0x3c80452a	0.01565798
58	0x3d5a12d5	0.053240616
59	0x3d035748	0.03206566
60	0x3dab4642	0.0836301
61	0x3de076c6	0.10960154
62	0xbc48d6d4	-0.01225825
63	0xbd1176a0	-0.03551352
64	0xbbf62c8c	-0.0075126346
65	0xbd764f32	-0.06013412
66	0x3d5e1e5f	0.054228183
67	0x3c4fd8ec	0.012685996
68	0xbca00ba8	-0.019536808
69	0xbd58a3cf	-0.052890595
70	0x3d8167b0	0.06318605
71	0x3cd28cdd	0.025701934
72	0xbc85fa4d	-0.016354704
73	0xbd8b8e71	-0.06814278
74	0x3d70072f	0.0586006
75	0xbd364f2e	-0.044509105
76	0x3ce687ed	0.028140986
77	0x3ce34be6	0.027746152
78	0xbe2fbb7a	-0.1716136
79	0x3b946714	0.0045288894
80	0xbc3ed589	-0.01164759
81	0xbd8ef623	-0.069805406
82	0xbc968281	-0.018372776
83	0x3d39b5c4	0.04533936
84	0xbd83c598	-0.064341724
85	0x3d7d48de	0.06183707
86	0x3d8a9a88	0.06767756
87	0x3d296c94	0.041363314
88	0x3c4966cc	0.012292575
89	0xbabe6899	-0.0014527022
90	0xbdbf75ae	-0.093486175
91	0x3baced67	0.005277324
92	0x3c7274a6	0.014798319
93	0xbd945bc8	-0.072440684
94	0x3d4e8b34	0.050425723
95	0x3d84dfc8	0.064879954
96	0x3d54e81b	0.051979166
97	0x3bc69922	0.0060607353
98	0xbd46b9a3	-0.04851688
99	0x3d9c3447	0.076271586
100	0xbd553181	-0.052049164
101	0x3bae9c99	0.0053287265
102	0xbb4c92eb	-0.00312155
103	0xbc1a2cbc	-0.00941008
104	0x3c37f1b4	0.01122706
105	0x3c7c8317	0.015412114
106	0x3dd0052a	0.10157235
107	0x3d65d60d	0.056112338
108	0xbd8aecd8	-0.067834556
109	0xbd13006e	-0.03588908
110	0x3d9dac8d	0.07698927
111	0x3cc3a61f	0.023882924
112	0xbbf7274d	-0.007542527
113	0x3d37ffea	0.044921793
114	0x3cfb1d73	0.03065369
115	0xbd92895d	-0.07155106
116	0xbb137315	-0.0022499014
117	0xbd4ffd16	-0.05077847
118	0x3d831757	0.06400936
119	0xbdaa0374	-0.0830144
120	0x3cb61edb	0.02223151
121	0xbd3f5ffe	-0.046722405
122	0xbd4ee2dc	-0.05050932
123	0xbda4a576	-0.08039372
124	0xbd4442e0	-0.04791534
125	0xbd64d686	-0.055868648
126	0x3b4b494a	0.0031019025
127	0xbd97ac5f	-0.07405924

fc3.weight f4 [128, 128]
0	0x3da3764b	0.07981547
1	0x3d060e0e	0.032728247
2	0x3dec0942	0.11525203
3	0x3db1c11c	0.08679411
4	0x3dadfb3f	0.08495187
5	0xbd377002	-0.044784553
6	0xbc2af6d7	-0.010434828
7	0x3dcacaed	0.09901986
8	0x3c8bd0a3	0.01706726
9	0xbd957923	-0.072984956
10	0x3dcc7113	0.09982505
11	0xbc361787	-0.011114008
12	0x3c493ac4	0.012282077
13	0xbd610c9e	-0.054943673
14	0x3cf8bad0	0.030362517
15	0xbb84836b	-0.0040439866
16	0x3d95001f	0.07275414
17	0xbd68d043	-0.05683924
18	0xbcb226e3	-0.021747058
19	0x3c353a7b	0.011061306
20	0x3da49f7f	0.08038234
21	0xbd4a5531	-0.04939765
22	0x3d01ac2c	0.031658337
23	0x3b0fc831	0.0021939392
24	0x3cfe7310	0.031060725
25	0x3daddfa0	0.08489919
26	0x3dadf436	0.08493845
27	0x3da60e5b	0.08108207
28	0x3cb1d9f7	0.021710379
29	0xbd82c87d	-0.06385896
30	0x3d337859	0.043815944
31	0x3c6e50b3	0.014545607
32	0xbd4718b5	-0.048607547
33	0x3dd9d8ac	0.1063703
34	0x3de6bb7e	0.1126623
35	0xbd542e8d	-0.051802207
36	0x3d8efbcb	0.069816194
37	0xbd8f181a	-0.06987019
38	0x3ab59766	0.0013854324
39	0xbcdd3c4f	-0.027006296
40	0xbd3d4104	-0.04620458
41	0x3d2fef9e	0.042953126
42	0xbd1e99f3	-0.038721036
43	0x3de27136	0.110567495
44	0x3d69a85c	0.057045326
45	0x3d921825	0.071335115
46	0x3dd75ecb	0.10516127
47	0x3dac7f7a	0.08422752
48	0xbc91d595	-0.01780204
49	0x3d91020a	0.07080467
50	0xbce33705	-0.027736196
51	0x3d4b374c	0.049613282
52	0xbc8503ee	-0.016237225
53	0xbd27940f	-0.040912684
54	0x3cae728f	0.02129486
55	0x3bc6d97f	0.006068408
56	0xbd1cb794	-0.03826101
57	0x3d5e6fd3	0.054305863
58	0x3db40451	0.08789886
59	0xbd4487d2	-0.04798109
60	0xbbeee972	-0.0072910124
61	0xbd0bee29	-0.034162674
62	0xbbbc236c	-0.0057415273
63	0xbc0dc58f	-0.008653059
64	0xbcea606f	-0.028610436
65	0x3d35abdd	0.044353355
66	0x3c5de123	0.013542446
67	0x3d981f96	0.074278995
68	0x3d59d6f7	0.053183522
69	0xbd460f5f	-0.048354503
70	0x3dd06fdb	0.10177585
71	0x3dc09732	0.09403838
72	0x3c776e67	0.015102006
73	0x3c775999	0.015097045
74	0xbd3646f9	-0.04450128
75	0x3c8265d3	0.015917694
76	0x3d9f2966	0.07771568
77	0x3d5d9175	0.054093797
78	0x3ec55510	0.3854146
79	0xbd0afcb8	-0.033932418
80	0x3ddfa00f	0.10919201
81	0xbd2ef997	-0.042718496
82	0x3c17c67e	0.009263633
83	0x3da928da	0.08259745
84	0xbd8b9c64	-0.068169385
85	0xbd843322	-0.06455065
86	0x3dc405ab	0.095713936
87	0xbd3df7cb	-0.046378892
88	0xbd0ebf91	-0.03485066
89	0x3d50d5c1	0.0509851
90	0x3d9360fa	0.07196231
91	0x3ddd38cb	0.10801848
92	0x3d1a6adf	0.037699576
93	0xbc50b11b	-0.012737538
94	0xbd13516b	-0.035966318
95	0xbd7bdcb6	-0.061489783
96	0xbd6772c2	-0.056505926
97	0x3e016b70	0.1263864
98	0xbd8701a6	-0.06592111
99	0xbce64747	-0.02811016
100	0xbcb09d89	-0.021559494
101	0x3c54fd88	0.0129999
102	0x3da8d63d	0.08243988
103	0x3c225647	0.009908265
104	0xbd0129e1	-0.03153408
105	0x3d84465b	0.06458732
106	0xbc8710c4	-0.016487487
107	0xbd4b4f57	-0.04963621
108	0x3d690eab	0.056898754
109	0x3d261ae3	0.040552985
110	0x3d9c1683	0.07621481
111	0x3d5b4c5b	0.053539615
112	0xbd3c156b	-0.045918863
113	0x3db0754c	0.086161226
114	0xbceafadc	-0.028684072
115	0x3da870d3	0.082246445
116	0xbd805b40	-0.062674046
117	0x3d51858a	0.051152743
118	0x3d02b77e	0.031913273
119	0xbd9df4ed	-0.077127315
120	0x3d867c60	0.065666914
121	0x3da0f4c1	0.07859183
122	0x3dd6a394	0.10480419
123	0x3ce04301	0.0273757
124	0xbd230fb8	-0.039809912
125	0x3d2bd644	0.041952386
126	0xbd1713a0	-0.03688395
127	0xbd4a4b70	-0.04938835
128	0xbd2810fc	-0.041031823
129	0x3d636473	0.055515718
130	0xbd76f225	-0.06028952
131	0xbd64b150	-0.05583316
132	0x3d6732b3	0.056444835
133	0xbbf3cb11	-0.007439979
134	0x3a6758a3	0.00088251586
135	0xbd020605	-0.031744022
136	0x3d0ab58d	0.033864547
137	0xbd53dc3a	-0.051723696
138	0xbda87d52	-0.08227028
139	0xbcd4f22d	-0.025994385
140	0x3c94291f	0.018086014
141	0x3d6ee4ad	0.05832355
142	0xbd2bc9c8	-0.04194048
143	0x3d803e15	0.06261841
144	0xbcdc7ccd	-0.026914978
145	0xbd7c1307	-0.061541583
146	0xbdb10bda	-0.08644839
147	0x3d293797	0.04131278
148	0x3d2333dc	0.03984438
149	0x3d1fb25f	0.038988467
150	0x3d30cf91	0.0431667
151	0x3d456cfd	0.048199642
152	0x3d8d3cc9	0.068963595
153	0x3db24a91	0.08705629
154	0xbd5261e9	-0.051362906
155	0x3d56fc06	0.052486442
156	0x3da1cd93	0.07900538
157	0x3a40d48a	0.00073558895
158	0x3d2736bb	0.04082368
159	0xbd1f99bc	-0.038964972
160	0xbd924c45	-0.071434535
161	0x3c900df1	0.017584773
162	0xbdbfca62	-0.09364773
163	0xbd2c146a	-0.042011656
164	0xbcbf1d98	-0.023329541
165	0x3d7e23a0	0.062045693
166	0xbd62287a	-0.055214383
167	0xbca3a57b	-0.019976368
168	0x3d82379a	0.063582614
169	0x3d3026de	0.043005817
170	0x3d349eaf	0.044096645
171	0xbd16025b	-0.03662334
172	0xbd697d89	-0.057004485
173	0xbcc4f675	-0.024043301
174	0xbdb32a4c	-0.08748302
175	0xbca4778d	-0.020076538
176	0x3d915ca0	0.07097745
177	0xbce327a5	-0.027728865
178	0x3d70fb34	0.058833316
179	0x38bfd225	9.146732e-05
180	0x3c918e67	0.017768098
181	0x3c7bfd87	0.01538027
182	0xbaa5528f	-0.0012613105
183	0x3ce721b3	0.028214311
184	0xbda45185	-0.08023361
185	0xbd9df063	-0.07711866
186	0xbda237fb	-0.07920834
187	0xbcbf2ded	-0.023337329
188	0xbdd2257c	-0.10261056
189	0x3d410cad	0.04713123
190	0xbdb66fd6	-0.0890805
191	0x3cfc8602	0.030825619
192	0xbd3d6ee0	-0.046248317
193	0xbd2f7276	-0.042833768
194	0xbdd5589e	-0.10417293
195	0x3d46962f	0.04848307
196	0x3d5f8e86	0.05457928
197	0x3db262d7	0.087102585
198	0xbd65ac2d	-0.056072403
199	0xbdd32db8	-0.103114545
200	0x3cce1b78	0.025159582
201	0xbd0f816d	-0.03503554
202	0x3cad4042	0.021148805
203	0xbda10ea1	-0.07864118
204	0x3c589a13	0.013220328
205	0x3bd58962	0.0065166214
206	0xbae71333	-0.0017629623
207	0xbc703cf7	-0.014662973
208	0xbdb52725	-0.08845357
209	0xbd8f2a5e	-0.06990503
210	0xb86e05a1	-5.6748864e-05
211	0xbd9b506b	-0.07583698
212	0x3c9d00f7	0.0191655
213	0xbd92d577	-0.071696214
214	0xbd571ee9	-0.052519713
215	0x3b7cadd8	0.0038555767
216	0x3d7dff67	0.06201115
217	0xbdb19e3f	-0.08672761
218	0x3c91bf49	0.017791407
219	0x3d320fb7	0.043472018
220	0x3d6434e1	0.05571449
221	0xbc6fd664	-0.014638517
222	0x3d3fd477	0.04683348
223	0xbdbcf7db	-0.09226962
224	0x3d561b63	0.05227221
225	0x3d56780a	0.052360572
226	0xbc7c43b5	-0.015397002
227	0xbdb572d6	-0.08859794
228	0xbd9ce044	-0.07659963
229	0xbd89d924	-0.067308694
230	0xbcbaee40	-0.022818685
231	0xbc93d5e5	-0.018046329
232	0xbd36e9ac	-0.04465644
233	0x3c8c42f3	0.017121768
234	0xbd875a28	-0.06608993
235	0x3d25b87c	0.04045914
236	0xbdb6861b	-0.08912297
237	0x3d8e4240	0.0694623
238	0x3c949e00	0.018141747
239	0xbd6eefc9	-0.058334146
240	0xbdca3eb0	-0.09875238
241	0x3c8899f0	0.016674966
242	0x3d588ce8	0.052868754
243	0x3d8a13b2	0.06742038
244	0xb719970f	-9.154682e-06
245	0xbda04d2a	-0.07827218
246	0xbd4c04a5	-0.049809117
247	0xbd18948a	-0.037251033
248	0x3bf8e3b6	0.0075955046
249	0x3d0fb0f7	0.035080876
250	0x3d7b4bd2	0.061351605
251	0x3da20a9d	0.079121806
252	0x3d14a2b5	0.036287982
253	0xbc977584	-0.018488653
254	0xbd20c41c	-0.039249524
255	0x3cc675dd	0.024226123

fc3.bias f4 [128]
0	0x3cbb2877	0.022846444
1	0xbcef3a84	-0.029202707
2	0x3c4ba0af	0.012428447
3	0x3d503087	0.05082753
4	0x3b8d4402	0.0043110857
5	0xbd3d6b5d	-0.046244968
6	0xbdc46098	-0.09588736
7	0xbd72fbc8	-0.05932215
8	0xbd1e8e64	-0.038710013
9	0x3d585114	0.052811697
10	0x3bbb63d0	0.0057186857
11	0x3d36c30b	0.0446196
12	0xbd550f28	-0.052016407
13	0x3b66290b	0.0035119678
14	0xbbc612ce	-0.006044722
15	0xbc1488e6	-0.009065842
16	0xbd92422a	-0.07141526
17	0xbcc4c779	-0.024020897
18	0x3c80c620	0.015719473
19	0x3d669f12	0.056304045
20	0xbd4a8d5b	-0.049451213
21	0x3d4fdd72	0.050748296
22	0xbd0d402e	-0.034485035
23	0xbd691479	-0.05690429
24	0x3bd07844	0.006361993
25	0xbd0b9b3f	-0.0340836
26	0xbdd1c425	-0.1024249
27	0x3ceae031	0.028671356
28	0x3c6d89c0	0.014498174
29	0x3d3ffd35	0.046872336
30	0x3c9855e9	0.018595653
31	0xbd2994e7	-0.04140177
32	0xbd038e6d	-0.03211825
33	0x3d6c25b4	0.057653144
34	0xbdc8088d	-0.09767256
35	0xbd372b2e	-0.044718914
36	0x3d772d8b	0.060346168
37	0x3d9ce272	0.076603785
38	0xbd5d19d7	-0.05397972
39	0x3dd66eef	0.10470378
40	0x3c3489fe	0.011019228
41	0xbdb20a4c	-0.0869337
42	0xbd535245	-0.05159213
43	0x3d22cfe0	0.039749026
44	0xbd8f01f9	-0.06982798
45	0xbd80ba3d	-0.06285522
46	0xbdb0d279	-0.086338945
47	0x3dba4563	0.09095266
48	0xbdcd08a3	-0.10011413
49	0x3d65fb17	0.05614766
50	0xbd54fe92	-0.05200059
51	0xbd9e4181	-0.07727338
52	0x3dc961de	0.0983312
53	0x3d17ea71	0.037088815
54	0xbcbd8a1b	-0.023137143
55	0xbca9676d	-0.0206792
56	0x3da9dd96	0.08294217
57	0x3d36e39b	0.044650655
58	0x3bb41992	0.0054962123
59	0x3c977454	0.018488087
60	0x3d7e4b0f	0.0620833
61	0xbb28a342	-0.0025732075
62	0x3db2cd42	0.08730556
63	0x3d2cab80	0.042155743
64	0xbd0c4731	-0.03424758
65	0xbd617811	-0.055046145
66	0xbd6dfa3a	-0.058099963
67	0xbd990db3	-0.07473316
68	0xbc2ae61a	-0.010430837
69	0x3dcee979	0.10103125
70	0xbd257fed	-0.040405203
71	0xbd0e0e01	-0.034681324
72	0x3dc6ed34	0.09713212
73	0xbdd3f57e	-0.10349558
74	0x3dba5812	0.09098829
75	0xbdc6fcc1	-0.09716178
76	0xbd1e5b88	-0.03866151
77	0xbd8ab7a2	-0.067733064
78	0xbdbe0435	-0.09278146
79	0x3dce160a	0.10062797
80	0x3cc7cd9b	0.024390033
81	0x3d23c181	0.03997946
82	0x3d28adf7	0.04118153
83	0xbc9f5cbb	-0.019453397
84	0xbd6e20e2	-0.05813683
85	0x3c0da747	0.008645839
86	0x3dd3b383	0.103369735
87	0x3d840361	0.06445957
88	0x3d0eecad	0.03489368
89	0xbd78f28a	-0.06077818
90	0x3d63b5fc	0.055593476
91	0x3dd1ea46	0.10249762
92	0xbdae4826	-0.08509855
93	0x3da2e084	0.07952979
94	0x3bb4fb11	0.0055230935
95	0x3d7cc306	0.061709426
96	0xbd3baec0	-0.04582095
97	0x3d27f42a	0.041004337
98	0xbd342061	-0.04397619
99	0xbd5a9d6f	-0.053372797
100	0xbd9fc9b4	-0.07802144
101	0x3d8fc798	0.07020491
102	0xbd7e1a57	-0.06203684
103	0xbd33c2cd	-0.04388695
104	0x3da8a14f	0.08233892
105	0xbccedc22	-0.025251452
106	0x3b7a7212	0.0038214964
107	0x3cbecb9d	0.02329045
108	0xbd37f9e3	-0.044916045
109	0x3c68ae6f	0.014201744
110	0xbd5e396a	-0.054253973
111	0xbd5b60fd	-0.053559292
112	0xbd87f30d	-0.06638155
113	0x3c35125b	0.01105174
114	0x3de3d460	0.11124492
115	0xbd80453e	-0.06263207
116	0xbcb8c665	-0.02255554
117	0xbdc167f8	-0.094436586
118	0x3ddcd2c5	0.107823886
119	0xbd92c365	-0.07166175
120	0x3d707091	0.0587011
121	0xbd1c8543	-0.038213026
122	0xbd7a9e26	-0.06118598
123	0x3dd9b911	0.10631002
124	0xbcdb9259	-0.026803182
125	0xbc92f0aa	-0.017937023
126	0xbd13c4dd	-0.036076415
127	0x3d66f77a	0.056388356

fc4.weight f4 [128, 128]
0	0x3dbaac93	0.09114947
1	0xbd1f8d22	-0.038952954
2	0x3d417bb3	0.04723711
3	0xbc1a8887	-0.009431965
4	0xbd3d52b5	-0.046221454
5	0x3ce4e3db	0.027940681
6	0x3d05237f	0.032504555
7	0x3dba50d3	0.09097447
8	0x3d1976a2	0.037466653
9	0xbca4fb2c	-0.0201393
10	0xbcbfb8cd	-0.02340355
11	0x3d3285da	0.043584682
12	0x3c13aa31	0.009012745
13	0x3c8acc25	0.016943047
14	0x3db1f1d1	0.08688701
15	0xbd8cea8f	-0.06880676
16	0x3ccf3ca1	0.025297465
17	0x3d47c4ee	0.04877179
18	0xbcb508eb	-0.022098979
19	0xbc0097da	-0.007848704
20	0x3d848ac1	0.06471778
21	0xbd8e13fa	-0.06937404
22	0xbd4d8429	-0.050174866
23	0x3cbbfb82	0.022947077
24	0xbd4be899	-0.04978237
25	0x3d001d9d	0.03127824
26	0x3dbc1ba9	0.09184963
27	0x3bcd5b2f	0.0062669734
28	0x3b0b484d	0.0021252811
29	0x3d603300	0.054736137
30	0x3d1f4f20	0.03889382
31	0x3d5bdd3e	0.05367779
32	0x3dc5b75c	0.09654114
33	0x3d4787c4	0.04871346
34	0xbcaabd9c	-0.020842366
35	0x3d10d5fb	0.035360318
36	0xbd96216a	-0.07330592
37	0x3cd0c1e6	0.025483083
38	0xbda0400f	-0.07824718
39	0x3da17e24	0.078853875
40	0x3d5ca420	0.05386746
41	0x3c220455	0.009888728
42	0x3bba3e72	0.0056837136
43	0x3d8fa264	0.070133954
44	0x3cb4bd00	0.022062778
45	0xbd9e6490	-0.077340245
46	0xbb35013d	-0.0027619146
47	0x3cec2a17	0.028828664
48	0xbd5ab1b8	-0.053392142
49	0x3cb10cf4	0.021612622
50	0xbd48f2a0	-0.04905951
51	0x3ca96106	0.020676147
52	0xbc8efbf2	-0.017454121
53	0xbb54781d	-0.0032420226
54	0xbb04766a	-0.0020212182
55	0xbcfd0cf4	-0.030889966
56	0x3d9d5dc0	0.07683897
57	0x3d9aaabd	0.07552097
58	0xbdb0f5eb	-0.08640655
59	0x3da586dc	0.08082363
60	0x3d57085a	0.0524982
61	0x3da8cdf7	0.0824241
62	0x3c1e31b7	0.009655408
63	0xbd99b89e	-0.07505916
64	0x3ce8e28f	0.028428344
65	0x3daaca05	0.083393134
66	0x3d1aab30	0.037760913
67	0xbdb3805a	-0.087647155
68	0x3d7e6a5c	0.06211315
69	0xbd7c8abe	-0.061655752
70	0x3d4bdb3e	0.049769633
71	0x3d569aba	0.052393652
72	0xbc680036	-0.014160207
73	0xbd781843	-0.060570013
74	0xbd702ac5	-0.05863454
75	0x3d93fbc1	0.072257526
76	0xbd030442	-0.031986482
77	0xbd9b881f	-0.075943224
78	0xbc824dd5	-0.015906254
79	0x3b8774be	0.00413379
80	0x3db9c291	0.09070314
81	0x3ca1f49f	0.019769965
82	0x3da167b8	0.07881111
83	0x3c8ef320	0.017449915
84	0x3e1ae552	0.15126541
85	0xbc671929	-0.01410512
86	0x3dc76da2	0.09737708
87	0xbd23c434	-0.039982036
88	0x3daebc70	0.08532035
89	0x3d4a1f5b	0.04934631
90	0xbc1bb5ae	-0.009503765
91	0x3bb98724	0.005661862
92	0xbcccdb20	-0.02500683
93	0x3cb0ee8b	0.021598121
94	0xbcd85652	-0.026408348
95	0x3c7137d5	0.014722784
96	0xbd3e0c2d	-0.04639833
97	0xbd2763b5	-0.040866572
98	0x3d04b897	0.0324026
99	0xba3da9c1	-0.0007235073
100	0xbd90e9f5	-0.07075874
101	0x3da5bb58	0.080923736
102	0x3d8dd2f9	0.069250055
103	0xbda9bb27	-0.082876496
104	0x3d98a9d5	0.07454268
105	0x3d5820f5	0.052765805
106	0x3cec9294	0.028878488
107	0xbd318f4e	-0.043349557
108	0x3cc7e814	0.024402656
109	0xbdb43013	-0.08798232
110	0xbd6e9b44	-0.05825354
111	0x3da35f97	0.07977217
112	0x3da750aa	0.08169682
113	0x3c29597b	0.010336275
114	0xbcef8aaf	-0.029240934
115	0xbc95d78c	-0.018291257
116	0x3d3793cc	0.044818684
117	0x3c2838b0	0.010267422
118	0x3c2eb81d	0.010664013
119	0xbe816bd6	-0.25277585
120	0xbb680b40	-0.0035407096
121	0x3da60518	0.0810644
122	0xbcc6e260	-0.024277866
123	0x3da0e748	0.078566134
124	0xbd83932e	-0.06424557
125	0x3d889164	0.06668356
126	0xbd860f13	-0.06545844
127	0x3b65a828	0.0035042856
128	0x3bcd0950	0.0062572137
129	0xbb90974e	-0.004412568
130	0x3d8abd8b	0.06774434
131	0xbd58652a	-0.052830853
132	0x3cd0cf72	0.025489543
133	0x3db9e112	0.09076132
134	0x3db611f9	0.08890147
135	0x3db09c63	0.086235784
136	0xbd34afeb	-0.04411308
137	0x3d90dd2f	0.070734374
138	0x3bf35b58	0.0074266605
139	0xbd304c3e	-0.04304146
140	0xbcf7bdc7	-0.03024186
141	0x3da8bc6f	0.08239066
142	0x3ce026c1	0.02736223
143	0xbcee0aeb	-0.02905794
144	0xbba37842	-0.004988701
145	0x3dc14a9c	0.09438059
146	0x3d795f6a	0.06088201
147	0x3cee7a60	0.029111087
148	0xbdb246eb	-0.08704933
149	0x3de1ff86	0.11035065
150	0x3ac32df8	0.0014891019
151	0xbd819c96	-0.063286945
152	0x3d147e67	0.03625336
153	0xbc6fdfca	-0.014640758
154	0x3dbbb862	0.091660276
155	0xbd679fd8	-0.056548923
156	0xbd1b3a52	-0.037897415
157	0x3d98bb2a	0.07457574
158	0xbc9e8da7	-0.019354654
159	0xbd0c35ac	-0.034230873
160	0xbd10a7a7	-0.035316136
161	0xbce103fa	-0.027467716
162	0xbd95d356	-0.073157
163	0x3da5e8b9	0.08101029
164	0xbc8d463e	-0.017245408
165	0x3db119d6	0.08647506
166	0x3c8f3481	0.01748109
167	0x3deed7ac	0.1166223
168	0x3d8f0785	0.06983856
169	0xbb8f9919	-0.0043822643
170	0xbd731cba	-0.059353568
171	0x3db8632f	0.09003293
172	0x3d637db1	0.05553979
173	0x3d98de34	0.07464257
174	0x3db4cabd	0.08827732
175	0x3d1ef594	0.03880842
176	0xbd465435	-0.04842015
177	0xbd020784	-0.03174545
178	0xbcdc2eb4	-0.026877739
179	0x3c636f15	0.0138814645
180	0x3cb2979e	0.021800812
181	0x3d5c78de	0.053826205
182	0x3d0ae2ab	0.033907574
183	0x3d0763cb	0.033054154
184	0xbc30bf93	-0.010787862
185	0xbc232ccf	-0.009959414
186	0xbcc068ed	-0.023487533
187	0x3d24c453	0.040226292
188	0xbd0ccd53	-0.0343755
189	0x3d3a3dbd	0.045469034
190	0x3da6b9fa	0.08140941
191	0x3cc2e994	0.02379302
192	0x3c4dcd6a	0.012561182
193	0x3d880665	0.06641845
194	0xbc8fb119	-0.017540501
195	0x3d2630a0	0.040573716
196	0x3d17b40f	0.03703695
197	0x3dcef9ed	0.10106263
198	0x3d8965af	0.06708848
199	0x3b05b8a1	0.0020404237
200	0x3d152ef3	0.036421727
201	0x3ce93556	0.028467815
202	0x3c97fa4e	0.018551972
203	0x3d9ed661	0.07755733
204	0xbd9a6fd1	-0.075408585
205	0xba97368f	-0.0011536645
206	0x3dc2bdfc	0.09508893
207	0x3d95e6a5	0.073193826
208	0x3d271925	0.040795464
209	0x3db463dc	0.08808109
210	0x3ce34570	0.027743071
211	0xbd777275	-0.06041189
212	0xbdb112ec	-0.08646187
213	0xbcdca38c	-0.026933454
214	0x3cda5e95	0.026656428
215	0xbd67aa98	-0.056559175
216	0x3c4b0f8c	0.012393843
217	0xbc5a2a85	-0.0133158015
218	0x39b8affd	0.00035226336
219	0xbd22cb16	-0.03974446
220	0xbd6b5df3	-0.057462644
221	0xbd040298	-0.032229036
222	0xbcb8d3d9	-0.022561954
223	0x3cdddc25	0.027082512
224	0x3d8183fd	0.06324003
225	0xbd08a0a6	-0.03335633
226	0xbd53a0b0	-0.051666915
227	0xbda0b6c7	-0.07847362
228	0xbd35e134	-0.044404224
229	0x3de1ca25	0.11024884
230	0xbd983490	-0.074319005
231	0xbc256e66	-0.010097122
232	0x3dcaf06e	0.099091396
233	0xbd8250c2	-0.063630596
234	0x3ca26c4b	0.019827029
235	0x3d1d8548	0.038457185
236	0xbc5ef1dc	-0.013607468
237	0x3b537ee8	0.0032271687
238	0x3db7dac1	0.08977271
239	0xbd64663c	-0.05576156
240	0x3cbcfd49	0.023069995
241	0xbcc2f7f7	-0.02379988
242	0x3ba36034	0.0049858335
243	0xbd238204	-0.039918914
244	0xbd91c981	-0.07118512
245	0xbd194b57	-0.037425365
246	0xb91ad24e	-0.00014764929
247	0x3d1450d3	0.036209892
248	0x3ddedbfd	0.10881803
249	0xbd04930e	-0.032366805
250	0xbd5c7b37	-0.053828444
251	0xbcb1afc4	-0.021690257
252	0xbd92276f	-0.071364276
253	0x3c06b829	0.008222618
254	0x3d4147ee	0.047187738
255	0x3cb7f2f5	0.022454718
